images/models/other_models/MLP/best_models.pth.tar (torch, 394723 bytes, 8 tensors)

0.weight f4 [739]
0	0x3f80df1f	1.0068091
1	0x3f80900f	1.0043963
2	0x3f80d8c1	1.0066148
3	0x3f80fb89	1.0076762
4	0x3f8298f0	1.0202923
5	0x3f8095d9	1.004573
6	0x3f826a18	1.0188627
7	0x3f801c10	1.0008564
8	0x3f80ed70	1.007246
9	0x3f804f1d	1.0024143
10	0x3f809c65	1.0047728
11	0x3f811ca1	1.0086862
12	0x3f830a6b	1.0237554
13	0x3f81bf34	1.0136476
14	0x3f8093c3	1.0045093
15	0x3f805764	1.002667
16	0x3f806a59	1.0032455
17	0x3f802a6e	1.0012949
18	0x3f8002fa	1.0000908
19	0x3f801261	1.0005609
20	0x3f804a6d	1.0022713
21	0x3f801ca8	1.0008745
22	0x3f7fea4c	0.99966884
23	0x3f8050f3	1.0024704
24	0x3f809129	1.0044299
25	0x3f807d5c	1.0038257
26	0x3f80390a	1.0017407
27	0x3f80258d	1.001146
28	0x3f800e58	1.0004377
29	0x3f826cdd	1.0189472
30	0x3f803a3d	1.0017773
31	0x3f810295	1.0078913
32	0x3f7ffcb8	0.99994993
33	0x3f807402	1.0035403
34	0x3f8028a7	1.0012406
35	0x3f805c47	1.0028161
36	0x3f806ba2	1.0032847
37	0x3f7fff4c	0.9999893
38	0x3f80264e	1.001169
39	0x3f7fe507	0.99958843
40	0x3f7ff7fa	0.9998776
41	0x3f803c73	1.0018448
42	0x3f802620	1.0011635
43	0x3f7fd720	0.9993763
44	0x3f800de9	1.0004245
45	0x3f800220	1.0000648
46	0x3f7fe6ac	0.9996135
47	0x3f804424	1.0020795
48	0x3f801122	1.0005229
49	0x3f802393	1.0010856
50	0x3f800db4	1.0004182
51	0x3f7ff7e6	0.9998764
52	0x3f7feaed	0.99967843
53	0x3f7fe971	0.9996558
54	0x3f802aa2	1.001301
55	0x3f802592	1.0011466
56	0x3f815e4c	1.0106902
57	0x3f81167e	1.0084989
58	0x3f8117f4	1.0085435
59	0x3f83aeb9	1.0287696
60	0x3f85564b	1.041696
61	0x3f83e81f	1.0305213
62	0x3f847382	1.034775
63	0x3f836c68	1.0267458
64	0x3f80a54b	1.0050443
65	0x3f812815	1.0090357
66	0x3f805b3c	1.0027843
67	0x3f8009ac	1.0002952
68	0x3f813ff3	1.0097641
69	0x3f7ff057	0.99976104
70	0x3f7fe6e8	0.9996171
71	0x3f802637	1.0011662
72	0x3f8027c6	1.0012138
73	0x3f801628	1.0006762
74	0x3f801707	1.0007027
75	0x3f8024dc	1.0011249
76	0x3f8007e6	1.000241
77	0x3f7fe8f6	0.99964845
78	0x3f803646	1.0016563
79	0x3f8001ae	1.0000513
80	0x3f8002a0	1.0000801
81	0x3f800368	1.000104
82	0x3f80052d	1.000158
83	0x3f800f80	1.000473
84	0x3f800d12	1.0003989
85	0x3f80234d	1.0010773
86	0x3f800b93	1.0003532
87	0x3f80073b	1.0002207
88	0x3f8023ac	1.0010886
89	0x3f800ca1	1.0003854
90	0x3f806769	1.0031558
91	0x3f804a48	1.0022669
92	0x3f7ff062	0.9997617
93	0x3f801aa0	1.0008125
94	0x3f8005c1	1.0001756
95	0x3f8013c7	1.0006036
96	0x3f8006a3	1.0002025
97	0x3f800e16	1.0004299
98	0x3f8027fc	1.0012202
99	0x3f7ff3c4	0.9998133
100	0x3f804610	1.0021381
101	0x3f80133f	1.0005873
102	0x3f7fec59	0.9997001
103	0x3f800135	1.0000368
104	0x3f805029	1.0024463
105	0x3f804410	1.0020771
106	0x3f80a4a1	1.0050241
107	0x3f80621d	1.0029942
108	0x3f807f2d	1.0038811
109	0x3f812281	1.0088655
110	0x3f822f48	1.0170679
111	0x3f800780	1.0002289
112	0x3f80e554	1.0069985
113	0x3f80c2be	1.0059431
114	0x3f8098d9	1.0046645
115	0x3f800936	1.0002811
116	0x3f7fefb4	0.9997513
117	0x3f80591a	1.0027192
118	0x3f7ff26e	0.99979293
119	0x3f8085c3	1.0040821
120	0x3f8019de	1.0007894
121	0x3f803046	1.0014732
122	0x3f7ff2a4	0.99979615
123	0x3f800e98	1.0004454
124	0x3f80052d	1.000158
125	0x3f800f50	1.0004673
126	0x3f8053b3	1.0025543
127	0x3f8026e5	1.001187
128	0x3f801b5d	1.0008351
129	0x3f802d35	1.0013796
130	0x3f7fff0f	0.99998564
131	0x3f803645	1.0016562
132	0x3f8008b1	1.0002652
133	0x3f801e34	1.0009217
134	0x3f801567	1.0006531
135	0x3f804705	1.0021673
136	0x3f802628	1.0011644
137	0x3f800d6b	1.0004095
138	0x3f803597	1.0016354
139	0x3f806095	1.0029474
140	0x3f7ff007	0.9997563
141	0x3f7fcdd5	0.9992345
142	0x3f804554	1.0021157
143	0x3f7fdb59	0.9994407
144	0x3f8004f1	1.0001508
145	0x3f7fd702	0.9993745
146	0x3f802771	1.0012037
147	0x3f8015e9	1.0006686
148	0x3f8008ca	1.0002682
149	0x3f7ff695	0.9998563
150	0x3f7fef96	0.99974954
151	0x3f80165a	1.0006821
152	0x3f7ff594	0.999841
153	0x3f80205d	1.0009876
154	0x3f7ff095	0.99976474
155	0x3f7ff787	0.9998707
156	0x3f80017e	1.0000455
157	0x3f80199e	1.0007818
158	0x3f8011c9	1.0005428
159	0x3f80118b	1.0005354
160	0x3f8002b2	1.0000823
161	0x3f8001ed	1.0000588
162	0x3f803270	1.0015392
163	0x3f7fecf1	0.9997092
164	0x3f80058d	1.0001694
165	0x3f80516c	1.0024848
166	0x3f800175	1.0000445
167	0x3f7ff70b	0.9998633
168	0x3f801bfc	1.000854
169	0x3f80219e	1.0010259
170	0x3f8009a3	1.0002941
171	0x3f8014b3	1.0006317
172	0x3f800b9b	1.0003542
173	0x3f7fefcf	0.99975294
174	0x3f801cfd	1.0008847
175	0x3f800611	1.0001851
176	0x3f80073a	1.0002205
177	0x3f80077b	1.0002283
178	0x3f800dbf	1.0004195
179	0x3f80046a	1.0001347
180	0x3f7fe564	0.999594
181	0x3f807408	1.003541
182	0x3f7fedc4	0.99972177
183	0x3f80012a	1.0000355
184	0x3f8003b5	1.0001131
185	0x3f80af42	1.0053484
186	0x3f801aa1	1.0008126
187	0x3f807162	1.0034602
188	0x3f80bc7f	1.0057524
189	0x3f802c61	1.0013543
190	0x3f800006	1.0000007
191	0x3f802cef	1.0013713
192	0x3f8011da	1.0005448
193	0x3f800a72	1.0003188
194	0x3f802de7	1.0014008
195	0x3f8049a9	1.0022479
196	0x3f80010b	1.0000318
197	0x3f802644	1.0011678
198	0x3f7fe642	0.9996072
199	0x3f8012b5	1.0005709
200	0x3f8019a7	1.0007828
201	0x3f801198	1.0005369
202	0x3f7ffd1a	0.9999558
203	0x3f800f2d	1.0004631
204	0x3f80925b	1.0044664
205	0x3f80269f	1.0011786
206	0x3f800eec	1.0004554
207	0x3f805a79	1.002761
208	0x3f802e2b	1.0014089
209	0x3f7ff997	0.9999022
210	0x3f805dc4	1.0028615
211	0x3f7fe358	0.99956274
212	0x3f7fbd41	0.99898154
213	0x3f802049	1.0009853
214	0x3f8015a5	1.0006605
215	0x3f8018aa	1.0007527
216	0x3f834f16	1.025851
217	0x3f811fa6	1.0087783
218	0x3f816b90	1.011095
219	0x3f84309f	1.0327338
220	0x3f82f025	1.0229536
221	0x3f86f9ee	1.0545022
222	0x3f811422	1.0084269
223	0x3f805d3e	1.0028455
224	0x3f80e7b3	1.0070709
225	0x3f7fd62a	0.99936163
226	0x3f829001	1.0200197
227	0x3f7fff59	0.99999005
228	0x3f8000ee	1.0000284
229	0x3f7fff20	0.99998665
230	0x3f800013	1.0000023
231	0x3f800000	1.0
232	0x3f7ffff6	0.9999994
233	0x3f7ff9a1	0.9999028
234	0x3f800128	1.0000353
235	0x3f7fff18	0.9999862
236	0x3f80005b	1.0000108
237	0x3f7ffeef	0.9999837
238	0x3f7fffb8	0.9999957
239	0x3f7fffff	0.99999994
240	0x3f7fff26	0.999987
241	0x3f7fff55	0.9999898
242	0x3f7fffa4	0.9999945
243	0x3f7ffd81	0.9999619
244	0x3f7fff86	0.9999927
245	0x3f80002c	1.0000052
246	0x3f80010c	1.000032
247	0x3f7fff0a	0.99998534
248	0x3f8002e3	1.0000881
249	0x3f8000dc	1.0000262
250	0x3f800045	1.0000082
251	0x3f800096	1.0000179
252	0x3f7fffce	0.999997
253	0x3f80000b	1.0000013
254	0x3f7ffe49	0.99997383
255	0x3f80004e	1.0000093

0.bias f4 [739]
0	0xbb1a926a	-0.0023585805
1	0xbc636e38	-0.013881259
2	0x3b65db85	0.003507347
3	0xbc3c2469	-0.01148329
4	0x3bc46a78	0.0059941374
5	0x3c578101	0.0131533155
6	0xba25068a	-0.0006295225
7	0x3b523a0d	0.0032078058
8	0x3b4811dd	0.0030528225
9	0xbc119501	-0.008885623
10	0xbc007671	-0.007840739
11	0x3b27a172	0.0025578407
12	0x3c821335	0.0158783
13	0xbcb803fd	-0.02246284
14	0xbc84c0a8	-0.016205147
15	0xbbbe321a	-0.0058043124
16	0xbb3ccde7	-0.002880925
17	0x3a15cb31	0.0005714177
18	0xbc1fbafb	-0.009749169
19	0xbba0c8ad	-0.004906735
20	0xbb8a639d	-0.0042233006
21	0x3b1f591c	0.0024314588
22	0x3c5443d2	0.012955623
23	0x3ba7ebed	0.00512456
24	0x3bca3917	0.0061713564
25	0xbc180697	-0.009278915
26	0xba1ea4a1	-0.00060517533
27	0x3c12a8f0	0.008951411
28	0x3ca286c2	0.019839648
29	0x3bc69b96	0.0060610278
30	0x3c4298b5	0.0118772285
31	0x3c03105a	0.007999504
32	0xba8bc259	-0.0010662779
33	0x3c319374	0.010838378
34	0xbbc707a4	-0.006073909
35	0xbb8ed4fe	-0.0043588867
36	0x3bc03d64	0.0058666933
37	0x3c5d5fcb	0.013511608
38	0xbc2130d7	-0.0098383045
39	0x3b9c7479	0.004774627
40	0xbba91581	-0.005160034
41	0xbcce9dd1	-0.025221737
42	0x3a604f09	0.0008556699
43	0x3c1928f9	0.009348148
44	0x3b9d4905	0.0047999644
45	0x3c1197e9	0.008886316
46	0xbc87a86c	-0.016559802
47	0xbbb0817e	-0.0053865304
48	0x3c01d5cb	0.007924507
49	0x3c4d551d	0.0125325
50	0x3c09697f	0.008386969
51	0xbb37c83f	-0.002804294
52	0x3b4ba56d	0.0031073943
53	0x3b810ddf	0.003938421
54	0xbc2ee0dc	-0.010673728
55	0x3c4600c7	0.012085146
56	0xbcb602fd	-0.022218222
57	0x3bb04556	0.0053793592
58	0x3b2dbfc6	0.002651201
59	0xbcb647b8	-0.022250995
60	0xbba19ea5	-0.004932242
61	0xba100a38	-0.0005494687
62	0x390bddc0	0.00013338681
63	0xbc972467	-0.018449975
64	0x39cfe685	0.00039653867
65	0xbc6126d5	-0.013742168
66	0xbc7eeed6	-0.015559873
67	0xbc890e44	-0.016730435
68	0xbb7f4cb3	-0.0038955628
69	0xbb253e48	-0.0025214124
70	0xbad4893e	-0.0016215218
71	0xbb06a580	-0.0020545423
72	0xbc0822ea	-0.008309105
73	0x3c7d4703	0.015458825
74	0xbc3099ee	-0.010778887
75	0x3c41063a	0.01178127
76	0xbc0eaaa1	-0.008707673
77	0xbcc6bff5	-0.024261454
78	0xbb9e0bd0	-0.0048231855
79	0x3bf0047e	0.0073247543
80	0x3c514a47	0.012774057
81	0xbc315393	-0.010823148
82	0x3bb7142e	0.0055871224
83	0x3b5d245c	0.0033743596
84	0x3c512c6b	0.012766938
85	0x3bb32115	0.00546659
86	0xbbc6f19a	-0.0060712816
87	0x3c00b407	0.007855422
88	0xbb6ffd71	-0.0036619569
89	0xbc1fa0ed	-0.009742958
90	0x3b9b9727	0.0047482434
91	0x3abef741	0.0014569537
92	0xbc2b1efe	-0.010444401
93	0xbc1bc581	-0.009507538
94	0x3780b47d	1.5342835e-05
95	0xbcafcaba	-0.021458972
96	0x3cf8375b	0.030299833
97	0xbc952be7	-0.01820941
98	0xbb49c66b	-0.0030788432
99	0xba9652e3	-0.0011468794
100	0x3c19c742	0.009385886
101	0xbc5c55eb	-0.013448219
102	0xbc2e295b	-0.010629977
103	0x3b5ddf19	0.00338549
104	0xbbe361c3	-0.0069391443
105	0x3ad4678c	0.0016205176
106	0x3ae292d3	0.0017286189
107	0x3a3819ec	0.00070229056
108	0x3ae6ad12	0.0017599186
109	0xbc92cdac	-0.017920338
110	0xbc8aacad	-0.016928041
111	0x3b8f87f0	0.0043802187
112	0x3a910d9d	0.0011066679
113	0x3c092c00	0.008372307
114	0xbc52e86a	-0.012872795
115	0x3a9c4c54	0.0011924603
116	0xbb9a399c	-0.0047065746
117	0x3b81b50a	0.003958349
118	0x3b81f2e3	0.003965722
119	0xbc2a9a9b	-0.010412837
120	0xbc347f05	-0.011016612
121	0xbb68cedc	-0.0035523688
122	0xbc1da2fa	-0.009621376
123	0xb8260268	-3.9579725e-05
124	0x3b969125	0.0045949393
125	0x3af8ae9d	0.0018972937
126	0xbd061fc5	-0.03274514
127	0xba9fe08f	-0.0012197661
128	0xbc52a3fb	-0.012856479
129	0xbc3c0815	-0.011476536
130	0xbc50186c	-0.012701135
131	0xbc87d9d8	-0.016583368
132	0x3b2dba99	0.0026508926
133	0xbc370ce7	-0.01117251
134	0x3bba6dfc	0.0056893807
135	0x3c0f8906	0.008760696
136	0xbc840f98	-0.016120717
137	0x3c010f1f	0.00787714
138	0x3c305001	0.010761262
139	0xbb89d127	-0.004205841
140	0xba668d7c	-0.00087948865
141	0x3b86ceb9	0.0041139987
142	0xbc29cdcc	-0.010364007
143	0x3cc28e9d	0.023749644
144	0xbb85c8d9	-0.004082781
145	0xbc4d03a5	-0.012513076
146	0x3ba27bfd	0.004958628
147	0x3bb1ed2e	0.0054298854
148	0x3aec0b9f	0.0018008834
149	0xbba1e222	-0.004940287
150	0x3c368e4e	0.0111423265
151	0x3bfe5500	0.0077615976
152	0xbd14a89f	-0.036293622
153	0x3c67e41d	0.014153508
154	0xbb4b452b	-0.003101657
155	0xbafa2aa9	-0.00190862
156	0x3987fda8	0.00025938195
157	0x3a953244	0.0011382778
158	0x3c311425	0.0108080255
159	0x3c30ac57	0.0107832765
160	0xbc0a763f	-0.008451044
161	0x3ad45bb5	0.0016201647
162	0xbc3c59dc	-0.0114960335
163	0x3c6c48d5	0.014421661
164	0x3bb7dc81	0.005611003
165	0xbbb1bfc0	-0.0054244697
166	0xbbc67118	-0.0060559623
167	0x3ba619b4	0.005068982
168	0x3c69b8b5	0.014265229
169	0x3b55926e	0.00325885
170	0xbc56a218	-0.01310017
171	0x3c785363	0.0151566
172	0x3c424ae4	0.011858676
173	0x3c5d22c6	0.01349706
174	0x3ca5e4d5	0.020250717
175	0x3b580ae1	0.0032965469
176	0xb9c07c72	-0.00036713813
177	0xbc3525ce	-0.011056377
178	0xba1594af	-0.00057060545
179	0x3923a14a	0.00015604976
180	0xbbdfe7d3	-0.0068330555
181	0x3c54c3e7	0.01298616
182	0x3b4df356	0.0031425557
183	0x3bdcf684	0.006743254
184	0x3afbf7c6	0.0019223623
185	0xbc32eef0	-0.010921225
186	0xbaf3d543	-0.0018602986
187	0x3c1fa58a	0.009744057
188	0xbbb056e1	-0.0053814505
189	0x3c47c6cf	0.012193396
190	0x3c3bdfb3	0.011466908
191	0x3b33551e	0.0027363966
192	0xbbb5b805	-0.0055456185
193	0x3ca23f64	0.019805618
194	0x3b3a917c	0.0028468063
195	0x3c6e629f	0.01454988
196	0xbc0f29b5	-0.008737971
197	0xbbd4bacd	-0.006491995
198	0x3b4ce6ff	0.0031265614
199	0xbbc919b2	-0.0061370963
200	0x3bc76288	0.006084744
201	0x3a1ddcb4	0.0006021962
202	0xbc4a429b	-0.012344982
203	0xbabc47d3	-0.0014364667
204	0x3bf2b1f3	0.007406467
205	0x3c317d6d	0.0108331265
206	0xbc5552e9	-0.013020256
207	0xbc2c2883	-0.010507706
208	0x3bff03b5	0.0077824243
209	0xbbb3eb1b	-0.0054906732
210	0x3aa93d48	0.001291194
211	0xbc869395	-0.016427794
212	0x38f7efe1	0.00011822559
213	0xbb8cef8c	-0.004301017
214	0x3bec6d56	0.0072151823
215	0xbc649886	-0.01395238
216	0xbb5b13ba	-0.0033428506
217	0xbaa630ce	-0.001267934
218	0xbb61322b	-0.0034362178
219	0x3bc30a9b	0.005952192
220	0xbc39fbb9	-0.011351519
221	0xbb80cfe7	-0.003931034
222	0xbb1ed042	-0.0024233018
223	0x3ca10b0b	0.019658586
224	0xbc0e289b	-0.008676673
225	0x3b925add	0.004466398
226	0x3b3f7e31	0.0029219503
227	0xbacab36e	-0.0015464851
228	0x3b6c4466	0.003605151
229	0xbb997558	-0.004683178
230	0x3adcc981	0.0016844721
231	0xbb6d731f	-0.0036231948
232	0xbc93e427	-0.018053127
233	0x3bf1b17a	0.007375893
234	0x3be96ff4	0.0071239416
235	0xbc15f108	-0.009151705
236	0x3cbd16dc	0.02308219
237	0xbc1b4189	-0.009476074
238	0xbbd61b45	-0.0065340125
239	0x3aff3617	0.0019471076
240	0x3b871cdf	0.0041233147
241	0xb78c2f97	-1.6711461e-05
242	0xbc075faf	-0.008262559
243	0x3b62d76e	0.003461327
244	0x3aca226e	0.0015421638
245	0xbb906293	-0.004406282
246	0xba5fb3e9	-0.00085335836
247	0xba2723aa	-0.0006375859
248	0x3a4d0a39	0.00078216527
249	0x3bd93326	0.006628412
250	0xbbac5d90	-0.005260177
251	0xbacdea41	-0.0015710072
252	0x3c9fe028	0.019516066
253	0xbc5545db	-0.013017143
254	0xbc60a217	-0.01371052
255	0xbca7e150	-0.02049318

0.running_mean f4 [739]
0	0xbb65205a	-0.003496191
1	0xbb1ef137	-0.0024252662
2	0xbaf231b5	-0.0018477949
3	0xbbb2485b	-0.0054407544
4	0xbbb12297	-0.0054057348
5	0xbbd8c22f	-0.0066149454
6	0xbb8ffcc5	-0.004394146
7	0xbad52658	-0.0016262038
8	0x3ab34604	0.0013677482
9	0x3a840a12	0.0010073802
10	0xb949bc72	-0.00019239055
11	0xbb0b3646	-0.0021242066
12	0xbb5a443c	-0.003330483
13	0xbb8c2b9b	-0.004277659
14	0xbb55fa08	-0.003265025
15	0xbb2219c6	-0.00247346
16	0xbad93022	-0.0016570131
17	0xba52cd82	-0.00080414873
18	0x39144481	0.000141399
19	0xb8b38e59	-8.5618994e-05
20	0x3a6e1329	0.00090818346
21	0x3a45248a	0.00075203984
22	0x3a86f5e9	0.0010296676
23	0x3af955ca	0.001902276
24	0x3af81751	0.0018927847
25	0x3b2a90ff	0.0026026366
26	0x3b0814b6	0.0020764298
27	0x3b145f8e	0.0022639963
28	0x3b120bc7	0.0022284852
29	0x3b167f71	0.0022964145
30	0x3b16e962	0.002302729
31	0x3b0456fb	0.0020193446
32	0x3b043758	0.002017459
33	0x3ad7ea31	0.0016472993
34	0x3af5d0f4	0.001875429
35	0x3acf39bc	0.0015810053
36	0x3a81e79b	0.0009910943
37	0x3a53758d	0.00080665277
38	0x3a05c47d	0.00051028264
39	0x39df7b72	0.00042625848
40	0x396eb1b9	0.00022763656
41	0xb956d54f	-0.00020488094
42	0xb948cdf7	-0.00019150214
43	0xb954db79	-0.00020299655
44	0xba447d6c	-0.0007495496
45	0xba0b7f69	-0.0005321415
46	0xba906208	-0.0011015544
47	0xba9535b6	-0.0011383805
48	0xba842d61	-0.0010084325
49	0xbadbabb5	-0.0016759547
50	0xbac1ea27	-0.0014794514
51	0xbac65bab	-0.001513352
52	0xbad81a40	-0.0016487315
53	0xbae2ee08	-0.001731337
54	0xbb21009a	-0.002456701
55	0xbb24efd2	-0.0025167358
56	0xbb6b8c8e	-0.0035941931
57	0xbb969bfb	-0.004596231
58	0xbbcd1dc7	-0.0062596533
59	0xbbffbb24	-0.0078042913
60	0xbc167f93	-0.0091856895
61	0xbc190026	-0.009338414
62	0xbc103657	-0.008802018
63	0xbc2492aa	-0.010044733
64	0xbbb14be2	-0.0054106573
65	0xbb8148ea	-0.0039454596
66	0xbb3d0b71	-0.002884593
67	0xbaf22188	-0.0018473128
68	0xbacb54e1	-0.0015512967
69	0xbab14600	-0.001352489
70	0xbaaa3174	-0.0012984709
71	0xba92ff3e	-0.0011214984
72	0xbacc00a4	-0.0015564156
73	0xba79c862	-0.00095284556
74	0xba3b1388	-0.0007136394
75	0xba06b5ec	-0.0005138803
76	0xba0ba90d	-0.000532762
77	0xb9131cee	-0.0001402979
78	0x399edd34	0.00030300918
79	0x39e9e53e	0.00044612022
80	0x3a1fff48	0.00061034085
81	0x3a816b85	0.0009873962
82	0x3aabe269	0.001311374
83	0x3a868f39	0.0010266072
84	0x3a7878c4	0.00094784447
85	0x3a6b06a1	0.00089655264
86	0x3a6dc8ef	0.0009070774
87	0x3a86a211	0.0010271688
88	0x3a5870eb	0.0008256572
89	0x3a2cda87	0.00065938424
90	0x3a1e0b06	0.00060288643
91	0x3a0fe38c	0.0005488924
92	0x39e08ce6	0.00042829587
93	0x39df3abc	0.00042577635
94	0x38315236	4.2276653e-05
95	0xb8c6f934	-9.4877934e-05
96	0x37ef9e81	2.856483e-05
97	0xba09d890	-0.00052584056
98	0xba44ede3	-0.00075122545
99	0xba63835a	-0.00086789357
100	0xbaa735a1	-0.0012757072
101	0xbb153efe	-0.0022773142
102	0xbaf246e0	-0.0018484257
103	0xbb144f7a	-0.002263038
104	0xbb2fd459	-0.002682945
105	0xbb3e11a4	-0.0029002214
106	0xbb5efe04	-0.0034025917
107	0xbb767ccb	-0.0037611003
108	0xbb883650	-0.004156865
109	0xbb98fa6c	-0.0046685245
110	0xbbd7fd64	-0.006591486
111	0xbbb09325	-0.0053886347
112	0xbbb8f24a	-0.0056441175
113	0xbbb3c0ec	-0.0054856446
114	0xbbb6ce1d	-0.00557877
115	0xbbb1ef93	-0.005430171
116	0xbba6cfb6	-0.005090679
117	0xbb9cdc68	-0.0047870167
118	0xbb91636b	-0.0044369004
119	0xbb89ff06	-0.0042113094
120	0xbbb01298	-0.0053733103
121	0xbb852bf8	-0.0040640794
122	0xbb9789fb	-0.004624603
123	0xbba547b0	-0.005043946
124	0xbbc3e1be	-0.0059778383
125	0xbbf6e53c	-0.007534651
126	0xbc1532bf	-0.009106337
127	0xbc31b99a	-0.0108474735
128	0xbc4b2717	-0.012399456
129	0xbc93f9d7	-0.018063469
130	0xbc638746	-0.013887232
131	0xbc5ac185	-0.013351803
132	0xbc472cb0	-0.01215665
133	0xbc2c5ce3	-0.010520193
134	0xbc12037e	-0.008911965
135	0xbbf1d7ad	-0.007380447
136	0xbbc32ef6	-0.005956526
137	0xbb998f21	-0.0046862517
138	0xbb7d4ab7	-0.003864927
139	0xbb80c622	-0.0039298693
140	0xbb1d0a17	-0.0023962313
141	0xbae5a934	-0.001752174
142	0xbac2407e	-0.0014820246
143	0xba93ccee	-0.0011276284
144	0xba5d0698	-0.00084314635
145	0xba133bec	-0.0005616534
146	0xb9c42e14	-0.00037418364
147	0xb988a446	-0.00026062335
148	0xb910f740	-0.00013825018
149	0x385cde6a	5.2659227e-05
150	0x39382d28	0.0001756443
151	0x39c03c62	0.00036666082
152	0x3a477c2e	0.0007609752
153	0x3a66a3f2	0.00087982335
154	0x3aa01d50	0.0012215767
155	0x3aa9b1a4	0.0012946618
156	0x3acb65ef	0.001551805
157	0x3ad02196	0.001587915
158	0x3b1d1502	0.002396882
159	0x3afbca5a	0.0019210086
160	0x3b031d90	0.0020006634
161	0x3b08ba4c	0.0020862995
162	0x3b092319	0.002092546
163	0x3b0c1c1e	0.0021379064
164	0x3b0cbfa7	0.0021476538
165	0x3b14a036	0.00226785
166	0x3b131455	0.0022442539
167	0x3b436128	0.0029812548
168	0x3b12296e	0.0022302526
169	0x3b13b2b2	0.002253693
170	0x3b11e97b	0.002226441
171	0x3b0e05ff	0.0021671054
172	0x3b0984d1	0.0020983706
173	0x3b09bbc1	0.002101645
174	0x3b07993f	0.0020690707
175	0x3b00adfb	0.001963495
176	0x3b076892	0.0020661694
177	0x3b24f344	0.0025169412
178	0x3b048ebe	0.0020226683
179	0x3af6c7c4	0.0018827845
180	0x3aed6293	0.0018111042
181	0x3af90b04	0.0019000475
182	0x3ae9505f	0.0017800442
183	0x3ae4ea92	0.0017464927
184	0x3af12ff8	0.0018401137
185	0x3ae14117	0.0017185536
186	0x3b133330	0.002246093
187	0x3ad74c91	0.0016426017
188	0x3ad27ce8	0.0016058953
189	0x3adde9de	0.001693066
190	0x3acb2516	0.0015498723
191	0x3ad18c79	0.0015987299
192	0x3ad749a5	0.0016425146
193	0x3ad6400e	0.0016345994
194	0x3ac596f6	0.0015074897
195	0x3b045891	0.0020194391
196	0x3aa509bc	0.0012591402
197	0x3abb7e9f	0.0014304704
198	0x3abe2544	0.0014506956
199	0x3aa9492e	0.0012915486
200	0x3ac3d9e6	0.0014942258
201	0x3aa025e0	0.0012218319
202	0x3aa12aa2	0.0012296031
203	0x3aa6ed6c	0.0012735552
204	0x3a88cd6b	0.0010437196
205	0x3abdc769	0.0014478985
206	0x3a6a0def	0.0008928468
207	0x3a852bbb	0.0010160127
208	0x3a8c89a2	0.001072217
209	0x3aa21cd1	0.0012368207
210	0x3ac1d93c	0.0014789472
211	0x3b16d96e	0.0023017782
212	0x3b5bc589	0.0033534488
213	0x3ba73c87	0.005103651
214	0x3c384d81	0.011248947
215	0x3c4bb132	0.012432383
216	0x3c8d7e78	0.017272219
217	0x3cacc1c4	0.021088488
218	0x3cb8981a	0.022533465
219	0x3cbac5e7	0.022799445
220	0x3c8dcd22	0.017309729
221	0x3c2d728d	0.010586393
222	0x3b5897d8	0.003304949
223	0xb9f0463a	-0.0004582869
224	0xbb72cae3	-0.00370472
225	0xbbbbfb14	-0.005736718
226	0xbbcb4058	-0.0062027387
227	0x3afd1fac	0.0019311807
228	0x3afd904f	0.0019345375
229	0x3b0031c1	0.0019560906
230	0x3afe656f	0.0019408892
231	0x3afa40d2	0.0019092804
232	0x3afddecf	0.001936877
233	0x3b002c54	0.0019557672
234	0x3afed8cf	0.0019443276
235	0x3afff043	0.001952656
236	0x3affe1ad	0.0019522213
237	0x3b00de7b	0.0019663859
238	0x3afe3995	0.0019395823
239	0x3afa4c7e	0.0019096283
240	0x3afe1cf1	0.0019387287
241	0x3afb602e	0.0019178444
242	0x3b00c7d0	0.0019650348
243	0x3afd8951	0.0019343292
244	0x3b04e12a	0.002027581
245	0x3afe192c	0.0019386164
246	0x3b02cf6c	0.001996006
247	0x3b080db9	0.0020760132
248	0x3b04f60d	0.002028826
249	0x3affb20a	0.0019508016
250	0x3afd9c3d	0.0019348931
251	0x3afc8a5b	0.0019267307
252	0x3b001e7c	0.001954942
253	0x3afff9f5	0.0019529449
254	0x3afe01b6	0.0019379172
255	0x3b0138a5	0.00197176

0.running_var f4 [739]
0	0x379ad089	1.8455337e-05
1	0x372af434	1.0189648e-05
2	0x3701b579	7.731252e-06
3	0x36ff39df	7.6063293e-06
4	0x36f09e2f	7.1709724e-06
5	0x36940f9a	4.41256e-06
6	0x36528cf2	3.137448e-06
7	0x3608bb9c	2.0374782e-06
8	0x36013e49	1.9258753e-06
9	0x35e4a397	1.7034935e-06
10	0x360353ae	1.956923e-06
11	0x3604f338	1.9811105e-06
12	0x36027385	1.943875e-06
13	0x35dc47b7	1.6412149e-06
14	0x35be50cf	1.4179622e-06
15	0x358f393e	1.067099e-06
16	0x358ea443	1.0627631e-06
17	0x3566df07	8.6006224e-07
18	0x35454b0a	7.3497415e-07
19	0x3599736c	1.143298e-06
20	0x35597dfe	8.102214e-07
21	0x35093968	5.1120014e-07
22	0x3558ee6d	8.0813226e-07
23	0x35306901	6.571791e-07
24	0x353d0136	7.040975e-07
25	0x351af52b	5.7726237e-07
26	0x3522ac76	6.0600667e-07
27	0x3538303e	6.8615543e-07
28	0x350a8134	5.159702e-07
29	0x3500f7f5	4.804454e-07
30	0x34efa4c3	4.46371e-07
31	0x350e37c0	5.298025e-07
32	0x34da43c8	4.0654982e-07
33	0x34ffd26c	4.7650553e-07
34	0x34e4686f	4.2544295e-07
35	0x350b39e0	5.1865754e-07
36	0x34eeac09	4.4456127e-07
37	0x34fdba07	4.7260275e-07
38	0x34d4ccc6	3.963707e-07
39	0x34f9e5f5	4.654718e-07
40	0x34c6c2ac	3.7022016e-07
41	0x34cd1242	3.819751e-07
42	0x34d627a6	3.9889454e-07
43	0x34e86975	4.3290098e-07
44	0x34f87699	4.627989e-07
45	0x351133fb	5.409235e-07
46	0x34e04962	4.1776644e-07
47	0x34e040fd	4.1770537e-07
48	0x34c436cd	3.6547718e-07
49	0x34cbeeed	3.7985538e-07
50	0x34f87a21	4.628246e-07
51	0x3507311f	5.03629e-07
52	0x34ee46c5	4.4382446e-07
53	0x34caca5b	3.7772665e-07
54	0x3511fc41	5.4383787e-07
55	0x352daadc	6.4696155e-07
56	0x3500e85b	4.802184e-07
57	0x356d3890	8.837169e-07
58	0x3599871b	1.1438709e-06
59	0x35c00221	1.4305734e-06
60	0x360d021a	2.101186e-06
61	0x35eb417c	1.7527923e-06
62	0x35f74ed3	1.8425875e-06
63	0x3616fd5c	2.2499216e-06
64	0x352ef864	6.5181507e-07
65	0x35049c33	4.940113e-07
66	0x35029534	4.8645893e-07
67	0x34b732bc	3.412332e-07
68	0x34b54cdd	3.3769803e-07
69	0x34ad43cb	3.2273087e-07
70	0x34b06c51	3.2861365e-07
71	0x34ac81da	3.2131976e-07
72	0x34b1eb45	3.314e-07
73	0x34a79fe8	3.122252e-07
74	0x34b92ec2	3.4492956e-07
75	0x34ad0b79	3.2232109e-07
76	0x348a0105	2.5705245e-07
77	0x345b720d	2.0437456e-07
78	0x349f6e49	2.96963e-07
79	0x3492d881	2.7352147e-07
80	0x34b0dcee	3.2943302e-07
81	0x34881bf2	2.5352307e-07
82	0x34be6650	3.54647e-07
83	0x34b3dbd7	3.3501303e-07
84	0x3468665e	2.1643925e-07
85	0x3471e92e	2.2529704e-07
86	0x3481b987	2.416311e-07
87	0x3450e99c	1.9456496e-07
88	0x343fe102	1.7870119e-07
89	0x345ca102	2.0547671e-07
90	0x3459ca37	2.0283265e-07
91	0x344021f5	1.7893747e-07
92	0x34036d38	1.2240059e-07
93	0x344ac3e5	1.8883982e-07
94	0x346be41e	2.1969069e-07
95	0x347d5e8d	2.3596859e-07
96	0x3433ef66	1.6757767e-07
97	0x340bcbfd	1.3019594e-07
98	0x34325c8e	1.6611213e-07
99	0x34288824	1.5695747e-07
100	0x341c492a	1.4555249e-07
101	0x345704c0	2.0025163e-07
102	0x34306862	1.6429252e-07
103	0x344adb8f	1.8892591e-07
104	0x349cb786	2.9190795e-07
105	0x348f18f2	2.6653976e-07
106	0x3477bc60	2.3072198e-07
107	0x34d3ce17	3.9451763e-07
108	0x34ac36ae	3.207728e-07
109	0x34e25464	4.2157183e-07
110	0x35475126	7.4251363e-07
111	0x34d8d41c	4.0387465e-07
112	0x35161c8a	5.5920884e-07
113	0x351a5b58	5.7502393e-07
114	0x34e56f43	4.2735527e-07
115	0x34c6ecc5	3.7052646e-07
116	0x34e75459	4.3088474e-07
117	0x34c0da7f	3.5921764e-07
118	0x34b1ff9e	3.3154805e-07
119	0x34926905	2.727103e-07
120	0x3501a2ea	4.8293316e-07
121	0x347b9ba7	2.3432823e-07
122	0x3476b47c	2.2976195e-07
123	0x349e63dc	2.950245e-07
124	0x34e7c3c7	4.316955e-07
125	0x3530c370	6.584951e-07
126	0x353e4cd5	7.089232e-07
127	0x358d641e	1.0534457e-06
128	0x35bbee6b	1.4001974e-06
129	0x363825cc	2.7440137e-06
130	0x35e79ce6	1.7256505e-06
131	0x35e699e3	1.7181122e-06
132	0x35ca42a3	1.5069567e-06
133	0x35aa33ab	1.2681024e-06
134	0x358b91f1	1.0398782e-06
135	0x355519ce	7.9386234e-07
136	0x3516de06	5.620244e-07
137	0x34f5b0ff	4.5763588e-07
138	0x349b5ac2	2.8937035e-07
139	0x34d45dd7	3.9556355e-07
140	0x34217c08	1.5039416e-07
141	0x347ae5a7	2.3366611e-07
142	0x341e53b3	1.4745346e-07
143	0x343be923	1.7500547e-07
144	0x3416e5c9	1.4053434e-07
145	0x33ef9b04	1.1157502e-07
146	0x34040302	1.2294552e-07
147	0x33d4b415	9.904776e-08
148	0x33da1e1d	1.01568936e-07
149	0x33e8ac33	1.0834665e-07
150	0x33c84f81	9.3276874e-08
151	0x3412fdfb	1.3689707e-07
152	0x3435d874	1.6935684e-07
153	0x3407e671	1.2656689e-07
154	0x343ccca4	1.7583312e-07
155	0x344645df	1.8465606e-07
156	0x3417e79a	1.4147227e-07
157	0x342e94fb	1.6259212e-07
158	0x3494dd35	2.7728098e-07
159	0x34221fc1	1.5098978e-07
160	0x345848c5	2.0143041e-07
161	0x34334edf	1.6699367e-07
162	0x34545abb	1.9777046e-07
163	0x347ea33b	2.3714976e-07
164	0x345cd3d0	2.0566154e-07
165	0x342ac4f1	1.590413e-07
166	0x347a68c0	2.3321172e-07
167	0x34885355	2.5392606e-07
168	0x34469387	1.8493857e-07
169	0x3471ec82	2.2530915e-07
170	0x34476998	1.8571734e-07
171	0x345e1180	2.0681728e-07
172	0x348835f2	2.5371224e-07
173	0x346ce8d9	2.2063922e-07
174	0x34583ace	2.013796e-07
175	0x348c3658	2.6116572e-07
176	0x34821400	2.422894e-07
177	0x348d018d	2.6264425e-07
178	0x347a13ea	2.3290309e-07
179	0x348368bc	2.4476856e-07
180	0x346e8a98	2.2215897e-07
181	0x34a6a1f7	3.1037754e-07
182	0x3480e503	2.4008486e-07
183	0x348477e0	2.4674137e-07
184	0x348874b5	2.541689e-07
185	0x34ca97bf	3.7735842e-07
186	0x34bf3991	3.5618407e-07
187	0x34933feb	2.742739e-07
188	0x349c35a5	2.9096296e-07
189	0x34b22ce8	3.3187757e-07
190	0x34be82b5	3.548536e-07
191	0x350002e0	4.76879e-07
192	0x34d96dc0	4.0499253e-07
193	0x34e2707e	4.217763e-07
194	0x34e2b877	4.2229996e-07
195	0x34da23d6	4.0631738e-07
196	0x34ecb88e	4.4092707e-07
197	0x34ef05e2	4.45215e-07
198	0x3509c3a9	5.13212e-07
199	0x34f8e3c7	4.635933e-07
200	0x35312f9f	6.6006936e-07
201	0x3525cff6	6.1769913e-07
202	0x351800af	5.662541e-07
203	0x3515e69c	5.5842406e-07
204	0x3516fd58	5.624802e-07
205	0x3538e32e	6.887593e-07
206	0x3554eb2f	7.931839e-07
207	0x3577b6d6	9.228073e-07
208	0x3571062c	8.978848e-07
209	0x35574710	8.019715e-07
210	0x356f4207	8.913052e-07
211	0x35867e6e	1.0020574e-06
212	0x359334dd	1.0967739e-06
213	0x35ab68e0	1.2771015e-06
214	0x3655f971	3.1884667e-06
215	0x366e33c4	3.5494895e-06
216	0x36c8acaa	5.980565e-06
217	0x372f2b19	1.0440847e-05
218	0x37338de2	1.0702266e-05
219	0x374c7a92	1.2187886e-05
220	0x37306ff6	1.0516485e-05
221	0x37894c1a	1.636711e-05
222	0x3775e7cd	1.4657108e-05
223	0x3790d08b	1.7263248e-05
224	0x37c168e1	2.3056231e-05
225	0x382e24c6	4.151908e-05
226	0x384a24be	4.819477e-05
227	0x2f1471d0	1.3500956e-10
228	0x2e955748	6.79124e-11
229	0x2f843e87	2.4055088e-10
230	0x2f329145	1.6240616e-10
231	0x2c87f21a	3.8638094e-12
232	0x2e8d1a44	6.4166034e-11
233	0x2f80d426	2.3433805e-10
234	0x2f308cb9	1.6057101e-10
235	0x2f905b2e	2.6258234e-10
236	0x2ff07d12	4.3744613e-10
237	0x2ee91822	1.05999e-10
238	0x2f15c7ee	1.36225e-10
239	0x2d5fc088	1.2718833e-11
240	0x2ed484a9	9.664209e-11
241	0x2e22d8cb	3.7027086e-11
242	0x2f316cd5	1.6136721e-10
243	0x2f322e64	1.6205487e-10
244	0x2fdb23e4	3.986137e-10
245	0x2eee5d36	1.08395445e-10
246	0x2fbb15ac	3.40305e-10
247	0x3006d8fb	4.9057264e-10
248	0x2ff9b0b8	4.5418402e-10
249	0x2f884838	2.478957e-10
250	0x2e8ca961	6.3965507e-11
251	0x2ed77a02	9.798741e-11
252	0x2f0df2d3	1.2910144e-10
253	0x2e674d7c	5.259214e-11
254	0x2ee6a283	1.0488057e-10
255	0x2f795d00	2.2679458e-10

1.weight f4 [128, 739]
0	0x3b8f0192	0.004364201
1	0xb8d762db	-0.00010270412
2	0xbd045785	-0.032310028
3	0x3d25e12e	0.04049795
4	0xbc937a17	-0.018002553
5	0x3c9cb444	0.019128926
6	0x3cd1bf85	0.025604019
7	0x3c7542ad	0.01496951
8	0xbd230aff	-0.03980541
9	0xbd1974b5	-0.037464816
10	0xbcbdc7f0	-0.023166627
11	0x3cfc055f	0.03076428
12	0x3cc06e47	0.023490084
13	0x3cd805d5	0.026369968
14	0x3cc2292c	0.023701273
15	0xbb929780	-0.0044736266
16	0xbd1df080	-0.038559437
17	0xbcd91ce0	-0.026503026
18	0x3c9e2ecf	0.01930943
19	0xbc4639f8	-0.012098782
20	0x3b2c271e	0.0026268433
21	0xbcccd223	-0.025002545
22	0x3b5c4d0e	0.0033615264
23	0xbcfc43df	-0.030794082
24	0xbb84e2f8	-0.004055377
25	0xbce9e5a2	-0.02855188
26	0x3c33dfb2	0.010978626
27	0xbceb066f	-0.028689591
28	0x3b9c07fc	0.004761694
29	0xbc4fa676	-0.012673965
30	0x3c728d7e	0.014804242
31	0xbc9d6312	-0.01921228
32	0x3ce0b335	0.027429203
33	0x3c25ce88	0.010120042
34	0x3b270fea	0.0025491663
35	0xbd0f55c9	-0.03499392
36	0xbcc82059	-0.024429487
37	0x3cf4c30e	0.029878166
38	0x3ccf996d	0.025341714
39	0xbc84aba8	-0.016195133
40	0xbbb9754d	-0.0056597353
41	0x3c1a359b	0.009412195
42	0xbc05764b	-0.008145879
43	0x3d0c9d34	0.034329608
44	0x3d0ea804	0.0348282
45	0x3baca728	0.00526895
46	0xbc92925c	-0.017892055
47	0x3c76097b	0.015016909
48	0x3cc2011e	0.023682173
49	0xbca983c2	-0.02069271
50	0x3a5b5233	0.00083664356
51	0x3d045a02	0.0323124
52	0xb9b42c8d	-0.00034365468
53	0x3c7d0c00	0.015444756
54	0xbcfd618c	-0.030930303
55	0x3974597e	0.00023302992
56	0xbbf82ce7	-0.007573712
57	0xbc11e5c6	-0.00890488
58	0xbb930f75	-0.0044879266
59	0x3c10d8fa	0.008840794
60	0x3c47800c	0.012176525
61	0xbca9f6c4	-0.02074755
62	0xbbc07d8a	-0.0058743404
63	0x3c5ed325	0.0136001455
64	0x3c18b685	0.00932086
65	0xbc28e358	-0.010308109
66	0x3c4fdcec	0.012686949
67	0xba995045	-0.0011696896
68	0xbce4b7ae	-0.027919617
69	0x3c9cc6d3	0.019137776
70	0xbc4fb863	-0.012678239
71	0xbd0ebd69	-0.034848604
72	0xbc93a6ab	-0.01802381
73	0xbc783293	-0.015148777
74	0x3d003cb1	0.03130788
75	0x3c39a595	0.011330982
76	0x3c9782a2	0.018494908
77	0x3b82259d	0.003971769
78	0x3ce0563f	0.027384875
79	0xbd0176fc	-0.031607613
80	0xbc8e8e0b	-0.017401716
81	0x3c878c10	0.01654628
82	0x3d148280	0.036257267
83	0xbcad3cdc	-0.021147184
84	0xbbbe482a	-0.0058069425
85	0xbb1af1cf	-0.0023642664
86	0xbccaa6d4	-0.024737753
87	0x3cd0b915	0.025478879
88	0xbab433be	-0.001374833
89	0xbc934be7	-0.017980529
90	0xbbd4440c	-0.0064778384
91	0x3cd9eb52	0.026601467
92	0xbc59c8e9	-0.01329253
93	0x3cb97ce9	0.02264257
94	0xbc4b38b6	-0.012403658
95	0xbbdb965e	-0.006701275
96	0xbc4aabcb	-0.01237006
97	0x3bdda0a7	0.006763536
98	0xbc0df3d0	-0.008664086
99	0x3cca279d	0.024677092
100	0x3c97d7bb	0.018535485
101	0xbc25c099	-0.01011672
102	0x3cbef478	0.023309931
103	0xbc96c035	-0.018402198
104	0x3b1549df	0.0022779626
105	0x3cd0cd35	0.025488475
106	0x3b39d17c	0.0028353622
107	0xbc322492	-0.010872977
108	0x3cfd9173	0.030953145
109	0xbd0ef66c	-0.034902975
110	0xbb7c5614	-0.0038503455
111	0x3c666c72	0.014063941
112	0xba829d54	-0.00099651
113	0x3cb350da	0.021889139
114	0xbcb1ac20	-0.02168852
115	0x3aed395a	0.0018098757
116	0xbc475802	-0.012166979
117	0xbc717e35	-0.014739563
118	0xbd1527d3	-0.036414932
119	0xbc137881	-0.009000898
120	0x3c66abc1	0.014079035
121	0x3d091abd	0.033472765
122	0x3b4dfb43	0.0031430281
123	0x3c614343	0.013748947
124	0x3c1933ca	0.009350726
125	0xba8eb608	-0.001088799
126	0xbcadfe7f	-0.021239517
127	0xbcdfe111	-0.027329
128	0xbbe4c93a	-0.006981996
129	0xbd0229ff	-0.03177833
130	0x3c320427	0.010865248
131	0x3cbf060b	0.023318311
132	0x3d0d5dfe	0.034513466
133	0x3d0c7822	0.034294255
134	0x3bf90e49	0.00760058
135	0xbd0ca619	-0.03433809
136	0xbc6c0fea	-0.014408091
137	0xbd163d8a	-0.036679782
138	0xbd037d27	-0.032101776
139	0x3c3ae95d	0.011408177
140	0x3ce03903	0.027370935
141	0xbc18e22d	-0.009331268
142	0x3cef5b83	0.02921844
143	0x3b094828	0.002094755
144	0xbcccf22f	-0.025017826
145	0xbc044a16	-0.008074304
146	0x3cd6471a	0.02615695
147	0x3c8f1598	0.017466351
148	0xbcc4ba9d	-0.024014765
149	0xbc9e0e87	-0.019294037
150	0x3d0b20b2	0.033966728
151	0x3bdb6d81	0.0066964035
152	0x3c1e74c3	0.009671393
153	0x3b34bf52	0.0027579856
154	0xbb642e59	-0.0034817664
155	0xbc410252	-0.011780338
156	0xbc710051	-0.014709548
157	0x3b5d14a2	0.0033734222
158	0xbcba4fdd	-0.02274316
159	0x3ca73da3	0.020415133
160	0xbc9f2cff	-0.019430635
161	0x3c097de4	0.008391831
162	0x3cce0702	0.025149826
163	0xbcd1f47a	-0.02562927
164	0x3af082fe	0.0018349586
165	0x3cdaf462	0.026727859
166	0xbc54ee5c	-0.012996282
167	0x3c5be4cd	0.01342125
168	0x3d0771a1	0.03306735
169	0x3ceb7f8f	0.028747348
170	0xbc72c002	-0.014816286
171	0xbcf4751b	-0.029840996
172	0x3a426fb2	0.00074171566
173	0xbc97a6e5	-0.018512199
174	0xbb902154	-0.0043985043
175	0xbd107681	-0.035269264
176	0xbc5f5fc7	-0.013633675
177	0x3cdc6670	0.026904315
178	0x3d078869	0.033089075
179	0x3d150d2f	0.036389526
180	0xbc960e0e	-0.018317249
181	0x3c911600	0.017710686
182	0x39f81930	0.00047321012
183	0xbd04a2c9	-0.032381807
184	0x3cbe6022	0.0232392
185	0x3d06af53	0.032882046
186	0xbd08edb2	-0.03342981
187	0x3bfbd120	0.0076848418
188	0xbc97225f	-0.018449007
189	0xbc63dc02	-0.013907434
190	0xba842237	-0.0010080998
191	0xbc2eebea	-0.0106763635
192	0xbca2a6d0	-0.019854933
193	0xbc553a2f	-0.01301436
194	0x3d041e6d	0.03225558
195	0x3c9bc6cc	0.019015692
196	0xbcb605f1	-0.02221963
197	0xbc103036	-0.008800557
198	0xbd051734	-0.03249283
199	0x3d101de0	0.03518474
200	0xbd141037	-0.036148276
201	0x3cc98036	0.024597269
202	0x3ce18df3	0.027533507
203	0xbc8f6588	-0.017504469
204	0x3d03d578	0.032186
205	0x3d0287bf	0.03186774
206	0xbc8186c2	-0.015811328
207	0x3bc045a1	0.0058676754
208	0x3c961e01	0.018324854
209	0xbd08b683	-0.03337718
210	0x3be208c9	0.00689802
211	0xbc3cef92	-0.011531727
212	0xbcda1933	-0.026623344
213	0xbc0e495f	-0.008684485
214	0x3cc1861d	0.02362352
215	0x3c752cdd	0.0149643095
216	0xbd191b75	-0.0373797
217	0xbccb7812	-0.024837527
218	0x3cb9b4b3	0.022669172
219	0xbcefe04e	-0.029281761
220	0xbc6b57f8	-0.014364235
221	0xbc710184	-0.014709834
222	0x398e842c	0.00027182826
223	0xbd015846	-0.031578325
224	0x3afd533e	0.0019327176
225	0xbc6e5be5	-0.014548277
226	0x3c840d97	0.016119761
227	0x3c7c6fa2	0.015407475
228	0xbbc5a938	-0.0060321353
229	0xbcab83f3	-0.020936942
230	0xbc8e968a	-0.017405767
231	0xbc539435	-0.012913753
232	0xbc95a38d	-0.018266464
233	0x3c06660f	0.008203044
234	0xbd13a1a2	-0.036042817
235	0x3b921fa9	0.0044593406
236	0xbd15a8f4	-0.03653808
237	0x3c7dd5c1	0.015492857
238	0xbc9e7bd6	-0.019346159
239	0x3ba4057a	0.0050055357
240	0xbca828e4	-0.02052731
241	0x3cafcd1c	0.021460108
242	0x3ca59b90	0.02021578
243	0x3cb29b5f	0.021802602
244	0xbcd4f51a	-0.02599578
245	0x3ca50985	0.02014614
246	0xbcc55f20	-0.02409321
247	0x3c9c23a8	0.019059971
248	0xbb51f3ad	-0.0032036111
249	0x3bec64f6	0.007214184
250	0x3ca03b3c	0.019559495
251	0xbb4aead7	-0.003096273
252	0x3cc445b1	0.023959013
253	0x3c593afb	0.013258691
254	0x3a8e1a17	0.0010841516
255	0x3c6bf3de	0.014401404

1.bias f4 [128]
0	0x3ca12676	0.01967166
1	0x3db20ac2	0.08693458
2	0xbcc869b8	-0.024464473
3	0x3c49dc4d	0.01232059
4	0x38bc9322	8.991944e-05
5	0x3d0297c0	0.031883
6	0x3d93aafc	0.07210347
7	0xbcf5bbe2	-0.029996816
8	0x3cf34024	0.02969367
9	0x3bd6e58d	0.0065581263
10	0xbd05c441	-0.032657865
11	0x3d3821cf	0.044954117
12	0x3d4bfafa	0.049799897
13	0x3c8e6917	0.017384095
14	0x3ccfc772	0.025363658
15	0x3be56aff	0.0070012803
16	0xbca56ac9	-0.02019252
17	0xbccbc1ff	-0.024872778
18	0x3ce8bbc5	0.028409848
19	0x3c6753fc	0.0141191445
20	0x3db6eb21	0.08931566
21	0x3abda0d1	0.0014467483
22	0x3d1df3bf	0.038562533
23	0xbc388530	-0.011262223
24	0x3ce4e743	0.027942305
25	0x3cc5849a	0.02411108
26	0x3d49f963	0.0493101
27	0xbcb7717e	-0.022392984
28	0x3ce00c71	0.027349683
29	0x3cd0f771	0.025508614
30	0xbc66f647	-0.014096803
31	0x3d626ee9	0.055281553
32	0x3da24ccc	0.07924804
33	0x3d768989	0.060189757
34	0xbc98329c	-0.01857882
35	0x3b4dd616	0.0031408123
36	0xbc307328	-0.010769643
37	0x3d4018c6	0.046898626
38	0x3dcf4b0c	0.10121736
39	0x3d027a9e	0.031855218
40	0xbc31af11	-0.010844962
41	0x3c8f78b8	0.017513618
42	0x3a1778b3	0.00057781785
43	0xbbd8670b	-0.0066040806
44	0x3cdc203f	0.026870845
45	0xbd088b8c	-0.033336207
46	0x3cf5cce1	0.03000492
47	0x3cdf5f2d	0.027267063
48	0x3da5b0c7	0.08090358
49	0x3d204b0c	0.03913407
50	0xbc92d397	-0.01792316
51	0x3cdb8126	0.026794981
52	0x3adca0c7	0.0016832583
53	0x3de71d90	0.112849355
54	0xbc84bbc5	-0.016202817
55	0x3cdb5709	0.0267749
56	0xbc9b5294	-0.018960275
57	0xbd0024a3	-0.03128494
58	0x3d479d06	0.048733734
59	0x3c9cde17	0.01914887
60	0x3d015f05	0.03158476
61	0xbccb13c7	-0.024789704
62	0x3cd2ad71	0.025717469
63	0x3dfabfca	0.12243612
64	0xbc8f2432	-0.017473314
65	0xbaf878e3	-0.0018956925
66	0x3d09606e	0.03353923
67	0xbbe72997	-0.0070545184
68	0x3d9ea455	0.077461876
69	0x3d834216	0.06409089
70	0x3c86d49f	0.016458808
71	0x3e3081bd	0.17236991
72	0x3e0d338f	0.137892
73	0xbc1e516d	-0.009662968
74	0x3d9cd9cc	0.07658729
75	0x3d12bd83	0.035825264
76	0x3d8570dc	0.06515667
77	0xbd085484	-0.033283725
78	0x3cc25b33	0.023725128
79	0x3e12c062	0.143312
80	0x3d266611	0.04062468
81	0x3db83195	0.08993832
82	0xbc6f320c	-0.014599334
83	0xbd0c8a71	-0.034311716
84	0x3d2b52f8	0.041827172
85	0x3b6f8ddc	0.003655306
86	0xbc1d7b61	-0.009611935
87	0x3d529e47	0.051420476
88	0x3dcb0cd4	0.09914556
89	0x3d8a69a0	0.067584276
90	0x3aff9e4f	0.0019502136
91	0xb88e5f2f	-6.788817e-05
92	0x3c71ec87	0.014765865
93	0x3d7b043e	0.061283343
94	0x3db40577	0.08790105
95	0x3d31fe21	0.043455247
96	0x3c2fb262	0.010723682
97	0x3d5b9a7d	0.05361413
98	0xbcc41dbc	-0.02393996
99	0xbb6d9f61	-0.0036258327
100	0x3d50f5f5	0.051015813
101	0x3a6a640b	0.0008941299
102	0x3c42635b	0.0118645085
103	0x3ba026ca	0.0048874365
104	0xbcd22805	-0.025653848
105	0x3bf64f5b	0.007516784
106	0x3b800a74	0.003907496
107	0xbd248fe5	-0.04017629
108	0xbb5c4ccc	-0.003361511
109	0xbc9c6dac	-0.019095264
110	0xbd026124	-0.03183092
111	0xbcb23607	-0.021754278
112	0x3cfca53a	0.030840505
113	0x3d9b55eb	0.07584747
114	0xbce109dc	-0.027470522
115	0xbc73b372	-0.014874326
116	0x3bf36d8a	0.0074288296
117	0x3dc5246d	0.09626088
118	0x3d174880	0.036934376
119	0x3d099ac1	0.03359485
120	0xbbe354f0	-0.0069376156
121	0xbcb4f9a8	-0.022091702
122	0x3bbbc55e	0.005730315
123	0x3dbe02f8	0.0927791
124	0x3c33a558	0.010964714
125	0xbc81cdce	-0.015845206
126	0x3db7b206	0.08969502
127	0x3d4c46f7	0.049872365

3.weight f4 [2, 128]
0	0xbcb1488b	-0.021641036
1	0x3de5f574	0.11228457
2	0xbcfb66fb	-0.030688753
3	0xbcc3796e	-0.023861613
4	0x3d4e5cbc	0.050381407
5	0x3d6d5307	0.05794051
6	0x3df586eb	0.11988624
7	0xbb021a88	-0.001985224
8	0x3d0ea4eb	0.034825247
9	0xbdf37294	-0.118870884
10	0x3d3240c5	0.0435188
11	0xbdae2829	-0.08503754
12	0x3df515f9	0.119670816
13	0x3caee691	0.021350177
14	0x3db109ae	0.086444244
15	0xbd703f48	-0.0586541
16	0x3d021824	0.031761304
17	0x3b8f3059	0.004369777
18	0xbcd0a117	-0.025467439
19	0xbdeeae34	-0.1165432
20	0xbe0f0e51	-0.13970305
21	0x3d4feee8	0.050764948
22	0x3e1486d2	0.14504555
23	0xbab3187a	-0.0013663911
24	0xbdd8cd92	-0.105860844
25	0xbd943654	-0.07236925
26	0x3d3b9d46	0.045804285
27	0x3d6beafa	0.057597138
28	0xbe0a0803	-0.13479619
29	0x3deeec29	0.11666138
30	0x3cdf2338	0.027238473
31	0xbc352f79	-0.011058682
32	0x3e0e436b	0.13892905
33	0xbe1711fb	-0.14752953
34	0xbc45e608	-0.0120787695
35	0xbba943c6	-0.00516555
36	0x3cb5cf81	0.022193672
37	0xbdb270a2	-0.08712889
38	0xbe325f03	-0.17419057
39	0x3d5b9770	0.05361122
40	0x3dc14a65	0.09438018
41	0xbc2d783a	-0.010587746
42	0xbdde8124	-0.10864475
43	0xbc80d93f	-0.015728591
44	0x3d3e2bfc	0.046428666
45	0x3c6a7000	0.014308929
46	0x3d89c0f4	0.06726256
47	0x3dad4b60	0.08461642
48	0xbe1871cb	-0.14887159
49	0xbe0ea2fe	-0.13929364
50	0xbd18146f	-0.037128862
51	0xbd1241ac	-0.03570716
52	0xbdf72ec9	-0.120694704
53	0x3e35acb2	0.1774166
54	0x3dc12dd3	0.094325684
55	0x3d1b9abd	0.037989367
56	0xbde5d137	-0.11221545
57	0xbd0e7895	-0.034782965
58	0x3da0af32	0.07845916
59	0xbdbb0f21	-0.09133745
60	0xbdded043	-0.108795665
61	0x3d07c8d2	0.0331505
62	0xbd93b5b4	-0.072123915
63	0x3e58daad	0.21177168
64	0x3db80db3	0.08986988
65	0xbac6ec59	-0.0015176638
66	0xbdacb97a	-0.08433814
67	0x3d9093a7	0.070594124
68	0x3e2d34ff	0.16914748
69	0xbe14420e	-0.14478323
70	0x3db07efb	0.086179696
71	0x3e82947e	0.25503916
72	0xbe8bb896	-0.27289265
73	0xbd833a4c	-0.064076036
74	0xbe22928d	-0.15876217
75	0x3ce5b4a8	0.028040245
76	0x3e2a05d1	0.16603781
77	0x3da65bce	0.08122979
78	0xbdc91cac	-0.09819922
79	0x3e7963ae	0.24354431
80	0x3e35527a	0.17707244
81	0xbe3d3c0a	-0.18479934
82	0x3da97a12	0.08275236
83	0x3cdfdb11	0.027326139
84	0x3d2d3433	0.04228611
85	0xbb50f3e2	-0.0031883647
86	0xbd9c6a94	-0.07637516
87	0xbe0bc7f1	-0.1365049
88	0x3e2eb151	0.17059828
89	0x3de84591	0.11341394
90	0x3a1b4bde	0.0005924086
91	0xbd71b46a	-0.059009947
92	0xbdcdf815	-0.100570835
93	0xbdd09899	-0.10185356
94	0xbe23cedb	-0.15996878
95	0x3da8e4b9	0.082467504
96	0xbdc758a6	-0.09733705
97	0xbddfd150	-0.10928595
98	0xbd44dd9a	-0.0480629
99	0x3d9b365b	0.07578727
100	0x3d99f42e	0.07517277
101	0x3dd75d76	0.10515873
102	0x3db0dc63	0.086357854
103	0x3d9b6068	0.075867474
104	0xbc22c525	-0.009934698
105	0x3ce458c5	0.02787436
106	0x3da7a165	0.081850804
107	0xbc7a868c	-0.015290868
108	0xbd4c3e45	-0.049864072
109	0x3c7c0e73	0.015384304
110	0x3d39ea15	0.045389254
111	0xbdab3c7c	-0.08361146
112	0xbdd32c27	-0.10311156
113	0xbdf07797	-0.1174156
114	0xbc28bad5	-0.0102984505
115	0xbd5db75d	-0.054129947
116	0x3c40e3ec	0.011773091
117	0x3e2e8cb4	0.17045861
118	0x3dbfbf3f	0.09362649
119	0xbe254b56	-0.1614202
120	0x3dab1048	0.08352715
121	0xbc236def	-0.009974941
122	0xbd9af2d4	-0.07565847
123	0x3ddd7c34	0.108147055
124	0x3e045aaf	0.12925218
125	0xbc237c6c	-0.009978395
126	0xbde03de1	-0.109493025
127	0x3e0de7f4	0.13858014
128	0xbd91f1cf	-0.071261995
129	0xbe280475	-0.1640795
130	0xbd9c1f62	-0.07623173
131	0x3cd691c7	0.026192559
132	0xbd8b5f89	-0.06805331
133	0xbd933706	-0.07188229
134	0xbe0e0e20	-0.13872576
135	0xbd875961	-0.066088445
136	0x3c9306a6	0.017947506
137	0xbcc36881	-0.023853542
138	0x3d8cd7f3	0.068771265
139	0x3d59c668	0.05316773
140	0xbcec9c04	-0.028882988
141	0xbd255c05	-0.04037096
142	0xbd91c37c	-0.07117364
143	0x3d9d7452	0.07688202
144	0x3a546d38	0.0008103433
145	0xbdaa3570	-0.08310974
146	0xbbcfd11f	-0.006342068
147	0x3de987d4	0.1140286
148	0x3e2af6c6	0.16695699
149	0xbdeb872f	-0.115003936
150	0xbc8555f2	-0.016276333
151	0x3d5544e9	0.05206767
152	0xbd4807ae	-0.04883545
153	0x3d348fca	0.04408244
154	0xbda3aa7b	-0.07991501
155	0x3daddfb2	0.08489932
156	0xbc2584f8	-0.010102503
157	0xbae01b40	-0.0017097965
158	0xbda3c65d	-0.07996819
159	0xbe25d578	-0.16194713
160	0xbe0966e2	-0.13418153
161	0x3ddc1055	0.107453026
162	0x3d81f210	0.06344998
163	0x3d396467	0.045261767
164	0xbd541668	-0.05177918
165	0x3dca618b	0.09881886
166	0x3e0032b9	0.12519349
167	0xbe0d206d	-0.137819
168	0x3d3b3774	0.04570718
169	0x3d9834b4	0.07431927
170	0x3c012851	0.007883147
171	0xbce74669	-0.028231816
172	0x3df7d7c8	0.12101704
173	0xbc153556	-0.009106955
174	0xbde01948	-0.10942322
175	0xbde46c84	-0.1115351
176	0x3e32f7cf	0.17477344
177	0x3cef22a1	0.029191317
178	0x3d8a6b09	0.067586966
179	0xbdd22b88	-0.10262209
180	0x3d12c03d	0.035827864
181	0xbe3f5842	-0.18686011
182	0x3cca8e47	0.024726046
183	0x3d8eab06	0.06966214
184	0xbd5b4955	-0.05353673
185	0x3bb5ce14	0.005548248
186	0xbde06db8	-0.10958427
187	0x3dbb28df	0.09138655
188	0x3e0da830	0.1383369
189	0x3ca7c992	0.020481858
190	0x3bed5627	0.007242936
191	0xbe4b0673	-0.19826679
192	0x3d2a6904	0.041604057
193	0xbd4eecb4	-0.050518706
194	0x3d58d133	0.052933883
195	0xbd4d3637	-0.05010053
196	0xbe460426	-0.1933752
197	0x3d2348b7	0.03986427
198	0xbd76e52c	-0.06027715
199	0xbe8e8a79	-0.2784002
200	0x3e827461	0.25479415
201	0x3c55c5fd	0.013047692
202	0x3e3de561	0.18544532
203	0x3cbfcb32	0.02341232
204	0xbcd818f7	-0.026379092
205	0x3d3e409b	0.04644833
206	0x3c7bdeed	0.015372974
207	0xbe74921c	-0.23883861
208	0xbd87c3f0	-0.06629169
209	0x3e4be952	0.19913223
210	0xbd5f8001	-0.054565433
211	0x3d55fcdc	0.0522431
212	0xbd9fe467	-0.07807236
213	0xbca0c492	-0.019624982
214	0xbd977358	-0.07395047
215	0x3e2f1cf0	0.17100883
216	0xbe54b019	-0.20770301
217	0xbddbb12b	-0.107271515
218	0xbd8cbd3f	-0.06872033
219	0xbc9ba625	-0.019000122
220	0x3daa1262	0.083042875
221	0x3d601d95	0.05471571
222	0x3e2d0957	0.16898094
223	0xbe19473e	-0.14968583
224	0x3d6ecff1	0.058303777
225	0x3e1d7296	0.15375742
226	0xbd07eeca	-0.03318671
227	0xbad8216f	-0.0016489456
228	0xbdb99513	-0.09061637
229	0x3c12ce38	0.008960299
230	0xbde4c9f8	-0.11171335
231	0xbd8d4e07	-0.06899648
232	0x3ce8a201	0.028397562
233	0xbcac8a77	-0.021062119
234	0xbd549415	-0.051899035
235	0xbd8ecd04	-0.069726974
236	0x3dc21f5b	0.09478637
237	0x3dab35e0	0.08359885
238	0x3cd1537c	0.025552504
239	0xbd4b55b5	-0.049642283
240	0x3d01cc84	0.031689182
241	0x3e2d1784	0.16903502
242	0x3c533ea6	0.0128933545
243	0xbd31fabc	-0.04345201
244	0xbd0807c4	-0.03321053
245	0xbe0d32b6	-0.13788876
246	0xbdca9730	-0.09892118
247	0x3e087e7f	0.13329504
248	0xbc980019	-0.018554734
249	0x3cd7e011	0.02635196
250	0xbd5882c0	-0.052859068
251	0xbe3b697f	-0.18301962
252	0xbcd8d894	-0.02647046
253	0x3cf6400c	0.030059837
254	0x3e299856	0.16562018
255	0xbe23691f	-0.1595807

3.bias f4 [2]
0	0xbd43b1b4	-0.047776893
1	0x3d9052af	0.07047021
