images/models/other_models/Attention/best_models5.pth.tar (torch, 471215 bytes, 18 tensors)

bn1d0.weight f4 [739]
00000000: dde7 313f d926 833f cfea 6a3f b53f 523f
00000010: 009c 833f 6f7d 873f 92e9 813f 9dfe 803f
00000020: ef45 853f 6b30 753f 6248 7e3f 9748 653f
00000030: 1155 913f 8664 883f 9701 773f 3c24 7e3f
00000040: 8300 7e3f 38b9 803f 2c67 773f 43d5 723f
00000050: e411 863f eff9 7a3f 601b 7d3f 2f85 763f
00000060: 60c1 753f e8d8 8c3f ce5b 913f 7692 793f
00000070: 001c 7b3f 887e 943f dfba 823f 916b 893f
00000080: 3564 813f d2ba 883f ad33 823f 3a28 803f
00000090: c45b 8d3f 343d 823f 9014 813f 0d4f 7e3f
000000a0: 47b2 7d3f d175 843f 8944 7b3f b00b 7d3f
000000b0: e515 803f 53b8 913f f59d 893f bab0 803f
000000c0: c052 7d3f 04d1 803f 038b 843f c3fd 7b3f
000000d0: 7d8e 7e3f 686e 7f3f ddd1 803f c70c 8c3f
000000e0: a57b 9b3f 730f 7e3f 47d7 7a3f e2c5 8b3f
000000f0: 341c 9d3f f5ba 8e3f 8b19 863f 5935 7e3f
00000100: 0265 7e3f 6a3d 893f 588a 793f efc1 833f
00000110: 625c 873f 9596 853f 7e50 7d3f 5e60 7e3f
00000120: f895 7d3f 331b 7d3f 9fc3 7e3f 6a35 813f
00000130: 2300 7d3f 7b40 803f 71a9 803f 03e7 7e3f
00000140: 4bbd 7d3f e54c 7f3f 23c5 7e3f 0bc9 803f
00000150: 8def 7e3f a690 7e3f 7ea9 813f 1e88 803f
00000160: 798b 8e3f b601 813f 3c2e 833f 6194 813f
00000170: 04a6 813f 0ac6 853f 56a7 903f 88c6 813f
00000180: fc33 7e3f 47de 803f 436f 803f 624d 7d3f
00000190: d0da 843f abca 833f e830 7f3f 64e1 7e3f
000001a0: bfd0 7e3f 2656 833f cfc4 9a3f c578 7f3f
000001b0: 267b 7f3f 079c 803f 92cf 813f cf05 833f
000001c0: df50 7a3f 8881 833f 0b71 813f 2427 8a3f
000001d0: 2c9f 7b3f 8eec 7e3f 200e 813f 28ca 833f
000001e0: aa71 883f c181 7e3f 0a7a 7d3f 735a 7a3f
000001f0: 7bd9 833f 005e 8b3f 6a84 783f 4147 723f
00000200: 7836 6d3f 419a 753f bed9 6e3f d8a1 643f
00000210: 0b67 6a3f 3893 6c3f ccb8 733f cf16 803f
00000220: cd41 833f e17c 813f f494 7c3f f71b 8d3f
00000230: 0490 833f e709 813f ffd7 8b3f b730 7e3f
00000240: 6c25 813f ce01 803f 2bf0 813f d6ab 813f
00000250: 8097 7e3f 32b6 803f bd80 7f3f ba03 853f
00000260: 2455 833f 2553 7f3f a046 803f a609 7e3f
00000270: c493 7d3f 6054 823f 58dd 853f 851c 813f
00000280: 9312 803f b4b3 7f3f 92f0 9b3f dd1d 7d3f
00000290: 4ef4 7d3f 683c 843f 2052 823f 8572 7f3f
000002a0: 41e3 7f3f c675 893f 8602 803f a41a 823f
000002b0: 6946 813f 84de 7d3f b146 863f 8214 803f
000002c0: f8ee 803f 5244 953f 3796 7f3f d6ca 7f3f
000002d0: 464b 853f 6990 903f e300 823f f9bd 7f3f
000002e0: 7e3e 803f de7a 873f c971 833f 140e 9f3f
000002f0: e0c7 a33f be31 8c3f e403 813f 5663 853f
00000300: 2ebe 7d3f a3cb 893f 7787 893f 5c67 913f
00000310: e2c2 7a3f c2e9 873f ca86 823f 0a05 833f
00000320: bd63 7f3f 20ff 783f 4f74 833f 5646 7a3f
00000330: 7386 813f e2ff 733f f95d 793f 483d 743f
00000340: 86d4 7d3f beb5 7d3f 2e53 873f 9959 833f
00000350: afb4 873f 3419 803f bd2e 593f 57be 5e3f
00000360: 55ab 6b3f af0d 3d3f d6bc 243f e480 4d3f
00000370: b610 493f ab25 733f cf5c 443f f078 6d3f
00000380: 19e1 2c3f b072 243f 642e 3a3f b1f9 7f3f
00000390: a0f9 7f3f eb03 803f d20c 803f 19ff 7f3f
000003a0: 1afc 7f3f 4600 803f 1b06 803f e31f 803f
000003b0: 1af9 7f3f c306 803f 4fe1 7f3f 3eff 7f3f
000003c0: 0303 803f 3207 803f 3a02 803f b40c 803f
000003d0: 4302 803f 1efd 7f3f e52a 803f 250d 803f
000003e0: f1e4 7f3f 1308 803f dc03 803f a302 803f
000003f0: faed 7f3f 76f0 7f3f d8ee 7f3f 5b01 803f
0.6949442 1.024623 0.9176454 0.8212846 1.0281982 1.0585154 1.0149405 1.0077702
1.0411967 0.95777005 0.993292 0.8956389 1.1354085 1.0655677 0.964868 0.9927404
0.9921953 1.0056524 0.966418 0.9485666 1.047421 0.9803762 0.98869896 0.9629697
0.9599819 1.1003695 1.1356142 0.97489107 0.980896 1.1601114 1.0213279 1.0735952
1.0108706 1.0682013 1.017202 1.0012276 1.104363 1.0174928 1.00844 0.9933937
0.99100155 1.0348455 0.9815145 0.9884596 1.0006682 1.1384376 1.075133 1.0053933
0.9895439 1.0063787 1.0354923 0.98434085 0.9943617 0.9977784 1.0064045 1.0941399
1.2147108 0.99242324 0.9798474 1.0919764 1.2274232 1.1150805 1.0476545 0.9930015
0.99372876 1.0721867 0.9747672 1.0293559 1.0575068 1.0436579 0.98950946 0.99365795
0.9905696 0.9886963 0.99517244 1.0094426 0.98828334 1.0019678 1.005171 0.99571246
0.99116963 0.99726707 0.99519557 1.0061353 0.99584275 0.99439466 1.012985 1.004154
1.1136314 1.0078647 1.0248485 1.0123407 1.0128789 1.0451062 1.1301067 1.0138712
0.9929807 1.0067834 1.0033954 0.989462 1.0379276 1.0296224 0.99684 0.9956267
0.9953727 1.0260665 1.2091311 0.99793655 0.99797285 1.0047616 1.014147 1.0236148
0.9777965 1.0273905 1.0112623 1.0793195 0.9828975 0.99579704 1.0082436 1.0296068
1.0659688 0.9941674 0.9901434 0.97794265 1.0300745 1.0888062 0.9707705 0.94639975
0.9266124 0.959385 0.93301 0.89309454 0.9156348 0.9241214 0.9520385 1.0006961
1.0254456 1.0116235 0.98664784 1.1024159 1.0278325 1.0081147 1.0925292 0.9929308
1.0089545 1.0000551 1.0151418 1.0130565 0.9944992 1.0055602 0.99805814 1.0391762
1.0260358 0.99736243 1.0021553 0.9923347 0.990536 1.0181999 1.0458174 1.0086828
1.0005668 0.9988358 1.2182791 0.9887369 0.99200904 1.0330935 1.0181313 0.9978412
0.99956137 1.0739067 1.000077 1.016438 1.0099612 0.99167657 1.0490323 1.0006258
1.0072927 1.1661475 0.99838585 0.9991888 1.0413597 1.129407 1.0156521 0.9989925
1.0019071 1.0584371 1.02691 1.2426171 1.2795372 1.095268 1.0079312 1.042094
0.99118316 1.076527 1.0744466 1.1359668 0.9795362 1.0618212 1.0197384 1.0235913
0.99761564 0.9726429 1.026987 0.97763574 1.0119156 0.9531232 0.97409016 0.9540601
0.9915241 0.9910544 1.057226 1.0261718 1.0602015 1.0007691 0.8483694 0.87009186
0.92058307 0.73849005 0.6435064 0.80274796 0.78541124 0.9497935 0.76704115 0.9276266
0.6753097 0.642375 0.72727036 0.99990374 0.9999027 1.0001196 1.0003912 0.99998623
0.9999405 1.0000083 1.0001863 1.0009731 0.99989474 1.0002064 0.9995317 0.99998844
1.0000919 1.0002196 1.000068 1.0003877 1.000069 0.999956 1.001309 1.0004011
0.9995871 1.0002464 1.0001178 1.0000805 0.999725 0.9997629 0.9997382 1.0000414

bn1d0.bias f4 [739]
00000000: 60c6 133d 5fbf 83bd da62 a63b 0c1b e93c
00000010: 50fc 22bd b2f6 a43d 492c 5bbd b141 a6bd
00000020: 145f 0439 d74e 65bc 285b fdbb fae7 4ebc
00000030: 7b89 363d b458 0cbd 0c40 5039 8228 a9bc
00000040: 5036 36bc 541c e7bc b16c df3c 6e25 8f3d
00000050: 0a15 e03c 2ce0 97bb 05f8 2e3d 4baf 4c3d
00000060: 67f3 86bc 7938 e73c 85c4 853d 2574 2e3d
00000070: 84b5 013d f467 ccbb bc80 3b3d f0cd 443d
00000080: c20c a9bc 255a a03c 982e fd3b 67fd 783b
00000090: 4d02 a63d d16e e6bc cdd7 8abb 9077 843d
000000a0: e97b 72bc c1ae 5c3c 030f 87bb cf8b 583a
000000b0: 0839 a63b 8245 3dbd c0fc a53c adf5 3cbd
000000c0: 8489 a8bc b508 923a 0ef8 ee3c b938 20bd
000000d0: 89c3 f4bb 2e50 673c f693 5bbd 3789 47bc
000000e0: ec6e 70bc 6a6e ce3b 715c 11bd dcdb 45bd
000000f0: 4fc6 96bd 1aa3 8bbd 52b8 b8bc 1c63 a6bd
00000100: fd8e f6bb 3833 0dbc 1d95 26bd 6c90 3fbd
00000110: 7017 6bbb b3ba 523a fe73 d2bc cff7 ea3c
00000120: 5634 3bbc efe0 b1bb 0adf e03a 9e33 2d3d
00000130: 6876 efbb 341b f03c 44db 50bd 6ef6 b0bc
00000140: ef9a 6f3d cc04 c9bc e994 2b3c 7e6f 9c3c
00000150: 468c 883b fd44 783b cb09 aa3c 0f6a 343c
00000160: 5cb2 0d3d ecc3 053c 4b0c e53c 845a 843c
00000170: e9c1 a43c fd54 cdbb ca16 c8bc 7464 733d
00000180: b844 083c 5358 9c3c 5b80 253d 4cd3 ef3b
00000190: 7454 03bc f4f5 803d bb26 afbc 4095 bbbc
000001a0: 89dd 52bc 43cf 91bc 4cbe c1bc 1404 9bbc
000001b0: 8df6 073d 82cc adbb f9e8 a1bc 22f6 14bd
000001c0: eb1f 0abc 955b ecbc 50eb 56bc ee65 ddba
000001d0: c911 06bd 8c61 373c cb95 d9bc f3e3 73bc
000001e0: fe2a 983c 089e b63c 4fd1 a23c bb85 00bd
000001f0: ba57 4dbc da68 33bd 0c16 30bc ba82 a93a
00000200: b831 debc 462f b7bc 9691 b1bc daa7 1ebb
00000210: 5662 25bb d99e f0bc 27d8 4d3b a2da 03bd
00000220: 6136 a9bb b860 8abb a242 19bc bb0c 853c
00000230: 69eb d5bc 992c 3ebc 2ec6 c83b 6eba 0c3b
00000240: b5ec bf3b ec3c 95bc 35e2 9cbb a8a4 95bc
00000250: 48a7 d5bc 1844 a83c fe20 c73c 24c4 84bb
00000260: 8f80 333c e467 20bd b6eb 213d e923 f13c
00000270: add8 adbc 579e 543b cbda 243d 7aa6 8e3c
00000280: d320 a23c ba57 0d3d c96e 08bc 3e2d 683c
00000290: 8bce a93c 0abc c33c 1cd0 54ba c772 07bc
000002a0: 9a8a 253c 83ed c0bc d981 4f3c ebd5 493b
000002b0: a5c6 1a3d 94d5 19bb 33e7 f93c 984d e1bb
000002c0: 099c 51bc 64a1 45bd f5de b73c ea05 b9bb
000002d0: 485d c1bc f9ca f5bc c173 a83a aa06 f73c
000002e0: 1056 2cbd d191 af3c 39c5 21bc 9289 e3bc
000002f0: 63a7 2e3d 3e43 45bc 3663 913b c79d a8bc
00000300: b70a 0bbc dac1 8ebc 539f e23b fdf4 6bbd
00000310: e605 3abd 4215 ff3c 26ac b1bb 8cb3 7e3c
00000320: 04c1 103c 6691 bebc f781 003d 7731 b7bc
00000330: 6536 dd3c 1e9a 4f3d 2b4d 37bc a0c4 033d
00000340: af42 0fbd 985e 953b 0611 5b3d c723 3fbd
00000350: fdd1 18bc 36c8 5bbc 58dd 73bc f18b 2b3d
00000360: 17a4 2fbd 43a8 67bb cd85 0f3b a86a 673d
00000370: d710 eb3c 7cc4 52bd 25f8 68bc 2c9c f33d
00000380: c86d 21be 2e0f 56bd 49ae 1ebd e237 77bc
00000390: 6dda 9739 d3ec 593b 574a fa3b 0458 f4ba
000003a0: 5d39 01bd a3aa 453c 9a75 bbbc 2470 5d3b
000003b0: 9dcf 9c3c 0a98 73bc 88e1 c83b abb7 1fbc
000003c0: 3883 383c fc2d 74bc 0d45 1d3c 4708 de3c
000003d0: c9be 5a3c 55bf 06bc 4e29 5bbc 393c dbbb
000003e0: f425 c7bc f072 aebb d140 2fbc db3f 903c
000003f0: 3768 7f3c 5a34 813c 8f8d 71ba 0b9a 9e3c
0.036077857 -0.064329855 0.005077702 0.02845528 -0.039791405 0.08054866 -0.05350903 -0.081179984
0.0001262392 -0.013995848 -0.007731814 -0.01262855 0.044564705 -0.03426428 0.00019860285 -0.020649198
-0.011121348 -0.02821175 0.027273508 0.06989561 0.027353782 -0.0046348777 0.042717 0.04997186
-0.016473485 0.02822517 0.06531624 0.042591233 0.031667247 -0.006237978 0.045777068 0.04804796
-0.020635966 0.019574234 0.0077265017 0.0037992836 0.081059076 -0.028129013 -0.0042371512 0.06468117
-0.01480005 0.013469399 -0.0041216626 0.0008260579 0.0050727166 -0.046208866 0.020262122 -0.046132732
-0.020573385 0.0011141511 0.029171016 -0.039116595 -0.0074695987 0.014118237 -0.053607903 -0.012178711
-0.014674883 0.0062997835 -0.03548855 -0.048305377 -0.07362043 -0.068182185 -0.022548828 -0.08124372
-0.0075243698 -0.0086181685 -0.04066955 -0.04676859 -0.0035872124 0.00080386846 -0.025690075 0.028682617
-0.011426052 -0.0054284255 0.0017156315 0.042285554 -0.0073078163 0.029309846 -0.050990358 -0.021601882
0.058497366 -0.02453842 0.010472515 0.019096132 0.0041671125 0.0037882917 0.020756623 0.011011614
0.034593925 0.008164387 0.027959963 0.016156442 0.020111995 -0.006266235 -0.02442493 0.05942197
0.008317165 0.019085085 0.040405612 0.0073188897 -0.008015741 0.06296912 -0.021380773 -0.022898316
-0.012870201 -0.017799025 -0.023650311 -0.018922843 0.033194114 -0.0053039202 -0.01976441 -0.036367543
-0.008430461 -0.028852263 -0.013117626 -0.0016891339 -0.032731805 0.011192691 -0.026560685 -0.01488589
0.018575188 0.022292152 0.019875197 -0.031377535 -0.012533123 -0.043801166 -0.010747444 0.0012932636
-0.027123317 -0.022361409 -0.021675866 -0.0024208934 -0.0025235615 -0.02937262 0.0031409354 -0.032190926
-0.005163953 -0.0042229556 -0.009354265 0.016241422 -0.026113229 -0.011607313 0.0061271405 0.0021473425
0.005857075 -0.018217526 -0.004787708 -0.01826699 -0.026080742 0.020540282 0.024307724 -0.004051702
0.010955944 -0.039161578 0.039531432 0.029436069 -0.021221483 0.003244301 0.04024772 0.017413367
0.019791042 0.03450749 -0.0083271945 0.014170943 0.02072837 0.023893375 -0.0008118169 -0.008267111
0.010103846 -0.023550754 0.012665235 0.003079767 0.0377871 -0.002347325 0.030505752 -0.006875705
-0.012793549 -0.048249617 0.022445181 -0.005646457 -0.02360405 -0.030004011 0.001285188 0.030154545
-0.042074263 0.021431835 -0.009873682 -0.02777556 0.0426401 -0.012039958 0.0044368757 -0.020583047
-0.008486441 -0.01742642 0.0069159656 -0.057606686 -0.04541578 0.031138066 -0.005422133 0.015545737
0.008835081 -0.02326269 0.031373944 -0.022362454 0.027003476 0.050684087 -0.011187832 0.032169938
-0.034975704 0.0045583956 0.05348303 -0.04666498 -0.009327409 -0.013414433 -0.014884315 0.041881505
-0.042881098 -0.0035348095 0.002189982 0.0564982 0.028694553 -0.051456913 -0.0142193185 0.11895022
-0.15764534 -0.05226057 -0.03874043 -0.015089007 0.00028963704 0.003325273 0.0076382565 -0.0018641953
-0.031548847 0.012064609 -0.022883225 0.0033788765 0.019141966 -0.014867792 0.006130401 -0.00974838
0.011261754 -0.014903542 0.0095989825 0.027103556 0.013351151 -0.008224328 -0.013376547 -0.0066905287
-0.02431009 -0.00532376 -0.010696606 0.017608574 0.015588812 0.015772033 -0.0009214514 0.019360563

bn1d0.running_mean f4 [739]
00000000: c817 79bb 8409 19bb 161d dbba e1f8 b3bb
00000010: 5a12 b5bb 7839 d3bb 8c38 91bb 1955 e1ba
00000020: 8217 ce3a be21 713a 30b3 dbb8 15db 03bb
00000030: 1e79 52bb 181e 87bb c7cf 56bb 72cf 20bb
00000040: faef d0ba be25 59ba 6a39 4d39 fa39 12b9
00000050: 3d60 6d3a 4d91 353a 9302 883a 8dd3 e83a
00000060: c6e1 f93a 5b40 273b 2c39 033b 72af 0f3b
00000070: 6d9d 113b b01d 143b 4b05 133b a0d0 013b
00000080: b545 033b 7ad4 d13a e956 f73a c418 bc3a
00000090: f5e9 7a3a fa71 523a 7a3b fd39 3051 df39
000000a0: 2390 5d39 c64f 4ab9 8b1c 87b9 5498 71b9
000000b0: e156 33ba 422a 1cba bde1 85ba 5440 a0ba
000000c0: ae25 80ba df6a daba 7b86 c0ba 0db2 bdba
000000d0: 55fe daba 7a75 deba 74fc 1dbb e3ca 1fbb
000000e0: 4cf2 6abb ca39 92bb da50 cabb 33e3 f9bb
000000f0: b887 13bc 8208 17bc a360 0dbc 0467 21bc
00000100: 2b45 aebb 8039 7dbb df4f 3abb 5122 efba
00000110: 44cc c7ba f477 a9ba e7f6 a8ba bc4c 88ba
00000120: 9b02 cdba 50cf 75ba b2a4 37ba 6ff3 02ba
00000130: e20d 01ba ea91 2cb9 f532 a539 0c54 e539
00000140: dc52 253a 7ee3 7f3a 7da7 a63a bac1 863a
00000150: cfdf 723a 9e5b 723a 8ede 5e3a 9edc 863a
00000160: 788b 543a 0d6f 1a3a bc6b 1c3a b28b 033a
00000170: 0117 d439 1c1e e739 27d5 5238 3865 25b9
00000180: bbfd 5738 f8e0 07ba a786 44ba 4339 60ba
00000190: 2209 aaba 70e7 13bb a6d6 edba 68f3 10bb
000001a0: 999c 2fbb 92ad 3bbb 2913 5cbb 124b 73bb
000001b0: b34a 87bb 8830 96bb 3a1c d6bb 3a7d aebb
000001c0: 93c5 b6bb d38a b1bb 258c b5bb e44b b1bb
000001d0: d47d a4bb 8107 9dbb 5d5d 90bb 923c 89bb
000001e0: 8804 aebb 5c94 84bb 9b7f 97bb 6fd9 a3bb
000001f0: e7cb c4bb d144 f6bb 97d5 14bc 5154 31bc
00000200: 4af8 4abc 9e04 94bc a19e 63bc bac4 5abc
00000210: 1382 47bc 556f 2cbc a836 12bc 1a31 f2bb
00000220: 321f c2bb cc04 9abb 1455 7dbb ceb0 80bb
00000230: 0eb4 1abb 2e3e e6ba afea bdba 62e7 91ba
00000240: 015f 63ba 7619 14ba ba02 aeb9 8e11 90b9
00000250: 00dc 1bb9 aefc 6838 138f 4539 d179 bf39
00000260: 6aad 4b3a c4c3 663a d2f9 9e3a 2886 ad3a
00000270: bbdb ca3a 1479 d23a 4d24 1c3b 7474 fd3a
00000280: ad76 013b a87d 0b3b 9364 093b 4777 0c3b
00000290: c989 0c3b e853 153b 0ab9 123b 4a8d 433b
000002a0: 436d 123b e56e 143b e85b 133b 3dbe 0b3b
000002b0: 2fa2 0a3b 6257 093b f4ab 083b 06e7 013b
000002c0: 9668 083b 3db9 223b c60d 073b 5527 f13a
000002d0: 96d9 f23a d9bd f83a aaf1 e33a e578 e63a
000002e0: f05a ee3a eb62 e43a 8bdc 123b 76cf d63a
000002f0: 6d20 d23a 2b00 df3a 72bd ce3a 4306 d33a
00000300: d6c2 d13a 3816 d53a bf3f c33a dc7b 063b
00000310: 8891 9f3a 2504 c03a 3d4b bf3a 434c ad3a
00000320: 266d bc3a 4e06 a03a 1d38 a13a 6c8b ac3a
00000330: 62f3 7c3a 1263 c83a b414 633a 9179 863a
00000340: 7102 8c3a b271 983a 285e c73a a75d 193b
00000350: 3f3d 533b 4e55 aa3b 76e0 373c 77d3 4b3c
00000360: f229 8e3c 199f ac3c 24e5 b93c f4b2 ba3c
00000370: dc24 8f3c 9c64 2c3c 7fd9 6a3b d8d8 9eb9
00000380: 1c6e 7cbb 126b ccbb 6d21 cabb 524a fd3a
00000390: 7975 fd3a 7a3b 003b d26e fe3a aa3b fa3a
000003a0: 12d7 fd3a 640b 003b 5eee fe3a 50f1 ff3a
000003b0: d4e2 ff3a 03c3 003b 6860 fe3a 8a4e fa3a
000003c0: 251f fe3a cd64 fb3a 90bf 003b bb89 fd3a
000003d0: 1a04 053b 2335 fe3a ec9f 023b 3c23 083b
000003e0: 85fe 043b 15d5 ff3a cf8c fd3a 6987 fc3a
000003f0: 1236 003b 4edd ff3a 5608 fe3a 331d 013b
-0.003800856 -0.002335162 -0.0016717042 -0.005492315 -0.0055258693 -0.00644606 -0.0044317897 -0.0017191499
0.0015723559 0.00091984484 -0.0001047611 -0.0020119597 -0.0032115649 -0.0041234605 -0.0032777654 -0.002453771
-0.0015940659 -0.0008283517 0.00019571712 -0.00013945243 0.0009055173 0.00069262536 0.0010376744 0.0017763242
0.0019064478 0.0025520537 0.002002309 0.0021924642 0.0022219077 0.0022600703 0.0022433575 0.0019808188
0.0020030562 0.0016008758 0.0018870506 0.0014350642 0.00095716055 0.0008027848 0.00048300234 0.00042594364
0.00021129898 -0.00019293939 -0.00025770473 -0.00023040298 -0.0006841254 -0.00059572246 -0.001021437 -0.0012226203
-0.0009776854 -0.001666393 -0.0014688516 -0.0014472619 -0.0016707877 -0.0016972267 -0.0024106773 -0.0024382405
-0.0035849987 -0.0044624554 -0.006174189 -0.007625961 -0.009004526 -0.009218337 -0.008628997 -0.009851221
-0.005318304 -0.003863901 -0.0028428955 -0.001824448 -0.0015243371 -0.0012929426 -0.0012890965 -0.0010398845
-0.0015641035 -0.00093769 -0.00070054375 -0.0004995381 -0.0004923028 -0.00016457555 0.00031509218 0.00043740903
0.00063065975 0.0009761377 0.001271471 0.0010281124 0.00092649175 0.00092452194 0.0008501791 0.0010289138
0.00081079407 0.00058911816 0.00059669814 0.00050180696 0.0004045293 0.00044082187 5.0266415e-05 -0.00015773333
5.14963e-05 -0.0005183364 -0.00074968714 -0.00085534545 -0.0012972692 -0.0022568367 -0.0018145635 -0.0022117738
-0.002679622 -0.0028637392 -0.0033580756 -0.0037123603 -0.004128778 -0.004583422 -0.0065341266 -0.0053249868
-0.005577752 -0.0054181605 -0.005540388 -0.005410658 -0.0050198827 -0.0047921543 -0.004405661 -0.0041881287
-0.0053105988 -0.004046006 -0.004623366 -0.0050002853 -0.0060057524 -0.007515528 -0.009084127 -0.010823325
-0.012388298 -0.018068608 -0.013892801 -0.013352567 -0.012177008 -0.0105245905 -0.008924164 -0.0073911073
-0.005924129 -0.004700279 -0.0038655447 -0.0039273268 -0.0023605856 -0.0017566138 -0.0014489497 -0.001113158
-0.00086735195 -0.0005649546 -0.00033189898 -0.000274789 -0.00014863908 5.5548437e-05 0.00018840683 0.0003652112
0.0007769676 0.0008802975 0.0012128896 0.0013238834 0.0015476862 0.0016057813 0.0023825348 0.0019337074
0.0019754574 0.0021284614 0.0020964488 0.00214334 0.002144443 0.0022785608 0.0022388124 0.0029838854
0.0022342957 0.0022649106 0.00224852 0.0021323108 0.0021153798 0.0020956625 0.0020854445 0.0019821539
0.0020814291 0.002482965 0.0020607575 0.0018398563 0.001852798 0.0018977477 0.0017390747 0.0017583637
0.001818506 0.0017424499 0.0022409286 0.0016388732 0.0016031392 0.00170136 0.0015773012 0.0016099889
0.00160035 0.0016257232 0.0014896317 0.0020520603 0.0012174109 0.0014649673 0.0014594566 0.001322158
0.001437579 0.001220891 0.0012300048 0.001316411 0.0009649304 0.0015288314 0.0008662448 0.0010259618
0.001068188 0.0011630564 0.0015210556 0.0023401768 0.003223255 0.0051981574 0.011222949 0.012440554
0.017353985 0.021071957 0.02269227 0.02279041 0.01747363 0.010522034 0.0035835204 -0.0003029767
-0.0038517779 -0.0062383497 -0.0061685354 0.0019324517 0.0019337378 0.00195667 0.0019411689 0.0019091268
0.0019366464 0.001953804 0.0019449701 0.0019526873 0.0019522556 0.0019647486 0.0019407393 0.0019096893
0.0019387944 0.0019179821 0.001964543 0.0019343415 0.0020296634 0.0019394498 0.0019931747 0.0020772954
0.0020293307 0.001951846 0.0019344332 0.001926643 0.0019563478 0.001952091 0.0019381146 0.0019701242

bn1d0.running_var f4 [739]
00000000: 01a9 9537 6640 2e37 e593 0037 2278 cd36
00000010: 0326 0037 0cbc 8b36 f227 5d36 74c6 ed35
00000020: f225 1736 7e5e c335 5199 1936 4433 1136
00000030: e819 f835 864d e935 aab1 b935 bb5e 8c35
00000040: 0f18 9d35 85fc 6d35 7a44 5f35 b8ee 9d35
00000050: 569f 3c35 f01f 0535 eb3a 7f35 3e49 5635
00000060: f8e3 4b35 2954 1735 33a8 3d35 2ad7 1d35
00000070: 84e7 1035 0fe0 eb34 988f e834 b33e 1435
00000080: 475c d234 9502 d434 bef5 e734 e418 0b35
00000090: c962 e734 62e5 f434 b834 d034 54b9 f534
000000a0: 5337 df34 906f eb34 d566 d234 9f4b 1535
000000b0: e359 0235 5d70 0d35 5865 eb34 ac2a ed34
000000c0: 0f5b c434 baaa b134 b9c3 eb34 ef06 0b35
000000d0: 4fda da34 6884 f334 bbc5 1635 6d51 1935
000000e0: a379 0b35 ba0e 4835 5eba 8e35 e2d8 d935
000000f0: 2908 fb35 f6b9 d335 60eb e135 89dc fc35
00000100: 2d62 2e35 1146 ed34 37c5 e134 a6d1 bf34
00000110: 99a6 b934 3701 9834 f227 a234 59d4 9a34
00000120: aa3a a834 63b4 aa34 dcdb b934 8aa8 9b34
00000130: 1146 8634 085f 5534 aa4b 9c34 2d85 8034
00000140: cae7 a334 3449 8134 54f4 b534 b2a5 ae34
00000150: a8c1 6234 9bc8 6934 543a 7734 675f 3934
00000160: a795 3234 d302 4a34 f7aa 6634 ab8a 3d34
00000170: 0eac 0334 69db 3634 b65a 5034 7fcd 3a34
00000180: 8a21 3934 43b9 2834 a13e 2c34 91a1 2d34
00000190: f5fa 2734 b736 4b34 cb68 1a34 6149 4834
000001a0: d993 8834 6af0 8034 4540 6b34 3b16 ba34
000001b0: 3b61 9d34 ddc5 e034 c5fa 3c35 5dc9 d834
000001c0: 478d 1035 7c12 0e35 d31f e634 3230 ce34
000001d0: 8c69 fa34 58b1 c934 6f00 ad34 97e9 9134
000001e0: 0260 f234 16c7 8f34 e31f 8834 8c31 af34
000001f0: af6f 0635 5303 3935 df89 5d35 28a8 a535
00000200: fc34 dc35 1f01 6636 3b20 0d36 68e7 0e36
00000210: f750 f335 0bc7 e035 a48c aa35 bf0e 8435
00000220: 851c 2b35 aae7 1235 598d 9d34 e73f fb34
00000230: 1277 2b34 a080 8b34 408d 0934 ab3f 2734
00000240: 8cad 2034 a9bb f233 cb18 1434 281c f233
00000250: 598e 0834 6e2e f933 2258 da33 8b2c 0934
00000260: a10e 4d34 563b f733 e243 3c34 1fc2 8734
00000270: 95e9 4034 e498 5234 44f9 9c34 090e 2b34
00000280: 67e4 6f34 8463 4734 d1cd 7e34 a651 8834
00000290: 3710 5534 9a6f 3534 4494 9034 500b a034
000002a0: aad0 7034 cd8e 6534 64cc 6634 2f31 4c34
000002b0: d0b4 8b34 067b 9634 fb49 6e34 cadb 9634
000002c0: 4341 7d34 0217 7f34 23e6 8334 aa78 a334
000002d0: e1e5 9334 bd1b a934 9228 7434 dbd9 8034
000002e0: 2084 9334 5184 bb34 9f73 af34 81f2 8534
000002f0: 1622 b234 b2b8 c234 d7bb f134 9397 e634
00000300: 0bef a934 7cb3 f634 5ce5 c934 e8f5 f034
00000310: 1acf fa34 15a7 ea34 5b0f 0835 abb3 d634
00000320: 4619 3635 5f1f 1435 7896 0c35 0216 1535
00000330: 87c7 2e35 b64f 3835 874d 6135 1fe5 ab35
00000340: 666f 8235 4cf2 6235 8644 7a35 ed56 8535
00000350: d600 8235 223b a535 1d87 5336 d29b 9d36
00000360: 774c fe36 2efb 4337 d851 6a37 2d47 8337
00000370: 3216 6037 e83b 8537 dc41 7e37 5cc3 9637
00000380: 6f53 c537 d207 1738 b036 6c38 a74e 322f
00000390: 6a41 8d2e d270 902f e695 3e2f f27e 8d2c
000003a0: 2ff2 842e e6fa 652f 34db 4d2f cd44 9b2f
000003b0: faf5 f02f a13b 132f b814 162f 3cfd 642d
000003c0: b8a5 d62e 6229 292e 9966 282f 7149 2e2f
000003d0: 35fc 1830 fc52 f52e 76ba e52f 2e60 1c30
000003e0: 9448 f52f 8a90 8b2f 2124 8d2e a91b 042f
000003f0: dd02 472f 82b1 842e 8a98 de2e e8c7 842f
1.7840883e-05 1.0386202e-05 7.663829e-06 6.1234614e-06 7.638245e-06 4.1644143e-06 3.2954817e-06 1.7715633e-06
2.252284e-06 1.4556133e-06 2.2888019e-06 2.1636524e-06 1.848498e-06 1.7382415e-06 1.3835281e-06 1.0458383e-06
1.1704414e-06 8.8656844e-07 8.317362e-07 1.1766888e-06 7.026732e-07 4.9592836e-07 9.508064e-07 7.9827794e-07
7.595513e-07 5.637435e-07 7.065275e-07 5.880016e-07 5.398108e-07 4.3935185e-07 4.3317846e-07 5.5225536e-07
3.918269e-07 3.9489956e-07 4.3205904e-07 5.1817756e-07 4.309898e-07 4.561544e-07 3.8781377e-07 4.576965e-07
4.157724e-07 4.3853333e-07 3.9190368e-07 5.561687e-07 4.8559576e-07 5.2690103e-07 4.3845898e-07 4.4175738e-07
3.65741e-07 3.309304e-07 4.3914568e-07 5.1791625e-07 4.0764505e-07 4.5358615e-07 5.616709e-07 5.711543e-07
5.195854e-07 7.4527236e-07 1.0634064e-06 1.6230881e-06 1.8703332e-06 1.5774847e-06 1.683231e-06 1.8839647e-06
6.4962916e-07 4.419567e-07 4.2053009e-07 3.5729062e-07 3.458015e-07 2.831309e-07 3.0203915e-07 2.8839239e-07
3.1335122e-07 3.1796216e-07 3.4618904e-07 2.8993628e-07 2.5010425e-07 1.9871743e-07 2.9112317e-07 2.3938756e-07
3.0529765e-07 2.4081385e-07 3.389165e-07 3.2530585e-07 2.1118342e-07 2.1772796e-07 2.3024887e-07 1.7264175e-07
1.6631985e-07 1.8813743e-07 2.1482616e-07 1.7652444e-07 1.2262919e-07 1.7029892e-07 1.940451e-07 1.7397359e-07
1.7241669e-07 1.5713617e-07 1.6041533e-07 1.6170658e-07 1.5644385e-07 1.8925753e-07 1.4380491e-07 1.8653147e-07
2.5439547e-07 2.4016782e-07 2.1909462e-07 3.4661375e-07 2.9314273e-07 4.1867216e-07 7.0400375e-07 4.0379646e-07
5.3849766e-07 5.292602e-07 4.2863994e-07 3.8405557e-07 4.6642924e-07 3.7568202e-07 3.2224077e-07 2.7178314e-07
4.5145867e-07 2.678068e-07 2.5355175e-07 3.263234e-07 5.008141e-07 6.892271e-07 8.2529544e-07 1.2342398e-06
1.6406698e-06 3.4273323e-06 2.1029398e-06 2.1294345e-06 1.8128475e-06 1.674723e-06 1.2706919e-06 9.839058e-07
6.3743965e-07 5.4726354e-07 2.9346373e-07 4.6798888e-07 1.5968934e-07 2.5984355e-07 1.2810506e-07 1.5576249e-07
1.4964297e-07 1.1303138e-07 1.3792594e-07 1.1274125e-07 1.2717773e-07 1.16034116e-07 1.0167447e-07 1.2775324e-07
1.9097435e-07 1.1512627e-07 1.753356e-07 2.528695e-07 1.796637e-07 1.9613395e-07 2.923863e-07 1.5930722e-07
2.2341702e-07 1.8569523e-07 2.3730469e-07 2.539138e-07 1.984307e-07 1.6897539e-07 2.6929968e-07 2.9810553e-07
2.2427653e-07 2.1379238e-07 2.1494776e-07 1.9016873e-07 2.6022326e-07 2.8029189e-07 2.2192391e-07 2.8099595e-07
2.3586203e-07 2.3757096e-07 2.4568098e-07 3.044891e-07 2.7548143e-07 3.1498885e-07 2.273903e-07 2.400037e-07
2.7477017e-07 3.4927737e-07 3.2680416e-07 2.4949625e-07 3.3179884e-07 3.62697e-07 4.502642e-07 4.2951123e-07
3.165263e-07 4.5951663e-07 3.7606048e-07 4.4882404e-07 4.6716815e-07 4.3707465e-07 5.0686293e-07 3.9991332e-07
6.783706e-07 5.517995e-07 5.2373025e-07 5.553885e-07 6.51104e-07 6.8661336e-07 8.393185e-07 1.2807176e-06
9.718176e-07 8.454415e-07 9.323197e-07 9.934571e-07 9.685998e-07 1.2310668e-06 3.1520096e-06 4.6971045e-06
7.5786916e-06 1.1681388e-05 1.3966543e-05 1.564956e-05 1.3356608e-05 1.5882732e-05 1.5154914e-05 1.7972365e-05
2.3523082e-05 3.600849e-05 5.6317716e-05 1.6216949e-10 6.4235575e-11 2.627361e-10 1.7333654e-10 4.021555e-12
6.0456855e-11 2.0916566e-10 1.8722518e-10 2.8243222e-10 4.3830523e-10 1.3390757e-10 1.3649781e-10 1.3016529e-11
9.761031e-11 3.8462906e-11 1.5315961e-10 1.58513e-10 5.5655686e-10 1.1156051e-10 4.1787346e-10 5.688915e-10
4.461681e-10 2.5386654e-10 6.4183554e-11 1.2015157e-10 1.8099962e-10 6.034197e-11 1.01224876e-10 2.4152702e-10

bn1d1.weight f4 [512]
00000000: 0000 803f fd09 803f 0000 803f 9f4c 7e3f
00000010: 0000 803f f3f6 7f3f 0000 803f 4417 803f
00000020: 0000 803f e4fe 7f3f 0000 803f 0772 803f
00000030: 0000 803f ba1d 803f 0000 803f 3cd1 7f3f
00000040: 0000 803f 5c01 803f 0000 803f 91f8 7f3f
00000050: 0000 803f fef3 7d3f 0000 803f fbda 7c3f
00000060: 0000 803f c136 803f 0000 803f 6318 803f
00000070: 0000 803f 7eda 7f3f 0000 803f d5ee 7f3f
00000080: 0000 803f 2e8c 843f 0000 803f c74d 843f
00000090: 0000 803f 3eff 7f3f 0000 803f 1302 803f
000000a0: 0000 803f bc27 803f 0000 803f 5f29 803f
000000b0: 0000 803f 0ce6 7f3f 0000 803f 5ded 7f3f
000000c0: 0000 803f 6cf3 7f3f 0000 803f 3a01 803f
000000d0: 0000 803f 58fa 803f 0000 803f b36d 7f3f
000000e0: 0000 803f 94ff 7f3f 0000 803f 86fc 7f3f
000000f0: 0000 803f 3266 823f 0000 803f d3c8 813f
00000100: 0000 803f 8927 823f 0000 803f 9bb5 813f
00000110: 0000 803f f426 803f 0000 803f cad6 7f3f
00000120: 0000 803f 1f75 803f 0000 803f a480 7e3f
00000130: 0000 803f e003 803f 0000 803f b4fa 7f3f
00000140: 0000 803f a6aa 7f3f 0000 803f c01a 803f
00000150: 0000 803f 1ae1 7c3f 0000 803f 715d 7d3f
00000160: 0000 803f 01c8 833f 0000 803f 3013 823f
00000170: 0000 803f c0d3 7f3f 0000 803f f413 803f
00000180: 0000 803f 0f56 7f3f 0000 803f 1906 7f3f
00000190: 0000 803f ebe4 7f3f 0000 803f 30e3 7f3f
000001a0: 0000 803f e900 803f 0000 803f dfe8 7f3f
000001b0: 0000 803f 1c0a 803f 0000 803f f0eb 7f3f
000001c0: 0000 803f acf8 7f3f 0000 803f 5101 803f
000001d0: 0000 803f 8da5 803f 0000 803f 37dc 7f3f
000001e0: 0000 803f 813e 813f 0000 803f 529c 803f
000001f0: 0000 803f 8601 803f 0000 803f be02 803f
00000200: 0000 803f 5ca3 833f 0000 803f 52f0 833f
00000210: 0000 803f 1beb 7f3f 0000 803f 4bec 7f3f
00000220: 0000 803f 9b18 803f 0000 803f 930c 803f
00000230: 0000 803f 23d3 7d3f 0000 803f 24a0 7b3f
00000240: 0000 803f 3fb4 843f 0000 803f a0e6 823f
00000250: 0000 803f 64e5 7f3f 0000 803f e2df 7f3f
00000260: 0000 803f f601 803f 0000 803f 78f8 7f3f
00000270: 0000 803f ae5c 803f 0000 803f 303b 803f
00000280: 0000 803f 785d 7f3f 0000 803f 4c15 803f
00000290: 0000 803f 4104 803f 0000 803f 39e3 7f3f
000002a0: 0000 803f 64fc 7f3f 0000 803f 75f9 7f3f
000002b0: 0000 803f 4a69 863f 0000 803f 5198 863f
000002c0: 0000 803f b307 803f 0000 803f 3b09 803f
000002d0: 0000 803f 14f9 7f3f 0000 803f 2ffa 7f3f
000002e0: 0000 803f 8db1 7e3f 0000 803f e093 7c3f
000002f0: 0000 803f 06fa 7f3f 0000 803f 7839 803f
00000300: 0000 803f 0dfd 7f3f 0000 803f 24ff 7f3f
00000310: 0000 803f 084b 853f 0000 803f 4515 833f
00000320: 0000 803f 14e1 7f3f 0000 803f 7ee1 7f3f
00000330: 0000 803f 84fa 7f3f 0000 803f d601 803f
00000340: 0000 803f 7c6d 7d3f 0000 803f 0f54 7c3f
00000350: 0000 803f 11bf 7e3f 0000 803f 9b1d 7e3f
00000360: 0000 803f 9ffc 7f3f 0000 803f de05 803f
00000370: 0000 803f 1efe 7e3f 0000 803f a88f 803f
00000380: 0000 803f 630f 7f3f 0000 803f c776 803f
00000390: 0000 803f 6300 803f 0000 803f 73ec 7f3f
000003a0: 0000 803f 6674 833f 0000 803f 3e92 843f
000003b0: 0000 803f 09a8 823f 0000 803f d617 823f
000003c0: 0000 803f f1da 7f3f 0000 803f 8bfc 803f
000003d0: 0000 803f 680e 803f 0000 803f fad4 7f3f
000003e0: 0000 803f d46c 7f3f 0000 803f c71e 813f
000003f0: 0000 803f 19f2 7f3f 0000 803f 52b8 7f3f
1.0 1.0003048 1.0 0.99335665 1.0 0.9998619 1.0 1.00071
1.0 0.9999831 1.0 1.0034798 1.0 1.0009072 1.0 0.9992864
1.0 1.0000415 1.0 0.9998866 1.0 0.9920043 1.0 0.9877164
1.0 1.001671 1.0 1.0007442 1.0 0.9994277 1.0 0.99973804
1.0 1.035528 1.0 1.0336236 1.0 0.99998844 1.0 1.0000633
1.0 1.0012126 1.0 1.0012625 1.0 0.999604 1.0 0.9997156
1.0 0.9998081 1.0 1.0000374 1.0 1.0076399 1.0 0.9977676
1.0 0.99999356 1.0 0.99994695 1.0 1.0187438 1.0 1.0139412
1.0 1.0168315 1.0 1.0133547 1.0 1.0011888 1.0 0.9993712
1.0 1.0035743 1.0 0.9941504 1.0 1.0001183 1.0 0.9999192
1.0 0.99869764 1.0 1.0008163 1.0 0.9878098 1.0 0.98970705
1.0 1.0295411 1.0 1.0162106 1.0 0.9993248 1.0 1.0006089
1.0 0.9974069 1.0 0.9961868 1.0 0.99958676 1.0 0.99956036
1.0 1.0000278 1.0 0.9996471 1.0 1.0003085 1.0 0.9996939
1.0 0.9998882 1.0 1.0000402 1.0 1.0050522 1.0 0.99945396
1.0 1.00972 1.0 1.0047705 1.0 1.0000465 1.0 1.0000837
1.0 1.0284228 1.0 1.0307715 1.0 0.9996812 1.0 0.9996993
1.0 1.0007509 1.0 1.0003837 1.0 0.99150294 1.0 0.9829123
1.0 1.0367507 1.0 1.0226631 1.0 0.999594 1.0 0.99950993
1.0 1.0000598 1.0 0.9998851 1.0 1.0028284 1.0 1.0018063
1.0 0.99751997 1.0 1.0006499 1.0 1.0001298 1.0 0.9995609
1.0 0.9999449 1.0 0.99990016 1.0 1.0500882 1.0 1.0515233
1.0 1.000235 1.0 1.0002817 1.0 0.9998944 1.0 0.99991125
1.0 0.9948967 1.0 0.9866314 1.0 0.9999088 1.0 1.0017538
1.0 0.999955 1.0 0.9999869 1.0 1.0413523 1.0 1.0240866
1.0 0.99952817 1.0 0.9995345 1.0 0.9999163 1.0 1.000056
1.0 0.98995185 1.0 0.98565763 1.0 0.99510294 1.0 0.99263924
1.0 0.99994844 1.0 1.000179 1.0 0.996065 1.0 1.004384
1.0 0.99632853 1.0 1.0036248 1.0 1.0000118 1.0 0.9997017
1.0 1.0269897 1.0 1.035713 1.0 1.020753 1.0 1.0163524
1.0 0.99943453 1.0 1.007707 1.0 1.0004396 1.0 0.9993435
1.0 0.99775434 1.0 1.0087517 1.0 0.99978787 1.0 0.99890625

bn1d1.bias f4 [512]
00000000: 0895 113c 2fae 8c3b bfcd 72bc 3e43 8b3b
00000010: 00ff 803c b6d7 d0b8 01bf 2c3c ab73 c93c
00000020: e1e7 eabb 7242 e33b b8f7 23bc 5c1c 203c
00000030: cf63 613c 32b4 b1bc 98f4 c73b ece5 50bc
00000040: 79d0 74bc 0ae4 aabb 9752 e23b d4b9 0d3c
00000050: f542 a03b d0f7 efbc 924d 75bb 1040 90bb
00000060: 9e6a 253c c7d3 e8bb 4571 00bd 4b12 193c
00000070: f6c2 843b 984a 163c 88a4 05bc ccfe f63b
00000080: 78d1 2bbc 7c21 b33c b9d7 2b3b a76d e73c
00000090: 5988 853b e97b 46bc d227 b0bb 0f90 103c
000000a0: acaf 11ba 3587 18bb aaa0 6f3c b480 15bc
000000b0: 6548 903b e4ba 883b 0779 893c 0485 633b
000000c0: 753b 90bb 873b cdbb 6e43 553c 0017 a3bc
000000d0: 2880 643c 3607 6b3c dc86 07bc 64ac 1f3c
000000e0: a91f a93c 3afb ce3b 5949 873c d813 0dbb
000000f0: ea3d 0dbc 2e15 d8bc eff0 65bb 5740 41bd
00000100: f551 a73c b61c 253c c573 8e3c 788f 27bb
00000110: 5831 943a a8fc 433c ff34 e93b 8766 00bb
00000120: efcf 8e3c 3ace cbbc d85b fabb a0ab 97b8
00000130: 4bab 7a3b 2d4b 52bc 3b2f 153a 2ac4 bcba
00000140: ba67 c3bb 63ad e2bc d96d 9339 d6c4 c03c
00000150: cd06 8fbb e595 03bd ed94 1d3c 38f2 35bc
00000160: e468 4bbb 4cac 883c 9fb1 313c b8b8 4b3c
00000170: 453f 843c f359 1fbc 77fd 33bc 8ba4 cc3c
00000180: 5605 4ebc f1f6 9e3b ff12 50bc 3b27 633c
00000190: 2ef1 ca3b bc9f 8fbc 0b6f 21bc aabe 123c
000001a0: f8ad 9339 03ac 343b 748d 2fbb 7711 2e3c
000001b0: 1f42 33bc 0a18 493b e99c 143c f090 443b
000001c0: ea2b 49bc 55d7 ba3b a34d 55bc 2264 123c
000001d0: 2fa2 633c 2ad9 a7bb b410 ba3c 17a2 23bc
000001e0: fd58 26bc 94a6 afbc 9879 96bb 5d15 edba
000001f0: 3382 e43c 8f95 c93b 573f 853c 0a72 20bc
00000200: 3aae 113c 7322 13bc 93b6 783c cd58 8a3b
00000210: 7ea0 8e3b 7389 77bc 12f3 b03c 9989 10bc
00000220: 09fd 993c d2c0 b7ba d884 d23b bde3 29bc
00000230: 630b 50ba 377b 3d3d 32c6 8e3c b8ec 5d3d
00000240: d8e6 c13b dd30 39bd db1e 95bb de90 69bd
00000250: 76d4 47bc a43f 51bc 3ad5 5238 3e3e b3bb
00000260: 0514 52bc 520b 473c e91c 81bc 356c 8dbc
00000270: f99b eb3a a36c b93b 204e b23c 3175 9c3b
00000280: 4c4a fd3b 71da 92bc 161e cfbc 98bc 94bb
00000290: 90ab f93b 738c ca3b 5db0 33bc 43a5 6b3c
000002a0: 6c82 993a 4072 deb8 2400 03bc b2f3 c4bb
000002b0: b49a 73bc 08c9 2cbc 8ffb babb f0ac c93c
000002c0: 7b5d a8bc f68b a23b cacd 51bc 0053 80bc
000002d0: ee3c 0a3c 485b 8fbb 88b8 ad3c 10ae 4dba
000002e0: 59c0 0fbb 51b6 32bd e52f ce3b 508c 0abd
000002f0: 4e18 053c 8ee5 103c c638 05ba 78f7 02bb
00000300: f436 1bbb 40a9 703b 50b7 9c3b 9be4 943c
00000310: 41aa c9bc c4d5 863d 7768 a83c 32e1 023d
00000320: 92c1 8cba 679f 873b fa74 aaba 8239 92bb
00000330: 6e7e 2c3c 7178 d33b 3da5 43bc 2cde bcba
00000340: ac18 003c 895c 17bd b08a 1b3c 9f64 2abd
00000350: 61f4 d5bb 00dd dab7 b1cc 163c 159c 053c
00000360: 7e2c 4fbc 05ab 5fbc 83fc 4ab8 fa6f 5d3b
00000370: 756b ba3c 5e3f a0bc defa ea3c 0ec6 a0bc
00000380: 3d38 a13a db2e 83bc 572a 12bc e450 463c
00000390: f78d 2fbb 68ba 59bc 6fff 673c 05dd b6bc
000003a0: cb12 8d3b 28dc 0f3d 2000 053c 79cb 2d3d
000003b0: 59db ffbb 6c39 27bd b3b5 d3bb 3f21 7fbc
000003c0: e864 393c 317e b7bd 3c58 613c d61c 9cbd
000003d0: 67b3 b83c 63a4 933b ac51 89bc 548c ad3a
000003e0: 339e 133b 82b0 99bc 75a3 4ebc 20dc a6bc
000003f0: 2954 0d3c a240 083c 19b6 b53b 5417 86bb
0.0088856295 0.0042932252 -0.0148195615 0.0042499593 0.015746593 -9.958392e-05 0.010543586 0.024591288
-0.0071687554 0.006935411 -0.010007791 0.009772386 0.013756706 -0.02169237 0.006102156 -0.01275013
-0.014942282 -0.0052151727 0.006906818 0.008650262 0.0048907944 -0.02929297 -0.0037430269 -0.004402168
0.01009622 -0.007105324 -0.031358022 0.00934274 0.0040515615 0.009173058 -0.008156903 0.0075376984
-0.010486953 0.021866553 0.002622111 0.028250528 0.004075092 -0.012114503 -0.0053758407 0.008823409
-0.0005557488 -0.002327395 0.014625708 -0.0091249235 0.0044031614 0.0041726697 0.016781343 0.0034716735
-0.004401619 -0.0062631997 0.013016565 -0.019908428 0.01394657 0.014344981 -0.008271899 0.009745691
0.02064498 0.0063165696 0.016514467 -0.002152672 -0.0086207185 -0.026377287 -0.0035086235 -0.0471805
0.020424822 0.010077646 0.017389188 -0.0025567692 0.001130621 0.011962093 0.0071169133 -0.001959236
0.017433135 -0.02487861 -0.007640343 -7.232209e-05 0.0038249071 -0.012835306 0.0005690937 -0.0014401723
-0.005963293 -0.027670568 0.00028119868 0.023531359 -0.0043648244 -0.032125372 0.009618026 -0.011105113
-0.0031037861 0.01668372 0.010845571 0.012434177 0.01614345 -0.009726035 -0.010985724 0.024980804
-0.012574514 0.004851215 -0.0126998415 0.013864334 0.0061933016 -0.017532222 -0.009853135 0.008956591
0.00028167642 0.0027568347 -0.0026787193 0.010624281 -0.0109410575 0.0030684494 0.009070613 0.0029993616
-0.012278536 0.005701939 -0.013018998 0.008935006 0.013893648 -0.0051223235 0.022713043 -0.009987376
-0.010153052 -0.021441735 -0.004592132 -0.0018088032 0.027894115 0.006151862 0.016265554 -0.009792814
0.0088916365 -0.008980381 0.015180248 0.0042220117 0.0043526283 -0.015108454 0.02160028 -0.008821868
0.018797414 -0.0014019257 0.0064245276 -0.010369238 -0.0007936267 0.046260085 0.017428491 0.05418083
0.0059174113 -0.045212615 -0.0045507974 -0.05702292 -0.012196651 -0.012771521 5.0266484e-05 -0.0054700663
-0.012822156 0.012148695 -0.015760856 -0.017263511 0.0017975561 0.0056587025 0.021765769 0.0047747125
0.007729804 -0.017926427 -0.0252829 -0.0045390837 0.007619329 0.0061812936 -0.010967341 0.014382663
0.0011711842 -0.000106070656 -0.007995639 -0.006010496 -0.014868427 -0.010545976 -0.0057062577 0.024618596
-0.020552387 0.0049605323 -0.012805412 -0.015664577 0.008437378 -0.0043748952 0.021206155 -0.0007846067
-0.0021934716 -0.0436309 0.0062923306 -0.03382522 0.0081234705 0.008843793 -0.0005082007 -0.0019983929
-0.0023683878 0.0036721975 0.0047825947 0.018175414 -0.024617316 0.06583741 0.020557625 0.031953044
-0.0010738841 0.0041388753 -0.0013004832 -0.004462422 0.01052819 0.0064535667 -0.011941251 -0.0014409474
0.007818382 -0.036953483 0.009493515 -0.041599866 -0.0065293764 -2.6090536e-05 0.009204076 0.008154889
-0.012644885 -0.013651614 -4.8395723e-05 0.0033788667 0.022756318 -0.019561466 0.028684076 -0.01962569
0.0012300086 -0.016013553 -0.008921227 0.012104247 -0.0026787499 -0.013289072 0.014160021 -0.022322187
0.004305219 0.035122067 0.008117706 0.042430375 -0.0078081307 -0.040826246 -0.006460869 -0.015571891
0.011315562 -0.08959616 0.013753947 -0.076226875 0.022546483 0.0045056804 -0.016762577 0.0013240674
0.0022524714 -0.018760923 -0.012612213 -0.020368636 0.008626022 0.008316191 0.0055453894 -0.0040921364

bn1d1.running_mean f4 [512]
00000000: 0000 0000 c295 893e 0000 0000 c204 913e
00000010: 0000 0000 e0ef 733d 0000 0000 856b 813d
00000020: 0000 0000 256c 053e 0000 0000 1a41 0d3e
00000030: 0000 0000 a0cd 5a3d 0400 0000 6540 673d
00000040: 38aa 8d1b 99e9 af3c 0400 0000 e4d0 ba3c
00000050: 0000 0000 2805 9b3e 0000 0000 7dd1 a33e
00000060: 0000 0000 aadd 073e 0000 0000 b901 103e
00000070: 5631 0530 22d5 2e3c 0400 0000 76da 393c
00000080: 0400 0000 48d0 cf3e 0400 0000 7307 db3e
00000090: 0400 0000 870f b23c 0400 0000 d705 bd3c
000000a0: 0000 0000 b3b5 0a3e 0000 0000 7eed 123e
000000b0: eafc 2f15 e7c2 b83c 0400 0000 1811 c43c
000000c0: 86e2 8222 ad1b 583c 0400 0000 f79f 653c
000000d0: 0000 0000 6c15 813e 0000 0000 b826 883e
000000e0: cc18 3229 235d ab3c 0400 0000 44e4 b53c
000000f0: 7e2b 4f1d ed43 ee3d 0400 0000 3120 fa3d
00000100: 0000 0000 865a 413e 0000 0000 b66c 4b3e
00000110: 251f cc1d ee37 353d 0400 0000 3312 403d
00000120: 7dfd 2c11 3239 123e 0400 0000 ee49 1a3e
00000130: 6bd9 fb08 9b07 bf3c 0400 0000 b897 ca3c
00000140: 0000 0000 2ed5 223d 0000 0000 acc6 2c3d
00000150: 0000 0000 aa7e 4e3e 0000 0000 a6e4 593e
00000160: d5d8 ca07 8b09 993e 0400 0000 2679 a03e
00000170: 0000 0000 9001 0e3d 0000 0000 e3b3 163d
00000180: 0000 0000 2471 1c3e 0000 0000 0d77 253e
00000190: 60e9 161e 25bb 743c 0400 0000 b7f7 813c
000001a0: 0000 0000 21f1 2e3d 0000 0000 799c 393d
000001b0: 0000 0000 becb 173d 0000 0000 0d19 213d
000001c0: 7a62 431d 862c c13c 0400 0000 3600 cd3c
000001d0: 0000 0000 b483 f03d 0000 0000 633a fe3d
000001e0: 6db9 7a18 936a 023e 0400 0000 9254 093e
000001f0: 0400 0000 d1e6 e13c 0400 0000 458f ef3c
00000200: 3919 1117 acd6 213e 0400 0000 8feb 2a3e
00000210: 0000 0000 be6e e13c 0000 0000 4071 ef3c
00000220: 0000 0000 dbf8 5f3d 0000 0000 a26b 6d3d
00000230: 0000 0000 fa8e f23e 0000 0000 2033 003f
00000240: 0000 0000 fdbe 973e 0000 0000 1082 9f3e
00000250: 2afa be0d 13fc d23c 0400 0000 67db df3c
00000260: 0000 0000 52fc 423d 0000 0000 67ee 4e3d
00000270: 0000 0000 4f98 123e 0000 0000 190a 1b3e
00000280: 2b5b ac30 a59a 0e3d 0400 0000 cd29 173d
00000290: a723 cc1d a63e 9c3c 0400 0000 00e2 a53c
000002a0: 0000 0000 d69a 493d 0000 0000 7fde 553d
000002b0: 9e2e 0530 589f 1e3e 0400 0000 baaa 273e
000002c0: 0400 0000 b39a e53c 0400 0000 f88a f33c
000002d0: 0000 0000 7d68 2c3d 0000 0000 97fc 363d
000002e0: 21f5 2d1c 4298 3f3e 0000 0000 7b05 4a3e
000002f0: 0000 0000 bd80 c53d 0400 0000 2bb6 d03d
00000300: cea3 9c27 bc73 4e3c 0400 0000 7049 5b3c
00000310: 1bf4 9328 6c46 e93d 0400 0000 e34f f33d
00000320: 0000 0000 8a69 383d 0000 0000 d2c3 433d
00000330: d0c6 582f 3f7e 893c 0400 0000 f0f0 913c
00000340: 0000 0000 d57a cd3e 0000 0000 e953 d83e
00000350: 0000 0000 ec37 1e3e 0000 0000 7c16 273e
00000360: 0000 0000 6b5b 013d 0000 0000 793f 093d
00000370: 0000 0000 ffb8 193e 0000 0000 a56e 223e
00000380: 0000 0000 706b 4f3e 0000 0000 5b45 5b3e
00000390: ca4d 5426 2664 943c 0400 0000 5185 9d3c
000003a0: 6a4e 6c26 af30 b03d 0400 0000 f2cd b93d
000003b0: e6d1 d813 540e 803e 0400 0000 3bda 863e
000003c0: 0000 0000 2d95 e63e 0000 0000 4a99 f33e
000003d0: 0000 0000 e2f9 143d 0000 0000 f019 1e3d
000003e0: 0000 0000 49b2 c13e 0000 0000 07af cc3e
000003f0: 0000 0000 db6a 053e 0000 0000 35f8 0c3e
0.0 0.2687207 0.0 0.28323942 0.0 0.059554935 0.0 0.06319336
0.0 0.13029535 0.0 0.13794366 0.0 0.053418756 6e-45 0.056457896
2.3436495e-22 0.021473693 6e-45 0.022804685 0.0 0.3027737 0.0 0.31995764
0.0 0.13268152 0.0 0.14063157 4.845523e-10 0.010670932 6e-45 0.011343589
6e-45 0.40588593 6e-45 0.4277912 6e-45 0.02173592 6e-45 0.023074074
0.0 0.13545875 0.0 0.14348409 3.5540483e-26 0.022553874 6e-45 0.023933932
3.547641e-18 0.013190192 6e-45 0.014015189 0.0 0.25211656 0.0 0.2659204
3.9545448e-14 0.020918434 6e-45 0.022203572 2.7418707e-21 0.116340496 6e-45 0.12213171
0.0 0.18882188 0.0 0.19865689 5.4030553e-21 0.04424279 6e-45 0.046892356
1.364652e-28 0.14279631 6e-45 0.15067264 1.5157628e-33 0.023319056 6e-45 0.024730548
0.0 0.039754085 0.0 0.042181656 0.0 0.20165506 0.0 0.21278629
3.0521024e-34 0.29890093 6e-45 0.3134243 0.0 0.03466946 0.0 0.036792647
0.0 0.15277535 0.0 0.16158696 7.989195e-21 0.014937197 6e-45 0.01586519
0.0 0.042710427 0.0 0.04531524 0.0 0.037059538 0.0 0.03933053
2.5858946e-21 0.0235808 6e-45 0.025024515 0.0 0.117438704 0.0 0.1241348
3.2405359e-24 0.12735967 6e-45 0.13411167 6e-45 0.027575882 6e-45 0.02924312
4.688386e-25 0.15804547 6e-45 0.16691421 0.0 0.027518626 0.0 0.029228806
0.0 0.054680686 0.0 0.057963975 0.0 0.47374707 0.0 0.5007801
0.0 0.296379 0.0 0.31153917 1.1769879e-30 0.025754964 6e-45 0.027326299
0.0 0.047603913 0.0 0.050520327 0.0 0.14315914 0.0 0.1514057
1.2540559e-09 0.03481545 6e-45 0.0369051 5.4035214e-21 0.019072842 6e-45 0.020249367
0.0 0.04921993 0.0 0.052214142 4.8451365e-10 0.15490472 6e-45 0.16373721
6e-45 0.028027868 6e-45 0.029729351 0.0 0.042091835 0.0 0.044674482
5.755772e-22 0.18710425 0.0 0.19728653 0.0 0.096436955 6e-45 0.10190996
4.3476295e-15 0.012600835 6e-45 0.013384208 1.6426142e-14 0.11390385 6e-45 0.118804716
0.0 0.045022525 0.0 0.04779417 1.9715718e-10 0.016783832 6e-45 0.017815083
0.0 0.40132776 0.0 0.42251518 0.0 0.1545102 0.0 0.16317171
0.0 0.031581324 0.0 0.033507798 0.0 0.15011977 0.0 0.1586252
0.0 0.20255828 0.0 0.21413176 7.36577e-16 0.01811416 6e-45 0.01922861
8.198522e-16 0.08603036 6e-45 0.09072484 5.473304e-27 0.25010931 6e-45 0.26338372
0.0 0.45035687 0.0 0.47577888 0.0 0.03637112 0.0 0.038598955
0.0 0.37831333 0.0 0.39977285 0.0 0.13029043 0.0 0.13766558

bn1d1.running_var f4 [512]
00000000: 0400 0000 115a 9c3a 0400 0000 4cba 943a
00000010: 0400 0000 a7f3 3d33 0400 0000 b526 3433
00000020: 0400 0000 75cb fc36 0400 0000 125c f036
00000030: 0400 0000 0414 8636 0400 0000 3b18 7d36
00000040: 0400 0000 0437 a730 0400 0000 4f26 9f30
00000050: 0400 0000 1473 233a 0400 0000 4168 1b3a
00000060: 0400 0000 19d9 2536 0400 0000 dd5c 1d36
00000070: 0400 0000 79fa 152f 0400 0000 f361 0e2f
00000080: 0400 0000 a1b2 ec3b 0400 0000 4ba2 e23b
00000090: 0400 0000 91a0 6031 0400 0000 09a6 5531
000000a0: 0400 0000 d8ce a236 0400 0000 15aa 9a36
000000b0: 0400 0000 2d30 a031 0400 0000 1c38 9831
000000c0: 0400 0000 5e1f 0730 0400 0000 b5f9 fe2f
000000d0: 0400 0000 4bdb 183a 0400 0000 58fd 103a
000000e0: 0400 0000 fed2 b731 0400 0000 2673 af31
000000f0: 0400 0000 5852 2839 0400 0000 0efe 1f39
00000100: 0400 0000 212f c739 0400 0000 3831 bc39
00000110: 0400 0000 2a82 3a34 0400 0000 b73a 3034
00000120: 0400 0000 1a48 5138 0400 0000 f84f 4638
00000130: 0400 0000 fc09 5532 0400 0000 7906 4a32
00000140: 0400 0000 47c6 8f32 0400 0000 eaa1 8832
00000150: 0400 0000 214f 3b39 0400 0000 e921 3139
00000160: 0400 0000 f646 8d3b 0400 0000 49eb 863b
00000170: 0400 0000 13f9 2232 0400 0000 961d 1b32
00000180: 0400 0000 292f 0038 0400 0000 0984 f237
00000190: 0400 0000 fcda 7d30 0400 0000 978d 6f30
000001a0: 0400 0000 8a1a b732 0400 0000 6588 ad32
000001b0: 0400 0000 e33c 1b32 0400 0000 79a5 1332
000001c0: 0400 0000 8de2 b631 0400 0000 07c2 ac31
000001d0: 0400 0000 27ad 6c37 0400 0000 5a93 6037
000001e0: 0400 0000 ee17 b538 0400 0000 d76f ab38
000001f0: 0400 0000 fff3 c832 0400 0000 4479 be32
00000200: 0400 0000 1c3e a538 0400 0000 1dbc 9c38
00000210: 0400 0000 dc5c a530 0400 0000 0bf8 9d30
00000220: 0400 0000 f634 1334 0400 0000 4661 0b34
00000230: 0400 0000 4713 563c 0400 0000 f394 4e3c
00000240: 0400 0000 5f1c 223b 0400 0000 7e50 1a3b
00000250: 0400 0000 1067 0832 0400 0000 a37e 0132
00000260: 0400 0000 1520 9532 0400 0000 d1c7 8d32
00000270: 0400 0000 de8f 8b37 0400 0000 5654 8437
00000280: 0400 0000 8c0d 7b33 0400 0000 41cb 6e33
00000290: 0400 0000 8683 fa30 0400 0000 fca5 ee30
000002a0: 0400 0000 3056 1733 0400 0000 43df 0f33
000002b0: 0400 0000 f675 2738 0400 0000 93aa 1e38
000002c0: 0400 0000 669f b232 0400 0000 d2e8 a832
000002d0: 0400 0000 6654 3d32 0400 0000 31f9 3332
000002e0: 7f00 0000 563d 3f39 0400 0000 c5e5 3439
000002f0: 0400 0000 bc72 7c37 0400 0000 52f2 6c37
00000300: 0400 0000 ae66 2a30 0400 0000 beff 2130
00000310: 0400 0000 2c6b 043a 0400 0000 0261 fb39
00000320: 0400 0000 a921 0532 0400 0000 2060 fd31
00000330: 0400 0000 ce68 b931 0400 0000 ffe5 af31
00000340: 0400 0000 a3ea ea3b 0400 0000 257b e03b
00000350: 0400 0000 d783 5338 0400 0000 0ad2 4738
00000360: 0400 0000 6b7a 6132 0400 0000 1552 5632
00000370: 0400 0000 003d 1138 0400 0000 cb62 0938
00000380: 0400 0000 1e7e ce38 0400 0000 c804 c438
00000390: 0400 0000 eeeb 1d31 0400 0000 aacf 1531
000003a0: 0400 0000 3b1c 8237 0400 0000 bed0 7537
000003b0: 0400 0000 50d5 de3a 0400 0000 cc36 d43a
000003c0: 0400 0000 3091 fc3b 0400 0000 346a f13b
000003d0: 0400 0000 2506 5b32 0400 0000 0558 5032
000003e0: 0400 0000 fc03 153b 0400 0000 ac07 0e3b
000003f0: 0400 0000 2d62 9937 0400 0000 a201 9137
6e-45 0.0011928697 6e-45 0.0011347025 6e-45 4.4226592e-08 6e-45 4.194472e-08
6e-45 7.5338708e-06 6e-45 7.1632758e-06 6e-45 3.9958413e-06 6e-45 3.7714042e-06
6e-45 1.2166486e-09 6e-45 1.1579661e-09 6e-45 0.00062351045 6e-45 0.0005928316
6e-45 2.4713283e-06 6e-45 2.3448877e-06 6e-45 1.3640457e-10 6e-45 1.2949623e-10
6e-45 0.0072234427 6e-45 0.0069163195 6e-45 3.2687562e-09 6e-45 3.108996e-09
6e-45 4.852056e-06 6e-45 4.609358e-06 6e-45 4.66209e-09 6e-45 4.430161e-09
6e-45 4.915729e-10 6e-45 4.6379758e-10 6e-45 0.0005831017 6e-45 0.0005530915
6e-45 5.349988e-09 6e-45 5.106261e-09 6e-45 0.00016052404 6e-45 0.00015258064
6e-45 0.00037991352 6e-45 0.00035894825 6e-45 1.7369953e-07 6e-45 1.6412638e-07
6e-45 4.9896633e-05 6e-45 4.7281355e-05 6e-45 1.2400502e-08 6e-45 1.1759419e-08
6e-45 1.6737557e-08 6e-45 1.5906114e-08 6e-45 0.00017863188 6e-45 0.00016892668
6e-45 0.0043114377 6e-45 0.0041174036 6e-45 9.486274e-09 6e-45 9.0289145e-09
6e-45 3.05615e-05 6e-45 2.8910132e-05 6e-45 9.235206e-10 6e-45 8.7148905e-10
6e-45 2.1316072e-08 6e-45 2.0201876e-08 6e-45 9.0360315e-09 6e-45 8.59415e-09
6e-45 5.322653e-09 6e-45 5.027917e-09 6e-45 1.4107011e-05 6e-45 1.3385748e-05
6e-45 8.63521e-05 6e-45 8.174747e-05 6e-45 2.3394021e-08 6e-45 2.2174056e-08
6e-45 7.879382e-05 6e-45 7.4736985e-05 6e-45 1.2031722e-09 6e-45 1.1493752e-09
6e-45 1.3709709e-07 6e-45 1.2980772e-07 6e-45 0.0130661195 6e-45 0.012608754
6e-45 0.0024736149 6e-45 0.0023546512 6e-45 7.939676e-09 6e-45 7.537582e-09
6e-45 1.7360472e-08 6e-45 1.6505426e-08 6e-45 1.6637085e-05 6e-45 1.5774898e-05
6e-45 5.8452812e-08 6e-45 5.559855e-08 6e-45 1.8227275e-09 6e-45 1.7363955e-09
6e-45 3.5235814e-08 6e-45 3.3497837e-08 6e-45 3.9925762e-05 6e-45 3.7828995e-05
6e-45 2.0794413e-08 6e-45 1.9663648e-08 6e-45 1.1020438e-08 6e-45 1.0475831e-08
1.78e-43 0.00018238029 6e-45 0.00017251734 6e-45 1.5047084e-05 6e-45 1.4123116e-05
6e-45 6.1991556e-10 6e-45 5.893489e-10 6e-45 0.000505137 6e-45 0.00047946727
6e-45 7.749272e-09 6e-45 7.3741973e-09 6e-45 5.3961235e-09 6e-45 5.119318e-09
6e-45 0.007169084 6e-45 0.0068506175 6e-45 5.0429106e-05 6e-45 4.764091e-05
6e-45 1.3124558e-08 6e-45 1.2475103e-08 6e-45 3.4627505e-05 6e-45 3.2755353e-05
6e-45 9.8463366e-05 6e-45 9.346899e-05 6e-45 2.2980617e-09 6e-45 2.1800397e-09
6e-45 1.5510353e-05 6e-45 1.465174e-05 6e-45 0.0017000828 6e-45 0.0016190647
6e-45 0.0077077374 6e-45 0.0073673967 6e-45 1.2748875e-08 6e-45 1.2127207e-08
6e-45 0.002273797 6e-45 0.0021672053 6e-45 1.8284738e-05 6e-45 1.7286107e-05

SA.in_proj_weight f4 [12, 4]
00000000: e53e 91be 81d6 023f 9405 4ebd 1185 e23e
00000010: 80c7 38be 5d07 ca3e 4235 2c3e d6fa c03e
00000020: e332 11bf a24f 9d3d 2f88 e93e 8d17 173f
00000030: 41c5 3abe 6734 023f d6e5 1cbf 04ee b5bd
00000040: 04d0 17bf 6df5 b6be 410b 1bbf 0890 043f
00000050: 96ed 0dbf 1fd8 2bbe 7130 413e 23ec f9be
00000060: 120e 963e 76d1 e1be 53bf 9f3e bc60 0abf
00000070: 2d95 8abe b12d 0a3f 56d9 833e 5313 d2be
00000080: 5abc 9cbe 00c9 1bbf 0653 5dbd 0fd8 5b3e
00000090: 0c37 77be 39a6 f4be ab2a 46bf 8407 65be
000000a0: 3e46 a03d de98 933e ef5a acbe cbb5 8f3d
000000b0: 036e 613e 9ed9 e8bd 6534 a73d c4f7 193e
-0.28368297 0.51108557 -0.05029829 0.44242147 -0.18044853 0.39458743 0.16817191 0.37691373
-0.5671827 0.076812044 0.45611712 0.5902031 -0.18239309 0.5086121 -0.612882 -0.088832885
-0.5930178 -0.3573412 -0.6056405 0.51782274 -0.5544065 -0.16781662 0.18866135 -0.4881297
0.2930761 -0.4410512 0.31200656 -0.54053855 -0.27066937 0.5397597 0.25751752 -0.41030368
-0.3061245 -0.60853577 -0.054034255 0.21469139 -0.24142092 -0.47783068 -0.77408856 -0.22366148
0.07825898 0.28827566 -0.33663127 0.07017096 0.22014622 -0.11369632 0.0816429 0.15035921

SA.in_proj_bias f4 [12]
00000000: 1d3e f5bc a6ea e3bd ce2e 9039 402e ee38
00000010: f33f 4331 8314 e3b3 161c 84af 5d56 95b1
00000020: 2a04 18b7 3b7e 6ab7 637a 1c36 3374 c735
-0.029936844 -0.1112874 0.00027500693 0.00011357339 2.8412586e-09 -1.0574242e-07 -2.4030616e-10 -4.346289e-09
-9.0608755e-06 -1.3976877e-05 2.331705e-06 1.4860474e-06

SA.out_proj.weight f4 [4, 4]
00000000: 907a aa3d a071 46bd 3cfe b33e 1ad2 efbe
00000010: be44 173c 0222 32bf 33fb 5fbe 4747 d63d
00000020: 80fd 043d 7853 be3e 9816 9a3d 7224 f4be
00000030: 9c84 1fbf 187a e4be 4268 473e 19a8 873d
0.08324158 -0.048448205 0.35154903 -0.46839982 0.009232698 -0.6958314 -0.21873169 0.10462814
0.03246832 0.37173057 0.07523841 -0.47684056 -0.6231172 -0.446244 0.19473365 0.06623859
