images/models/other_models/Attention/best_models6.pth.tar (torch, 471215 bytes, 18 tensors)

bn1d0.weight f4 [739]
0.70006484 0.986565 0.93019766 0.8825855 0.96481496 1.0795205 0.9825649 1.0000751
1.0705671 0.9505038 1.0353528 0.8922432 1.1802436 1.0554174 0.95911634 0.99300706
0.98733807 1.0236249 0.95968664 0.942776 1.0439461 0.978254 0.98293364 0.96139854
0.9653812 1.1053419 1.1380943 0.97215956 0.99204254 1.1986673 1.0160933 1.1262202
1.0131621 1.0523741 1.0179574 1.00561 1.1378652 1.0298676 1.0075278 1.0017457
0.9954276 1.053077 0.99112743 0.983751 0.9888603 1.1299571 1.0771494 0.9963847
0.99705184 1.0058352 1.0270573 0.985956 0.9926888 0.997767 1.0006588 1.0695117
1.2182034 0.9991969 0.98346674 1.1150391 1.2290212 1.1296729 1.039461 0.98564905
0.99122965 1.0713363 0.9734438 1.0208745 1.0418177 1.0495094 0.98899865 0.99150604
0.989793 0.9949309 0.997321 1.0046109 0.98936695 1.0035943 1.0052962 1.0034106
0.98733485 0.99534696 0.99473256 1.0058175 0.99581283 0.99560606 1.0155717 1.0032737
1.1206554 1.0153116 1.0508534 1.0066825 1.0147568 1.0414485 1.1248287 1.016353
0.99329346 1.0064633 0.9972222 0.9883625 1.0316893 1.0293776 0.9968103 0.99448746
1.0004871 1.030361 1.2048999 0.99609125 0.99403155 0.9991338 1.0148555 1.0209459
0.9822624 1.0395821 1.0051049 1.0758904 0.97958726 0.99382573 1.0016472 1.029973
1.0723369 0.99298275 0.989259 0.97709376 1.0243381 1.1101657 0.96777403 0.93837315
0.9203399 0.9221724 0.92561686 0.8765765 0.9152209 0.913935 0.94421715 1.0022367
1.0332727 1.0033686 0.9870867 1.1063808 1.0334344 1.0117 1.0985261 0.9935197
1.0113429 1.0000046 1.0125917 1.0156296 0.9913582 1.0086939 0.99972117 1.0318681
1.0186267 0.99704576 1.0024883 0.99141526 0.99287266 1.0151751 1.0478945 1.010812
1.0021546 0.9988153 1.2273113 0.98908305 0.99406993 1.0400192 1.0137756 1.0029873
1.0046599 1.076415 0.996526 1.0194097 1.0061034 0.99253094 1.057999 0.9985988
1.0105429 1.1637546 0.99761266 1.0019525 1.0391684 1.132109 1.0247967 1.0032445
1.0051789 1.0570542 1.0490482 1.2930539 1.2852808 1.090865 1.0123215 1.0392959
0.9815362 1.0751317 1.0694106 1.1567482 0.9747479 1.0473447 1.0277636 1.0158739
0.9885569 0.9765748 1.0298932 0.98089355 1.014436 0.9534451 0.9738678 0.95014113
0.9816616 0.99850565 1.043258 1.0067505 1.0573221 0.9992969 0.83545685 0.8433601
0.879952 0.72231483 0.61964273 0.76224643 0.73639655 0.9245493 0.76868105 0.84327877
0.64236206 0.7031302 0.8195441 0.9998817 0.99989605 1.0001136 1.0004059 0.9999895
0.99995416 1.0000267 1.0001471 1.0009719 0.9998678 1.0002007 0.9995248 0.9999928
1.0000821 1.0002276 1.0000554 1.0004035 1.0000765 0.9999487 1.0012418 1.0004469
0.9995769 1.0002592 1.0001297 1.0001051 0.99972975 0.99976766 0.99969625 1.0000501
00000000: 7337 333f 868f 7c3f 6f21 6e3f 20f1 613f
00000010: 1dfe 763f ba2d 8a3f 6089 7b3f 7602 803f
00000020: 5808 893f 3854 733f 7186 843f 0d6a 643f
00000030: 3912 973f eb17 873f a688 753f b635 7e3f
00000040: 30c2 7c3f 2406 833f 06ae 753f c559 713f
00000050: 07a0 853f db6e 7a3f 8aa1 7b3f 371e 763f
00000060: 3923 773f d87b 8d3f 13ad 913f 73df 783f
00000070: 80f6 7d3f ee6d 993f 580f 823f fc27 903f
00000080: 4caf 813f 32b4 863f 6e4c 823f d4b7 803f
00000090: 91a5 913f b4d2 833f acf6 803f 3439 803f
000000a0: 58d4 7e3f 3acb 863f 87ba 7d3f 1bd7 7b3f
000000b0: f325 7d3f 6fa2 903f 08e0 893f 1113 7f3f
000000c0: ca3e 7f3f 35bf 803f 9d76 833f 9d67 7c3f
000000d0: da20 7e3f a86d 7f3f 9615 803f c2e5 883f
000000e0: 17ee 9b3f 5ecb 7f3f 7ac4 7b3f 9ab9 8e3f
000000f0: 9150 9d3f 1f99 903f 0f0d 853f 7f53 7c3f
00000100: 3ac1 7d3f 8c21 893f 9d33 793f 04ac 823f
00000110: 485a 853f 5356 863f 042f 7d3f 57d3 7d3f
00000120: 1363 7d3f cbb3 7e3f 6e50 7f3f 1797 803f
00000130: 2747 7d3f c775 803f 8cad 803f c26f 803f
00000140: fac1 7c3f 0fcf 7e3f cba6 7e3f a1be 803f
00000150: 97ed 7e3f 0ae0 7e3f 41fe 813f 466b 803f
00000160: a371 8f3f bbf5 813f 5d82 863f f9da 803f
00000170: 8de3 813f 2f4e 853f 63fa 8f3f db17 823f
00000180: 7b48 7e3f cad3 803f f449 7f3f 5305 7d3f
00000190: 650e 843f a5c2 833f f62e 7f3f bb96 7e3f
000001a0: f60f 803f dfe2 833f 293a 9a3f d6ff 7e3f
000001b0: da78 7e3f 3cc7 7f3f c9e6 813f 5bae 823f
000001c0: 8c75 7b3f 0711 853f 47a7 803f c7b6 893f
000001d0: 3bc6 7a3f 5d6b 7e3f fa35 803f 28d6 833f
000001e0: 5642 893f 1e34 7e3f 1440 7d3f d122 7a3f
000001f0: 831d 833f e919 8e3f 0ac0 773f 3939 703f
00000200: 659b 6b3f 7e13 6c3f 3af5 6c3f 5167 603f
00000210: eb4b 6a3f a5f7 693f 37b8 713f 4b49 803f
00000220: 4842 843f 626e 803f b7b1 7c3f e39d 8d3f
00000230: 9447 843f 637f 813f 819c 8c3f 4f57 7e3f
00000240: af73 813f 2700 803f 9b9c 813f 2700 823f
00000250: a7c9 7d3f e21c 813f baed 7f3f 4114 843f
00000260: 5c62 823f 643e 7f3f 8951 803f 64cd 7d3f
00000270: e72c 7e3f 42f1 813f 6821 863f 4a62 813f
00000280: 9a46 803f 5cb2 7f3f 8918 9d3f 8c34 7d3f
00000290: 5e7b 7e3f 591f 853f 66c3 813f e361 803f
000002a0: b298 803f f7c7 893f 541c 7f3f 047c 823f
000002b0: ffc7 803f 8216 7e3f 836c 873f 2ca4 7f3f
000002c0: 7859 813f e9f5 943f 8b63 7f3f fb3f 803f
000002d0: 7803 853f f3e8 903f 8a2c 833f 516a 803f
000002e0: b4a9 803f 8d4d 873f 3647 863f ca82 a53f
000002f0: 1584 a43f 77a1 8b3f c093 813f a607 853f
00000300: f545 7b3f ea9d 893f 72e2 883f 5310 943f
00000310: 1489 793f 640f 863f c28d 833f 2808 823f
00000320: 1112 7d3f ce00 7a3f 8ad3 833f d71b 7b3f
00000330: 0ad9 813f fa14 743f 664f 793f 733c 733f
00000340: 2d4e 7b3f 119e 7f3f 7a89 853f 33dd 803f
00000350: 5556 873f ecd1 7f3f 80e0 553f 73e6 573f
00000360: 8944 613f a0e9 383f e8a0 1e3f 9522 433f
00000370: 7c84 3c3f 43af 6c3f 48c8 443f 1ee1 573f
00000380: d771 243f 5700 343f a4cd 513f 3ff8 7f3f
00000390: 30f9 7f3f b903 803f 4d0d 803f 50ff 7f3f
000003a0: fffc 7f3f e000 803f d204 803f d91f 803f
000003b0: 56f7 7f3f 9406 803f dbe0 7f3f 87ff 7f3f
000003c0: b102 803f 7507 803f d101 803f 390d 803f
000003d0: 8202 803f a3fc 7f3f b128 803f a50e 803f
000003e0: 46e4 7f3f 7e08 803f 4004 803f 7203 803f
000003f0: 4aee 7f3f c6f0 7f3f 18ec 7f3f a401 803f

bn1d0.bias f4 [739]
0.04890034 0.010004359 -0.06858992 0.074388 -0.12019144 0.088927574 -0.06611605 -0.060724445
-0.018905336 -0.00853223 -0.014959249 -0.018124377 0.027228154 -0.04899174 0.009394275 -0.028725069
-0.018733954 -0.0010260443 0.018174887 0.07698428 0.026417682 -0.0036343858 0.051843263 0.039249748
-0.008653455 0.023683148 0.10137476 0.02888392 0.047764543 -0.01658302 0.060022566 0.04519917
-0.02862199 0.01993929 0.0067221844 0.032443598 0.070853025 -0.008096182 -0.011877981 0.06414609
-0.03064856 0.035497352 -0.009451327 -0.004337844 0.0020043948 -0.043028925 0.021351682 -0.047374636
-0.028945606 0.012308893 0.0005924155 -0.028846886 -0.014099767 0.023761945 -0.08093985 -0.010682904
-0.012780051 0.0060887965 -0.04662091 -0.057711553 -0.08696588 -0.080316596 -0.030259594 -0.094791226
-0.0029266234 -0.013596744 -0.036567934 -0.045699555 -0.018498614 0.0073275296 -0.026996218 0.021969635
-0.023813233 -0.003450967 0.0036738545 0.045843225 -0.010891572 0.028403673 -0.047646135 -0.018587232
0.05040846 -0.023484517 0.008223098 0.012681024 0.014724345 0.004945592 0.03242592 0.02104974
0.023461029 0.017894909 0.026419545 0.02130107 0.032092366 -0.0044722157 -0.016689107 0.058097016
0.00060598075 0.01919997 0.029203573 0.022061318 -0.012466975 0.058345724 -0.027967049 -0.022486083
-0.0042847027 -0.029283356 -0.01198018 -0.03178357 0.025679035 0.006851361 -0.030118898 -0.041851733
-0.010850724 -0.029411593 -0.016648943 -0.00796776 -0.0389846 0.012042198 -0.037470486 -0.01033521
0.010716065 0.017446414 0.011695624 -0.034935277 -0.027843224 -0.048070006 -0.019288367 -0.008368691
-0.028434956 -0.05155832 -0.027191434 -0.019572096 -0.0018101429 -0.043808274 0.0041805324 -0.04969009
-0.0077220476 0.010078325 -0.014186138 0.011950672 -0.020306075 -0.030608913 0.011993484 -0.007880384
0.0066690235 -0.015954483 0.0036519119 -0.004557581 -0.029024038 0.014290375 0.029261654 -0.014555963
0.015641846 -0.036888972 0.035888787 0.036176067 -0.017387865 0.0011931407 0.04917935 0.032249242
0.02257024 0.033799533 -0.0113274595 0.010643222 0.021506954 0.031278893 -0.0026866975 -0.006173777
0.024386829 -0.037139248 0.01892492 0.009926135 0.02961342 0.003020908 0.018584263 0.014136518
-0.007863921 -0.05867373 0.015407082 -0.0005438249 -0.012617244 -0.02901273 -0.0071672224 0.034272335
-0.03360067 0.020114481 -0.010865177 -0.027709007 0.04881849 -0.020386817 0.01587338 -0.03521751
-0.0061315564 -0.014343331 0.030909115 -0.061535712 -0.046799835 0.015780855 0.0040138806 0.008808256
0.01275685 -0.020438338 0.036270984 -0.033410337 0.03225785 0.028255403 -0.015720362 0.034176458
-0.03205817 0.0067138714 0.05572069 -0.03191154 -0.0041263504 -0.031757817 -0.012390705 0.04874439
-0.048535433 0.018748028 -0.0017859085 0.046660922 0.05351221 -0.025042549 -0.019490497 0.13439497
-0.17499569 -0.026262335 -0.026260009 -0.016077302 -0.007872388 -0.000496547 0.015508486 -0.0031703666
-0.03578291 0.0073153703 -0.022902282 0.0028175057 0.017505132 -0.01586667 0.0010772473 -0.009338464
0.004474826 -0.01970133 0.010836381 0.031508014 0.011551474 -0.003464049 -0.01565608 -0.011238814
-0.021254119 -0.0068297065 -0.01200681 0.018930804 0.011466243 0.006117683 0.0024963317 0.017178992
00000000: b94b 483d 53e9 233c df78 8cbd bc58 983d
00000010: ee26 f6bd a91f b63d da67 87bd 32ba 78bd
00000020: 5ddf 9abc c4ca 0bbc a317 75bc 9379 94bc
00000030: 940d df3c 90ab 48bd 72ea 193c d650 ebbc
00000040: f377 99bc 557c 86ba 80e3 943c efa9 9d3d
00000050: e569 d83c e02e 6ebb 9a59 543d 58c4 203d
00000060: 39c7 0dbc 2903 c23c 929d cf3d f89d ec3c
00000070: c1a4 433d 1dd9 87bc 39da 753d c422 393d
00000080: aa78 eabc b957 a33c c545 dc3b 94e3 043d
00000090: 641b 913d d9a5 04bc dd9b 42bc 065f 833d
000000a0: b012 fbbc ac65 113d bdd9 1abc 7924 8ebb
000000b0: 2a5c 033b 193f 30bd b9e9 ae3c e80b 42bd
000000c0: 561f edbc 3dab 493c 554c 1b3a 4e50 ecbc
000000d0: b602 67bc 69a8 c23c cbc3 a5bd 5907 2fbc
000000e0: 6b63 51bc 8784 c73b 91f5 3ebd f362 6cbd
000000f0: 2b1b b2bd 077d a4bd f8e2 f7bc e721 c2bd
00000100: 98cc 3fbb e1c4 5ebc 42c8 15bd 752f 3bbd
00000110: 688a 97bc c61b f03b 2c27 ddbc aaf9 b33c
00000120: f813 c3bc 9e29 62bb 0dc5 703b 1bc6 3b3d
00000130: 9072 32bc d2ae e83c 9828 43bd 4044 98bc
00000140: 1a79 4e3d 9a62 c0bc 2cba 063c 12c4 4f3c
00000150: 613e 713c a20e a23b 0bd1 043d 8170 ac3c
00000160: 5831 c03c 5898 923c cd6d d83c 957f ae3c
00000170: 4973 033d aa8b 92bb 98b7 88bc 23f7 6d3d
00000180: aeda 1e3a 4149 9d3c 553c ef3c f0b9 b43c
00000190: 4842 4cbc edfb 6e3d 271b e5bc bc34 b8bc
000001a0: b166 8cbb a6e3 efbc 8448 44bc 7d2f 02bd
000001b0: d75c d23c 6281 e03b e8bb f6bc b96c 2bbd
000001c0: 3cc7 31bc 95f0 f0bc 5d63 88bc 358b 02bc
000001d0: 51ae 1fbd a44c 453c a77a 19bd 0355 29bc
000001e0: 6f92 2f3c c8eb 8e3c 019f 3f3c 4b18 0fbd
000001f0: 7917 e4bc 0ee5 44bd a302 9ebc d61c 09bc
00000200: 6df0 e8bc d12e 53bd 92c0 debc a955 a0bc
00000210: 5142 edba 4e70 33bd d9fc 883b d687 4bbd
00000220: 3b09 fdbb 8f1f 253c fa6c 68bc c0cc 433c
00000230: ed58 a6bc 8bbf fabc 5180 443c ba1c 01bc
00000240: d387 da3b fab2 82bc ea54 6f3b c357 95bb
00000250: d2c3 edbc 2d22 6a3c 23b6 ef3c 227c 6ebc
00000260: 5423 803c e418 17bd 1f00 133d 5b2d 143d
00000270: ff70 8ebc 2963 9c3a 4970 493d c817 043d
00000280: 39e5 b83c 6171 0a3d cf96 39bc e960 2e3c
00000290: 5a2f b03c 4c1e 003d 4e13 30bb 654d cabb
000002a0: e3c6 c73c 531f 18bd 6f08 9b3c 3aa1 223c
000002b0: d897 f23c 6dfa 453b 063e 983c db9c 673c
000002c0: add7 00bc dd53 70bd fc6d 7c3c 798f 0eba
000002d0: 8fb8 4ebc 1bac edbc 05db eabb 2661 0c3d
000002e0: dba0 09bd 20c7 a43c db03 32bc 00fe e2bc
000002f0: e6f5 473d 4102 a7bc e408 823c 3c40 10bd
00000300: 39eb c8bb 4a00 6bbc 1d35 fd3c df0c 7cbd
00000310: 2fb1 3fbd da46 813c df86 833b 8150 103c
00000320: 1b02 513c 4d6e a7bc e290 143d 47d9 08bd
00000330: cf20 043d e077 e73c fdc7 80bc 9dfc 0b3d
00000340: 6d4f 03bd 0900 dc3b 613b 643d adb5 02bd
00000350: 5636 87bb 7c14 02bd 6202 4bbc 33a8 473d
00000360: 17cd 46bd 7795 993c 2515 eaba 861f 3f3d
00000370: 9e2f 5b3d 0826 cdbc 89aa 9fbc d69e 093e
00000380: 1232 33be 1c24 d7bc 3b1f d7bc 8cb4 83bc
00000390: 30fb 00bc b52a 02ba 4e17 7e3c edc5 4fbb
000003a0: 1a91 12bd c6b5 ef3b 919d bbbc e7a5 383b
000003b0: ec66 8f3c d2fa 81bc 6c32 8d3a 5b00 19bc
000003c0: 90a1 923b af64 a1bc 148b 313c 8c0e 013d
000003d0: 6542 3d3c 1905 63bb 2e41 80bc 0123 38bc
000003e0: 1e1d aebc bbcb dfbb 36b8 44bc c614 9b3c
000003f0: e9dc 3b3c d876 c83b 7f99 233b f5ba 8c3c

bn1d0.running_mean f4 [739]
-0.0037913462 -0.002482494 -0.0017553479 -0.0053967945 -0.005274952 -0.0066877194 -0.0044400226 -0.0016454261
0.0014502897 0.0010333981 -0.00020996974 -0.002026266 -0.00333201 -0.0042300634 -0.0032007475 -0.002512944
-0.0015635887 -0.0008960833 0.00019029474 -0.00011128205 0.0009407129 0.00069954916 0.0010113312 0.0017996083
0.0019166169 0.002610848 0.0020112093 0.0022482648 0.0022285755 0.0022752557 0.0022497072 0.0020064816
0.0020353575 0.0015952175 0.0018433672 0.0015187543 0.00091410754 0.00083940587 0.0005238103 0.0004335289
0.00019673139 -0.00019666163 -0.00024125013 -0.00025389646 -0.0006603535 -0.0005751605 -0.0011203972 -0.0011531165
-0.0009955051 -0.0016466831 -0.0014880003 -0.0014800845 -0.0016351716 -0.0017276417 -0.002396455 -0.0024869328
-0.003593122 -0.0045441976 -0.0061719376 -0.0077228197 -0.009079199 -0.009237235 -0.008693316 -0.009977669
-0.005341486 -0.0039058267 -0.0028750536 -0.0018200311 -0.001570681 -0.0013250066 -0.0012975574 -0.0010621842
-0.0015548877 -0.0009858925 -0.0006805432 -0.0005557997 -0.00051131967 -0.00016260213 0.0003156294 0.00044912053
0.00059609476 0.00096060813 0.0012927719 0.001032227 0.00094784703 0.000912663 0.0008191028 0.0010766499
0.00079616107 0.00062202686 0.0005762641 0.00054523884 0.00042918097 0.00040937745 4.892302e-05 -0.00013838004
5.3289983e-05 -0.0005554836 -0.000704931 -0.00087850296 -0.0013003112 -0.0022717915 -0.0017954821 -0.002263499
-0.0026495694 -0.0029189964 -0.0033709025 -0.00372385 -0.0041357526 -0.004647321 -0.0065470045 -0.005382084
-0.005616218 -0.0054526823 -0.005559646 -0.005419189 -0.005074487 -0.004804642 -0.00442534 -0.0042161955
-0.0053502712 -0.0040468792 -0.004653669 -0.0050359145 -0.0060020825 -0.0075321794 -0.009100773 -0.010865382
-0.01241021 -0.018136274 -0.013921267 -0.01340161 -0.012190892 -0.010546841 -0.008946847 -0.0074102045
-0.0059448993 -0.00470417 -0.003872731 -0.0039269477 -0.002379982 -0.0017813726 -0.0014814866 -0.0011164595
-0.00084325304 -0.00055241724 -0.00037732828 -0.00027035337 -0.00013738204 6.523697e-05 0.00016692837 0.00036343015
0.0008106301 0.000868292 0.0012202404 0.0013102354 0.0015472746 0.0016075682 0.0023809695 0.0019311785
0.001990291 0.0020951342 0.0021024318 0.002155948 0.0021348794 0.0022909963 0.0022457724 0.0029591345
0.0022879378 0.0022150606 0.002274911 0.002145277 0.0021121143 0.0020868236 0.002095429 0.00199082
0.002072784 0.0025174636 0.002023537 0.0018704865 0.0018206653 0.0018981283 0.0017594062 0.001768627
0.0018508334 0.0017014331 0.002296769 0.0016068793 0.0016258559 0.0017370406 0.0015288215 0.0016177497
0.0016510977 0.0016449456 0.0015176183 0.0020069913 0.001257825 0.0014367487 0.0015152474 0.0012974907
0.0014465459 0.001235152 0.0012356493 0.0013227244 0.0009849925 0.0015357817 0.0008069825 0.0010595343
0.001048748 0.001253079 0.0015128835 0.0022658014 0.0032961427 0.005133843 0.0112572685 0.012498757
0.017259303 0.020999681 0.022630047 0.022831233 0.017568912 0.010705774 0.0033129926 -0.00034119515
-0.0040118997 -0.005733154 -0.006326707 0.001931415 0.0019344493 0.0019552074 0.0019414172 0.0019093483
0.0019370412 0.0019537737 0.0019441226 0.0019523919 0.0019504778 0.00196645 0.0019414999 0.0019094929
0.0019387674 0.0019175305 0.0019643917 0.0019339462 0.0020277528 0.00193947 0.0019945544 0.002075123
0.0020282865 0.0019521706 0.0019347952 0.0019257468 0.0019559162 0.0019519029 0.0019376987 0.0019713903
00000000: 3c78 78bb 57b1 22bb b413 e6ba 98d7 b0bb
00000010: 81d9 acbb a824 dbbb 9c7d 91bb 57ab d7ba
00000020: a617 be3a 1673 873a 532b 5cb9 1acb 04bb
00000030: da5d 5abb 589c 8abb a2c3 51bb 34b0 24bb
00000040: 55f1 ccba 22e7 6aba db89 4739 1860 e9b8
00000050: 2d9a 763a f361 373a a58e 843a d6e0 eb3a
00000060: fe36 fb3a c31a 2b3b 7ece 033b a057 133b
00000070: 4b0d 123b 751c 153b d36f 133b 2d7f 033b
00000080: a263 053b 9e16 d13a 249d f13a f010 c73a
00000090: b8a0 6f3a 930b 5c3a 5050 093a 444b e339
000000a0: ae49 4e39 f436 4eb9 17f8 7cb9 681d 85b9
000000b0: 931b 2dba 5ec6 16ba 4bda 92ba 2b24 97ba
000000c0: 9c7b 82ba 84d5 d7ba 0109 c3ba 65ff c1ba
000000d0: 4153 d6ba 0972 e2ba d80d 1dbb cffb 22bb
000000e0: 957a 6bbb 7ee7 94bb f73d cabb b50f fdbb
000000f0: ecc0 14bc c657 17bc 696e 0ebc 6179 23bc
00000100: a207 afbb e6f8 7fbb 656b 3cbb 1c8e eeba
00000110: 4fdf cdba d8ab adba cd12 aaba fd38 8bba
00000120: 60cd cbba 1039 81ba 7b66 32ba 16b3 11ba
00000130: 150a 06ba 2d80 2ab9 107b a539 f077 eb39
00000140: 3e43 1c3a 52d1 7b3a 3a72 a93a ca4b 873a
00000150: f078 783a c73f 6f3a 0fb9 563a 601e 8d3a
00000160: 77b5 503a 840f 233a 6e10 173a 5cee 0e3a
00000170: b203 e139 b6a1 d639 b132 4d38 1c1a 11b9
00000180: af83 5f38 e09d 11ba 1ecb 38ba 564b 66ba
00000190: 346f aaba 56e2 14bb 6256 ebba 3657 14bb
000001a0: 66a4 2dbb a24c 3fbb 5cea 5cbb d60b 74bb
000001b0: 3585 87bb 8e48 98bb 4188 d6bb 315c b0bb
000001c0: 4008 b8bb 6aac b2bb b12d b6bb 7493 b1bb
000001d0: e247 a6bb 4270 9dbb 7102 91bb 0328 8abb
000001e0: 5451 afbb af9b 84bb ce7d 98bb 5004 a5bb
000001f0: 1ead c4bb 80d0 f6bb 691b 15bc b704 32bc
00000200: 3254 4bbc 8692 94bc 0716 64bc 6d92 5bbc
00000210: 4fbc 47bc a8cc 2cbc cc95 12bc 4dd1 f2bb
00000220: 6ecd c2bb 7025 9abb a5cd 7dbb a0ad 80bb
00000230: 79f9 1bbb f27c e9ba 712e c2ba 2a56 92ba
00000240: c10d 5dba 18d0 10ba 25d4 c5b9 37be 8db9
00000250: 360e 10b9 d5cf 8838 7e09 2f39 c58a be39
00000260: 7780 543a 179e 633a 79f0 9f3a 34bc ab3a
00000270: eccd ca3a 0ab5 d23a 0a0a 1c3b 991f fd3a
00000280: 8b6f 023b 854e 093b f4c8 093b ce4a 0d3b
00000290: 55e9 0b3b 8a24 163b cf2d 133b 0aee 413b
000002a0: 3af1 153b 8d2a 113b ac16 153b c797 0c3b
000002b0: 666b 0a3b 17c3 083b 7753 093b 6b78 023b
000002c0: 8bd7 073b 08fc 243b 519d 043b 1d2b f53a
000002d0: 64a3 ee3a 9eca f83a e09b e63a 46d1 e73a
000002e0: aa97 f23a 9f02 df3a 6485 163b ec9d d23a
000002f0: ac1a d53a 69ad e33a bd62 c83a ac0a d43a
00000300: a569 d83a 379b d73a d2ea c63a ba87 033b
00000310: 9add a43a 4951 bc3a 449b c63a 9010 aa3a
00000320: 079a bd3a d3e4 a13a 83f5 a13a 445f ad3a
00000330: dd1a 813a 484c c93a ae8b 533a 12e0 8a3a
00000340: 2576 893a 5b3e a43a f24b c63a d77d 143b
00000350: 1904 583b cc39 a83b 6870 383c 96c7 4c3c
00000360: 6263 8d3c 8607 ac3c a662 b93c 9108 bb3c
00000370: aeec 8f3c 4567 2f3c cb1e 593b 70e2 b2b9
00000380: 4176 83bb 2edd bbbb 4450 cfbb 8927 fd3a
00000390: 598d fd3a f022 003b 2777 fe3a 1943 fa3a
000003a0: 51e4 fd3a e20a 003b eed1 fe3a 67e7 ff3a
000003b0: 2da7 ff3a 8edf 003b ed79 fe3a f347 fa3a
000003c0: 3d1e fe3a a655 fb3a 06bd 003b 777c fd3a
000003d0: 0ce4 043b d035 fe3a 12b7 023b c9fe 073b
000003e0: 00ed 043b fadf ff3a f498 fd3a 5769 fc3a
000003f0: d42e 003b fed6 ff3a 61fa fd3a 7132 013b

bn1d0.running_var f4 [739]
1.5426262e-05 1.1028152e-05 7.895229e-06 6.1452783e-06 7.3798155e-06 4.6070422e-06 3.2195717e-06 2.102188e-06
2.1672972e-06 1.7808017e-06 2.1352207e-06 2.1078808e-06 1.9607944e-06 1.7527849e-06 1.3227229e-06 1.0939605e-06
1.2482298e-06 9.699398e-07 7.748837e-07 1.0190333e-06 7.391131e-07 5.898967e-07 9.379545e-07 7.381622e-07
8.2229013e-07 5.281627e-07 6.6484955e-07 6.169361e-07 5.026333e-07 5.3486e-07 4.7110586e-07 5.490557e-07
3.494685e-07 4.5750576e-07 4.5108698e-07 5.3960014e-07 4.4355585e-07 4.172586e-07 4.3482342e-07 4.7600236e-07
3.9375033e-07 3.8752725e-07 4.1333763e-07 4.138221e-07 4.1754035e-07 5.1568225e-07 4.0269066e-07 3.9170052e-07
3.673066e-07 3.184305e-07 4.6095676e-07 5.563001e-07 4.6167239e-07 4.491265e-07 5.0573806e-07 5.7219563e-07
5.1154325e-07 7.3276675e-07 1.2213596e-06 1.5702198e-06 1.9774386e-06 1.714552e-06 1.8336746e-06 2.0441908e-06
6.6586233e-07 5.177734e-07 4.5594354e-07 3.3129788e-07 3.225954e-07 2.687467e-07 3.083993e-07 3.3142788e-07
3.478108e-07 3.0593912e-07 3.185387e-07 3.2394476e-07 2.782501e-07 2.1810857e-07 2.7037336e-07 2.3586891e-07
2.9215272e-07 2.4336234e-07 3.362825e-07 3.535129e-07 2.0898314e-07 2.2741811e-07 2.3411684e-07 2.0112586e-07
1.8212918e-07 2.0038766e-07 1.8000927e-07 1.9384265e-07 1.2630801e-07 1.650682e-07 2.1453835e-07 1.919181e-07
1.7998076e-07 1.676744e-07 1.7623374e-07 1.7646268e-07 1.4307638e-07 1.8807746e-07 1.5834513e-07 1.7518785e-07
2.8656058e-07 2.390823e-07 2.389887e-07 3.5218568e-07 2.829024e-07 4.43675e-07 6.8813506e-07 3.7829057e-07
5.272508e-07 5.106624e-07 4.0839112e-07 3.7815258e-07 4.1138694e-07 3.4285526e-07 3.0695037e-07 2.6678333e-07
4.0814498e-07 2.3142414e-07 2.2024564e-07 2.915492e-07 4.1144102e-07 5.80453e-07 7.164808e-07 1.0042576e-06
1.4107547e-06 2.7644007e-06 1.7962634e-06 1.7334453e-06 1.5702001e-06 1.3615377e-06 1.0750184e-06 8.047063e-07
5.611542e-07 5.1672356e-07 2.7787786e-07 4.0041857e-07 1.6317861e-07 2.1499119e-07 1.2911076e-07 1.5615109e-07
1.5578424e-07 1.2105055e-07 1.4400649e-07 1.0735612e-07 9.733875e-08 1.0010768e-07 1.10822086e-07 1.3081967e-07
1.7587445e-07 1.2200162e-07 1.6012359e-07 1.8249534e-07 1.5072536e-07 2.0604267e-07 2.8169933e-07 1.5098588e-07
1.8179607e-07 1.439357e-07 2.2391725e-07 2.541737e-07 2.0604016e-07 1.79276e-07 2.3956713e-07 2.7101825e-07
1.8992972e-07 2.4954065e-07 2.1789504e-07 2.184886e-07 2.6238388e-07 2.02637e-07 2.2444713e-07 2.2621123e-07
2.1331766e-07 2.4194165e-07 2.679354e-07 2.5403395e-07 2.2511297e-07 2.8137669e-07 2.3352314e-07 2.2117729e-07
2.3741313e-07 3.1573532e-07 3.1707015e-07 2.73856e-07 3.0968587e-07 3.128021e-07 3.929256e-07 4.4083396e-07
2.9220874e-07 3.7347425e-07 4.2039574e-07 4.0797315e-07 4.9255885e-07 4.2070138e-07 4.474368e-07 3.6133324e-07
5.944512e-07 6.2420435e-07 5.9501383e-07 5.4761006e-07 6.053632e-07 7.2967197e-07 7.5489874e-07 1.0359474e-06
7.446537e-07 8.039688e-07 9.599768e-07 9.541453e-07 1.0200881e-06 1.2694516e-06 2.7539297e-06 4.2045376e-06
6.00959e-06 9.859185e-06 1.1909661e-05 1.3038723e-05 1.1819431e-05 1.526025e-05 1.5542484e-05 1.8004264e-05
2.392636e-05 4.139076e-05 4.6453202e-05 1.481182e-10 6.9310016e-11 2.455144e-10 1.749214e-10 4.6238018e-12
6.1061725e-11 1.9925593e-10 1.436695e-10 2.360702e-10 3.8418593e-10 1.13427864e-10 1.6339852e-10 1.0827927e-11
9.578901e-11 3.445669e-11 1.420898e-10 1.4525228e-10 4.1688802e-10 1.2357607e-10 3.7675557e-10 4.5092866e-10
4.5290358e-10 2.5739583e-10 6.183705e-11 9.6921034e-11 1.4169746e-10 5.965986e-11 1.03060845e-10 2.3386856e-10
00000000: a567 8137 8d05 3937 c075 0437 8a33 ce36
00000010: 22a0 f736 3196 9a36 d20f 5836 5113 0d36
00000020: e271 1136 e103 ef35 d04a 0f36 1e75 0d36
00000030: 3196 0336 3b41 eb35 6a88 b135 32d4 9235
00000040: d988 a735 e12e 8235 9a01 5035 b8c5 8835
00000050: 7767 4635 6459 1e35 bec7 7b35 1f26 4635
00000060: 59bb 5c35 10c7 0d35 1d78 3235 879b 2535
00000070: b3ec 0635 4d93 0f35 4cec fc34 d262 1335
00000080: 969e bb34 1d9f f534 ec2c f234 0ad9 1035
00000090: da21 ee34 9603 e034 ad71 e934 448d ff34
000000a0: a264 d334 570d d034 b1e8 dd34 472b de34
000000b0: 4f2a e034 6a6d 0a35 6231 d834 e94a d234
000000c0: 3c32 c534 c1f4 aa34 6a79 f734 a754 1535
000000d0: c5db f734 7a1f f134 0ec2 0735 fc98 1935
000000e0: fc50 0935 59b3 4435 99ed a335 57c0 d235
000000f0: 23b4 0436 8f1f e635 941c f635 ee2e 0936
00000100: b6bd 3235 1efd 0a35 67c8 f434 3cdd b134
00000110: 2d31 ad34 4448 9034 1492 a534 1aef b134
00000120: c1ba ba34 f43f a434 a003 ab34 a1ea ad34
00000130: 6762 9534 3a31 6a34 d527 9134 2743 7d34
00000140: 2ad9 9c34 77a7 8234 518a b434 71ca bd34
00000150: d964 6034 3730 7434 8c61 7b34 0ef5 5734
00000160: 4a8f 4334 242a 5734 9248 4134 1023 5034
00000170: 489f 0734 9a3d 3134 da5b 6634 0c12 4e34
00000180: bc40 4134 fd09 3434 c33a 3d34 b179 3d34
00000190: 89a0 1934 57f2 4934 9405 2a34 451b 3c34
000001a0: 96d8 9934 395b 8034 5b4e 8034 0814 bd34
000001b0: cfe1 9734 3a32 ee34 48b8 3835 dc17 cb34
000001c0: 6688 0d35 7414 0935 d940 db34 e504 cb34
000001d0: 97dc dc34 ab11 b834 f0ca a434 6c3a 8f34
000001e0: 051f db34 627d 7834 a97c 6c34 3886 9c34
000001f0: 06e4 dc34 6dd0 1b35 3054 4035 07ca 8635
00000200: 2a59 bd35 0b84 3936 2417 f135 baa8 e835
00000210: aabf d235 14be b635 5a49 9035 ff02 5835
00000220: 39a2 1635 f9b4 0a35 3e2f 9534 1cf9 d634
00000230: 3236 2f34 54d8 6634 b2a1 0a34 7caa 2734
00000240: a545 2734 1ffa 0134 34a0 1a34 a78b e633
00000250: 8b08 d133 c7fa d633 16fd ed33 7077 0c34
00000260: 00d8 3c34 8dff 0234 70ee 2b34 f0f3 4334
00000270: 12d7 2134 943c 5d34 763c 9734 af1e 2234
00000280: b933 4334 be8c 1a34 e86d 7034 5e75 8834
00000290: e33b 5d34 037f 4034 db9d 8034 7780 9134
000002a0: 7cef 4b34 9bf8 8534 88f6 6934 b099 6a34
000002b0: c4dd 8c34 6f94 5934 8fff 7034 78e4 7234
000002c0: 500c 6534 35e4 8134 c3d8 8f34 2962 8834
000002d0: 95b6 7134 1e10 9734 5abe 7a34 c07c 6d34
000002e0: a0eb 7e34 5582 a934 ca39 aa34 7b06 9334
000002f0: e742 a634 31ef a734 49f3 d234 c2ab ec34
00000300: dde0 9c34 e981 c834 c0b2 e134 6707 db34
00000310: 6338 0435 c2dc e134 3f37 f034 43fd c134
00000320: 6092 1f35 ff8e 2735 0ab9 1f35 7aff 1235
00000330: 3e80 2235 adde 4335 3fa4 4a35 e20a 8b35
00000340: 36e4 4735 51d0 5735 8dd8 8035 2f10 8035
00000350: f6e9 8835 0662 aa35 27d0 3836 b414 8d36
00000360: fca5 c936 e168 2537 9bcf 4737 e4c0 5a37
00000370: 124c 4637 2303 8037 3b61 8237 dd07 9737
00000380: 78b5 c837 fd9a 2d38 bfd6 4238 91db 222f
00000390: 126a 982e 14f9 862f ff53 402f 81af a22c
000003a0: b246 862e 8f15 5b2f 5ff7 1d2f edc7 812f
000003b0: 5d35 d32f 366e f92e 98a8 332f a67c 3e2d
000003c0: 6ba4 d22e c98a 172e b93a 1c2f e2b4 1f2f
000003d0: c62f e52f 92df 072f a21f cf2f 91e6 f72f
000003e0: 83fc f82f 3e81 8d2f 2afb 872e b121 d52e
000003f0: 4acc 1b2f 8431 832e 19a2 e22e 1392 802f

bn1d1.weight f4 [512]
1.0 0.99718684 1.0 0.9906071 1.0 0.99983996 1.0 1.0007577
1.0 0.99986744 1.0 1.003008 1.0 1.0020958 1.0 0.9999696
1.0 1.0000384 1.0 0.99988264 1.0 0.98910266 1.0 0.9867948
1.0 1.001118 1.0 1.0021392 1.0 0.99941164 1.0 0.9997317
1.0 1.0186157 1.0 1.0175525 1.0 0.9999679 1.0 1.0000664
1.0 1.0025322 1.0 1.0025488 1.0 0.99960303 1.0 0.99970603
1.0 0.99978566 1.0 1.0000545 1.0 1.0029062 1.0 0.99313724
1.0 0.9999811 1.0 0.99996305 1.0 1.022637 1.0 1.0192591
1.0 1.0200164 1.0 1.0156056 1.0 1.001515 1.0 0.99964726
1.0 1.000612 1.0 0.99081767 1.0 1.0001444 1.0 0.99991906
1.0 0.99869615 1.0 1.0009071 1.0 0.98665065 1.0 0.9878261
1.0 1.031898 1.0 1.0172611 1.0 0.9993157 1.0 1.0006338
1.0 0.99885833 1.0 0.9970739 1.0 0.9995912 1.0 0.99955
1.0 1.0001104 1.0 0.99968517 1.0 1.0003204 1.0 0.9997165
1.0 0.9998409 1.0 1.000266 1.0 1.0077461 1.0 1.0017227
1.0 1.009262 1.0 1.003593 1.0 1.0000429 1.0 1.0000972
1.0 1.035948 1.0 1.0376852 1.0 0.9996682 1.0 0.99968415
1.0 1.0017052 1.0 1.0009485 1.0 1.0008531 1.0 0.99109024
1.0 1.0513242 1.0 1.0364304 1.0 0.9996289 1.0 0.999503
1.0 1.0000395 1.0 0.9999116 1.0 1.0008878 1.0 1.0006018
1.0 0.99781346 1.0 1.0006131 1.0 1.0001309 1.0 0.99956834
1.0 1.0001534 1.0 0.9999791 1.0 1.0592893 1.0 1.0652144
1.0 1.0002302 1.0 1.0002598 1.0 0.99984384 1.0 0.9999425
1.0 0.99797577 1.0 0.98819 1.0 0.9999903 1.0 1.0018356
1.0 0.9999578 1.0 0.99997765 1.0 1.0373243 1.0 1.0211169
1.0 0.9995673 1.0 0.99957645 1.0 0.9998987 1.0 1.0000476
1.0 0.98199683 1.0 0.97838783 1.0 0.9950175 1.0 0.9927072
1.0 0.99997616 1.0 1.0002816 1.0 0.99659795 1.0 1.0051886
1.0 0.999877 1.0 1.0070513 1.0 0.99998444 1.0 0.9996564
1.0 1.0297627 1.0 1.0388097 1.0 1.0234367 1.0 1.0193197
1.0 0.98935395 1.0 0.99581033 1.0 1.0004855 1.0 0.99930805
1.0 0.99651283 1.0 1.004497 1.0 0.9994859 1.0 0.9997823
00000000: 0000 803f a347 7f3f 0000 803f 6d98 7d3f
00000010: 0000 803f 83f5 7f3f 0000 803f d418 803f
00000020: 0000 803f 50f7 7f3f 0000 803f 9162 803f
00000030: 0000 803f ad44 803f 0000 803f 02fe 7f3f
00000040: 0000 803f 4201 803f 0000 803f 4ff8 7f3f
00000050: 0000 803f d535 7d3f 0000 803f 969e 7c3f
00000060: 0000 803f a224 803f 0000 803f 1946 803f
00000070: 0000 803f 71d9 7f3f 0000 803f 6bee 7f3f
00000080: 0000 803f 0062 823f 0000 803f 293f 823f
00000090: 0000 803f e5fd 7f3f 0000 803f 2d02 803f
000000a0: 0000 803f fa52 803f 0000 803f 8553 803f
000000b0: 0000 803f fce5 7f3f 0000 803f bcec 7f3f
000000c0: 0000 803f f4f1 7f3f 0000 803f c901 803f
000000d0: 0000 803f 3b5f 803f 0000 803f 3e3e 7e3f
000000e0: 0000 803f c3fe 7f3f 0000 803f 94fd 7f3f
000000f0: 0000 803f c5e5 823f 0000 803f 1577 823f
00000100: 0000 803f e68f 823f 0000 803f 5dff 813f
00000110: 0000 803f a531 803f 0000 803f e2e8 7f3f
00000120: 0000 803f 0e14 803f 0000 803f 3aa6 7d3f
00000130: 0000 803f bb04 803f 0000 803f b2fa 7f3f
00000140: 0000 803f 8daa 7f3f 0000 803f b91d 803f
00000150: 0000 803f 2395 7c3f 0000 803f 2ce2 7c3f
00000160: 0000 803f 3c15 843f 0000 803f 9d35 823f
00000170: 0000 803f 27d3 7f3f 0000 803f c514 803f
00000180: 0000 803f 2eb5 7f3f 0000 803f 3c40 7f3f
00000190: 0000 803f 35e5 7f3f 0000 803f 82e2 7f3f
000001a0: 0000 803f 9e03 803f 0000 803f 5eeb 7f3f
000001b0: 0000 803f 800a 803f 0000 803f 6ced 7f3f
000001c0: 0000 803f 93f5 7f3f 0000 803f b708 803f
000001d0: 0000 803f d3fd 803f 0000 803f 7338 803f
000001e0: 0000 803f 7f2f 813f 0000 803f bc75 803f
000001f0: 0000 803f 6801 803f 0000 803f 2f03 803f
00000200: 0000 803f f299 843f 0000 803f ded2 843f
00000210: 0000 803f 41ea 7f3f 0000 803f 4deb 7f3f
00000220: 0000 803f e037 803f 0000 803f 151f 803f
00000230: 0000 803f f41b 803f 0000 803f 17b8 7d3f
00000240: 0000 803f cb91 863f 0000 803f c0a9 843f
00000250: 0000 803f aee7 7f3f 0000 803f 6edf 7f3f
00000260: 0000 803f 4b01 803f 0000 803f 35fa 7f3f
00000270: 0000 803f 171d 803f 0000 803f b813 803f
00000280: 0000 803f b470 7f3f 0000 803f 1714 803f
00000290: 0000 803f 4a04 803f 0000 803f b6e3 7f3f
000002a0: 0000 803f 0705 803f 0000 803f a1fe 7f3f
000002b0: 0000 803f cb96 873f 0000 803f f258 883f
000002c0: 0000 803f 8b07 803f 0000 803f 8308 803f
000002d0: 0000 803f c4f5 7f3f 0000 803f 3bfc 7f3f
000002e0: 0000 803f 577b 7f3f 0000 803f 05fa 7c3f
000002f0: 0000 803f 5dff 7f3f 0000 803f 263c 803f
00000300: 0000 803f 3cfd 7f3f 0000 803f 89fe 7f3f
00000310: 0000 803f 0bc7 843f 0000 803f f5b3 823f
00000320: 0000 803f a4e3 7f3f 0000 803f 3ee4 7f3f
00000330: 0000 803f 5cf9 7f3f 0000 803f 8f01 803f
00000340: 0000 803f 2564 7b3f 0000 803f a077 7a3f
00000350: 0000 803f 78b9 7e3f 0000 803f 0f22 7e3f
00000360: 0000 803f 70fe 7f3f 0000 803f 3a09 803f
00000370: 0000 803f 0b21 7f3f 0000 803f 05aa 803f
00000380: 0000 803f f0f7 7f3f 0000 803f 0fe7 803f
00000390: 0000 803f fbfe 7f3f 0000 803f 7be9 7f3f
000003a0: 0000 803f 44cf 833f 0000 803f b7f7 843f
000003b0: 0000 803f f9ff 823f 0000 803f 1179 823f
000003c0: 0000 803f 4d46 7d3f 0000 803f 6ded 7e3f
000003d0: 0000 803f e90f 803f 0000 803f a7d2 7f3f
000003e0: 0000 803f 771b 7f3f 0000 803f 5c93 803f
000003f0: 0000 803f 4fde 7f3f 0000 803f bcf1 7f3f

bn1d1.bias f4 [512]
0.009252491 0.015049912 -0.012170652 0.014987701 0.013307542 0.00058357016 0.0087062735 0.027266057
-0.009621141 0.010434858 -0.0059289066 0.017865121 0.011841431 -0.022079833 0.007935504 -0.011475763
-0.011885429 -0.00622369 0.007300205 0.0068221064 0.0037557934 -0.03768585 -0.0038677044 -0.015701579
0.012841266 -0.012123837 -0.03498455 0.010947495 0.0019927525 0.012676377 -0.007626817 0.008517294
-0.012436113 0.042048145 0.0010598038 0.048291173 0.0018341384 -0.008437894 -0.007878461 0.0077143586
-0.0013611394 -0.005080128 0.016328977 -0.010887648 0.0041096825 0.0040039583 0.013588786 0.004051135
-0.0028153048 -0.005233219 0.015589551 -0.01915414 0.015473849 0.017131658 -0.008796473 0.013113489
0.02634949 0.005943311 0.014011996 -0.00366461 -0.00909369 -0.03728472 -0.004097761 -0.05850335
0.020603698 0.019173196 0.018787045 0.005671587 0.0005561411 0.01594611 0.0064848573 0.0014024959
0.021850374 -0.034276232 -0.009631932 -0.0048497203 0.00353443 -0.00993197 0.00066857645 -0.0036346638
-0.005281929 -0.028906712 -0.0014514113 0.02416471 -0.003765399 -0.040421613 0.00819069 -0.018104823
-0.0022226167 0.02178153 0.010769805 0.019232143 0.014983185 -0.010475147 -0.012750146 0.023285143
-0.012125103 0.0054650595 -0.011751325 0.015088086 0.0062602474 -0.01913191 -0.009347959 0.0046230345
0.0010416299 0.0024979017 -0.0017241966 0.009214194 -0.012669043 -0.000471864 0.011332829 0.0047767423
-0.009918925 0.0051205726 -0.016662592 0.008157901 0.015984708 -0.016911978 0.022868467 -0.017216675
-0.012373331 -0.032310683 -0.0025924153 -0.011731159 0.02879081 0.0044775903 0.017901853 -0.009593714
0.0108219115 -0.024094613 0.013494879 -0.011280131 0.003913158 -0.012784774 0.020677736 -0.008786358
0.019468673 -0.004618184 0.0074468814 -0.010894397 0.0033699982 0.053663187 0.015668623 0.06192936
0.009398813 -0.055220533 -0.0043919757 -0.06580784 -0.010176989 -0.01424147 0.0010653221 -0.0061998237
-0.016284563 0.013374495 -0.016118327 -0.017789006 0.0020573374 0.0134509215 0.023933327 0.010255216
0.010089503 -0.021423262 -0.024053715 -0.008208507 0.0055287224 0.006492788 -0.014122274 0.017244792
0.0029608125 0.0006114643 -0.009439257 -0.008859575 -0.014655657 -0.029071363 -0.005615061 0.00777403
-0.021642111 0.0010591848 -0.016517447 -0.01964189 0.006132759 -0.0047005997 0.021541417 0.001010551
-0.0015608518 -0.055028774 0.0030151978 -0.037916075 0.006073118 0.0032815957 0.00016155475 -0.00985685
-0.005254826 0.003316359 0.0032533803 0.0154283 -0.029394155 0.07286224 0.018632142 0.03886173
-0.00048095977 0.0058458736 0.00030260533 -0.0031638225 0.013524841 0.004352401 -0.01220751 -0.0024294688
0.008007726 -0.048013423 0.012159313 -0.049630996 -0.0057057245 -0.00086427236 0.00967099 0.0074009807
-0.0136263855 -0.013558247 -0.00066814176 0.0032888488 0.021546312 -0.021836383 0.026134202 -0.02113879
0.0016429366 -0.021117367 -0.009092595 0.0042263702 -0.0041075586 -0.014441535 0.020012006 -0.020697808
0.0018568102 0.04234793 0.0068701743 0.048621073 -0.007321086 -0.058140505 -0.005588314 -0.03149696
0.011134563 -0.10280981 0.01357373 -0.09101877 0.02238172 0.0070221317 -0.014861664 0.0007264928
0.0027730328 -0.034257025 -0.015100606 -0.039861422 0.005299545 0.0065317135 0.00754227 -0.0071567423
00000000: c397 173c e893 763c 6a67 47bc f98e 753c
00000010: e007 5a3c bbfa 183a c2a4 0e3c 115d df3c
00000020: fda1 1dbc f7f6 2a3c 4647 c2bb e059 923c
00000030: 9002 423c c4e0 b4bc eb03 023c d704 3cbc
00000040: 1abb 42bc 19f0 cbbb 8f36 ef3b fa8b df3b
00000050: c223 763b 7a5c 1abd 5079 7dbb 99a0 80bc
00000060: 2c64 523c 0fa3 46bc f64b 0fbd 1f5d 333c
00000070: d798 023b 94b0 4f3c 61ea f9bb 1f8c 0b3c
00000080: d7c0 4bbc ad3a 2c3d 1de9 8a3a f7cc 453d
00000090: 7967 f03a 183f 0abc a914 01bc bbc8 fc3b
000000a0: 4268 b2ba 3477 a6bb 59c4 853c 1b62 32bc
000000b0: 84aa 863b a333 833b 80a3 5e3c 62bf 843b
000000c0: fa80 38bb 6c7b abbb 516b 7f3c 25e9 9cbc
000000d0: 0786 7d3c b157 8c3c 151f 10bc f6d9 563c
000000e0: e3da d73c 1bc0 c23b 9292 653c f429 70bb
000000f0: b3fd 14bc ddb7 18bd 8346 86bb 35a1 6fbd
00000100: 16c9 a83c 1b11 9d3c 4ae7 993c b8d8 b93b
00000110: ffc9 113a 6ba1 823c ed7e d43b f4d3 b73a
00000120: 8eff b23c 3c65 0cbd 40cf 1dbc 67ea 9ebb
00000130: e5a1 673b b4b9 22bc 6843 2f3a 8a33 6ebb
00000140: 0814 adbb c5cd ecbc 483d beba 12f5 c53c
00000150: eac4 76bb 2291 25bd 3e32 063c 9150 94bc
00000160: 52a9 11bb 2e6f b23c d673 303c ba8c 9d3c
00000170: 087c 753c f39f 2bbc fde5 50bc 7cc0 be3c
00000180: 5ea8 46bc 3e14 b33b a188 40bc 0534 773c
00000190: c322 cd3b 86ba 9cbc 2f28 19bc d37c 973b
000001a0: 4d87 883a d6b3 233b 70fe e1ba 21f7 163c
000001b0: d191 4fbc 8464 f7b9 54ad 393c 3886 9c3b
000001c0: fd82 22bc 7aca a73b fd7f 88bc b7a8 053c
000001d0: 5df2 823c fd8a 8abc a756 bb3c fc09 8dbc
000001e0: 83b9 4abc 3558 04bd 83e5 29bb 0c34 40bc
000001f0: b4da eb3c c0b8 923b e8a6 923c f42e 1dbc
00000200: 634e 313c 1162 c5bc a019 5d3c 4cd0 38bc
00000210: f339 803b 3b77 51bc 5b64 a93c a8f4 0fbc
00000220: c47c 9f3c 2354 97bb f804 f43b 6a7e 32bc
00000230: 30db 5c3b eecd 5b3d 7c5b 803c a4a9 7d3d
00000240: 7bfd 193c ed2e 62bd 90ea 8fbb 43c6 86bd
00000250: 63bd 26bc 0e55 69bc 47a2 8b3a e427 cbbb
00000260: 3467 85bc b320 5b3c 950a 84bc 40ba 91bc
00000270: 65d4 063b 4161 5c3c d30f c43c 7e05 283c
00000280: 714e 253c d67f afbc 4c0c c5bc f97c 06bc
00000290: 492a b53b 74c1 d43b 1c61 67bc f344 8d3c
000002a0: 310a 423b ad4a 203a 1da7 1abc c027 11bc
000002b0: 481e 70bc 1127 eebc 8cfe b7bb 4abd fe3b
000002c0: cc4a b1bc 58d4 8a3a 994f 87bc 07e8 a0bc
000002d0: 50f5 c83b 7d07 9abb a077 b03c 7774 843a
000002e0: 7f95 ccba da65 61bd a09a 453b e34d 1bbd
000002f0: 0201 c73b 0a10 573b 0667 2939 a07e 21bc
00000300: ad30 acbb 4557 593b aa36 553b fbc6 7c3c
00000310: 03cc f0bc cc38 953d 6fa2 983c 7a2d 1f3d
00000320: 5429 fcb9 be8e bf3b 00a7 9e39 2258 4fbb
00000330: 4b97 5d3c 969e 8e3b 0202 48bc b937 1fbb
00000340: d632 033c b9a9 44bd db37 473c df49 4bbd
00000350: 16f7 babb 5690 62ba 1273 1e3c ed83 f23b
00000360: 3441 5fbc 6923 5ebc 3c26 2fba ba89 573b
00000370: e481 b03c 37e2 b2bc 6517 d63c 412b adbc
00000380: ce57 d73a 54fe acbc 1cf9 14bc 5d7d 8a3b
00000390: b398 86bb 309c 6cbc 38f0 a33c 738e a9bc
000003a0: 3660 f33a 0675 2d3d 331f e13b e426 473d
000003b0: b8e5 efbb bd24 6ebd 2d1e b7bb f502 01bd
000003c0: be6d 363c f38d d2bd 5a64 5e3c 0d68 babd
000003d0: de59 b73c e919 e63b 567e 73bc 1b72 3e3a
000003e0: c5bb 353b 1851 0cbd 8868 77bc bb45 23bd
000003f0: cea7 ad3b fc07 d63b 2525 f73b 1b83 eabb

bn1d1.running_mean f4 [512]
0.0 0.21229751 0.0 0.22860178 0.0 0.059083752 0.0 0.06408093
0.0 0.10445827 0.0 0.112967595 2.4093975e-19 0.0445776 6e-45 0.048170153
6e-45 0.020845372 6e-45 0.022627715 0.0 0.27840844 0.0 0.30024222
0.0 0.13349734 0.0 0.14463042 4.721395e-13 0.009694898 6e-45 0.010536653
6e-45 0.35827795 6e-45 0.38410863 1.19986066e-08 0.022006579 6e-45 0.02387825
0.0 0.166717 0.0 0.18034661 4.1177433e-11 0.018217849 6e-45 0.019768195
3.0030353e-10 0.012622455 6e-45 0.013709019 0.0 0.2590931 0.0 0.27910867
1.293215e-22 0.015795328 6e-45 0.017145455 6e-45 0.15673174 6e-45 0.16844505
9.765654e-13 0.17681812 0.0 0.18944202 6e-45 0.038317688 6e-45 0.041496813
6e-45 0.110922575 6e-45 0.11981816 1.0023639e-16 0.023091035 6e-45 0.025045777
0.0 0.034662325 0.0 0.037598055 0.0 0.18399578 0.0 0.19794235
6e-45 0.28877297 6e-45 0.30898246 0.0 0.03229049 0.0 0.035036035
0.0 0.1687715 0.0 0.18232687 1.3114517e-09 0.012222566 6e-45 0.013271061
0.0 0.04203453 0.0 0.045589305 0.0 0.034397013 0.0 0.037321348
6e-45 0.027207289 6e-45 0.029517332 0.0 0.11835561 0.0 0.12785766
4.0200485e-11 0.11398512 6e-45 0.12280691 6e-45 0.024386946 6e-45 0.026445238
6e-45 0.16183318 6e-45 0.17459513 0.0 0.025764368 0.0 0.027978264
0.0 0.07370667 0.0 0.07979828 0.0 0.46647593 0.0 0.50092494
0.0 0.27871743 0.0 0.29860097 1.95695e-11 0.023993745 6e-45 0.026028186
0.0 0.045889065 0.0 0.049781542 0.0 0.10053905 0.0 0.10865623
3.918223e-16 0.036238704 6e-45 0.039251283 6e-45 0.017122382 6e-45 0.018585313
0.0 0.058945064 0.0 0.06391622 4.519e-42 0.11968142 6e-45 0.12916702
6e-45 0.031636674 6e-45 0.034282215 0.0 0.03998486 0.0 0.04338611
6e-45 0.1495058 0.0 0.16075583 0.0 0.06624719 6e-45 0.07151915
6.323584e-15 0.011368357 6e-45 0.0123474365 3.080211e-08 0.042768218 6e-45 0.045789063
0.0 0.046631515 0.0 0.050610326 1.9045011e-08 0.0135344025 6e-45 0.014685709
0.0 0.4084722 0.0 0.4380455 0.0 0.13733488 0.0 0.14807653
0.0 0.030305546 0.0 0.03287071 0.0 0.13894983 0.0 0.14986584
0.0 0.19778794 0.0 0.21334195 1.3115649e-09 0.011766389 6e-45 0.0127780605
1.3136201e-09 0.08991034 6e-45 0.09678093 2.4386282e-14 0.19973084 6e-45 0.21463816
0.0 0.42326647 0.0 0.45456466 0.0 0.03595419 0.0 0.039012775
0.0 0.30478227 0.0 0.32784837 5.910934e-15 0.09794849 0.0 0.10586853
00000000: 0000 0000 8564 593e 0000 0000 9616 6a3e
00000010: 0000 0000 ce01 723d 0000 0000 dd3c 833d
00000020: 0000 0000 38ee d53d 0000 0000 8e5b e73d
00000030: c939 8e20 0097 363d 0400 0000 114e 453d
00000040: 0400 0000 eac3 aa3c 0400 0000 c25d b93c
00000050: 0000 0000 8d8b 8e3e 0000 0000 59b9 993e
00000060: 0000 0000 87b3 083e 0000 0000 ff19 143e
00000070: 3de5 042b 59d7 1e3c 0400 0000 eda1 2c3c
00000080: 0400 0000 3570 b73e 0400 0000 e3a9 c43e
00000090: 6e22 4e32 2447 b43c 0400 0000 529c c33c
000000a0: 0000 0000 dcb7 2a3e 0000 0000 c8ac 383e
000000b0: ab19 352e 993d 953c 0400 0000 e9f0 a13c
000000c0: f717 a52f 6ace 4e3c 0400 0000 cb9b 603c
000000d0: 0000 0000 daa7 843e 0000 0000 55e7 8e3e
000000e0: 1157 1c1b 3465 813c 0400 0000 a074 8c3c
000000f0: 0400 0000 497e 203e 0400 0000 dc7c 2c3e
00000100: 7a70 892b cf0f 353e 0000 0000 17fd 413e
00000110: 0400 0000 02f3 1c3d 0400 0000 90f8 293d
00000120: 0400 0000 602b e33d 0400 0000 3963 f53d
00000130: 1f21 e724 6929 bd3c 0400 0000 cd2c cd3c
00000140: 0000 0000 15fa 0d3d 0000 0000 6b00 1a3d
00000150: 0000 0000 6469 3c3e 0000 0000 66b1 4a3e
00000160: 0400 0000 0dda 933e 0400 0000 f332 9e3e
00000170: 0000 0000 0843 043d 0000 0000 f281 0f3d
00000180: 0000 0000 70d2 2c3e 0000 0000 e5b3 3a3e
00000190: 9b3e b430 2841 483c 0400 0000 dd6e 593c
000001a0: 0000 0000 662c 2c3d 0000 0000 dabb 3a3d
000001b0: 0000 0000 e2e3 0c3d 0000 0000 45de 183d
000001c0: 0400 0000 d2e1 de3c 0400 0000 55ce f13c
000001d0: 0000 0000 6d64 f23d 0000 0000 1eed 023e
000001e0: b9cd 302e 0871 e93d 0400 0000 3082 fb3d
000001f0: 0400 0000 22c7 c73c 0400 0000 afa3 d83c
00000200: 0400 0000 99b7 253e 0400 0000 11c9 323e
00000210: 0000 0000 cc0f d33c 0000 0000 ac32 e53c
00000220: 0000 0000 86f3 963d 0000 0000 486d a33d
00000230: 0000 0000 efd5 ee3e 0000 0000 9e3c 003f
00000240: 0000 0000 0db4 8e3e 0000 0000 3ae2 983e
00000250: 9922 ac2d 888e c43c 0400 0000 1039 d53c
00000260: 0000 0000 2cf6 3b3d 0000 0000 bbe7 4b3d
00000270: 0000 0000 6be7 cd3d 0000 0000 2887 de3d
00000280: c4de e125 096f 143d 0400 0000 f4c5 203d
00000290: 0400 0000 3d44 8c3c 0400 0000 3a40 983c
000002a0: 0000 0000 6170 713d 0000 0000 82e6 823d
000002b0: 990c 0000 881b f53d 0400 0000 5c44 043e
000002c0: 0400 0000 7595 013d 0400 0000 826b 0c3d
000002d0: 0000 0000 2ac7 233d 0000 0000 a2b5 313d
000002e0: 0400 0000 0c18 193e 0000 0000 2d9d 243e
000002f0: 0000 0000 9bac 873d 0400 0000 a278 923d
00000300: c5d4 e327 5842 3a3c 0400 0000 e74c 4a3c
00000310: 474b 0433 ba2d 2f3d 0400 0000 508d 3b3d
00000320: 0000 0000 b000 3f3d 0000 0000 c64c 4f3d
00000330: 6c98 a332 66bf 5d3c 0400 0000 549c 703c
00000340: 0000 0000 4523 d13e 0000 0000 8047 e03e
00000350: 0000 0000 84a1 0c3e 0000 0000 60a1 173e
00000360: 0000 0000 5643 f83c 0000 0000 70a3 063d
00000370: 0000 0000 dd48 0e3e 0000 0000 6e76 193e
00000380: 0000 0000 ec88 4a3e 0000 0000 5076 5a3e
00000390: 9642 b430 d0c7 403c 0400 0000 125b 513c
000003a0: e68a b430 ea22 b83d 0400 0000 1535 c63d
000003b0: f0a6 db28 3e86 4c3e 0400 0000 1bca 5b3e
000003c0: 0000 0000 62b6 d83e 0000 0000 b3bc e83e
000003d0: 0000 0000 b344 133d 0000 0000 dccb 1f3d
000003e0: 0000 0000 6c0c 9c3e 0000 0000 bedb a73e
000003f0: bef6 d427 3899 c83d 0000 0000 9ad1 d83d

bn1d1.running_var f4 [512]
6e-45 0.00024516595 6e-45 0.00026443365 6e-45 5.4850418e-08 6e-45 5.975535e-08
6e-45 4.114513e-06 6e-45 4.443488e-06 6e-45 2.3421592e-06 6e-45 2.506573e-06
6e-45 1.4063696e-09 6e-45 1.5288961e-09 6e-45 0.00034476034 6e-45 0.0003727004
6e-45 1.8753822e-06 6e-45 2.0399339e-06 6e-45 4.5439368e-11 6e-45 4.980441e-11
6e-45 0.003976819 6e-45 0.004267622 6e-45 3.785867e-09 6e-45 4.1108046e-09
6e-45 1.0934859e-05 6e-45 1.189269e-05 6e-45 1.6968771e-09 6e-45 1.8497843e-09
6e-45 1.823462e-10 6e-45 1.9913339e-10 6e-45 0.00047959868 6e-45 0.0005150973
6e-45 1.1259896e-09 6e-45 1.2317648e-09 6e-45 0.00022204385 6e-45 0.00023637197
6e-45 0.0005034096 6e-45 0.000538254 6e-45 1.8688807e-07 6e-45 2.015108e-07
6e-45 1.7383258e-05 6e-45 1.862906e-05 6e-45 5.571263e-09 6e-45 6.068987e-09
6e-45 9.625202e-09 6e-45 1.0474951e-08 6e-45 0.00022561624 6e-45 0.00024103947
6e-45 0.0025875596 6e-45 0.0027659207 6e-45 4.385156e-09 6e-45 4.7996e-09
6e-45 3.3095184e-05 6e-45 3.5608195e-05 6e-45 6.679698e-10 6e-45 7.2908224e-10
6e-45 1.866884e-08 6e-45 2.0330724e-08 6e-45 7.100502e-09 6e-45 7.736078e-09
6e-45 4.5999182e-09 6e-45 5.0209668e-09 6e-45 1.0863466e-05 6e-45 1.1750396e-05
6e-45 5.7564765e-05 6e-45 6.1763945e-05 6e-45 1.1711601e-08 6e-45 1.2733239e-08
6e-45 6.5403794e-05 6e-45 7.074995e-05 6e-45 6.0747635e-10 6e-45 6.633443e-10
6e-45 1.2368686e-06 6e-45 1.3347217e-06 6e-45 0.009308948 6e-45 0.010002034
6e-45 0.0017736205 6e-45 0.0018953538 6e-45 4.6955564e-09 6e-45 5.1090043e-09
6e-45 1.4213849e-08 6e-45 1.5467048e-08 6e-45 4.9545806e-06 6e-45 5.348513e-06
6e-45 5.433641e-08 6e-45 5.92899e-08 6e-45 1.1009826e-09 6e-45 1.1993021e-09
6e-45 6.13162e-08 6e-45 6.674178e-08 6e-45 2.545333e-05 6e-45 2.7428965e-05
6e-45 2.0535819e-07 6e-45 2.210226e-07 6e-45 9.117254e-09 6e-45 9.932932e-09
6e-45 0.00012223357 6e-45 0.00013153609 6e-45 5.805399e-06 6e-45 6.2713843e-06
6e-45 5.3334964e-10 6e-45 5.8368876e-10 6e-45 7.216791e-05 6e-45 7.6985416e-05
6e-45 5.726688e-09 6e-45 6.259231e-09 6e-45 3.5179069e-09 6e-45 3.8211767e-09
6e-45 0.0065670647 6e-45 0.007045929 6e-45 3.3857916e-05 6e-45 3.6585585e-05
6e-45 1.48877675e-08 6e-45 1.6160822e-08 6e-45 4.840568e-05 6e-45 5.2236755e-05
6e-45 0.000117631695 6e-45 0.00012681997 6e-45 3.633901e-10 6e-45 3.951698e-10
6e-45 2.7656726e-05 6e-45 2.9815199e-05 6e-45 0.00038765775 6e-45 0.00041710018
6e-45 0.005708124 6e-45 0.006140711 6e-45 6.4097567e-09 6e-45 6.999059e-09
6e-45 0.001223117 6e-45 0.001311054 6e-45 5.16226e-06 6e-45 5.5936225e-06
00000000: 0400 0000 9e89 8039 0400 0000 afa3 8a39
00000010: 0400 0000 ac94 6b33 0400 0000 da52 8033
00000020: 0400 0000 660f 8a36 0400 0000 4519 9536
00000030: 0400 0000 fd2d 1d36 0400 0000 9936 2836
00000040: 0400 0000 3b4a c130 0400 0000 4021 d230
00000050: 0400 0000 f3c0 b439 0400 0000 0067 c339
00000060: 0400 0000 a4b5 fb35 0400 0000 cce5 0836
00000070: 0400 0000 2ed8 472e 0400 0000 c80a 5b2e
00000080: 0400 0000 fa4f 823b 0400 0000 68d7 8b3b
00000090: 0400 0000 d714 8231 0400 0000 053f 8d31
000000a0: 0400 0000 dd74 3737 0400 0000 b786 4737
000000b0: 0400 0000 8e37 e930 0400 0000 803b fe30
000000c0: 0400 0000 e47d 482f 0400 0000 11f3 5a2f
000000d0: 0400 0000 a572 fb39 0400 0000 9807 073a
000000e0: 0400 0000 3dc1 9a30 0400 0000 df4a a930
000000f0: 0400 0000 71d4 6839 0400 0000 9eda 7739
00000100: 0400 0000 3ff7 033a 0400 0000 9d19 0d3a
00000110: 0400 0000 67ab 4834 0400 0000 de5e 5834
00000120: 0400 0000 43d2 9137 0400 0000 9a45 9c37
00000130: 0400 0000 596d bf31 0400 0000 6087 d031
00000140: 0400 0000 165c 2532 0400 0000 52f5 3332
00000150: 0400 0000 6693 6c39 0400 0000 8abf 7c39
00000160: 0400 0000 0c94 293b 0400 0000 7344 353b
00000170: 0400 0000 3dac 9631 0400 0000 bae9 a431
00000180: 0400 0000 afcf 0a38 0400 0000 025a 1538
00000190: 0400 0000 329c 3730 0400 0000 9a68 4830
000001a0: 0400 0000 375d a032 0400 0000 bca3 ae32
000001b0: 0400 0000 adf8 f331 0400 0000 a1e7 0432
000001c0: 0400 0000 4f0d 9e31 0400 0000 e484 ac31
000001d0: 0400 0000 3b42 3637 0400 0000 9123 4537
000001e0: 0400 0000 b271 7138 0400 0000 4487 8138
000001f0: 0400 0000 2a34 4932 0400 0000 61c1 5a32
00000200: 0400 0000 6529 8938 0400 0000 975f 9438
00000210: 0400 0000 59fb 2630 0400 0000 b556 3630
00000220: 0400 0000 7b02 a635 0400 0000 b024 b335
00000230: 0400 0000 8f84 183c 0400 0000 92df 233c
00000240: 0400 0000 d478 e83a 0400 0000 856d f83a
00000250: 0400 0000 8d56 a131 0400 0000 478b af31
00000260: 0400 0000 2b31 7432 0400 0000 66dc 8432
00000270: 0400 0000 863f a636 0400 0000 6077 b336
00000280: 0400 0000 845f 6933 0400 0000 efa5 7e33
00000290: 0400 0000 6251 9730 0400 0000 b1d4 a430
000002a0: 0400 0000 f0ac 8333 0400 0000 ae53 8f33
000002b0: 0400 0000 9c84 d537 0400 0000 4117 e637
000002c0: 0400 0000 6e80 5c34 0400 0000 3b52 6d34
000002d0: 0400 0000 1ba2 1c32 0400 0000 7fa5 2a32
000002e0: 0400 0000 d32b 0039 0400 0000 f3ec 0939
000002f0: 0400 0000 ffcb c236 0400 0000 c86e d236
00000300: 0400 0000 259b 1230 0400 0000 7271 2030
00000310: 0400 0000 da58 9738 0400 0000 3b73 a138
00000320: 0400 0000 7bc4 c431 0400 0000 c710 d731
00000330: 0400 0000 acbf 7131 0400 0000 6d4b 8331
00000340: 0400 0000 8830 d73b 0400 0000 89e1 e63b
00000350: 0400 0000 a902 0e38 0400 0000 7973 1938
00000360: 0400 0000 18c5 7f32 0400 0000 06d2 8a32
00000370: 0400 0000 3407 4b38 0400 0000 ca18 5b38
00000380: 0400 0000 09b1 f638 0400 0000 fafa 0439
00000390: 0400 0000 9cc6 c72f 0400 0000 353f d92f
000003a0: 0400 0000 5e00 e837 0400 0000 a71b fa37
000003b0: 0400 0000 8b3e cb39 0400 0000 3dae da39
000003c0: 0400 0000 370b bb3b 0400 0000 0438 c93b
000003d0: 0400 0000 d13c dc31 0400 0000 607c f031
000003e0: 0400 0000 ff50 a03a 0400 0000 acd7 ab3a
000003f0: 0400 0000 7a37 ad36 0400 0000 dab0 bb36

SA.in_proj_weight f4 [12, 4]
-0.28099716 0.5137723 -0.047612134 0.44510728 -0.18949749 0.38553897 0.15912294 0.36786526
-0.5671144 0.07687826 0.45618427 0.5902714 -0.18221141 0.5087948 -0.61269933 -0.08865137
-0.594423 -0.35874635 -0.60704565 0.51641756 -0.54463595 -0.15804565 0.19843233 -0.47835827
0.2929772 -0.44115007 0.31190768 -0.5406387 -0.2712504 0.53917915 0.2569365 -0.4108847
-0.30643108 -0.6088426 -0.054340746 0.21438493 -0.23327439 -0.46968484 -0.76594186 -0.21551494
0.078506775 0.2885236 -0.3363833 0.07041876 0.21990143 -0.11394088 0.081398346 0.15011442
00000000: dcde 8fbe 9586 033f f104 43bd 1ae5 e33e
00000010: a10b 42be 5d65 c53e 20f1 223e d658 bc3e
00000020: 692e 11bf 5972 9d3d fc90 e93e 071c 173f
00000030: a195 3abe 6040 023f ddd9 1cbf d98e b5bd
00000040: 1b2c 18bf 9aad b7be 5867 1bbf f133 043f
00000050: 436d 0bbf b8d6 21be d831 4b3e 60eb f4be
00000060: 1c01 963e 6cde e1be 5db2 9f3e 4c67 0abf
00000070: 55e1 8abe a507 0a3f 2e8d 833e 7b5f d2be
00000080: 89e4 9cbe 1cdd 1bbf 6794 5ebd b987 5b3e
00000090: 7bdf 6ebe 887a f0be c414 44bf f3af 5cbe
000000a0: 29c8 a03d 5eb9 933e 6f3a acbe b637 903d
000000b0: d72d 613e d659 e9bd 2db4 a63d 98b7 193e

SA.in_proj_bias f4 [12]
-0.03008016 -0.10816492 0.00028296982 9.651763e-05 1.0848864e-08 -1.2756341e-07 -3.8852835e-10 -4.428767e-09
-9.11716e-06 -1.2214909e-05 2.7144467e-06 1.252824e-06
00000000: ab6a f6bc 9285 ddbd 915b 9439 8269 ca38
00000010: cf61 3a32 5df8 08b4 8198 d5af d92b 98b1
00000020: e7f5 18b7 a2ee 4cb7 d729 3636 b426 a835

SA.out_proj.weight f4 [4, 4]
0.08324158 -0.048448205 0.35154903 -0.46839982 0.012281452 -0.6810121 -0.21907301 0.10415263
0.03246832 0.37173057 0.07523841 -0.47684056 -0.62334704 -0.43832555 0.1944794 0.0657408
00000000: 907a aa3d a071 46bd 3cfe b33e 1ad2 efbe
00000010: 2538 493c cf56 2ebf ad54 60be f94d d53d
00000020: 80fd 043d 7853 be3e 9816 9a3d 7224 f4be
00000030: ac93 1fbf 356c e0be 9c25 473e 1da3 863d

SA.out_proj.bias f4 [4]
9.7801646e-08 1.3929115e-05 1.7213097e-07 2.7053275e-05
00000000: 0607 d233 18b1 6937 00d3 3834 77f0 e237
