images/models/other_models/Attention/best_models14.pth.tar (torch, 471237 bytes, 18 tensors)

bn1d0.weight f4 [739]
0	0x3f029dee	0.5102223
1	0x3f444b5b	0.76677483
2	0x3f4612a7	0.7737221
3	0x3f5b4b97	0.85662216
4	0x3f903e69	1.1269046
5	0x3f8b20bc	1.0869365
6	0x3f7ac755	0.97960407
7	0x3f7a5b8e	0.9779595
8	0x3f9047ab	1.1271871
9	0x3f77bc9b	0.96772164
10	0x3f82e05f	1.0224723
11	0x3f5bde0e	0.85885704
12	0x3f97f52e	1.1871698
13	0x3f77a383	0.96733874
14	0x3f757faa	0.95897925
15	0x3f7d7824	0.99011445
16	0x3f81e1d2	1.014704
17	0x3f795ba6	0.9740547
18	0x3f78b0b5	0.97144634
19	0x3f6e16c0	0.93003464
20	0x3f899814	1.0749536
21	0x3f71c7b7	0.94445366
22	0x3f813181	1.0093232
23	0x3f7794cc	0.9671142
24	0x3f7ca71e	0.986925
25	0x3f8acb41	1.0843278
26	0x3f99ccd3	1.2015632
27	0x3f79710b	0.97438115
28	0x3f79f1bc	0.9763448
29	0x3fa2b2b4	1.2710786
30	0x3f8c2196	1.094775
31	0x3f88dd94	1.069262
32	0x3f8343a3	1.0255016
33	0x3f8a4dc3	1.0804981
34	0x3f808dd6	1.0043285
35	0x3f7d1aad	0.9886883
36	0x3f984047	1.1894616
37	0x3f8ca7e8	1.0988741
38	0x3f838d05	1.0277411
39	0x3f888ce5	1.0667998
40	0x3f8311a3	1.0239757
41	0x3f8b60c2	1.0888903
42	0x3f82ea57	1.0227765
43	0x3f7ed7b0	0.99547863
44	0x3f80a3cc	1.0049987
45	0x3f935db7	1.1512975
46	0x3f95bd62	1.169842
47	0x3f7c2c29	0.98504883
48	0x3f7c743a	0.9861485
49	0x3f7cab17	0.9869856
50	0x3f87217b	1.0557092
51	0x3f81b3ad	1.0132958
52	0x3f7affb5	0.9804643
53	0x3f7eade9	0.99484116
54	0x3f7eb7aa	0.99499
55	0x3f8640d9	1.048854
56	0x3fa22d72	1.2670119
57	0x3f809bb7	1.004752
58	0x3f812e83	1.0092319
59	0x3f8a7db9	1.0819618
60	0x3facc22a	1.3496754
61	0x3f94ab12	1.1614707
62	0x3f8c676a	1.096906
63	0x3f7f027b	0.9961316
64	0x3f7c256d	0.9849461
65	0x3f8dd203	1.1079715
66	0x3f78091d	0.96888906
67	0x3f819e24	1.0126386
68	0x3f883b87	1.0643166
69	0x3f885438	1.0650702
70	0x3f7d02a7	0.9883217
71	0x3f80f0aa	1.0073445
72	0x3f7e4f38	0.9933963
73	0x3f84f7a5	1.0388075
74	0x3f7c7a84	0.98624444
75	0x3f80faaf	1.0076503
76	0x3f7d5433	0.989566
77	0x3f823672	1.0172865
78	0x3f81bed9	1.0136367
79	0x3f81ead1	1.0149785
80	0x3f7d4289	0.9892965
81	0x3f7df7f0	0.9920645
82	0x3f8134de	1.0094259
83	0x3f82dc75	1.0223528
84	0x3f7f8ab1	0.99821
85	0x3f7c9771	0.9866858
86	0x3f84ea33	1.0383972
87	0x3f837d79	1.0272666
88	0x3f8e0db6	1.1097934
89	0x3f814200	1.0098267
90	0x3f862bfb	1.0482172
91	0x3f831294	1.0240045
92	0x3f835c0c	1.0262465
93	0x3f871eb0	1.055624
94	0x3f936b88	1.1517191
95	0x3f812554	1.0089517
96	0x3f7c413b	0.98537034
97	0x3f80473b	1.0021738
98	0x3f8287d5	1.0197703
99	0x3f7decbc	0.99189353
100	0x3f854834	1.041266
101	0x3f833a25	1.0252119
102	0x3f7e3add	0.9930857
103	0x3f7fb205	0.9988101
104	0x3f811239	1.0083686
105	0x3f857bb4	1.0428376
106	0x3fa44d48	1.2836084
107	0x3f7f391f	0.99696535
108	0x3f7d9831	0.9906035
109	0x3f7fb03e	0.998783
110	0x3f811661	1.0084955
111	0x3f840bfa	1.0316155
112	0x3f77b18b	0.96755284
113	0x3f8b485e	1.088146
114	0x3f8062fc	1.0030208
115	0x3f8ff762	1.124737
116	0x3f76c1e4	0.96389604
117	0x3f7ba488	0.9829793
118	0x3f840da9	1.0316669
119	0x3f830b2d	1.0237786
120	0x3f8735fc	1.056335
121	0x3f7f502e	0.9973172
122	0x3f7b6b25	0.98210365
123	0x3f791801	0.9730225
124	0x3f81a3d9	1.0128127
125	0x3f945e93	1.1591362
126	0x3f76d548	0.9641919
127	0x3f6481c6	0.8926052
128	0x3f626437	0.88434166
129	0x3f687910	0.90809727
130	0x3f5e30cf	0.86793226
131	0x3f597777	0.84947914
132	0x3f5c014c	0.8593948
133	0x3f5d9a73	0.86563796
134	0x3f663ae6	0.8993362
135	0x3f7ad710	0.9798441
136	0x3f84fa3d	1.0388867
137	0x3f7a5d13	0.9779827
138	0x3f800e44	1.0004354
139	0x3f8db0d0	1.1069584
140	0x3f8712ed	1.0552651
141	0x3f83ec9c	1.0306582
142	0x3f926ceb	1.1439489
143	0x3f7c940f	0.9866342
144	0x3f84371a	1.0329316
145	0x3f800e9a	1.0004456
146	0x3f824cf1	1.0179731
147	0x3f827b11	1.0193807
148	0x3f7de451	0.9917651
149	0x3f80c135	1.0058962
150	0x3f80123a	1.0005562
151	0x3f861557	1.0475262
152	0x3f83701f	1.0268592
153	0x3f7eed4c	0.99580836
154	0x3f81cad8	1.0140028
155	0x3f7fb286	0.9988178
156	0x3f7c4026	0.9853538
157	0x3f83e276	1.0303485
158	0x3f848e4c	1.0355926
159	0x3f84917d	1.03569
160	0x3f7e5769	0.9935213
161	0x3f812251	1.0088598
162	0x3fa68c0a	1.3011487
163	0x3f7e2643	0.9927713
164	0x3f8228f2	1.0168746
165	0x3f850e74	1.0395036
166	0x3f81c218	1.0137358
167	0x3f7ddfea	0.9916979
168	0x3f812edb	1.0092424
169	0x3f88dc28	1.0692186
170	0x3f7d0d82	0.98848736
171	0x3f814f42	1.0102313
172	0x3f7f474a	0.99718153
173	0x3f808082	1.0039217
174	0x3f8fdf56	1.1240032
175	0x3f820db0	1.0160427
176	0x3f85ce09	1.0453502
177	0x3f9062e5	1.128018
178	0x3f7ea7de	0.99474895
179	0x3f7f291e	0.99672115
180	0x3f849d15	1.0360438
181	0x3fa18131	1.2617551
182	0x3f81df37	1.0146245
183	0x3f7f18ed	0.9964741
184	0x3f8488c6	1.035424
185	0x3f88d5e4	1.0690274
186	0x3f8717b9	1.0554115
187	0x3fa817e6	1.3132293
188	0x3fb4de96	1.4130428
189	0x3f8f72c7	1.1206902
190	0x3f84eaeb	1.0384191
191	0x3f858aa2	1.0432932
192	0x3f7acedf	0.9797191
193	0x3f890a5e	1.0706289
194	0x3f8f2593	1.1183342
195	0x3f9f7044	1.2456136
196	0x3f802cb9	1.0013648
197	0x3f85396e	1.0408151
198	0x3f81d14b	1.0141996
199	0x3f8727d0	1.0559025
200	0x3f7f90e3	0.99830455
201	0x3f7415ea	0.9534594
202	0x3f868a73	1.0511001
203	0x3f7d0e2f	0.9884977
204	0x3f7eafde	0.994871
205	0x3f71f8fc	0.94520545
206	0x3f865177	1.0493611
207	0x3f88b6d4	1.0680795
208	0x3f7857ad	0.9700878
209	0x3f7ae80d	0.9801033
210	0x3f8a61df	1.0811118
211	0x3f80a829	1.0051318
212	0x3f978a0d	1.1839005
213	0x3f850c7e	1.0394437
214	0x3f54482e	0.8292264
215	0x3f6af302	0.9177705
216	0x3f2d421a	0.6767899
217	0x3f257c5e	0.64642894
218	0x3eeb0b0a	0.4590686
219	0x3f303eed	0.6884602
220	0x3f5a0509	0.85163933
221	0x3f58e5fb	0.8472592
222	0x3f271f9c	0.6528261
223	0x3f2eb4d3	0.68244666
224	0x3f26cfe8	0.6516099
225	0x3ef2e1e1	0.47437957
226	0x3f07e9c4	0.53091073
227	0x3f7ff7f6	0.99987733
228	0x3f7ffb9f	0.9999332
229	0x3f80026a	1.0000737
230	0x3f800cf2	1.000395
231	0x3f800011	1.000002
232	0x3f7ff319	0.9998031
233	0x3f7ff432	0.9998199
234	0x3f800279	1.0000755
235	0x3f801d14	1.0008874
236	0x3f7ff9bb	0.99990433
237	0x3f80079c	1.0002322
238	0x3f7fec71	0.99970156
239	0x3f7ffd2e	0.99995697
240	0x3f80051d	1.000156
241	0x3f800719	1.0002166
242	0x3f8002b4	1.0000825
243	0x3f800bde	1.0003622
244	0x3f7ffe5b	0.9999749
245	0x3f7ff6b6	0.99985826
246	0x3f804424	1.0020795
247	0x3f8017a1	1.0007211
248	0x3f7fed15	0.99971133
249	0x3f800d82	1.0004122
250	0x3f800563	1.0001644
251	0x3f80047f	1.0001372
252	0x3f7ff0ad	0.9997662
253	0x3f7fef01	0.99974066
254	0x3f7fe7bd	0.9996298
255	0x3f800433	1.0001281

bn1d0.bias f4 [739]
0	0x3d72e463	0.059299838
1	0x3d20e218	0.03927812
2	0xbd22b87b	-0.039726716
3	0x3d88a425	0.06671933
4	0xbddf05db	-0.10889789
5	0x3d24b9bc	0.040216193
6	0xbdb103f7	-0.08643334
7	0xbcda9e3b	-0.026686778
8	0xbdedea68	-0.11616975
9	0x3d2c3e1b	0.042051416
10	0xbcad2328	-0.021134928
11	0xbcf83c42	-0.03030217
12	0x3b5be0e5	0.0033550796
13	0xbda5bfa6	-0.08093195
14	0xbcc90a9f	-0.024541197
15	0xbd0524f9	-0.032505963
16	0xbd88ac94	-0.06673542
17	0xbc23e031	-0.010002182
18	0xbc3a83f3	-0.011383998
19	0x3d1eaa00	0.038736343
20	0xbb39cac1	-0.002834961
21	0x3c34c236	0.011032632
22	0xbc11cb3e	-0.008898554
23	0x3d9843c4	0.074348
24	0x3cbb9fdc	0.022903375
25	0xbd295338	-0.04133913
26	0x3e209610	0.15682244
27	0x3ca80c3b	0.020513644
28	0x3da2e4df	0.0795381
29	0xbd8856da	-0.066571906
30	0x3dda2a31	0.106525786
31	0x3d56c483	0.052433502
32	0xbd15b3de	-0.036548488
33	0x3d1e636a	0.038669027
34	0x3b226e7f	0.00247851
35	0x3d9ecf6d	0.07754407
36	0x3d371559	0.044698093
37	0x3a136d11	0.0005623857
38	0x3cfb1218	0.030648276
39	0x3d119833	0.03554554
40	0xbb9a409e	-0.00470741
41	0x3d15aa61	0.03653944
42	0x3c37be08	0.011214741
43	0x3c1faf1e	0.009746341
44	0xba864825	-0.0010244889
45	0xbd2b4b64	-0.041819945
46	0x3d3b7c2b	0.045772713
47	0xbc74fa92	-0.014952319
48	0xbd3d70cc	-0.04625015
49	0x3bc02d3b	0.005864767
50	0x3c4bafc2	0.012432041
51	0xbd4e086c	-0.050301
52	0xbc4b1344	-0.01239473
53	0x3d9eb44d	0.077492334
54	0xbdadc3c6	-0.084846064
55	0xba0c977c	-0.0005363149
56	0xbcd56c35	-0.026052574
57	0xbd0d129a	-0.034441568
58	0xbc3e65a7	-0.0116209155
59	0xbddfc18e	-0.109255895
60	0xbe1a0d2d	-0.15044089
61	0xbd1ff557	-0.039052334
62	0xbd3152eb	-0.043291967
63	0xbdf6e22f	-0.1205486
64	0xbd074c1d	-0.03303157
65	0xbccfcc7c	-0.02536606
66	0x3c32eaaf	0.010920211
67	0xbd49ef48	-0.049300462
68	0xbce179ff	-0.027523993
69	0x3c3c9645	0.011510436
70	0xbd64e28a	-0.055880107
71	0x3ce0174c	0.027354859
72	0xbd826eb9	-0.06368775
73	0x3bf27419	0.007399094
74	0x3d1e598e	0.038659625
75	0x3cf6f281	0.030144932
76	0xbcf5faba	-0.030026782
77	0x3d2d48f9	0.04230592
78	0xbd475573	-0.048665475
79	0xbd0f86b0	-0.035040557
80	0x3d887c18	0.06664294
81	0xbd1b7402	-0.03795243
82	0x3cac0782	0.020999674
83	0x3c3166cb	0.01082773
84	0x3b8bf088	0.004270617
85	0xbcc55fa9	-0.024093466
86	0x3daa2c73	0.08309259
87	0x3c94de4b	0.018172404
88	0xbc1ab15f	-0.009441703
89	0x3d04ff9a	0.032470323
90	0xbc2f1de5	-0.01068828
91	0x3b224839	0.0024762286
92	0x3d2f897c	0.042855725
93	0x3b9dd43d	0.0048165605
94	0xbd1b6c64	-0.037945166
95	0x3dba6f06	0.09103207
96	0xbd62930f	-0.055316027
97	0x3d65a03c	0.056061015
98	0x3cf19062	0.029487792
99	0xbbe34b8e	-0.006936497
100	0xbc45b89c	-0.01206794
101	0x3d8b62ae	0.06805931
102	0xbd4d8048	-0.050171167
103	0x39883886	0.00025982055
104	0x3bf500a2	0.007476882
105	0xbd540841	-0.051765684
106	0xbcc60aa6	-0.024175
107	0xbbf79347	-0.0075553986
108	0x3ad9a4cf	0.0016604903
109	0x3c37ec93	0.011225837
110	0xbcd00ad0	-0.02539578
111	0xbd3f86bb	-0.04675935
112	0xbd161b37	-0.036647048
113	0xbd57b1d0	-0.05265981
114	0xbd4d9f66	-0.050200842
115	0x3d10059f	0.03516161
116	0xbd4619d2	-0.048364468
117	0xbcff0bd9	-0.03113358
118	0xbcdb820e	-0.026795413
119	0xbb223a67	-0.0024754049
120	0xbc933d76	-0.017973643
121	0x3c8d9f78	0.017287955
122	0x3cb8e81a	0.022571612
123	0xbd0c0aa9	-0.034189854
124	0xbcd108e8	-0.025516942
125	0xbcf9a19c	-0.03047257
126	0xbcbdb81a	-0.023159076
127	0xbd0cf2b6	-0.034411155
128	0xbcd6c7fd	-0.026218409
129	0xbce7fb5f	-0.028318105
130	0xbd05ffa3	-0.032714497
131	0xbc97b069	-0.018516736
132	0xbca0c21e	-0.019623812
133	0xbca3737f	-0.019952534
134	0xbd0a7907	-0.033806827
135	0xbd5a6997	-0.053323355
136	0xbd39abc6	-0.04532983
137	0x3bdea2eb	0.0067943237
138	0xbd1614a8	-0.036640793
139	0x3d0b32a3	0.033983838
140	0xbcb13295	-0.021630565
141	0xbd4b1c93	-0.049587797
142	0x3c342ecd	0.010997486
143	0x3c5bd124	0.013416562
144	0xbc992f3d	-0.018699283
145	0xbcecdf2c	-0.02891501
146	0x3a691384	0.00088911527
147	0x3d06e940	0.03293729
148	0xbd25810f	-0.040406283
149	0x3ce54115	0.027985135
150	0x3ca7d380	0.020486593
151	0x3bd160a9	0.0063896966
152	0x3cac05ae	0.020998802
153	0xbd46c96e	-0.048531942
154	0x3ccc2e03	0.024924284
155	0x3d133795	0.03594168
156	0xbd29168e	-0.041281275
157	0xbc29e5fe	-0.010369776
158	0x3d22e3e1	0.039768104
159	0x3d1b8481	0.037968162
160	0x3cb8a733	0.022540664
161	0x3d35fb40	0.044429064
162	0xbd46c789	-0.048530135
163	0x3d362209	0.044466052
164	0x3bb91506	0.005648258
165	0x3d4fe971	0.050759736
166	0xbc3df452	-0.011593895
167	0x3cc6e00a	0.024276752
168	0x3bac7213	0.005262622
169	0xbd5997e0	-0.053123355
170	0x3cada313	0.021195924
171	0x3cd61543	0.026133185
172	0x3ba05b98	0.0048937313
173	0xbca9be60	-0.02072066
174	0x3d40c36d	0.047061373
175	0x3c0991d3	0.008396584
176	0xbc491e09	-0.012275227
177	0xbdcad991	-0.09904779
178	0x3d23b179	0.039964173
179	0x3c08f606	0.008359438
180	0xbd302fed	-0.043014456
181	0xbd5f3e1e	-0.0545026
182	0x3c26fa27	0.010191477
183	0x3bf2f414	0.0074143503
184	0xbd208104	-0.03918554
185	0xbc42cf18	-0.011890195
186	0x3cb72674	0.022357203
187	0xbc83ed01	-0.016104223
188	0x3cbdff81	0.023193123
189	0xbc71b8d9	-0.014753544
190	0x3c9da515	0.019243756
191	0xbd58553b	-0.052815657
192	0xbc9089cd	-0.017643834
193	0xbbbe69a3	-0.0058109327
194	0x3d76e56b	0.060277384
195	0xbdcb12a3	-0.09915664
196	0xbd663f89	-0.056212936
197	0xbcf3f23a	-0.029778589
198	0x3c35015c	0.011047687
199	0xba92599d	-0.0011165623
200	0x3cb25cd4	0.02177278
201	0xbd80a784	-0.06281951
202	0x3ae33e31	0.001733726
203	0x3c844257	0.016144915
204	0xbaac6d8b	-0.0013155205
205	0x3cf1a930	0.02949962
206	0xbd5a3077	-0.053268876
207	0x3d305787	0.043052223
208	0xbd2e200d	-0.042511035
209	0x3d1e9d88	0.038724452
210	0xbd432246	-0.047640108
211	0xbd061d27	-0.032742646
212	0x3c7c4afc	0.015398737
213	0xbe1397e0	-0.14413404
214	0xbcaee8f2	-0.021351311
215	0x3b7505ec	0.0037387563
216	0xbdffc2f7	-0.124883585
217	0x3c88e993	0.01671294
218	0xbda2ad93	-0.07943263
219	0x3d90b17d	0.07065103
220	0xbd54f16d	-0.051988054
221	0xbe037259	-0.12836589
222	0xbc2b6a4e	-0.010462357
223	0x3de9b399	0.11411209
224	0xbd4b6d87	-0.049665
225	0xbde3b7c6	-0.111190364
226	0xbd4b50f3	-0.049637746
227	0xbc4f6760	-0.012658924
228	0xbc85deee	-0.016341653
229	0x3ac18601	0.0014764668
230	0x3c9affa8	0.018920735
231	0x3b06adb0	0.0020550303
232	0xbd047f86	-0.03234818
233	0x3ba99231	0.005174898
234	0xbc104743	-0.008806053
235	0x3ceaa24a	0.028641839
236	0x3d060854	0.032722786
237	0xbcc4ad07	-0.024008287
238	0x3c326c0f	0.010890021
239	0xbc22e6c3	-0.009942713
240	0x3c01287d	0.007883188
241	0xbc9dd5f4	-0.01926706
242	0x3c64d3c0	0.013966501
243	0x3d0b57e8	0.03401938
244	0x3bf6f70c	0.0075367745
245	0x3bd839f1	0.006598704
246	0xbca2e08d	-0.019882465
247	0xbc20b5f1	-0.009809003
248	0xbcf576c2	-0.029963855
249	0xbc9e63a8	-0.01933463
250	0x3ae6d8bb	0.0017612198
251	0x3cbffc58	0.023435757
252	0xbcaf95d9	-0.021433758
253	0x3c66108f	0.014042034
254	0x3b005e42	0.0019587432
255	0x3ce66374	0.028123595

bn1d0.running_mean f4 [739]
0	0xbb809827	-0.003924388
1	0xbb151780	-0.0022749603
2	0xbade94df	-0.0016981623
3	0xbbb58e8d	-0.005540675
4	0xbbb22466	-0.005436468
5	0xbbd58abb	-0.006516782
6	0xbb9051dc	-0.0044042896
7	0xbad2762d	-0.0016056948
8	0x3ac3b2b6	0.0014930579
9	0x3a82abde	0.0009969433
10	0xb8a36274	-7.790784e-05
11	0xbb07c764	-0.0020718211
12	0xbb57ce24	-0.0032929266
13	0xbb88bf30	-0.004173182
14	0xbb5843d7	-0.003299942
15	0xbb206f2f	-0.0024480333
16	0xbad0f9df	-0.0015943608
17	0xba5d0e3f	-0.0008432604
18	0x39352922	0.00017276828
19	0xb90681dd	-0.00012827614
20	0x3a738be2	0.00092905585
21	0x3a3f0ed5	0.0007288282
22	0x3a8955b1	0.0010477809
23	0x3ae9ff51	0.001785258
24	0x3b01c54b	0.0019801434
25	0x3b27a02d	0.002557765
26	0x3b0507e8	0.0020298902
27	0x3b14c790	0.0022701956
28	0x3b10ac97	0.0022075528
29	0x3b15e7f5	0.0022873853
30	0x3b15ef4c	0.0022878228
31	0x3b04179c	0.0020155674
32	0x3b0510f2	0.002030429
33	0x3ad116c4	0.0015952219
34	0x3af8a7b4	0.0018970878
35	0x3ac2dc64	0.0014866707
36	0x3a7ae823	0.0009571334
37	0x3a53b666	0.0008076191
38	0x3a078b68	0.00051706145
39	0x39d3e55d	0.00040415945
40	0x397033f0	0.00022907532
41	0xb95d42f8	-0.0002110115
42	0xb96f57b5	-0.0002282549
43	0xb98424fd	-0.0002520456
44	0xba38e3f2	-0.00070530095
45	0xba114f27	-0.00055431057
46	0xba8e08e8	-0.0010836395
47	0xbaa2fc25	-0.0012434764
48	0xba79f084	-0.0009534436
49	0xbad9f825	-0.0016629739
50	0xbac2dde5	-0.0014867155
51	0xbac086bf	-0.0014688595
52	0xbadd11fa	-0.0016866319
53	0xbae03cc0	-0.0017107949
54	0xbb2002df	-0.0024415774
55	0xbb21d4aa	-0.0024693408
56	0xbb6e845e	-0.0036394815
57	0xbb956b7d	-0.0045599327
58	0xbbcbc57c	-0.0062186103
59	0xbbfc8fe2	-0.007707582
60	0xbc156846	-0.009119099
61	0xbc17edb3	-0.0092729805
62	0xbc0ef3c1	-0.008725108
63	0xbc240f95	-0.010013481
64	0xbbb095f1	-0.005388968
65	0xbb7fd5e1	-0.0039037394
66	0xbb3a76d0	-0.0028452165
67	0xbaf56270	-0.0018721353
68	0xbacbe167	-0.0015554846
69	0xbaad5282	-0.0013223442
70	0xbaa74e5e	-0.0012764444
71	0xba8aea92	-0.0010598472
72	0xbace49b6	-0.001573852
73	0xba7bf362	-0.0009611157
74	0xba3787d5	-0.00070011365
75	0xba0915b3	-0.00052293687
76	0xba01fb30	-0.00049583893
77	0xb92cae4c	-0.00016468129
78	0x39aeed2a	0.00033364567
79	0x39d466ef	0.00040512483
80	0x3a2b4b1c	0.00065343245
81	0x3a819d13	0.0009888731
82	0x3aa5c81e	0.001264814
83	0x3a8a7fdc	0.001056667
84	0x3a794b8e	0.0009509855
85	0x3a72f5cb	0.00092681934
86	0x3a655aa0	0.0008749161
87	0x3a88245d	0.0010386814
88	0x3a581036	0.0008242162
89	0x3a24002d	0.000625613
90	0x3a1be067	0.00059462193
91	0x3a091214	0.0005228829
92	0x39dd986f	0.00042265977
93	0x39ddaa63	0.00042279353
94	0x3874095e	5.8182857e-05
95	0xb915a044	-0.00014269451
96	0x383e0d2a	4.531179e-05
97	0xba08a5f8	-0.00052127196
98	0xba41057c	-0.0007363183
99	0xba6a8688	-0.00089464383
100	0xbaa9e003	-0.0012960437
101	0xbb144eff	-0.0022630093
102	0xbaee9388	-0.0018201927
103	0xbb13c560	-0.0022548065
104	0xbb2fede3	-0.0026844672
105	0xbb3ef0ec	-0.00291353
106	0xbb5e081d	-0.0033879348
107	0xbb759158	-0.0037470665
108	0xbb882796	-0.0041551096
109	0xbb989174	-0.0046560112
110	0xbbd7c832	-0.0065851444
111	0xbbb01387	-0.0053734216
112	0xbbb8e671	-0.005642705
113	0xbbb3aa24	-0.005482929
114	0xbbb6b47c	-0.0055757146
115	0xbbb20884	-0.005433144
116	0xbba6b982	-0.005088032
117	0xbb9dcd6e	-0.004815749
118	0xbb917daa	-0.004440029
119	0xbb8a3897	-0.004218172
120	0xbbafdb98	-0.005366754
121	0xbb85462a	-0.004067202
122	0xbb9825a0	-0.004643157
123	0xbba5089c	-0.0050364267
124	0xbbc5b4ef	-0.006033532
125	0xbbf6d81e	-0.0075330874
126	0xbc15f01e	-0.009151487
127	0xbc321776	-0.010869851
128	0xbc4c09d7	-0.012453518
129	0xbc94928c	-0.018136285
130	0xbc64d7ba	-0.013967449
131	0xbc5bc546	-0.013413733
132	0xbc47e19e	-0.012199787
133	0xbc2d2835	-0.010568668
134	0xbc12d2ad	-0.008961362
135	0xbbf3b8da	-0.0074378075
136	0xbbc341f9	-0.0059587923
137	0xbb9a59b6	-0.0047104014
138	0xbb7ed770	-0.0038885735
139	0xbb812dc9	-0.0039422256
140	0xbb1c6a78	-0.0023867171
141	0xbae6d02d	-0.0017609649
142	0xbac1f1c2	-0.0014796781
143	0xba8fc34b	-0.0010968236
144	0xba6874f5	-0.00088675256
145	0xba130011	-0.0005607615
146	0xb9b9eeb5	-0.000354638
147	0xb98d77a3	-0.00026982752
148	0xb9145a96	-0.00014148126
149	0x384f6f76	4.9456452e-05
150	0x39470f81	0.00018983895
151	0x39ba2d1a	0.00035510288
152	0x3a4df075	0.000785596
153	0x3a6a17f6	0.0008929962
154	0x3aa03979	0.001222416
155	0x3aaaa6f3	0.0013019725
156	0x3aca5d46	0.0015439175
157	0x3ad5ff9b	0.0016326787
158	0x3b1e0e85	0.002411754
159	0x3afedd0b	0.0019444538
160	0x3b0117a1	0.0019697922
161	0x3b0963cd	0.0020964027
162	0x3b0b92ba	0.0021297173
163	0x3b0dd23d	0.0021640204
164	0x3b0bc380	0.0021326244
165	0x3b171d9a	0.0023058415
166	0x3b13c0ac	0.0022545261
167	0x3b431037	0.0029764303
168	0x3b14e6af	0.0022720506
169	0x3b114cd9	0.002217105
170	0x3b167b3c	0.0022961637
171	0x3b0d4a69	0.0021559244
172	0x3b09be05	0.0021017801
173	0x3b0a4428	0.0021097753
174	0x3b0a0034	0.002105725
175	0x3b01a3b6	0.0019781417
176	0x3b09e7f8	0.0021042805
177	0x3b227b71	0.0024792815
178	0x3b07b9aa	0.002071003
179	0x3af37bc2	0.0018576311
180	0x3af1fc09	0.0018461953
181	0x3afb15e8	0.0019156309
182	0x3ae2b94a	0.0017297652
183	0x3aeafad1	0.0017927532
184	0x3af33d04	0.0018557613
185	0x3ae14d09	0.0017189096
186	0x3b15abee	0.0022838074
187	0x3ad376da	0.0016133443
188	0x3ad66310	0.0016356427
189	0x3adc770e	0.0016820149
190	0x3ad16ef9	0.0015978507
191	0x3ad966a0	0.0016586371
192	0x3ad05824	0.0015895409
193	0x3ad6f67a	0.001640036
194	0x3aca583b	0.0015437672
195	0x3b06be70	0.0020560287
196	0x3aa3900e	0.0012478845
197	0x3abdf99f	0.0014493949
198	0x3abe5f68	0.0014524283
199	0x3aad6e34	0.0013231696
200	0x3abdab6e	0.0014470646
201	0x3aa17b10	0.0012320001
202	0x3aa41a10	0.0012519974
203	0x3aafd6f3	0.00134155
204	0x3a81c9c5	0.0009902051
205	0x3ac4abe6	0.0015004843
206	0x3a6a9250	0.0008948194
207	0x3a80566f	0.0009791384
208	0x3a909e35	0.0011033477
209	0x3aa4cd8f	0.0012573468
210	0x3ac4af50	0.001500586
211	0x3b14b408	0.0022690315
212	0x3b58612b	0.00330169
213	0x3baa4268	0.0051959045
214	0x3c38586b	0.011251549
215	0x3c4cbe40	0.012496531
216	0x3c8e9d0c	0.01740887
217	0x3cac831c	0.021058612
218	0x3cba0cc8	0.022711173
219	0x3cbb8eb8	0.022895202
220	0x3c8fac66	0.01753826
221	0x3c2be213	0.010490912
222	0x3b6ca0fc	0.0036106696
223	0xb9fc4c13	-0.00048121865
224	0xbb815a19	-0.003947508
225	0xbbbd66bd	-0.0057800696
226	0xbbceca70	-0.0063107535
227	0x3afd3c7a	0.0019320392
228	0x3afd8bd1	0.0019344037
229	0x3b0026c8	0.0019554365
230	0x3afe6e39	0.0019411511
231	0x3afa4242	0.0019093233
232	0x3afdfdb1	0.0019377974
233	0x3b000cb1	0.0019538815
234	0x3afeef7b	0.0019450033
235	0x3affff28	0.0019530999
236	0x3affd7f7	0.0019519319
237	0x3b00cc4c	0.001965302
238	0x3afe55b2	0.0019404201
239	0x3afa51f4	0.001909791
240	0x3afe199a	0.0019386292
241	0x3afb5336	0.0019174579
242	0x3b00baa1	0.001964249
243	0x3afd9b98	0.0019348739
244	0x3b04eb8e	0.0020282003
245	0x3afe3538	0.0019394523
246	0x3b02a681	0.001993567
247	0x3b0820b6	0.002077145
248	0x3b050346	0.002029614
249	0x3affaf10	0.0019507129
250	0x3afd8aa5	0.0019343687
251	0x3afc94d5	0.001927043
252	0x3b003a5a	0.001956603
253	0x3afff232	0.0019527136
254	0x3afe0913	0.0019381366
255	0x3b01225a	0.0019704313

bn1d0.running_var f4 [739]
0	0x378da27c	1.6884173e-05
1	0x371ec1ba	9.462639e-06
2	0x36f63690	7.337723e-06
3	0x36d6921e	6.3947073e-06
4	0x36ee8e14	7.109493e-06
5	0x3698f6a5	4.558666e-06
6	0x36646d63	3.403832e-06
7	0x35fff7e8	1.9071131e-06
8	0x360cd8e6	2.0987877e-06
9	0x35d35bb6	1.5747416e-06
10	0x36383efb	2.7454796e-06
11	0x35fcd49e	1.8837343e-06
12	0x35fdc99b	1.8908644e-06
13	0x35e1697e	1.6794509e-06
14	0x35bc3190	1.4021516e-06
15	0x3589beeb	1.026286e-06
16	0x358dc6c7	1.056317e-06
17	0x3565f018	8.565853e-07
18	0x3557cab0	8.038869e-07
19	0x35a420f6	1.2228545e-06
20	0x3546bc0d	7.40344e-07
21	0x3518f617	5.698252e-07
22	0x3566bcdd	8.595651e-07
23	0x3550dcd6	7.7807397e-07
24	0x353b2dbe	6.972949e-07
25	0x351e4408	5.8958585e-07
26	0x353d05e6	7.041657e-07
27	0x3520f9a2	5.996791e-07
28	0x3507afcb	5.054723e-07
29	0x3504bd1b	4.9449017e-07
30	0x34f70135	4.6008213e-07
31	0x35073410	5.036718e-07
32	0x34c56647	3.6768526e-07
33	0x34ebbc96	4.3909375e-07
34	0x34f8ff7d	4.6379492e-07
35	0x353147fd	6.6042395e-07
36	0x34ed0aa4	4.4152432e-07
37	0x35117408	5.4185557e-07
38	0x34fe3f72	4.735735e-07
39	0x34f5ae17	4.5761473e-07
40	0x34c3e63e	3.6489104e-07
41	0x34e51821	4.267213e-07
42	0x34ed6200	4.4215994e-07
43	0x34f481d1	4.5542996e-07
44	0x35018b95	4.8259363e-07
45	0x34fa9d4d	4.668058e-07
46	0x34eb7897	4.3859902e-07
47	0x34d60c7c	3.986969e-07
48	0x34b320fb	3.3365345e-07
49	0x34b2eab7	3.332586e-07
50	0x34df72e6	4.1620586e-07
51	0x351c1e04	5.8158207e-07
52	0x34fb86d2	4.6850488e-07
53	0x34fe3d1c	4.735565e-07
54	0x3522c823	6.064094e-07
55	0x35192ddf	5.706369e-07
56	0x35176b34	5.6407885e-07
57	0x3567705d	8.6217716e-07
58	0x358f36a8	1.0670237e-06
59	0x35d58fb4	1.591156e-06
60	0x360dd007	2.1131725e-06
61	0x35d8897b	1.6133266e-06
62	0x35f20a60	1.8033425e-06
63	0x361d9d51	2.3486393e-06
64	0x353ae3e1	6.9622007e-07
65	0x350e5d57	5.303495e-07
66	0x34eb030f	4.3774386e-07
67	0x34c9c8db	3.758531e-07
68	0x34c93713	3.747924e-07
69	0x348e22cf	2.6474888e-07
70	0x34b0a3d3	3.2901752e-07
71	0x34b56ae4	3.379165e-07
72	0x34b26474	3.3228173e-07
73	0x34ab1816	3.1868757e-07
74	0x34ad894f	3.2323666e-07
75	0x34bd1af9	3.5223619e-07
76	0x34907906	2.6910146e-07
77	0x346a366f	2.1812751e-07
78	0x349847c2	2.8364417e-07
79	0x3499b925	2.863318e-07
80	0x34aea146	3.2527367e-07
81	0x346f7c3e	2.2303809e-07
82	0x34bcc8e2	3.516389e-07
83	0x34abde86	3.201314e-07
84	0x345c0403	2.0490556e-07
85	0x3476c20a	2.2981126e-07
86	0x348cec2e	2.6248875e-07
87	0x34438366	1.8208593e-07
88	0x3436cb5a	1.702405e-07
89	0x3449aa14	1.8781458e-07
90	0x34546bad	1.9783211e-07
91	0x344f2b5f	1.9294156e-07
92	0x340cbf6e	1.3108158e-07
93	0x3448255f	1.8640047e-07
94	0x345e9a0a	2.07314e-07
95	0x34403eaf	1.7904198e-07
96	0x3437b741	1.710987e-07
97	0x342b4681	1.5951265e-07
98	0x34318d61	1.6535843e-07
99	0x342fd943	1.6377184e-07
100	0x341784be	1.4111262e-07
101	0x343d210e	1.7614022e-07
102	0x34339040	1.6723152e-07
103	0x345c3a05	2.0510204e-07
104	0x34950fa8	2.7764804e-07
105	0x348d4aea	2.6317804e-07
106	0x34893228	2.5554732e-07
107	0x34dd9c28	4.1278076e-07
108	0x34b5b34d	3.3844336e-07
109	0x34f3d636	4.5418136e-07
110	0x355d24e1	8.238258e-07
111	0x34fda9d1	4.724848e-07
112	0x352b51db	6.382158e-07
113	0x35244f8c	6.1210517e-07
114	0x3510bbc2	5.3917404e-07
115	0x34dfe2c5	4.1701983e-07
116	0x35232b10	6.0784896e-07
117	0x34d2d70f	3.9272024e-07
118	0x34ca67c1	3.7700923e-07
119	0x349e5b8b	2.94964e-07
120	0x3517ffdd	5.6624214e-07
121	0x349fff35	2.9801745e-07
122	0x349f9e71	2.973134e-07
123	0x34b4c85e	3.36734e-07
124	0x3510e520	5.39776e-07
125	0x3543afb3	7.2898837e-07
126	0x3589af73	1.0258358e-06
127	0x35a9ace0	1.2641794e-06
128	0x36033660	1.9552172e-06
129	0x366f9e1c	3.5705807e-06
130	0x3617f515	2.264341e-06
131	0x361afde4	2.3095572e-06
132	0x3601a710	1.931974e-06
133	0x35d8c4a6	1.6150486e-06
134	0x35a53191	1.2307884e-06
135	0x358161fd	9.639767e-07
136	0x352866dc	6.2734557e-07
137	0x3505745c	4.9715686e-07
138	0x349f5ad4	2.9682144e-07
139	0x34eff8d9	4.469828e-07
140	0x34373788	1.7063405e-07
141	0x3486ab72	2.5084188e-07
142	0x3411d377	1.3581108e-07
143	0x342e762c	1.6248003e-07
144	0x341bcabe	1.4509257e-07
145	0x33f2d552	1.1307806e-07
146	0x341a1b56	1.4352312e-07
147	0x33e62411	1.071677e-07
148	0x33d56df7	9.938588e-08
149	0x33c823d6	9.319744e-08
150	0x33cc36d2	9.509462e-08
151	0x3404436c	1.2317986e-07
152	0x34660666	2.1422747e-07
153	0x3400ac46	1.1983602e-07
154	0x343db788	1.7668765e-07
155	0x3472bf4d	2.2607601e-07
156	0x34438cf1	1.8212064e-07
157	0x3452f19e	1.9645674e-07
158	0x34aa79bb	3.1753538e-07
159	0x341fd27f	1.4884607e-07
160	0x3467d325	2.1590365e-07
161	0x342a9a95	1.588872e-07
162	0x347dc802	2.3635224e-07
163	0x346fd477	2.2335904e-07
164	0x3477b44f	2.3069263e-07
165	0x3449b220	1.8784385e-07
166	0x3495fcab	2.7937253e-07
167	0x34ae73a0	3.2494154e-07
168	0x3458f0f0	2.020422e-07
169	0x348452a6	2.464705e-07
170	0x345841ce	2.0140507e-07
171	0x345ef1c9	2.0763322e-07
172	0x348c5bf9	2.614395e-07
173	0x3465052f	2.1329173e-07
174	0x345482b2	1.9791585e-07
175	0x34974540	2.8176328e-07
176	0x347b9d53	2.3433431e-07
177	0x34883727	2.5372103e-07
178	0x34861f97	2.498243e-07
179	0x348b67a3	2.5966173e-07
180	0x3483a5ef	2.4521384e-07
181	0x34ad796e	3.2312113e-07
182	0x3485079f	2.4778726e-07
183	0x348f12ca	2.6649496e-07
184	0x34977611	2.8211846e-07
185	0x34b14555	3.3019265e-07
186	0x34c487cd	3.6606653e-07
187	0x34873859	2.5186708e-07
188	0x34cfe095	3.872016e-07
189	0x34b8bcc9	3.441003e-07
190	0x34d60861	3.9866703e-07
191	0x3501410f	4.815092e-07
192	0x34bcf0f9	3.519306e-07
193	0x34e74c65	4.3082687e-07
194	0x34d3057c	3.9305803e-07
195	0x34e2e6ff	4.2263852e-07
196	0x35067555	5.008963e-07
197	0x34df567f	4.159992e-07
198	0x350c881c	5.235213e-07
199	0x34d1b68f	3.9062112e-07
200	0x354c9603	7.621422e-07
201	0x351babd4	5.799204e-07
202	0x351065b5	5.3792184e-07
203	0x3518e309	5.695479e-07
204	0x35399e3a	6.914812e-07
205	0x354a2ba4	7.531437e-07
206	0x35539379	7.8818226e-07
207	0x359ecfcc	1.1832394e-06
208	0x355462b1	7.911977e-07
209	0x355d3f00	8.242059e-07
210	0x357ba514	9.3745007e-07
211	0x3583ddf1	9.824854e-07
212	0x3582fe8f	9.759841e-07
213	0x35a779b6	1.2477892e-06
214	0x36520dee	3.1300547e-06
215	0x3699222a	4.5637325e-06
216	0x37028679	7.779913e-06
217	0x3749b517	1.2022697e-05
218	0x3755d3b5	1.2745081e-05
219	0x37855ddd	1.5898544e-05
220	0x375d4c09	1.319033e-05
221	0x377fe4ff	1.5252502e-05
222	0x377ce975	1.5074726e-05
223	0x3790dbff	1.7268581e-05
224	0x37f76981	2.9493824e-05
225	0x38255e26	3.9426748e-05
226	0x3867a3d2	5.522726e-05
227	0x2f2f3596	1.5935195e-10
228	0x2e8ff8ba	6.54707e-11
229	0x2f8d6533	2.5719657e-10
230	0x2f3fd560	1.7447155e-10
231	0x2ca936db	4.809359e-12
232	0x2e86511e	6.108024e-11
233	0x2f5321d9	1.9202363e-10
234	0x2f65ba63	2.0893647e-10
235	0x2f84d3a7	2.4161048e-10
236	0x2fe97e99	4.2472406e-10
237	0x2f22cb7d	1.4806108e-10
238	0x2f28e4bd	1.5360775e-10
239	0x2d588d4c	1.2309553e-11
240	0x2ece12e1	9.371149e-11
241	0x2e309286	4.0147906e-11
242	0x2f1cf98e	1.4276777e-10
243	0x2f2acfae	1.5535193e-10
244	0x3016c399	5.4847643e-10
245	0x2ee12d25	1.0239835e-10
246	0x2ffc89e4	4.593651e-10
247	0x30131638	5.3509863e-10
248	0x3003641e	4.77998e-10
249	0x2f9519fb	2.7121402e-10
250	0x2e860d5b	6.095987e-11
251	0x2f03e972	1.1997317e-10
252	0x2f389960	1.6789192e-10
253	0x2e7c222a	5.732851e-11
254	0x2ef0fabe	1.0958477e-10
255	0x2f881d10	2.4758906e-10

bn1d1.weight f4 [512]
0	0x3f800000	1.0
1	0x3f8478f3	1.0349411
2	0x3f800000	1.0
3	0x3f83de02	1.0302126
4	0x3f800000	1.0
5	0x3f7fe8e2	0.99964726
6	0x3f800000	1.0
7	0x3f801b4d	1.0008332
8	0x3f800000	1.0
9	0x3f805b54	1.0027871
10	0x3f800000	1.0
11	0x3f809afa	1.0047295
12	0x3f800000	1.0
13	0x3f805c14	1.00281
14	0x3f800000	1.0
15	0x3f8038b2	1.0017302
16	0x3f800000	1.0
17	0x3f8001b2	1.0000517
18	0x3f800000	1.0
19	0x3f7fed99	0.9997192
20	0x3f800000	1.0
21	0x3f7e7e69	0.99411637
22	0x3f800000	1.0
23	0x3f7dee29	0.9919153
24	0x3f800000	1.0
25	0x3f8010f5	1.0005175
26	0x3f800000	1.0
27	0x3f800ee7	1.0004548
28	0x3f800000	1.0
29	0x3f7fd8f3	0.99940413
30	0x3f800000	1.0
31	0x3f7fedc4	0.99972177
32	0x3f800000	1.0
33	0x3f7dee66	0.9919189
34	0x3f800000	1.0
35	0x3f7e695e	0.9937953
36	0x3f800000	1.0
37	0x3f800248	1.0000696
38	0x3f800000	1.0
39	0x3f7fffbb	0.9999959
40	0x3f800000	1.0
41	0x3f7fa5ad	0.99862176
42	0x3f800000	1.0
43	0x3f7ffc47	0.9999432
44	0x3f800000	1.0
45	0x3f7fed85	0.999718
46	0x3f800000	1.0
47	0x3f7fe8dd	0.99964696
48	0x3f800000	1.0
49	0x3f7ff0c4	0.99976754
50	0x3f800000	1.0
51	0x3f800187	1.0000466
52	0x3f800000	1.0
53	0x3f83e81c	1.0305209
54	0x3f800000	1.0
55	0x3f814761	1.0099908
56	0x3f800000	1.0
57	0x3f80038c	1.0001082
58	0x3f800000	1.0
59	0x3f7ff762	0.9998685
60	0x3f800000	1.0
61	0x3f821f97	1.016589
62	0x3f800000	1.0
63	0x3f80f269	1.0073978
64	0x3f800000	1.0
65	0x3f8c61e4	1.0967374
66	0x3f800000	1.0
67	0x3f8a1e4b	1.0790495
68	0x3f800000	1.0
69	0x3f80d475	1.0064837
70	0x3f800000	1.0
71	0x3f8089d8	1.0042067
72	0x3f800000	1.0
73	0x3f7cf2a9	0.9880777
74	0x3f800000	1.0
75	0x3f7b1a12	0.98086655
76	0x3f800000	1.0
77	0x3f800731	1.0002195
78	0x3f800000	1.0
79	0x3f7ff559	0.99983746
80	0x3f800000	1.0
81	0x3f7f8990	0.9981928
82	0x3f800000	1.0
83	0x3f8026bd	1.0011822
84	0x3f800000	1.0
85	0x3f79af9e	0.97533596
86	0x3f800000	1.0
87	0x3f793104	0.97340417
88	0x3f800000	1.0
89	0x3f8c7e6f	1.0976084
90	0x3f800000	1.0
91	0x3f896278	1.0733175
92	0x3f800000	1.0
93	0x3f7fd2a9	0.99930817
94	0x3f800000	1.0
95	0x3f801634	1.0006776
96	0x3f800000	1.0
97	0x3f814b44	1.0101094
98	0x3f800000	1.0
99	0x3f8079c4	1.003716
100	0x3f800000	1.0
101	0x3f7fe92a	0.99965155
102	0x3f800000	1.0
103	0x3f7fdde1	0.99947935
104	0x3f800000	1.0
105	0x3f8021e6	1.0010345
106	0x3f800000	1.0
107	0x3f800a80	1.0003204
108	0x3f800000	1.0
109	0x3f801227	1.000554
110	0x3f800000	1.0
111	0x3f7fed69	0.99971634
112	0x3f800000	1.0
113	0x3f7ff909	0.9998937
114	0x3f800000	1.0
115	0x3f8008b7	1.000266
116	0x3f800000	1.0
117	0x3f81fce7	1.0155305
118	0x3f800000	1.0
119	0x3f8164a3	1.0108837
120	0x3f800000	1.0
121	0x3f823e0c	1.0175185
122	0x3f800000	1.0
123	0x3f810ccc	1.008203
124	0x3f800000	1.0
125	0x3f7ff9ec	0.99990726
126	0x3f800000	1.0
127	0x3f800925	1.0002791
128	0x3f800000	1.0
129	0x3f87a423	1.0596966
130	0x3f800000	1.0
131	0x3f87eba2	1.0618784
132	0x3f800000	1.0
133	0x3f7fe8a7	0.99964374
134	0x3f800000	1.0
135	0x3f7fed19	0.9997116
136	0x3f800000	1.0
137	0x3f800b2e	1.0003412
138	0x3f800000	1.0
139	0x3f7fe3ab	0.9995677
140	0x3f800000	1.0
141	0x3f7f919c	0.9983156
142	0x3f800000	1.0
143	0x3f7d20e8	0.98878336
144	0x3f800000	1.0
145	0x3f838c42	1.0277178
146	0x3f800000	1.0
147	0x3f80f620	1.0075111
148	0x3f800000	1.0
149	0x3f7ff7a7	0.9998726
150	0x3f800000	1.0
151	0x3f7fe488	0.99958086
152	0x3f800000	1.0
153	0x3f800147	1.000039
154	0x3f800000	1.0
155	0x3f8001b2	1.0000517
156	0x3f800000	1.0
157	0x3f812d78	1.0092001
158	0x3f800000	1.0
159	0x3f80e686	1.007035
160	0x3f800000	1.0
161	0x3f7fa3cb	0.99859303
162	0x3f800000	1.0
163	0x3f80228f	1.0010546
164	0x3f800000	1.0
165	0x3f80059a	1.000171
166	0x3f800000	1.0
167	0x3f7fe878	0.99964094
168	0x3f800000	1.0
169	0x3f8029cd	1.0012757
170	0x3f800000	1.0
171	0x3f8026b8	1.0011816
172	0x3f800000	1.0
173	0x3f90fbcb	1.1326841
174	0x3f800000	1.0
175	0x3f91ec3b	1.1400217
176	0x3f800000	1.0
177	0x3f8021b7	1.0010289
178	0x3f800000	1.0
179	0x3f8019f9	1.0007926
180	0x3f800000	1.0
181	0x3f7fdca1	0.9994603
182	0x3f800000	1.0
183	0x3f800462	1.0001338
184	0x3f800000	1.0
185	0x3f823c7e	1.0174711
186	0x3f800000	1.0
187	0x3f80203e	1.000984
188	0x3f800000	1.0
189	0x3f7f0da7	0.99630207
190	0x3f800000	1.0
191	0x3f7ef0b3	0.9958603
192	0x3f800000	1.0
193	0x3f7ffb49	0.99992806
194	0x3f800000	1.0
195	0x3f800033	1.0000061
196	0x3f800000	1.0
197	0x3f843f24	1.0331769
198	0x3f800000	1.0
199	0x3f81f802	1.0153811
200	0x3f800000	1.0
201	0x3f7fe3ba	0.9995686
202	0x3f800000	1.0
203	0x3f7fe112	0.99952805
204	0x3f800000	1.0
205	0x3f7ff760	0.9998684
206	0x3f800000	1.0
207	0x3f800455	1.0001322
208	0x3f800000	1.0
209	0x3f779b9c	0.96721816
210	0x3f800000	1.0
211	0x3f77eb47	0.9684338
212	0x3f800000	1.0
213	0x3f804adb	1.0022844
214	0x3f800000	1.0
215	0x3f7fdc67	0.9994568
216	0x3f800000	1.0
217	0x3f800c23	1.0003704
218	0x3f800000	1.0
219	0x3f801fb4	1.0009675
220	0x3f800000	1.0
221	0x3f818ff4	1.0122056
222	0x3f800000	1.0
223	0x3f83ce3f	1.0297316
224	0x3f800000	1.0
225	0x3f7cbcdf	0.98725694
226	0x3f800000	1.0
227	0x3f7f291f	0.9967212
228	0x3f800000	1.0
229	0x3f7ffd27	0.99995655
230	0x3f800000	1.0
231	0x3f7fe7ae	0.9996289
232	0x3f800000	1.0
233	0x3f8576ab	1.042684
234	0x3f800000	1.0
235	0x3f86c4d3	1.0528816
236	0x3f800000	1.0
237	0x3f8101cf	1.0078677
238	0x3f800000	1.0
239	0x3f80fb9f	1.0076789
240	0x3f800000	1.0
241	0x3f77976a	0.96715415
242	0x3f800000	1.0
243	0x3f7b641c	0.9819963
244	0x3f800000	1.0
245	0x3f80142e	1.0006158
246	0x3f800000	1.0
247	0x3f7fc907	0.9991612
248	0x3f800000	1.0
249	0x3f7fd9ad	0.9994152
250	0x3f800000	1.0
251	0x3f8035d3	1.0016426
252	0x3f800000	1.0
253	0x3f8229d3	1.0169014
254	0x3f800000	1.0
255	0x3f8233a1	1.0172006

bn1d1.bias f4 [512]
0	0x3bb96b42	0.005658538
1	0xbc5bc1a4	-0.013412867
2	0xba909ad0	-0.0011032466
3	0xbc216f63	-0.009853217
4	0x3b6dbce3	0.0036275915
5	0x3bb1a458	0.0054212026
6	0x3b8e2bc3	0.004338713
7	0x3c51cbe6	0.012804961
8	0xbc38e312	-0.0112846065
9	0x3baf9af9	0.0053590504
10	0x39f53942	0.00046772702
11	0x3b759fd5	0.00374793
12	0x3b6f5466	0.0036518811
13	0xbccde80f	-0.025135068
14	0x3c595c55	0.013266643
15	0xbc5e214b	-0.013557742
16	0xbab8acbd	-0.0014089566
17	0xbb8fd040	-0.004388839
18	0x3bcea07e	0.0063057533
19	0x3baf4892	0.005349227
20	0xb95fe370	-0.00021351664
21	0xbd47f1d7	-0.04881462
22	0xbb022165	-0.001985633
23	0xbd1e7826	-0.0386888
24	0x3c9a441b	0.018831303
25	0xbcb747d0	-0.02237311
26	0xbce360b2	-0.027756069
27	0x3ca67339	0.020318614
28	0xb9d3114a	-0.00040257938
29	0x3c827371	0.015924187
30	0xbb8a4db0	-0.004220687
31	0x3c50f7b2	0.012754368
32	0xbc017ef7	-0.007903806
33	0x3cb15a7c	0.021649592
34	0x3bc1d468	0.0059152134
35	0x3ce6c82b	0.02817162
36	0x3b026b99	0.001990056
37	0xbb6dc63e	-0.0036281492
38	0xbc4aba6d	-0.012373549
39	0x3b842c7d	0.0040336237
40	0x3b93bd24	0.0045086313
41	0xbc8faffb	-0.017539969
42	0x3c9c30e9	0.01906629
43	0xbc66b344	-0.014080826
44	0xbb85fe99	-0.0040891883
45	0xbb82492d	-0.0039760084
46	0xbb5a3d97	-0.003330087
47	0x3c3c822e	0.011505647
48	0xbb6bed0b	-0.0035999443
49	0xbc285034	-0.010273028
50	0x3c9271cc	0.017876528
51	0x3b19f9c8	0.0023494828
52	0x3c040108	0.0080568865
53	0x3c06fa52	0.008238392
54	0xbb571f13	-0.0032824918
55	0x3af8dc0f	0.0018986481
56	0x3cc4518c	0.023964666
57	0x3bbe4909	0.0058070463
58	0x3bb7c616	0.0056083305
59	0xbc25c4a2	-0.010117682
60	0xbc471e94	-0.0121532865
61	0xbd3d0b4a	-0.046153344
62	0x3bb7aa38	0.0056050085
63	0xbd936c42	-0.07198383
64	0x3c11c16c	0.008896213
65	0xb99be20a	-0.00029732316
66	0x3c13fe08	0.009032734
67	0xbbdbae72	-0.006704145
68	0xbb128806	-0.0022358908
69	0x3c39e0d6	0.011345109
70	0xbb04fb9f	-0.002029158
71	0x3bd6207e	0.006534635
72	0x3c8aa8dc	0.016926222
73	0xbcff4514	-0.031160869
74	0xbc81e624	-0.01585681
75	0xbba4367e	-0.005011379
76	0xbabd17d8	-0.0014426662
77	0xbb0ee18e	-0.0021801922
78	0xba3cd14b	-0.0007202818
79	0xbaf23892	-0.0018479994
80	0x3aa7dd81	0.0012807102
81	0xbcbd368d	-0.0230973
82	0xbc09c0e2	-0.008407803
83	0x3c78cfd5	0.01518627
84	0x3b3fdaff	0.002927482
85	0xbd8efdc7	-0.06981998
86	0x3a94f09f	0.0011363215
87	0xbd525d72	-0.051358648
88	0xb9b08e38	-0.00033675297
89	0xbd29d64f	-0.041464146
90	0x3a163cc8	0.0005731103
91	0xbd099c0d	-0.033596087
92	0x3b584470	0.0032999776
93	0xbc696d67	-0.014247275
94	0xbc53bb56	-0.012923082
95	0x3c7cd8b4	0.015432525
96	0x391ccaf5	0.00014952927
97	0xbcdc5a33	-0.02689848
98	0xbc1242a3	-0.00892702
99	0xbc69fcd7	-0.014281473
100	0x3c04c8b0	0.008104488
101	0xbc68e778	-0.014215343
102	0xbbbddf14	-0.0057944153
103	0xbc322b3c	-0.010874566
104	0x3bf8fd44	0.007598551
105	0xbbebbbef	-0.0071940343
106	0x3a17ca09	0.00057902985
107	0x3badcc03	0.005303861
108	0xbc30b099	-0.010784292
109	0xbbd6a34d	-0.0065502287
110	0x3c4480df	0.011993616
111	0x3c455f49	0.0120466435
112	0xbc10eb60	-0.00884518
113	0x3bd5a654	0.006520072
114	0xbc283c04	-0.010268215
115	0x3b9bfdf6	0.004760499
116	0x3c3ee674	0.011651624
117	0xbd026cb5	-0.031841952
118	0x3c6bcdc7	0.014392323
119	0xbc56b447	-0.013104505
120	0xbc2f4674	-0.01069795
121	0xbcab2f43	-0.02089656
122	0x3b8d4b28	0.004311938
123	0xbc57f337	-0.0131805455
124	0x3cfe5030	0.031044096
125	0x3c0c1e2d	0.008552116
126	0x3c7618dc	0.015020575
127	0xbbf264ce	-0.0073972708
128	0x3c53e3dd	0.012932745
129	0xbc6c05c4	-0.0144056715
130	0x3a646652	0.00087127567
131	0xbc04b389	-0.008099445
132	0xbb87084a	-0.004120861
133	0xbc27ef32	-0.0102499
134	0x3c71c8f4	0.014757384
135	0xbac8bf4c	-0.00153158
136	0x3c5d8198	0.013519667
137	0xbbaa6560	-0.005200073
138	0x3b9f3a1f	0.0048592235
139	0xbc1cc7ba	-0.009569103
140	0x3c35d2a9	0.011097589
141	0x3d59e6ef	0.05319875
142	0x3b512431	0.003191244
143	0x3d661591	0.05617291
144	0x3c9a025c	0.018799953
145	0xbd905b03	-0.07048609
146	0x3b196559	0.0023406355
147	0xbd9cb643	-0.07651951
148	0xbbad9c45	-0.00529817
149	0xbc37bb7a	-0.0112141315
150	0x3b2e3a27	0.0026584954
151	0xbb4b7cda	-0.003104976
152	0xbc329f4f	-0.01090224
153	0x3bf6767b	0.007521448
154	0xbc85f7e0	-0.016353548
155	0xbc381725	-0.011235987
156	0xbb92acfc	-0.0044761878
157	0x3b8594b8	0.0040765665
158	0x3c952c1f	0.018209515
159	0xbc00f17e	-0.007870076
160	0x3c5435c2	0.01295227
161	0xbccf706b	-0.02532216
162	0xbc066fa4	-0.008205328
163	0xbc3e7684	-0.011624936
164	0xb9a900db	-0.0003223483
165	0x3b94d32f	0.0045417766
166	0xbc459603	-0.012059691
167	0x3c2c7f77	0.010528437
168	0xbb090087	-0.0020904855
169	0x3bfc0438	0.0076909326
170	0xbb95c867	-0.004571009
171	0xbc88b5e0	-0.016688287
172	0xbc854435	-0.016267875
173	0xbd165abe	-0.036707632
174	0xbc31104a	-0.010807106
175	0xbca97185	-0.020684013
176	0xbc0d66e5	-0.008630489
177	0xbbb214db	-0.005434615
178	0xbc8eef2d	-0.017448032
179	0xbca66d78	-0.02031587
180	0xbbb6b751	-0.0055760522
181	0xbc2debb7	-0.010615281
182	0x3c114db5	0.008868624
183	0xb91ad1f1	-0.00014764794
184	0x3ae4dd43	0.0017460961
185	0xbd855da0	-0.06511998
186	0xba996c01	-0.0011705161
187	0xbd184ba8	-0.037181526
188	0x3b5d8f84	0.0033807466
189	0xbc015b92	-0.007895367
190	0x3bd56b9d	0.0065130726
191	0xbc419b0a	-0.011816749
192	0xbc270dd4	-0.010196168
193	0x39d7dac0	0.00041170977
194	0x3b2f899a	0.0026784898
195	0x3bccde77	0.006252106
196	0xbcea06a5	-0.028567621
197	0x3d7b3576	0.06133028
198	0x3c4b16bc	0.012395557
199	0x3d2ed90e	0.04268747
200	0x3b7ee5d4	0.0038894312
201	0x3b73f83e	0.0037226821
202	0xbbb251cd	-0.0054418803
203	0xb9986198	-0.00029064412
204	0x3c0aa195	0.008461376
205	0xbbe33377	-0.0069336253
206	0xbc0adaf3	-0.008475053
207	0xbb86b54f	-0.004110969
208	0x3b4c3c38	0.0031163823
209	0xbd3aaf3d	-0.045577276
210	0x3c8871e7	0.016655875
211	0xbd0e4981	-0.034738068
212	0x38a88db2	8.037257e-05
213	0xbcbca963	-0.023029989
214	0x3c0d555d	0.008626309
215	0xbca127ea	-0.019672353
216	0xbb8e0185	-0.0043336772
217	0xbc4f856d	-0.0126660885
218	0x3b4ccec6	0.0031251176
219	0xbbe8cb4b	-0.0071043125
220	0x3c227c55	0.009917338
221	0xbced1195	-0.028939048
222	0x3c59d545	0.013295476
223	0xbcf8afca	-0.03035726
224	0xbbb777f7	-0.0055990177
225	0xbd1650ad	-0.036698032
226	0xbbbbca5d	-0.0057309107
227	0xbcbd8152	-0.023132954
228	0xbbe1d39f	-0.0068916823
229	0xbb334e33	-0.0027359843
230	0x3c52eb8e	0.012873543
231	0xbc0d92d8	-0.008640967
232	0xbb0444d7	-0.0020182633
233	0x3cd5e4d6	0.026110094
234	0x3b857736	0.004073049
235	0x3cf58793	0.029971873
236	0x3bc471fd	0.005995034
237	0xbd91c0c9	-0.07116849
238	0x3af25629	0.0018488812
239	0xbd2efad6	-0.042719685
240	0x3c3103cf	0.010804131
241	0xbdb3a751	-0.087721474
242	0x3b3dd3ae	0.0028965282
243	0xbdad2706	-0.08454709
244	0x3c5f106a	0.013614753
245	0x3bd5cfa7	0.006524998
246	0xbbdc1afd	-0.0067170844
247	0xbab8b36e	-0.001409156
248	0xbb19685f	-0.0023408157
249	0xbd8b6568	-0.06806451
250	0xbbc9290a	-0.0061389254
251	0xbd96ffca	-0.07373007
252	0x3b32ef33	0.0027303218
253	0x3bb1649f	0.0054136063
254	0x3c3db4d7	0.01157876
255	0xbbb1358d	-0.005407995

bn1d1.running_mean f4 [512]
0	0x00000000	0.0
1	0x3eb99515	0.36246553
2	0x00000000	0.0
3	0x3ec755f9	0.3893278
4	0x00000000	0.0
5	0x3d951912	0.072801724
6	0x00000000	0.0
7	0x3da27f07	0.07934385
8	0x00000000	0.0
9	0x3dff983b	0.124802075
10	0x00000000	0.0
11	0x3e0aa8c8	0.13540947
12	0x00000004	6e-45
13	0x3d7d79b4	0.061883643
14	0x00000004	6e-45
15	0x3d88b7ae	0.06675659
16	0x00000004	6e-45
17	0x3cb88251	0.022523077
18	0x00000004	6e-45
19	0x3cc93e30	0.024565786
20	0x00000000	0.0
21	0x3f103928	0.56337214
22	0x00000000	0.0
23	0x3f1a11de	0.60183513
24	0x00000000	0.0
25	0x3eb63d25	0.35593525
26	0x00000000	0.0
27	0x3ec518fd	0.38495627
28	0x00000004	6e-45
29	0x3c7a0b75	0.015261521
30	0x00000004	6e-45
31	0x3c88686b	0.016651353
32	0x00000004	6e-45
33	0x3e8d85e6	0.2764122
34	0x00000004	6e-45
35	0x3e971010	0.29504442
36	0x00000004	6e-45
37	0x3cc4b405	0.024011621
38	0x00000004	6e-45
39	0x3cd67869	0.026180463
40	0x00000000	0.0
41	0x3de9b537	0.11411517
42	0x00000000	0.0
43	0x3dfd809c	0.12378046
44	0x00000004	6e-45
45	0x3cc94027	0.024566723
46	0x00000004	6e-45
47	0x3cdb6277	0.02678035
48	0x00000004	6e-45
49	0x3c442895	0.011972566
50	0x00000004	6e-45
51	0x3c55fbd9	0.013060533
52	0x00000000	0.0
53	0x3ef8720d	0.48524514
54	0x00000000	0.0
55	0x3f03f241	0.51541525
56	0x00000004	6e-45
57	0x3c98bb02	0.01864386
58	0x00000004	6e-45
59	0x3ca68073	0.020324921
60	0x00000004	6e-45
61	0x3e9f184a	0.3107322
62	0x00000004	6e-45
63	0x3eab3403	0.3343812
64	0x00000004	6e-45
65	0x3e83cc4f	0.25741813
66	0x00000000	0.0
67	0x3e8cb1a5	0.27479282
68	0x00000004	6e-45
69	0x3d864a91	0.06557191
70	0x00000004	6e-45
71	0x3d919a33	0.07109489
72	0x00000004	6e-45
73	0x3e67125a	0.22565594
74	0x00000004	6e-45
75	0x3e79c03d	0.2438974
76	0x00000004	6e-45
77	0x3d145484	0.036213413
78	0x00000004	6e-45
79	0x3d219b59	0.03945479
80	0x00000000	0.0
81	0x3d0da83b	0.034584265
82	0x00000000	0.0
83	0x3d1a63fb	0.037693005
84	0x00000000	0.0
85	0x3e77d7f7	0.24203478
86	0x00000000	0.0
87	0x3e85a49e	0.26102155
88	0x00000004	6e-45
89	0x3f14b3fe	0.58087146
90	0x00000004	6e-45
91	0x3f1d1cb0	0.613719
92	0x00000000	0.0
93	0x3cf376ab	0.029719671
94	0x00000000	0.0
95	0x3d04c2bd	0.03241228
96	0x00000000	0.0
97	0x3e8b3bd4	0.27194083
98	0x00000000	0.0
99	0x3e9633c8	0.2933638
100	0x00000004	6e-45
101	0x3c6255f1	0.013814435
102	0x00000004	6e-45
103	0x3c76c9f2	0.015062796
104	0x00000000	0.0
105	0x3db9c46f	0.0907067
106	0x00000000	0.0
107	0x3dca5d61	0.09881092
108	0x00000000	0.0
109	0x3d520ab1	0.051279727
110	0x00000000	0.0
111	0x3d64faa6	0.0559031
112	0x00000004	6e-45
113	0x3ce2b2ee	0.027673211
114	0x00000004	6e-45
115	0x3cf727b7	0.030170305
116	0x00000004	6e-45
117	0x3e6dab48	0.2320987
118	0x00000000	0.0
119	0x3e80576e	0.25066704
120	0x00000004	6e-45
121	0x3e99aa04	0.30012524
122	0x00000004	6e-45
123	0x3ea40888	0.3203776
124	0x00000004	6e-45
125	0x3cce7714	0.025203265
126	0x00000004	6e-45
127	0x3ce0f562	0.027460758
128	0x00000004	6e-45
129	0x3c8b9ec1	0.017043473
130	0x00000004	6e-45
131	0x3c975684	0.018473871
132	0x00000000	0.0
133	0x3d2d02b0	0.04223889
134	0x00000000	0.0
135	0x3d3cd819	0.046104524
136	0x00000000	0.0
137	0x3d85c632	0.065319434
138	0x00000000	0.0
139	0x3d917276	0.0710191
140	0x00000000	0.0
141	0x3f0be53a	0.54646647
142	0x00000000	0.0
143	0x3f13f359	0.57793194
144	0x00000004	6e-45
145	0x3ea882a8	0.32912183
146	0x00000000	0.0
147	0x3eb3a083	0.35083398
148	0x00000004	6e-45
149	0x3cda1d27	0.026625229
150	0x00000004	6e-45
151	0x3cedb1bd	0.029015416
152	0x00000000	0.0
153	0x3d5d63b6	0.05405017
154	0x00000000	0.0
155	0x3d717489	0.058949027
156	0x00000004	6e-45
157	0x3e718693	0.23586492
158	0x00000000	0.0
159	0x3e8250ff	0.2545242
160	0x00000004	6e-45
161	0x3d96db74	0.07366076
162	0x00000004	6e-45
163	0x3da3e7d7	0.08003204
164	0x00000004	6e-45
165	0x3cf57de3	0.029967254
166	0x00000004	6e-45
167	0x3d05d1b3	0.032670688
168	0x00000000	0.0
169	0x3e15ed74	0.14641362
170	0x00000000	0.0
171	0x3e22f191	0.15912463
172	0x00000004	6e-45
173	0x3e1fdd4c	0.15611762
174	0x00000004	6e-45
175	0x3e2bbf59	0.16772212
176	0x00000004	6e-45
177	0x3d3d45c6	0.04620912
178	0x00000004	6e-45
179	0x3d4dcfc1	0.050246958
180	0x00000000	0.0
181	0x3d79cccf	0.060986336
182	0x00000000	0.0
183	0x3d884647	0.06654029
184	0x00000004	6e-45
185	0x3e2e3b9b	0.17014925
186	0x00000000	0.0
187	0x3e3bc0b9	0.18335237
188	0x00000000	0.0
189	0x3e1065cc	0.14101332
190	0x00000004	6e-45
191	0x3e1bac0e	0.15202352
192	0x00000004	6e-45
193	0x3c8fee04	0.01756955
194	0x00000004	6e-45
195	0x3c9cf791	0.019161018
196	0x00000004	6e-45
197	0x3e12ad7a	0.14323989
198	0x00000004	6e-45
199	0x3e1d9f48	0.15392792
200	0x00000000	0.0
201	0x3d0cc372	0.03436608
202	0x00000000	0.0
203	0x3d198e24	0.03748907
204	0x00000004	6e-45
205	0x3c2e4881	0.0106374035
206	0x00000004	6e-45
207	0x3c3dca04	0.011583809
208	0x00000000	0.0
209	0x3ec90fc5	0.39269844
210	0x00000000	0.0
211	0x3ed788f0	0.42096663
212	0x00000004	6e-45
213	0x3e464cc1	0.19365217
214	0x00000000	0.0
215	0x3e56401f	0.20922898
216	0x00000000	0.0
217	0x3d156634	0.03647442
218	0x00000000	0.0
219	0x3d22927b	0.039690476
220	0x00000004	6e-45
221	0x3e8a64e1	0.2703009
222	0x00000000	0.0
223	0x3e94b74c	0.29046094
224	0x00000000	0.0
225	0x3df06a07	0.11738973
226	0x00000000	0.0
227	0x3e01eaf9	0.12687291
228	0x00000004	6e-45
229	0x3c6dbeb4	0.014510799
230	0x00000004	6e-45
231	0x3c81abdd	0.015829021
232	0x00000004	6e-45
233	0x3e2a54f2	0.16633967
234	0x00000004	6e-45
235	0x3e36bd1b	0.17845576
236	0x00000004	6e-45
237	0x3e3aa54a	0.18227115
238	0x00000004	6e-45
239	0x3e47aebd	0.19500251
240	0x00000000	0.0
241	0x3f00b7de	0.5028056
242	0x00000000	0.0
243	0x3f094ff2	0.5363761
244	0x00000000	0.0
245	0x3d1ce365	0.038302798
246	0x00000000	0.0
247	0x3d2b1772	0.041770406
248	0x00000000	0.0
249	0x3ec538a4	0.38519776
250	0x00000000	0.0
251	0x3ed276dc	0.41106308
252	0x00000004	6e-45
253	0x3e5b30ab	0.21405284
254	0x00000000	0.0
255	0x3e6d3130	0.23163295
