images/models/other_models/Attention/best_models15.pth.tar (torch, 471237 bytes, 18 tensors)

bn1d0.weight f4 [739]
000000 43 d3 09 3f e1 61 4f 3f 06 59 3f 3f e4 00 78 3f
       0.53837985 0.81008726 0.74745214 0.9687636
000010 5f 99 8c 3f 19 17 88 3f 8c 4f 76 3f f9 bc 7b 3f
       1.0984305 1.0632049 0.9621513 0.98335224
000020 16 4c 96 3f 2a 6a 76 3f 08 eb 83 3f fe 75 59 3f
       1.174197 0.96255744 1.0306101 0.84945667
000030 b5 a0 9f 3f e7 83 7b 3f ec f0 70 3f 55 f7 7b 3f
       1.2470919 0.9824814 0.9411762 0.98424274
000040 70 f7 81 3f 74 11 77 3f 21 33 79 3f 08 ac 6f 3f
       1.0153637 0.96511006 0.9734364 0.93621874
000050 43 1d 88 3f 99 cd 71 3f 5b 81 80 3f 35 98 78 3f
       1.063393 0.9445434 1.0039476 0.9710725
000060 31 e3 79 3f 79 ee 8b 3f 2d c8 97 3f 8b 7e 79 3f
       0.9761229 1.0932151 1.1857964 0.97458714
000070 d7 42 76 3f 56 90 9b 3f fa 52 8c 3f 3e b7 88 3f
       0.9619574 1.2153423 1.0962822 1.0680921
000080 66 be 83 3f 1f f3 8a 3f 38 61 7f 3f 02 3f 7e 3f
       1.029248 1.0855445 0.9975772 0.9931489
000090 50 c8 90 3f d7 2f 8c 3f 0d f7 83 3f 53 a9 89 3f
       1.131113 1.09521 1.0309769 1.0754799
0000a0 54 eb 81 3f df dc 8a 3f cb 7d 81 3f e9 9c 80 3f
       1.0149941 1.0848655 1.0116514 1.0047885
0000b0 ca 13 80 3f 9b 70 95 3f 5f 63 95 3f 91 c4 79 3f
       1.0006039 1.167499 1.1670951 0.9756556
0000c0 27 07 7d 3f c6 5b 7d 3f fc 8e 87 3f f4 54 80 3f
       0.9883904 0.9896816 1.059051 1.0025926
0000d0 bf 49 7d 3f 70 5a 7e 3f 02 bc 7d 3f 1a f0 86 3f
       0.9894065 0.99356747 0.99115 1.0542023
0000e0 eb 60 a0 3f 4a 3b 85 3f 29 50 81 3f d2 fb 8a 3f
       1.2529577 1.0408719 1.0102588 1.08581
0000f0 1f 76 af 3f 00 f2 8f 3f e0 30 8a 3f ea 27 7e 3f
       1.3707923 1.1245728 1.0796165 0.99279654
000100 05 cf 7c 3f 69 47 8c 3f 00 1b 77 3f d4 18 84 3f
       0.98753387 1.0959293 0.96525574 1.0320077
000110 01 7a 89 3f fa 0a 88 3f 2b ea 7b 3f 84 dc 7f 3f
       1.0740358 1.062835 0.98404187 0.99945855
000120 ed 85 7d 3f d0 9c 85 3f a3 5c 7c 3f 41 a5 81 3f
       0.9903248 1.043848 0.9857885 1.0128556
000130 44 30 7e 3f 57 ac 82 3f d5 ee 80 3f a2 c7 80 3f
       0.992924 1.0208844 1.0072886 1.0060923
000140 7f d2 7c 3f 7d d4 7d 3f 09 be 7f 3f 50 ac 80 3f
       0.9875869 0.99152356 0.99899346 1.0052586
000150 63 37 80 3f 95 a1 7c 3f a6 63 85 3f 85 f3 83 3f
       1.0016903 0.98684055 1.0421035 1.0308691
000160 b6 0a 8d 3f 95 03 80 3f cc f0 84 3f 58 85 83 3f
       1.1018894 1.0001093 1.0385985 1.0275068
000170 55 05 83 3f 6d 73 86 3f c7 8b 94 3f 8a 5d 81 3f
       1.0236002 1.0503975 1.1605157 1.0106671
000180 3c 26 7d 3f 48 6b 80 3f 34 89 82 3f ee 39 7e 3f
       0.98886466 1.003274 1.0198121 0.99307144
000190 2a f0 84 3f 7a 2f 83 3f a6 f7 7d 3f 4a fa 7f 3f
       1.0385792 1.0248864 0.99206007 0.99991286
0001a0 7e a1 7d 3f a5 22 85 3f f2 fd a4 3f ce 71 80 3f
       0.9907454 1.0401198 1.2889998 1.003473
0001b0 92 ec 7d 3f 95 32 7e 3f d9 50 80 3f c6 79 84 3f
       0.991891 0.9929593 1.0024673 1.0349662
0001c0 70 87 78 3f d5 01 8b 3f 02 82 80 3f d1 18 91 3f
       0.9708166 1.0859934 1.0039675 1.1335698
0001d0 70 a9 76 3f e8 eb 7a 3f 37 78 84 3f 19 42 83 3f
       0.9635229 0.98016214 1.0349187 1.0254546
0001e0 ca 52 88 3f f6 17 7e 3f 4c 65 7b 3f f6 38 79 3f
       1.0650265 0.9925531 0.9820144 0.9735254
0001f0 4d ee 81 3f d9 ab 94 3f 58 7a 74 3f 1c 72 64 3f
       1.0150849 1.1614944 0.9549918 0.8923662
000200 e2 97 60 3f 55 56 65 3f 1f 4a 60 3f 4e 22 59 3f
       0.87731755 0.8958486 0.876131 0.8481797
000210 1f dd 59 3f e0 c8 5c 3f 07 47 67 3f 6f 0d 7a 3f
       0.8510303 0.8624401 0.90342754 0.9767675
000220 f7 df 84 3f 6b c8 7c 3f 96 b1 7f 3f 54 37 8f 3f
       1.0380849 0.98743314 0.9988035 1.118876
000230 29 5d 86 3f 19 92 83 3f 5b 16 94 3f 16 47 7c 3f
       1.049718 1.027896 1.1569322 0.9854597
000240 3d e3 83 3f d3 5a 80 3f df 6e 82 3f 22 62 82 3f
       1.0303723 1.0027717 1.0190085 1.0186198
000250 06 a3 7e 3f d1 5a 81 3f 88 60 80 3f 08 91 86 3f
       0.99467504 1.010584 1.0029459 1.051301
000260 70 98 83 3f 2f 56 7f 3f 8e db 81 3f df 00 80 3f
       1.0280895 0.9974088 1.0145128 1.0000266
000270 c1 30 7c 3f 95 77 84 3f 47 93 85 3f 24 00 85 3f
       0.9851189 1.0348994 1.043557 1.0390668
000280 7f f1 7e 3f 35 ee 80 3f 46 79 a6 3f 86 05 7f 3f
       0.99587244 1.0072695 1.300576 0.99617803
000290 6d 3d 82 3f 60 e8 85 3f 1b 83 81 3f 22 be 7f 3f
       1.0174996 1.046154 1.0118135 0.99899495
0002a0 9e 0d 81 3f 87 ac 86 3f ca d1 7c 3f 2a 1b 82 3f
       1.0082281 1.0521401 0.9875761 1.016454
0002b0 a4 6f 7e 3f c8 a3 81 3f 8d f9 8f 3f 72 b9 81 3f
       0.993891 1.0128107 1.1248032 1.0134718
0002c0 a4 19 86 3f ba e7 8f 3f 8b f1 7e 3f 89 5d 7f 3f
       1.0476575 1.1242592 0.99587315 0.997521
0002d0 ed e0 84 3f 24 db a3 3f 28 f3 81 3f 73 64 7e 3f
       1.0381142 1.2801251 1.015233 0.99372023
0002e0 e5 9a 82 3f 76 5b 8a 3f dd df 87 3f 7b 1a a7 3f
       1.020352 1.0809162 1.0615193 1.3054956
0002f0 45 07 b6 3f 66 fc 8f 3f 5c e1 85 3f e4 26 86 3f
       1.4220968 1.1248901 1.0459399 1.0480618
000300 82 2f 79 3f 78 9a 88 3f e9 8b 8d 3f bd 1a a1 3f
       0.97338116 1.067214 1.1058322 1.2586285
000310 eb a8 7d 3f cd 13 86 3f 53 24 80 3f a5 4b 86 3f
       0.99085873 1.0474793 1.0011085 1.0491835
000320 7b 75 7f 3f 34 d5 74 3f 58 57 87 3f 78 9d 7c 3f
       0.99788636 0.9563782 1.057353 0.9867778
000330 c2 7c 7d 3f 59 07 6f 3f 9d 37 84 3f 90 b9 85 3f
       0.9901849 0.93370587 1.0329472 1.0447254
000340 78 43 7d 3f e9 69 7d 3f 40 a5 8a 3f b4 c5 7a 3f
       0.98931074 0.9898973 1.083168 0.9795792
000350 78 08 98 3f cb 43 87 3f 33 d6 50 3f b3 a2 67 3f
       1.1877584 1.0567564 0.8157684 0.90482634
000360 f1 67 25 3f d0 da 25 3f fb 22 e8 3e 92 2e 2c 3f
       0.64611727 0.64787006 0.45339188 0.6725856
000370 ac 5d 5e 3f 44 e4 6b 3f 20 e2 19 3f f2 28 14 3f
       0.8686168 0.9214518 0.60110664 0.5787498
000380 6f e0 01 3f 4f a1 f0 3e 49 6c 16 3f 1d f7 7f 3f
       0.50733083 0.4699807 0.5875898 0.9998644
000390 f9 f8 7f 3f 4f 03 80 3f 00 0d 80 3f fc ff 7f 3f
       0.9998928 1.000101 1.0003967 0.99999976
0003a0 f3 f0 7f 3f 49 f2 7f 3f 1b 00 80 3f 9a 1c 80 3f
       0.99977034 0.9997907 1.0000032 1.0008729
0003b0 90 fa 7f 3f 6c 07 80 3f 06 ed 7f 3f 19 fd 7f 3f
       0.99991703 1.0002265 0.99971044 0.9999557
0003c0 1e 05 80 3f 56 07 80 3f 4f 02 80 3f 02 0b 80 3f
       1.0001562 1.0002239 1.0000705 1.0003359
0003d0 77 ff 7f 3f 43 f6 7f 3f a3 41 80 3f c8 16 80 3f
       0.99999183 0.9998514 1.0020031 1.0006952
0003e0 71 ef 7f 3f bb 0d 80 3f a5 05 80 3f 43 04 80 3f
       0.99974734 1.000419 1.0001723 1.00013
0003f0 11 f2 7f 3f 30 f0 7f 3f 33 e9 7f 3f 47 02 80 3f
       0.9997874 0.9997587 0.9996521 1.0000695

bn1d0.bias f4 [739]
000000 9e e6 4c 3c f0 31 14 3e 35 7d 83 bd f5 28 03 3d
       0.012506155 0.14472175 -0.06420366 0.03202148
000010 73 da bf bd af d1 4a 3b e9 0d 95 bd e1 57 6b bd
       -0.09367838 0.0030947735 -0.07278044 -0.057456855
000020 f7 1f a1 bd 77 a2 39 3d 9d 3a 91 bd 70 e1 21 bc
       -0.07867425 0.045320954 -0.07091258 -0.009880409
000030 48 7e c7 bc 27 93 8a bd e1 f4 80 bb 41 40 bd bc
       -0.024352208 -0.06766348 -0.003935442 -0.023101928
000040 7a 2d 13 bd 9e d9 1c bc f9 6f 4f 3b 68 2f 6d 3d
       -0.03593204 -0.009573368 0.0031652434 0.05790654
000050 49 86 7c ba 81 b1 b7 3c 78 c3 42 3c 34 ab 9d 3d
       -0.0009633047 0.022423508 0.011887424 0.0769867
000060 e9 76 3b 3d 25 67 bb bc b3 0b 32 3e 7a 8f 19 3c
       0.0457677 -0.022876332 0.17387275 0.009372586
000070 9d ca a5 3d 57 3e 2b bd 17 0d c1 3d 31 51 4c 3d
       0.08095286 -0.0418075 0.09426325 0.049882118
000080 94 63 0e bc d3 5f 35 3d bd 11 87 3c 18 13 96 3d
       -0.008690733 0.04428084 0.01648795 0.073278606
000090 20 7e 66 3d a3 44 20 3c 6a 62 ad 3c 71 4b 0d 3d
       0.056272626 0.009781989 0.021165092 0.034495775
0000a0 1d 2d 8a 3b de 0e 50 3d c0 aa 08 3c 11 58 40 bc
       0.0042168037 0.05079543 0.008341491 -0.011739747
0000b0 bf 6a dd bc de 89 28 bc 8f 1d 01 3d 36 d0 fc bc
       -0.02702844 -0.010286776 0.03152233 -0.030861001
0000c0 8e e6 2b bd e5 00 ad 3a 44 ad 58 3c 67 aa 7f bd
       -0.04196792 0.0013199119 0.0132249035 -0.062418368
0000d0 87 93 b7 ba 8c 63 87 3d 6b 34 b7 bd 9d ab 03 bd
       -0.0014005759 0.06610784 -0.08945545 -0.032146085
0000e0 64 21 a2 bc 0c 3b 95 bd 8c 21 00 bd 02 21 08 be
       -0.019791313 -0.07286653 -0.031281993 -0.13293841
0000f0 c5 84 29 be ce 61 93 bd ec fe 7e bd df da 09 be
       -0.16554554 -0.07196389 -0.06225483 -0.13462399
000100 56 13 44 bd 49 8f b6 bc 18 db 9d 3c ba 85 5b bd
       -0.047870003 -0.02228512 0.019269511 -0.05359433
000110 05 0c c1 bc 72 ab 8e 3c ea 21 17 bd 14 90 ab 3c
       -0.023565302 0.017415736 -0.036897577 0.020942725
000120 11 e9 7a bd 7f 48 83 3b c3 a0 34 3d c6 ba 58 3c
       -0.061257426 0.004006445 0.044098627 0.013228124
000130 d0 51 d9 bc 6b 5e e2 3c bf c2 20 bd ad 51 f4 bc
       -0.026528269 0.027632913 -0.039248224 -0.029824102
000140 78 cb 9e 3d 1f b8 0c bd 34 76 6c 3c 92 4d 88 3c
       0.07753652 -0.03435528 0.014432479 0.01663855
000150 36 87 70 bc cb 76 b7 bc f2 e7 b2 3d 43 1b bf 3c
       -0.014680674 -0.022395512 0.08735646 0.02332843
000160 b5 58 56 3a 85 4d 2b 3d 5a a5 e0 3b 84 06 a1 3c
       0.00081766705 0.041821975 0.006855649 0.019656427
000170 56 a3 02 3d 0c 9b 04 bc ea 9f dc bc 30 51 c5 3d
       0.03189405 -0.008093607 -0.026931722 0.09634626
000180 a9 d4 5c bd a5 da 4d 3d a1 9d ff 3c f9 da 3c bb
       -0.053913746 0.050257344 0.031203093 -0.0028817041
000190 7d f4 2b bb 6c 62 88 3d 05 b0 4e bd 6c d2 2f bc
       -0.0026238256 0.066593975 -0.050460834 -0.010731321
0001a0 60 3e 29 3c a3 63 3e bd bc 4d 02 bd e8 09 91 3c
       0.010329813 -0.04648174 -0.031812415 0.017704919
0001b0 0c 71 5e bc e9 47 aa 3c 9b e2 98 bc 7e c8 5d bd
       -0.013576757 0.020786243 -0.018662741 -0.054146282
0001c0 41 ad 5f bd 79 e1 03 bd 91 bf 6f bd ee a6 4f 3d
       -0.054608587 -0.03219745 -0.0585323 0.050696306
0001d0 ff 77 5f bd 9d 04 96 bc df 77 05 bd 06 97 15 3b
       -0.054557797 -0.018312747 -0.03258502 0.0022825613
0001e0 0a 40 c4 bb ed 97 53 3c 2d ea 56 3c 2a 9f fc bc
       -0.0059890794 0.01291464 0.013117355 -0.030837614
0001f0 55 a8 dc bc 3b 3a 11 bd f6 32 ce bb c3 3e b3 bc
       -0.026935736 -0.035455924 -0.006292696 -0.021880513
000200 ff 6d 92 bc cd e3 3d 3b ff 9e 40 bb e3 b8 40 3c
       -0.017874716 0.0028974891 -0.0029391644 0.01176283
000210 da 38 ef 3b d4 40 26 bc 20 6e 99 3b f5 83 c7 bc
       0.0073004784 -0.010147292 0.0046823174 -0.024354914
000220 35 8e ae bc 77 ae b5 3c d6 32 64 bc 01 fd 67 3d
       -0.021308044 0.022177918 -0.013928136 0.056637768
000230 1d 3f f7 bc b2 47 27 bd 60 f4 69 3c 75 40 92 3c
       -0.030181462 -0.04083986 0.014279455 0.017853001
000240 5a 94 01 bc 24 58 24 bd 85 35 ca 3b 09 cc 0f 3d
       -0.007908905 -0.04012312 0.006170931 0.035106692
000250 2c 26 05 bd 8c 6b d6 3c 8f 24 95 3b 8e f9 a3 bb
       -0.032507107 0.02617433 0.0045514773 -0.0050041145
000260 58 04 dc 3c e6 ba 6e bd 22 f6 e1 3c 47 14 e1 3c
       0.02685754 -0.05828371 0.027583186 0.02747549
000270 13 39 1f bd ab dc 08 bd a2 ab f5 3c 6c 39 9e 3c
       -0.03887279 -0.03341357 0.029989067 0.01931449
000280 74 5d bc 3c 4d 11 10 3d a7 db 18 bd 6e cb 15 3d
       0.02299378 0.03517275 -0.03731885 0.03657096
000290 9c 85 74 bc fe 1b 6c 3d 02 22 bb bc d7 36 69 3c
       -0.014924433 0.057643883 -0.022843365 0.014234266
0002a0 fc 25 14 3b 2e bc 62 bd 04 b8 6b 3c 19 e4 86 3c
       0.0022605648 -0.055355243 0.014387134 0.016466187
0002b0 3f 43 db ba f3 78 c5 bc 9b 0a 1f 3d 41 48 ff bb
       -0.0016728415 -0.024105525 0.038828474 -0.0077905958
0002c0 ee 77 a6 bc b6 b5 af bd db b1 4d 3d 22 92 f9 ba
       -0.020320859 -0.085795805 0.050218444 -0.0019040743
0002d0 a7 5a ed bc 58 60 87 bd eb 7e 15 3c 18 5f 7c 3c
       -0.02897389 -0.06610173 0.009124498 0.0154035315
0002e0 12 30 6f bd 4a b7 9d bc 97 81 b7 3c af 65 15 bd
       -0.058395453 -0.019252438 0.02240066 -0.036473926
0002f0 72 9c 33 3d f9 78 14 bc 52 1d d7 bb 32 31 6e bd
       0.04385037 -0.009062045 -0.0065647746 -0.058152385
000300 cd 49 e7 bc 9d 37 c7 39 fb c0 99 3d d0 7f e8 bd
       -0.028233433 0.00037997673 0.07507511 -0.11352503
000310 ca 51 59 bd 7b ef 83 bc 4d e0 c0 3c fb 89 09 bd
       -0.053056516 -0.016105404 0.023544455 -0.033578854
000320 7e 94 af 3c 94 f7 58 bd d4 c1 4d 3b 8d d7 1b 3c
       0.021433111 -0.052970484 0.0031396048 0.0095118405
000330 4b 5a b5 bb c5 d8 07 3d d8 18 57 bd a7 d5 98 3d
       -0.0055344454 0.033165712 -0.052513927 0.07462626
000340 30 6f 5d bd 33 01 cc 3a 3d 84 4f 3c 52 4f 7f bd
       -0.054061115 0.0015564322 0.012665805 -0.062331505
000350 87 63 61 3d ca 1e 31 be 00 ed c9 bc 52 4d 5e 3b
       0.055026557 -0.17296901 -0.024649143 0.0033920598
000360 01 15 06 be 59 df 95 3c 0c 5b bd bd b6 44 9f 3d
       -0.1309395 0.018294977 -0.092458814 0.077767774
000370 2a 59 c0 bd 41 98 ad bd a3 ca ca bc c9 07 64 3e
       -0.09392007 -0.08476306 -0.024754828 0.22268595
000380 03 95 9e bd 7f 06 c4 bd 80 76 f2 bd 86 e9 b4 38
       -0.077432655 -0.095715515 -0.11839008 8.626566e-05
000390 e4 89 a9 bc 5f 59 a8 38 a8 ee a8 3c 9b 53 83 bb
       -0.020695634 8.027511e-05 0.020621613 -0.0040077693
0003a0 a2 0e 00 bd 45 e8 25 3c 54 c2 29 bc 05 11 ec 3c
       -0.031263955 0.010126178 -0.010361273 0.02881671
0003b0 ae 83 0d 3d e6 24 e2 bc 26 6a 97 3c a3 e5 85 bc
       0.034549408 -0.027605485 0.018483233 -0.01634485
0003c0 e2 f0 a3 ba d7 d7 6a bc 8b 97 53 3c 9b 2d 0d 3d
       -0.0012507702 -0.014333687 0.012914549 0.03446732
0003d0 57 60 ca 3b 6f 77 04 3a fc 02 7e bc 35 b1 44 bc
       0.0061760354 0.00050531974 -0.015503641 -0.01200514
0003e0 37 81 10 bd 28 84 4e bc f8 7a 63 bb 11 13 54 3c
       -0.03527948 -0.012604751 -0.0034710746 0.012943999
0003f0 89 7b 67 bc f5 e9 69 3c 7b 62 1b 3b be 9d cb 3c
       -0.014128574 0.014276971 0.0023709822 0.02485549

bn1d0.running_mean f4 [739]
000000 cb c5 6b bb 49 56 1e bb f0 76 dc ba 4c 0e ae bb
       -0.0035976048 -0.0024160317 -0.0016820114 -0.005311763
000010 38 98 b0 bb 89 8a d9 bb 42 e5 8b bb 9a 00 df ba
       -0.0053892396 -0.006638829 -0.004269273 -0.0017013729
000020 a4 f6 c4 3a b8 06 88 3a 1e fe bb b8 51 73 07 bb
       0.0015027118 0.0010377979 -8.964188e-05 -0.00206681
000030 19 94 55 bb 51 9c 88 bb f4 dc 53 bb 00 b6 21 bb
       -0.0032589494 -0.004169025 -0.0032327743 -0.002467513
000040 3c ea cc ba 1e b4 54 ba 81 fa 71 39 2a 02 99 b8
       -0.0015633772 -0.0008113998 0.00023076871 -7.2960116e-05
000050 c8 13 77 3a dd 36 40 3a 0d bc 88 3a 3a 68 ec 3a
       0.000942525 0.0007332394 0.001043202 0.0018036433
000060 4a 1d fe 3a 8e 0f 2b 3b 1e e3 06 3b 5f 49 14 3b
       0.0019387391 0.00261018 0.002058215 0.002262674
000070 4f 16 10 3b 9c 32 16 3b 2c b0 12 3b f7 b3 04 3b
       0.0021985953 0.002291835 0.0022382839 0.002024887
000080 09 e7 03 3b a1 9a d2 3a 2e 31 f5 3a 60 43 c5 3a
       0.0020126721 0.0016067812 0.0018706673 0.0015049987
000090 4e ac 80 3a 6b 42 4c 3a 84 96 f7 39 58 a0 f1 39
       0.0009816976 0.00077918795 0.00047223654 0.00046086567
0000a0 f7 01 31 39 4f db 43 b9 20 dd 75 b9 7f 03 70 b9
       0.00016880767 -0.00018678348 -0.00023447396 -0.00022889486
0000b0 9b 0d 39 ba ca 75 1f ba 9b 87 8a ba 13 fb 9a ba
       -0.00070592173 -0.00060829206 -0.0010568978 -0.0011824094
0000c0 b7 1f 87 ba 40 e8 d9 ba 1e 59 c4 ba 24 ce bf ba
       -0.0010309134 -0.0016625002 -0.0014980172 -0.0014633578
0000d0 b1 f5 d5 ba 0e 43 e4 ba 1d fd 23 bb aa 83 21 bb
       -0.0016323832 -0.0017415003 -0.0025022693 -0.0024645128
0000e0 fb c8 69 bb a5 9e 95 bb 6c ca ca bb 4e e4 fb bb
       -0.0035672772 -0.004566031 -0.0061886813 -0.007687128
0000f0 4d 36 15 bc 0c 62 17 bc e4 a8 0e bc 21 ed 23 bc
       -0.009107185 -0.009239685 -0.008707259 -0.010005266
000100 01 45 af bb 7f 8f 7e bb ff 1f 3b bb 27 0e f4 ba
       -0.005348802 -0.0038842855 -0.0028553007 -0.001861994
000110 99 8b c9 ba 31 15 ac ba 7a 00 aa ba 7e 79 8a ba
       -0.0015376686 -0.0013128874 -0.0012970113 -0.0010564772
000120 c6 fb cc ba 14 a1 7e ba 85 99 2c ba 33 b8 09 ba
       -0.0015638999 -0.00097133336 -0.00065841555 -0.0005253583
000130 11 6f 06 ba 2a 80 4c b9 df ad c0 39 99 99 d4 39
       -0.00051282445 -0.00019502701 0.00036750638 0.0004055023
000140 3e 50 22 3a c9 1b 7f 3a b6 09 a6 3a a4 69 8d 3a
       0.00061917666 0.00097316183 0.0012667689 0.001078893
000150 67 ee 73 3a e8 c9 6a 3a 27 2e 68 3a f5 12 86 3a
       0.0009305239 0.0008956478 0.0008856975 0.0010229038
000160 5d c5 56 3a 4c 1a 25 3a c0 e7 1f 3a 2d 8d 0c 3a
       0.00081928616 0.0006298169 0.0006099902 0.0005361613
000170 f8 da e0 39 d9 be e9 39 80 f3 76 37 ae 13 f0 b8
       0.00042887754 0.00044583416 1.4719437e-05 -0.000114477574
000180 ae 1d 0b 38 58 de 05 ba 24 df 3e ba dc 00 65 ba
       3.3167824e-05 -0.0005106679 -0.00072811753 -0.0008735785
000190 1d 0f a9 ba 8f ba 12 bb 3c 62 ed ba 21 56 14 bb
       -0.0012898181 -0.002238903 -0.0018110941 -0.0022634345
0001a0 d7 19 2e bb 32 b2 3c bb ae 44 5f bb 6d 14 74 bb
       -0.0026565695 -0.0028792736 -0.0034068036 -0.003724362
0001b0 3c d3 86 bb 4e a0 97 bb 3e b4 d5 bb 66 f1 b0 bb
       -0.0041145366 -0.004627264 -0.0065217307 -0.0053998707
0001c0 ec 5c b7 bb f1 48 b3 bb e7 d7 b5 bb 75 0f b1 bb
       -0.005595794 -0.005471342 -0.005549419 -0.005403454
0001d0 e1 eb a5 bb b1 6d 9d bb 99 8b 90 bb 07 68 8a bb
       -0.0050635193 -0.004804336 -0.0044111726 -0.004223827
0001e0 e2 16 af bb 6d 71 85 bb c4 72 97 bb 37 95 a4 bb
       -0.005343304 -0.0040723593 -0.0046218354 -0.0050226706
0001f0 51 9e c4 bb 99 53 f7 bb e2 64 15 bc 85 c6 31 bc
       -0.006000318 -0.0075478074 -0.009118291 -0.010850553
000200 49 75 4b bc 94 82 94 bc 80 22 64 bc 1a b0 5b bc
       -0.0124181 -0.01812867 -0.013924241 -0.013408685
000210 7e f3 47 bc b9 07 2d bc 7b 8a 12 bc 1c 8a f2 bb
       -0.012204049 -0.010560923 -0.008944149 -0.007401718
000220 21 f5 c3 bb 3c 78 99 bb d7 f1 7b bb 98 81 81 bb
       -0.0059801494 -0.0046835225 -0.0038443708 -0.0039522164
000230 e1 3c 1c bb 06 43 e5 ba 3b dc c6 ba 2c d5 8e ba
       -0.0023839998 -0.0017491288 -0.0015171835 -0.001089727
000240 b9 c9 64 ba ea 6c 09 ba a6 a2 c6 b9 bd ed 92 b9
       -0.0008727569 -0.0005242365 -0.00037886685 -0.0002802442
000250 ac 8e 11 b9 db 6c bb 38 5c 9f 38 39 7d 26 b9 39
       -0.00013881427 8.937131e-05 0.00017606973 0.00035314626
000260 b5 54 4c 3a 21 d8 64 3a e2 df a0 3a 2a 6f ac 3a
       0.0007794605 0.00087297155 0.0012273754 0.0013155688
000270 19 bc cd 3a 1c b4 d0 3a e9 a7 1b 3b fe d2 00 3b
       0.0015696316 0.0015922817 0.0023751205 0.001965701
000280 d8 8c 02 3b a9 17 0a 3b 73 7c 09 3b 93 ac 0d 3b
       0.0019920375 0.0021071231 0.0020978719 0.0021617755
000290 8d d0 0d 3b 64 2c 16 3b 32 a6 12 3b e1 c3 45 3b
       0.0021639199 0.0022914642 0.0022376892 0.0030176567
0002a0 78 6b 14 3b 0a af 0f 3b d5 f2 14 3b 02 86 0d 3b
       0.0022647064 0.00219244 0.0022727747 0.0021594767
0002b0 b9 e5 0a 3b 06 dc 0b 3b cd d9 07 3b c4 d6 04 3b
       0.0021194054 0.002134086 0.0020729185 0.0020269612
0002c0 b9 14 06 3b a3 f0 27 3b 24 87 01 3b 41 5d fd 3a
       0.002045913 0.0025625608 0.0019764388 0.001933016
0002d0 73 0b ed 3a 3d e6 fa 3a 8f 80 ea 3a 61 a7 e4 3a
       0.0018085077 0.0019142103 0.0017891097 0.0017444902
0002e0 cb 0c f8 3a 85 76 e0 3a c8 6a 12 3b ff 6e db 3a
       0.0018924711 0.0017125165 0.0022341479 0.0016741453
0002f0 c5 7e db 3a 34 ee d7 3a 8d f3 d7 3a 70 ff cc 3a
       0.0016746154 0.0016474188 0.0016475782 0.0015640091
000300 76 99 d8 3a 0a 33 d7 3a 47 92 cd 3a bb 3c 06 3b
       0.0016525227 0.0016418409 0.0015683853 0.0020482976
000310 18 18 a0 3a e1 d6 c0 3a 2c 3e c0 3a 39 47 ad 3a
       0.0012214212 0.0014712476 0.0014666966 0.0013220079
000320 e9 ef c4 3a ca 3d a3 3a 23 f0 a2 3a 5c b0 aa 3a
       0.0015025112 0.0012454328 0.0012431185 0.001302253
000330 10 62 85 3a 87 9e c6 3a 98 b5 75 3a 16 ad 7c 3a
       0.001017632 0.0015153446 0.0009373068 0.0009638829
000340 20 e1 92 3a a3 c8 9d 3a 2a 5c c9 3a 6a 8e 19 3b
       0.0011206008 0.0012037944 0.001536255 0.0023430833
000350 4c e6 57 3b 24 2b a9 3b 25 97 38 3c 94 00 4e 3c
       0.0032943664 0.0051626135 0.011266504 0.01257338
000360 f4 a9 8d 3c 67 c6 ac 3c 47 e7 b9 3c 7d 13 bc 3c
       0.017292954 0.0210907 0.02269329 0.022958511
000370 cd c5 8f 3c 1f 3f 29 3c e6 94 65 3b aa 22 80 b9
       0.017550373 0.010329991 0.0035031377 -0.0002443989
000380 34 84 83 bb df 73 c0 bb 87 ce c0 bb 9a 3c fd 3a
       -0.0040135626 -0.005873188 -0.005883995 0.0019320429
000390 9c 99 fd 3a 36 28 00 3b fa 72 fe 3a 89 44 fa 3a
       0.0019348147 0.0019555218 0.0019412928 0.0019093911
0003a0 05 e1 fd 3a 69 17 00 3b e9 dc fe 3a b4 db ff 3a
       0.0019369429 0.0019545204 0.0019444498 0.0019520433
0003b0 de c9 ff 3a 47 e7 00 3b cd 67 fe 3a fe 51 fa 3a
       0.0019515117 0.0019669102 0.0019409597 0.0019097922
0003c0 85 2a fe 3a 5c 73 fb 3a d7 c2 00 3b 25 85 fd 3a
       0.0019391334 0.001918416 0.0019647384 0.0019342048
0003d0 da d9 04 3b 95 44 fe 3a 5c bf 02 3b 6f ea 07 3b
       0.0020271451 0.0019399101 0.0019950485 0.0020739099
0003e0 b8 00 05 3b 12 cb ff 3a ac a4 fd 3a c4 66 fc 3a
       0.0020294618 0.0019515476 0.0019351444 0.0019256701
0003f0 50 30 00 3b 20 f4 ff 3a 66 f5 fd 3a 34 39 01 3b
       0.0019560046 0.0019527711 0.0019375503 0.0019717934

bn1d0.running_var f4 [739]
000000 cf d8 7d 37 10 b7 25 37 35 da f5 36 8d 85 d6 36
       1.5130455e-05 9.877389e-06 7.3269716e-06 6.3932443e-06
000010 22 18 ff 36 97 32 a6 36 ff 8d 64 36 e2 90 1d 36
       7.6024016e-06 4.953075e-06 3.40573e-06 2.3479156e-06
000020 7c 38 0e 36 a7 74 cf 35 60 1c 10 36 bf f1 ee 35
       2.1192527e-06 1.5456652e-06 2.1474189e-06 1.7802739e-06
000030 fe ed 0a 36 10 e3 f6 35 bb 5c ad 35 78 c8 99 35
       2.0702132e-06 1.8394512e-06 1.2916493e-06 1.1457732e-06
000040 7d c9 97 35 33 77 76 35 d8 97 48 35 49 60 7a 35
       1.1309018e-06 9.18156e-07 7.472677e-07 9.327237e-07
000050 84 22 3a 35 4b e6 0e 35 0d d2 69 35 b1 02 38 35
       6.9340626e-07 5.323424e-07 8.710493e-07 6.854926e-07
000060 2d 7a 31 35 c8 ca 04 35 fd 9b 24 35 99 46 2d 35
       6.611543e-07 4.946892e-07 6.1321754e-07 6.4550255e-07
000070 71 4a 08 35 36 b3 0b 35 ae d0 f3 34 3d 35 10 35
       5.0772275e-07 5.204232e-07 4.5414112e-07 5.372165e-07
000080 1a cb ba 34 b5 79 ec 34 88 4e ec 34 8d f6 13 35
       3.4792976e-07 4.404698e-07 4.4015565e-07 5.5120546e-07
000090 ff bf c9 34 8a f4 f6 34 ab b7 dd 34 ee a0 0d 35
       3.7578863e-07 4.5998996e-07 4.1298094e-07 5.2760777e-07
0000a0 de 90 d2 34 0c 67 ce 34 5c 65 d9 34 f4 a6 fc 34
       3.9220953e-07 3.8445467e-07 4.0493148e-07 4.7060132e-07
0000b0 1c 42 f7 34 68 01 00 35 ee 89 cf 34 b7 61 f7 34
       4.6055436e-07 4.768576e-07 3.8657112e-07 4.6078432e-07
0000c0 dd 05 bf 34 64 45 bf 34 7d ac f1 34 75 da 0d 35
       3.5580788e-07 3.562701e-07 4.501525e-07 5.284449e-07
0000d0 20 3e 0f 35 c1 ff ca 34 63 8e 04 35 3f 7f 1f 35
       5.3362055e-07 3.7811517e-07 4.938103e-07 5.9417283e-07
0000e0 e1 0d 05 35 fc eb 49 35 ca e1 98 35 7a f3 d8 35
       4.956656e-07 7.522174e-07 1.1390596e-06 1.6164115e-06
0000f0 37 d6 07 36 e2 4f f5 35 5a b1 f2 35 db 38 0f 36
       2.0241257e-06 1.8277171e-06 1.8082021e-06 2.1341755e-06
000100 45 16 37 35 a3 f4 0d 35 d4 41 f0 34 4b 2e be 34
       6.820522e-07 5.2882586e-07 4.475138e-07 3.542394e-07
000110 4e e3 b3 34 e0 66 ad 34 da e8 ab 34 09 a8 be 34
       3.3506734e-07 3.2298612e-07 3.2020654e-07 3.551252e-07
000120 35 7e bd 34 3a 23 9f 34 86 2e ac 34 a3 95 ae 34
       3.529582e-07 2.9641689e-07 3.2071347e-07 3.25189e-07
000130 e1 78 91 34 f1 7b 4d 34 77 70 8a 34 de 58 79 34
       2.7096306e-07 1.9137202e-07 2.5786332e-07 2.3222262e-07
000140 31 9b a4 34 fe 56 8e 34 77 83 b8 34 54 cf b2 34
       3.0660297e-07 2.6512856e-07 3.4368324e-07 3.3305935e-07
000150 77 87 74 34 ac a3 85 34 bc 44 70 34 00 87 43 34
       2.2773553e-07 2.4892267e-07 2.2376747e-07 1.8209903e-07
000160 21 0e 4a 34 61 4e 5c 34 27 45 51 34 f0 0a 6a 34
       1.8817856e-07 2.0517611e-07 1.9489799e-07 2.1796927e-07
000170 45 7e 00 34 fa 19 37 34 ed 94 4b 34 55 ce 40 34
       1.1966866e-07 1.7052653e-07 1.8960027e-07 1.7956457e-07
000180 87 af 26 34 2a 79 1b 34 6d ff 2a 34 70 44 3f 34
       1.5523811e-07 1.4479579e-07 1.5925407e-07 1.7813159e-07
000190 7e 5d 2c 34 16 70 59 34 88 76 28 34 6e c8 42 34
       1.605276e-07 2.0250476e-07 1.568934e-07 1.8140574e-07
0001a0 9f c5 8d 34 7b d8 87 34 7a 50 76 34 0c d5 ba 34
       2.6407085e-07 2.530322e-07 2.2939813e-07 3.4800212e-07
0001b0 60 d6 ad 34 40 10 e8 34 72 3d 3e 35 b9 9e e3 34
       3.237974e-07 4.322519e-07 7.086993e-07 4.239753e-07
0001c0 fe e8 1a 35 20 85 0d 35 1d da f4 34 1f 78 d6 34
       5.770852e-07 5.2720316e-07 4.560724e-07 3.9948006e-07
0001d0 00 cf e4 34 6d 13 c5 34 9b c8 ae 34 ca d3 91 34
       4.2618922e-07 3.6708244e-07 3.2555985e-07 2.7162451e-07
0001e0 0e ff e8 34 6f 89 83 34 2b 99 82 34 e8 86 9f 34
       4.3398944e-07 2.4500648e-07 2.432583e-07 2.9714215e-07
0001f0 ca 76 e0 34 7c 72 27 35 7a 8a 4a 35 a3 dc 8f 35
       4.1809682e-07 6.2378945e-07 7.5452374e-07 1.0718544e-06
000200 b9 93 bf 35 a7 80 45 36 22 d4 f6 35 e9 df fc 35
       1.4273602e-06 2.9430173e-06 1.8390167e-06 1.884063e-06
000210 a6 bc e4 35 91 84 b3 35 2b be a3 35 88 94 5f 35
       1.7042228e-06 1.3375121e-06 1.2199793e-06 8.3290115e-07
000220 71 95 28 35 1b 65 f0 34 58 4f a2 34 0b 86 e5 34
       6.2802343e-07 4.4777047e-07 3.0232582e-07 4.2752103e-07
000230 ec f3 2c 34 6f 50 82 34 28 4a 11 34 c1 b0 22 34
       1.6107487e-07 2.427291e-07 1.3531155e-07 1.5151728e-07
000240 5b e7 25 34 0f d7 fa 33 9a d4 05 34 2e 4b d6 33
       1.5450989e-07 1.1680651e-07 1.2463934e-07 9.978827e-08
000250 99 5e e3 33 5f 12 fa 33 c2 b6 d1 33 37 b3 1a 34
       1.05877184e-07 1.1644874e-07 9.7655644e-08 1.4407566e-07
000260 dc fc 2c 34 b2 52 16 34 28 33 43 34 03 5c 3d 34
       1.6110738e-07 1.3999923e-07 1.8179401e-07 1.763547e-07
000270 33 44 15 34 aa 30 29 34 02 54 a3 34 33 06 3f 34
       1.3901517e-07 1.5757055e-07 3.042224e-07 1.7790516e-07
000280 ed 6d 4d 34 7a 35 33 34 3a 7b 5a 34 72 e9 6d 34
       1.9132104e-07 1.6690129e-07 2.0347662e-07 2.2157272e-07
000290 fe c4 60 34 07 79 3b 34 aa 66 83 34 33 bb 8b 34
       2.0933291e-07 1.7459762e-07 2.447535e-07 2.6026973e-07
0002a0 8f 1a 69 34 6f 8f 6f 34 32 64 43 34 98 ea 52 34
       2.1709478e-07 2.231079e-07 1.8197241e-07 1.9643119e-07
0002b0 e5 a6 80 34 b5 f3 5a 34 1a 73 5c 34 1f 30 88 34
       2.396329e-07 2.0391492e-07 2.053097e-07 2.5366987e-07
0002c0 f3 3d 81 34 a5 85 86 34 fc 49 71 34 1a cc 87 34
       2.4073196e-07 2.5056684e-07 2.247179e-07 2.5294213e-07
0002d0 9a a7 6c 34 7b 7b a3 34 3c c6 7b 34 39 b0 7d 34
       2.2040186e-07 3.045096e-07 2.3448314e-07 2.362657e-07
0002e0 e2 c2 82 34 09 36 ad 34 80 6b a7 34 4c 24 9d 34
       2.4356183e-07 3.2263077e-07 3.118439e-07 2.9269938e-07
0002f0 7f f5 9e 34 35 72 bc 34 83 35 d3 34 90 53 f6 34
       2.9608415e-07 3.5100825e-07 3.9340748e-07 4.588187e-07
000300 f0 4f c4 34 a8 30 cb 34 2a 5c d6 34 a6 45 fd 34
       3.6566007e-07 3.78471e-07 3.9927664e-07 4.7175598e-07
000310 b2 3d f6 34 76 74 f4 34 e5 28 11 35 33 90 d1 34
       4.586596e-07 4.5533278e-07 5.407622e-07 3.9034202e-07
000320 04 37 25 35 94 9f 2c 35 bc e5 05 35 8b cc 18 35
       6.154735e-07 6.430721e-07 4.988067e-07 5.692206e-07
000330 a4 21 1e 35 fa ce 38 35 d4 da 40 35 e0 c8 87 35
       5.890854e-07 6.884653e-07 7.184401e-07 1.0116746e-06
000340 3a 7f 64 35 57 da 73 35 7f ba 88 35 26 fe 8a 35
       8.512176e-07 9.084228e-07 1.0187067e-06 1.0355768e-06
000350 c6 e1 8e 35 f2 d5 b3 35 ba 65 42 36 63 9c 77 36
       1.0645533e-06 1.3398806e-06 2.8967465e-06 3.6896897e-06
000360 e7 c3 d4 36 21 22 30 37 d1 f2 31 37 4f 40 65 37
       6.3408984e-06 1.0498364e-05 1.0606557e-05 1.3664437e-05
000370 0a c7 40 37 51 d1 75 37 18 29 79 37 9f b1 82 37
       1.1490434e-05 1.4651873e-05 1.4851124e-05 1.5579919e-05
000380 d5 ae cb 37 2a cc 31 38 80 94 64 38 95 26 1a 2f
       2.4280898e-05 4.239023e-05 5.4497737e-05 1.4019925e-10
000390 78 e3 9b 2e f9 34 86 2f 2c 09 3d 2f 88 4b 92 2c
       7.0889905e-11 2.4412097e-10 1.7192708e-10 4.1579552e-12
0003a0 ae 64 8d 2e 09 b2 54 2f 1d 8a 15 2f 92 85 7d 2f
       6.429822e-11 1.9344538e-10 1.3600539e-10 2.305767e-10
0003b0 5d f7 c8 2f cf 51 f0 2e f3 4a 34 2f a9 ba 54 2d
       3.655555e-10 1.09284685e-10 1.6397532e-10 1.2092252e-11
0003c0 d3 15 e3 2e 66 f1 1e 2e 3f 02 22 2f 84 d8 2f 2f
       1.03266416e-10 3.6139446e-11 1.4734612e-10 1.5993079e-10
0003d0 47 6e de 2f 93 ac 04 2f 22 e0 cd 2f d7 01 ef 2f
       4.0459922e-10 1.2066641e-10 3.744854e-10 4.3475154e-10
0003e0 3a 05 02 30 3a 86 8e 2f 09 8b 9b 2e 51 65 d2 2e
       4.730115e-10 2.5925023e-10 7.0732815e-11 9.567692e-11
0003f0 8a a0 1a 2f 2e 22 86 2e 95 09 f7 2e d1 28 81 2f
       1.4063253e-10 6.099686e-11 1.1233962e-10 2.3493965e-10

bn1d1.weight f4 [512]
000000 00 00 80 3f 97 92 83 3f 00 00 80 3f ae bf 82 3f
       1.0 1.0279111 1.0 1.0214746
000010 00 00 80 3f 51 f0 7f 3f 00 00 80 3f 9f 20 80 3f
       1.0 0.9997607 1.0 1.0009955
000020 00 00 80 3f 78 53 80 3f 00 00 80 3f 69 77 80 3f
       1.0 1.0025473 1.0 1.0036441
000030 00 00 80 3f 44 e3 80 3f 00 00 80 3f af a4 80 3f
       1.0 1.0069356 1.0 1.0050257
000040 00 00 80 3f 8e 01 80 3f 00 00 80 3f ea ec 7f 3f
       1.0 1.0000474 1.0 0.9997088
000050 00 00 80 3f 5b d0 7d 3f 00 00 80 3f 61 de 7c 3f
       1.0 0.9914605 1.0 0.98776823
000060 00 00 80 3f 70 a0 7f 3f 00 00 80 3f 84 9f 7f 3f
       1.0 0.99854183 1.0 0.99852777
000070 00 00 80 3f e0 d8 7f 3f 00 00 80 3f 6b ed 7f 3f
       1.0 0.999403 1.0 0.99971646
000080 00 00 80 3f e2 ca 7f 3f 00 00 80 3f 85 d9 7f 3f
       1.0 0.9991895 1.0 0.99941283
000090 00 00 80 3f 3e fd 7f 3f 00 00 80 3f 5d fe 7f 3f
       1.0 0.9999579 1.0 0.999975
0000a0 00 00 80 3f d2 a0 7f 3f 00 00 80 3f 3b ff 7f 3f
       1.0 0.9985477 1.0 0.99998826
0000b0 00 00 80 3f 7b ec 7f 3f 00 00 80 3f 13 e9 7f 3f
       1.0 0.99970216 1.0 0.9996502
0000c0 00 00 80 3f 7d f0 7f 3f 00 00 80 3f 74 01 80 3f
       1.0 0.9997633 1.0 1.0000443
0000d0 00 00 80 3f 62 9a 83 3f 00 00 80 3f e2 0c 81 3f
       1.0 1.0281489 1.0 1.0082057
0000e0 00 00 80 3f d9 03 80 3f 00 00 80 3f a9 f6 7f 3f
       1.0 1.0001174 1.0 0.9998575
0000f0 00 00 80 3f f5 7f 82 3f 00 00 80 3f aa 87 81 3f
       1.0 1.0195299 1.0 1.0119526
000100 00 00 80 3f cf d4 88 3f 00 00 80 3f 6c 2a 86 3f
       1.0 1.0689944 1.0 1.0481696
000110 00 00 80 3f bc c2 80 3f 00 00 80 3f 8c 7b 80 3f
       1.0 1.0059428 1.0 1.0037704
000120 00 00 80 3f a0 eb 7c 3f 00 00 80 3f f0 41 7b 3f
       1.0 0.98797035 1.0 0.9814749
000130 00 00 80 3f bb 03 80 3f 00 00 80 3f e2 fb 7f 3f
       1.0 1.0001138 1.0 0.9999372
000140 00 00 80 3f 0d 89 7f 3f 00 00 80 3f d7 26 80 3f
       1.0 0.998185 1.0 1.0011853
000150 00 00 80 3f 16 b3 79 3f 00 00 80 3f 56 0f 79 3f
       1.0 0.9753889 1.0 0.97289026
000160 00 00 80 3f 5d 3a 8b 3f 00 00 80 3f b3 30 88 3f
       1.0 1.0877186 1.0 1.0639862
000170 00 00 80 3f 9a d2 7f 3f 00 00 80 3f 1e 16 80 3f
       1.0 0.9993073 1.0 1.000675
000180 00 00 80 3f d8 db 80 3f 00 00 80 3f e6 23 80 3f
       1.0 1.0067091 1.0 1.0010955
000190 00 00 80 3f fa e8 7f 3f 00 00 80 3f 08 df 7f 3f
       1.0 0.9996487 1.0 0.99949694
0001a0 00 00 80 3f f7 1e 80 3f 00 00 80 3f 11 0f 80 3f
       1.0 1.000945 1.0 1.0004598
0001b0 00 00 80 3f 85 12 80 3f 00 00 80 3f e8 ed 7f 3f
       1.0 1.0005652 1.0 0.9997239
0001c0 00 00 80 3f 66 f9 7f 3f 00 00 80 3f ef 0a 80 3f
       1.0 0.99989927 1.0 1.0003337
0001d0 00 00 80 3f 28 7a 81 3f 00 00 80 3f 87 e3 80 3f
       1.0 1.0115404 1.0 1.0069436
0001e0 00 00 80 3f a2 0f 82 3f 00 00 80 3f b7 b1 80 3f
       1.0 1.0161021 1.0 1.0054234
0001f0 00 00 80 3f 08 fb 7f 3f 00 00 80 3f b1 0a 80 3f
       1.0 0.9999242 1.0 1.0003263
000200 00 00 80 3f dc b8 87 3f 00 00 80 3f c1 03 88 3f
       1.0 1.060329 1.0 1.0626146
000210 00 00 80 3f fe e8 7f 3f 00 00 80 3f e2 ee 7f 3f
       1.0 0.9996489 1.0 0.9997388
000220 00 00 80 3f 7f 1e 80 3f 00 00 80 3f ba dc 7f 3f
       1.0 1.0009307 1.0 0.99946177
000230 00 00 80 3f de 03 7d 3f 00 00 80 3f c4 53 7b 3f
       1.0 0.98834026 1.0 0.9817469
000240 00 00 80 3f c9 59 83 3f 00 00 80 3f 39 98 80 3f
       1.0 1.0261775 1.0 1.0046455
000250 00 00 80 3f f0 f7 7f 3f 00 00 80 3f b7 e4 7f 3f
       1.0 0.999877 1.0 0.99958366
000260 00 00 80 3f cf 01 80 3f 00 00 80 3f 6e 03 80 3f
       1.0 1.0000552 1.0 1.0001047
000270 00 00 80 3f 57 ed 80 3f 00 00 80 3f 71 ab 80 3f
       1.0 1.007243 1.0 1.005232
000280 00 00 80 3f b1 02 80 3f 00 00 80 3f ba 50 80 3f
       1.0 1.0000821 1.0 1.0024636
000290 00 00 80 3f d0 05 80 3f 00 00 80 3f 7c e8 7f 3f
       1.0 1.0001774 1.0 0.9996412
0002a0 00 00 80 3f 77 1f 80 3f 00 00 80 3f 9f 15 80 3f
       1.0 1.0009602 1.0 1.0006598
0002b0 00 00 80 3f 19 25 92 3f 00 00 80 3f b3 0d 93 3f
       1.0 1.1417571 1.0 1.1488556
0002c0 00 00 80 3f d4 20 80 3f 00 00 80 3f 3c 19 80 3f
       1.0 1.0010018 1.0 1.0007701
0002d0 00 00 80 3f a0 db 7f 3f 00 00 80 3f 5d 04 80 3f
       1.0 0.99944496 1.0 1.0001332
0002e0 00 00 80 3f 37 0e 83 3f 00 00 80 3f 0f b9 80 3f
       1.0 1.0238713 1.0 1.0056475
0002f0 00 00 80 3f c0 3c 80 3f 00 00 80 3f d6 3c 80 3f
       1.0 1.001854 1.0 1.0018566
000300 00 00 80 3f 52 fb 7f 3f 00 00 80 3f 4f 00 80 3f
       1.0 0.9999286 1.0 1.0000094
000310 00 00 80 3f e2 fe 84 3f 00 00 80 3f fb 86 82 3f
       1.0 1.0390284 1.0 1.0197443
000320 00 00 80 3f 39 e3 7f 3f 00 00 80 3f e8 e0 7f 3f
       1.0 0.9995609 1.0 0.99952555
000330 00 00 80 3f 5e f7 7f 3f 00 00 80 3f 69 04 80 3f
       1.0 0.9998683 1.0 1.0001346
000340 00 00 80 3f 2a cb 77 3f 00 00 80 3f 33 2e 78 3f
       1.0 0.9679438 1.0 0.96945494
000350 00 00 80 3f 36 7a 7f 3f 00 00 80 3f fa e5 7e 3f
       1.0 0.99795854 1.0 0.99569666
000360 00 00 80 3f 08 0c 80 3f 00 00 80 3f d4 1e 80 3f
       1.0 1.0003672 1.0 1.0009408
000370 00 00 80 3f 81 10 82 3f 00 00 80 3f 5f 36 84 3f
       1.0 1.0161287 1.0 1.0329093
000380 00 00 80 3f ee 3e 7e 3f 00 00 80 3f 31 9b 80 3f
       1.0 0.99314773 1.0 1.0047361
000390 00 00 80 3f 20 fd 7f 3f 00 00 80 3f b6 e7 7f 3f
       1.0 0.99995613 1.0 0.9996294
0003a0 00 00 80 3f b1 e7 84 3f 00 00 80 3f 44 4d 86 3f
       1.0 1.0383207 1.0 1.049233
0003b0 00 00 80 3f 1d de 81 3f 00 00 80 3f 26 17 82 3f
       1.0 1.0145909 1.0 1.0163314
0003c0 00 00 80 3f 4c d4 79 3f 00 00 80 3f d5 1d 7e 3f
       1.0 0.97589564 1.0 0.9926427
0003d0 00 00 80 3f 6e 14 80 3f 00 00 80 3f 73 c8 7f 3f
       1.0 1.0006235 1.0 0.99915236
0003e0 00 00 80 3f ed 20 7e 3f 00 00 80 3f cb 80 7e 3f
       1.0 0.9926899 1.0 0.9941527
0003f0 00 00 80 3f 56 55 82 3f 00 00 80 3f a4 6d 82 3f
       1.0 1.0182292 1.0 1.018971

bn1d1.bias f4 [512]
000000 56 54 b8 3b e1 e8 11 bc d3 52 f2 ba 43 f9 b3 bb
       0.005625288 -0.00890562 -0.0018487818 -0.005492361
000010 de cb 69 3b ec 4d 9f 3b 95 b0 a7 3b fb 42 5d 3c
       0.0035674493 0.004861584 0.0051174858 0.013504739
000020 1a b7 3e bc 30 38 df 3b 19 b7 d3 3a f0 06 c1 3b
       -0.0116403345 0.006812118 0.001615259 0.0058907196
000030 eb b4 35 3b 5e 31 cb bc aa 94 5f 3c 07 f4 3c bc
       0.0027726244 -0.024803814 0.013646284 -0.01153279
000040 65 a5 f3 b9 0a 4b b8 bb 3a 1b cf 3b 01 b6 96 3b
       -0.000464718 -0.0056241797 0.0063203843 0.0045993333
000050 fd 12 a7 ba 25 1b 5c bd 45 40 35 bb 29 27 38 bd
       -0.0012746748 -0.053736825 -0.0027656716 -0.04495922
000060 42 2f a1 3c 17 34 c2 bc 48 89 eb bc f5 5a b3 3c
       0.019675855 -0.023706479 -0.028751984 0.021893958
000070 d2 ed d0 b6 3f 77 93 3c 02 81 4b bb 45 28 4d 3c
       -6.226569e-06 0.018001197 -0.0031052236 0.012521808
000080 0b 61 07 bc bd e3 cf 3c 7e 6f cb 3b c1 95 04 3d
       -0.008262883 0.025377149 0.0062083593 0.03236938
000090 d5 70 e1 3a 86 ec 47 bb 4f a2 60 bc 8d b9 85 3b
       0.0017199764 -0.003050597 -0.013710572 0.0040809573
0000a0 88 37 97 3b e8 52 8f bc 36 cb 9e 3c 9c 15 71 bc
       0.004614774 -0.017495587 0.019384008 -0.014714625
0000b0 99 28 ac bb 8c 66 b5 bb c0 89 96 bb db ec 3e 3c
       -0.005253863 -0.005535906 -0.004594058 0.01165315
0000c0 3a 49 44 bb 36 e1 33 bc 8e a5 99 3c dc f0 f9 3a
       -0.0029950873 -0.010978987 0.0187557 0.0019068974
0000d0 b8 23 fe 3b 11 12 cc 3b 92 05 44 bb 7b 59 d6 ba
       0.007755723 0.0062277396 -0.0029910547 -0.0016353572
0000e0 8c 47 ce 3c 09 9c b9 3b 66 15 a3 3b b7 d8 2a bc
       0.0251806 0.005664353 0.004976916 -0.010427645
0000f0 3c b2 3d bc af b5 4c bd 51 0d d3 3b d7 69 9b bd
       -0.011578139 -0.049977954 0.0064407964 -0.07588547
000100 d2 42 13 3c b7 07 b2 3b 98 99 0f 3c 6e 47 b1 b9
       0.008988099 0.0054330486 0.008764647 -0.0003381329
000110 dd be 12 bb 7a 4e 57 3c 4c 80 51 bb 74 e5 04 3c
       -0.0022391595 0.013141269 -0.003196734 0.0081113465
000120 32 04 89 3c 82 af 05 bd a2 c6 8a bc b4 cb aa bb
       0.016725633 -0.03263808 -0.016940419 -0.0052122716
000130 c1 3d 83 ba 72 33 bf ba 4c e0 aa b9 6d 46 3a bb
       -0.0010012911 -0.0014587475 -0.0003259204 -0.0028423325
000140 7d ba ca 3a 92 0a c0 bc 51 5d 04 bc 05 d4 81 3c
       0.0015466955 -0.02344254 -0.008078889 0.01584817
000150 52 c2 1d 3b fd 80 97 bd 75 e0 25 3a c4 a1 5a bd
       0.0024072123 -0.073976494 0.0006327697 -0.053376928
000160 cf 48 98 b9 64 ae 43 bd 63 bf 79 b9 23 fa 1e bd
       -0.00029045946 -0.047773734 -0.00023817788 -0.038812768
000170 cf f6 50 3b a8 14 80 bc d3 09 49 bc 8f 15 7d 3c
       0.003188539 -0.01563485 -0.012270409 0.0154470345
000180 0c 73 50 3a 4c 37 08 bd a3 a0 1e bc 3e 18 96 bc
       0.00079517136 -0.03325586 -0.0096818535 -0.018322106
000190 f0 9d 02 3c ef a9 6e bc 11 ef c8 bb ef ed 3a bc
       0.007972226 -0.0145668825 -0.0061320146 -0.011409267
0001a0 7b 9f 02 3c 06 fd e2 bb eb e0 89 3a d2 41 9f 3b
       0.007972593 -0.0069271354 0.0010519301 0.0048601413
0001b0 58 83 3f bc 81 65 0e bc 8b b0 4a 3c ab b6 45 3c
       -0.01168903 -0.008691193 0.012371193 0.012067477
0001c0 97 14 0c bc 85 2d b8 3b 2d 7e 3f bc 4c 78 6f 3b
       -0.008549831 0.0056206607 -0.0116877975 0.0036540208
0001d0 38 65 3e 3c 93 7e 14 bd ce 25 80 3c 2d 24 87 bc
       0.011620812 -0.036253523 0.015643027 -0.016496742
0001e0 77 8f 45 bc 5a f9 f2 bc f9 f1 88 3b 06 07 b3 bc
       -0.01205813 -0.029659916 0.004179236 -0.021853935
0001f0 8f bf ff 3c e6 e8 09 3c f7 ea 85 3c e5 e8 f8 bb
       0.031219272 0.008417344 0.016347392 -0.0075961226
000200 5e a8 64 3c fc 4a 91 bc 38 4a 3b 3a 42 b4 37 bc
       0.0139561575 -0.01773595 0.00071445433 -0.01121241
000210 f8 64 92 bb ac 00 39 bc 63 07 75 3c 20 d2 b2 ba
       -0.004467603 -0.011291664 0.014955374 -0.0013642944
000220 d8 43 61 3c a4 be b8 bb eb ea b0 3b 95 f9 0e bc
       0.013749085 -0.0056379605 0.005399098 -0.008726497
000230 48 f8 44 3c 74 cd 5d 3d e6 4c 22 3b 5a ac 6b 3d
       0.0120220855 0.054151013 0.0024765073 0.057537414
000240 9b 8f a5 3c f7 f1 95 bd 60 c2 1e 3a 8b b5 9f bd
       0.020210078 -0.07321542 0.0006056186 -0.077982984
000250 2e 51 8e bb 46 c9 39 bc e4 42 0d 3b fa 95 16 bb
       -0.0043431735 -0.011339491 0.0021554762 -0.0022977577
000260 cb e5 48 bc e8 5c 04 3c c9 16 8b bc c2 ca 48 bc
       -0.012261818 0.008078791 -0.016978638 -0.0122553725
000270 c7 d2 b6 bb b4 03 f5 3b 6a 76 94 3c 0e fb ac bb
       -0.005579326 0.007477248 0.01812287 -0.0052789515
000280 0b c6 54 3c c5 73 e0 bc 8a 06 0b bc 53 50 5b bc
       0.01298667 -0.027398953 -0.008485446 -0.01338585
000290 d4 4a 8c ba 72 36 99 3b f6 60 46 bc af 0f 3a 3c
       -0.0010703453 0.00467568 -0.012108078 0.011356278
0002a0 0e d0 ff ba 82 49 e2 3b cd b8 ab bb 04 bb 88 bc
       -0.0019516961 0.0069057355 -0.005240536 -0.016690738
0002b0 4d c7 82 bc 58 19 25 bd 8d f3 2f bc 45 19 c2 bc
       -0.015964175 -0.040307373 -0.010739219 -0.02369369
0002c0 41 6a 14 bc 53 77 b8 bb 74 61 98 bc ac 6d b5 bc
       -0.009058536 -0.005629459 -0.018601157 -0.022147022
0002d0 05 b0 cc bb 5f b6 38 bc fb 51 f8 3b 50 63 75 38
       -0.006246569 -0.011273949 0.007578132 5.8505044e-05
0002e0 02 21 1d 3a a8 9a 95 bd c2 c2 df ba 1a 24 33 bd
       0.0005993993 -0.07304889 -0.0017071592 -0.0437356
0002f0 19 3f 5b 3b a8 11 0a bc 59 cf d1 3b 32 c6 69 bc
       0.0033454357 -0.008427061 0.0064028916 -0.014268445
000300 57 0c 25 bc e1 3d 59 3a 28 bf 44 3b 95 67 cd 3b
       -0.010073743 0.0008287114 0.0030021165 0.0062684515
000310 6c 68 f7 bc 1d be 85 3d 0e 52 53 3c 57 e6 3a 3d
       -0.03020116 0.06530402 0.012897981 0.045629825
000320 f5 11 a3 3b d4 79 b5 3b 2c 7e c5 bb 8f 2d 0d 3a
       0.004976506 0.0055382047 -0.0060270038 0.0005385512
000330 f6 65 17 3c e7 60 10 bc bb 88 0e bc 1b b7 99 bb
       0.009240618 -0.008812166 -0.008699591 -0.0046910173
000340 34 28 5c 3b d2 f7 40 bd 33 14 98 3c db c3 0f bd
       0.00335933 -0.04711134 0.01856432 -0.03509889
000350 2f e6 4a 3a 43 45 df bc 80 fc 14 3c 4f 9d bf bc
       0.00077399885 -0.027254706 0.009093404 -0.02339044
000360 e5 5f 8e bb e8 41 54 bc b6 ce 2a 3b fd 92 f8 bb
       -0.0043449276 -0.012955166 0.002606315 -0.0075858817
000370 96 ae 2d 3c b8 a2 0f bd ef 60 58 3c 61 0b 17 bd
       0.010600707 -0.03506729 0.0132067045 -0.036876086
000380 ce 33 9c bb d8 87 1f bd b1 48 be bb a2 ca c5 bc
       -0.004766918 -0.03894791 -0.0058070053 -0.024144474
000390 04 5b ff bb b5 28 e7 ba 14 60 62 3c 9a da 1a bc
       -0.0077928323 -0.0017636033 0.013816852 -0.009451533
0003a0 d6 f0 60 bb 38 ad ee 3c d6 8f 78 3b 1c c3 0d 3d
       -0.0034323237 0.029135332 0.003792753 0.0346099
0003b0 f9 22 bb 3b 32 a5 9c bd 69 05 39 3b 8d 6c 3e bd
       0.005710956 -0.07648696 0.0028231984 -0.04649024
0003c0 9f c5 46 3c 1b 22 bc bd 9c cd 3d 3b f1 de b6 bd
       0.0121320775 -0.091861926 0.0028961664 -0.089292414
0003d0 69 f5 63 3c 6a 55 e6 3b cc 01 cb bb f4 01 22 bb
       0.013913491 0.007029225 -0.0061952826 -0.0024720402
0003e0 74 90 3f bb 2f 2d 92 bd a6 af db bb 00 88 9f bd
       -0.0029230388 -0.07137524 -0.0067042885 -0.07789612
0003f0 13 97 38 3b 4d ca 88 3b a3 b6 38 3c a6 a9 00 bc
       0.002816622 0.0041745068 0.011274013 -0.007852947

bn1d1.running_mean f4 [512]
000000 00 00 00 00 00 47 04 3e 00 00 00 00 01 36 12 3e
       0.0 0.1291771 0.0 0.14278413
000010 00 00 00 00 ef bd 92 3d 00 00 00 00 8d c9 a3 3d
       0.0 0.07165133 0.0 0.07997427
000020 00 00 00 00 01 3b 55 3d 00 00 00 00 89 91 6d 3d
       0.0 0.052058224 0.0 0.05800012
000030 04 00 00 00 6e 11 84 3d 04 00 00 00 64 38 92 3d
       6e-45 0.06448637 6e-45 0.07139662
000040 04 00 00 00 fb 8a 8c 3c 04 00 00 00 f1 06 9d 3c
       6e-45 0.017156115 6e-45 0.019168349
000050 00 00 00 00 c9 06 00 3f 00 00 00 00 a3 5a 0a 3f
       0.0 0.50010353 0.0 0.5404455
000060 00 00 00 00 d5 95 90 3e 00 00 00 00 94 fa 9f 3e
       0.0 0.28239313 0.0 0.31245863
000070 04 00 00 00 5d 66 6b 3c 04 00 00 00 bc 86 83 3c
       6e-45 0.014367667 6e-45 0.016055457
000080 04 00 00 00 84 2f 56 3e 04 00 00 00 2f f0 69 3e
       6e-45 0.20916563 6e-45 0.22845529
000090 04 00 00 00 a4 83 ae 3c 04 00 00 00 c4 e6 c2 3c
       6e-45 0.021303006 6e-45 0.023791678
0000a0 00 00 00 00 89 f5 a5 3d 00 00 00 00 97 51 b8 3d
       0.0 0.08103473 0.0 0.08999937
0000b0 04 00 00 00 75 e3 a7 3c 04 00 00 00 2e 77 bb 3c
       6e-45 0.020494202 6e-45 0.022883978
0000c0 04 00 00 00 f7 55 0e 3c 04 00 00 00 33 0d 1f 3c
       6e-45 0.008687488 6e-45 0.009707737
0000d0 00 00 00 00 8c 74 20 3f 00 00 00 00 ad b2 2a 3f
       0.0 0.62677836 0.0 0.6667889
0000e0 04 00 00 00 74 84 49 3c 04 00 00 00 94 13 61 3c
       6e-45 0.012299646 6e-45 0.013737578
0000f0 04 00 00 00 f5 ef 94 3e 04 00 00 00 d3 4b a3 3e
       6e-45 0.29089323 6e-45 0.31893787
000100 04 00 00 00 05 ac f5 3d 00 00 00 00 6f a6 06 3e
       6e-45 0.11995701 0.0 0.13149427
000110 04 00 00 00 55 4d 63 3d 04 00 00 00 4a cf 7c 3d
       6e-45 0.05549367 6e-45 0.061721124
000120 04 00 00 00 08 5d 63 3e 04 00 00 00 ed 87 7b 3e
       6e-45 0.22203457 6e-45 0.2456357
000130 04 00 00 00 bf b7 0c 3d 04 00 00 00 b1 12 1d 3d
       6e-45 0.03435492 6e-45 0.038347904
000140 00 00 00 00 d0 00 e2 3c 00 00 00 00 b7 42 fc 3c
       0.0 0.027588278 0.0 0.03079353
000150 00 00 00 00 42 37 2c 3e 00 00 00 00 e5 e9 3d 3e
       0.0 0.16817954 0.0 0.18546255
000160 04 00 00 00 56 29 1b 3f 04 00 00 00 e3 b1 23 3f
       6e-45 0.6060995 6e-45 0.6394331
000170 00 00 00 00 56 12 b4 3c 00 00 00 00 18 1c c9 3c
       0.0 0.0219814 0.0 0.024549529
000180 00 00 00 00 8b 06 26 3e 00 00 00 00 86 39 37 3e
       0.0 0.16213433 0.0 0.17893037
000190 04 00 00 00 a4 e2 6c 3c 04 00 00 00 bb 4f 84 3c
       6e-45 0.014458332 6e-45 0.0161513
0001a0 00 00 00 00 4e a0 88 3d 00 00 00 00 a9 6b 98 3d
       0.0 0.06671201 0.0 0.074424095
0001b0 00 00 00 00 a0 e5 45 3d 00 00 00 00 4b f6 5c 3d
       0.0 0.04831469 0.0 0.05394582
0001c0 04 00 00 00 44 ad f1 3c 04 00 00 00 37 ef 06 3d
       6e-45 0.029501565 6e-45 0.032942977
0001d0 04 00 00 00 f8 38 fc 3d 00 00 00 00 a9 ed 0b 3e
       6e-45 0.123155534 0.0 0.13664879
0001e0 04 00 00 00 6e ba 2b 3e 04 00 00 00 a1 4d 3c 3e
       6e-45 0.16770336 6e-45 0.18388988
0001f0 04 00 00 00 b5 a4 9d 3c 04 00 00 00 a8 ea af 3c
       6e-45 0.019243577 6e-45 0.021474198
000200 04 00 00 00 d4 72 ab 3c 04 00 00 00 84 cc be 3c
       6e-45 0.020928778 6e-45 0.02329088
000210 00 00 00 00 05 63 13 3d 00 00 00 00 81 b3 24 3d
       0.0 0.035983104 0.0 0.04021025
000220 00 00 00 00 d8 0c 79 3d 00 00 00 00 13 cb 8a 3d
       0.0 0.060803264 0.0 0.067770146
000230 00 00 00 00 e2 41 0e 3f 00 00 00 00 70 e6 17 3f
       0.0 0.5556928 0.0 0.59335995
000240 04 00 00 00 07 18 79 3e 00 00 00 00 f7 5a 87 3e
       6e-45 0.24325572 0.0 0.26436588
000250 04 00 00 00 b9 af d2 3c 04 00 00 00 eb 2f eb 3c
       6e-45 0.025718557 6e-45 0.028709373
000260 00 00 00 00 57 7c 62 3d 00 00 00 00 5e eb 7c 3d
       0.0 0.05529436 0.0 0.0617479
000270 04 00 00 00 8f c9 99 3d 00 00 00 00 37 3b ab 3d
       6e-45 0.075091474 0.0 0.08360904
000280 04 00 00 00 d6 71 b0 3d 04 00 00 00 c4 2d c4 3d
       6e-45 0.086154625 6e-45 0.095790416
000290 04 00 00 00 7c 50 be 3c 04 00 00 00 3d 88 d4 3c
       6e-45 0.023231737 6e-45 0.02594387
0002a0 00 00 00 00 b2 0b c3 3d 00 00 00 00 de 6a d9 3d
       0.0 0.09523715 0.0 0.106160864
0002b0 04 00 00 00 f7 f7 0f 3e 04 00 00 00 ff b3 1e 3e
       6e-45 0.14059435 6e-45 0.1549835
0002c0 04 00 00 00 8d e5 fb 3c 04 00 00 00 82 76 0c 3d
       6e-45 0.030749107 6e-45 0.034292705
0002d0 00 00 00 00 64 b9 2e 3d 00 00 00 00 e7 2f 43 3d
       0.0 0.04265727 0.0 0.047653105
0002e0 04 00 00 00 a8 fc 19 3e 00 00 00 00 f9 d5 29 3e
       6e-45 0.15037787 0.0 0.1658553
0002f0 00 00 00 00 1f 20 e4 3d 04 00 00 00 c7 c9 fb 3d
       0.0 0.11138939 6e-45 0.12294345
000300 04 00 00 00 95 5b 3b 3c 04 00 00 00 08 4d 51 3c
       6e-45 0.011435409 6e-45 0.012774713
000310 04 00 00 00 fe 3b 17 3e 04 00 00 00 d2 2a 26 3e
       6e-45 0.14768979 6e-45 0.16227272
000320 00 00 00 00 6c b4 e8 3c 00 00 00 00 1b ff 01 3d
       0.0 0.028406344 0.0 0.03173743
000330 04 00 00 00 52 ff 5a 3c 04 00 00 00 84 74 74 3c
       6e-45 0.013366537 6e-45 0.014920358
000340 00 00 00 00 32 64 76 3e 00 00 00 00 1c 03 87 3e
       0.0 0.24061659 0.0 0.2636956
000350 04 00 00 00 5e 20 0e 3e 00 00 00 00 69 10 1d 3e
       6e-45 0.13879535 0.0 0.15338291
000360 00 00 00 00 65 b9 d2 3c 00 00 00 00 e9 ff ea 3c
       0.0 0.025723169 0.0 0.02868648
000370 04 00 00 00 87 00 36 3e 00 00 00 00 8c 0a 48 3e
       6e-45 0.17773639 0.0 0.19535273
000380 00 00 00 00 02 f4 18 3e 00 00 00 00 fd 9a 28 3e
       0.0 0.14936832 0.0 0.16465373
000390 04 00 00 00 ae 10 23 3c 04 00 00 00 21 1e 36 3c
       6e-45 0.009952707 6e-45 0.011115582
0003a0 04 00 00 00 8a 41 79 3e 04 00 00 00 9a 8e 87 3e
       6e-45 0.24341407 6e-45 0.26475984
0003b0 04 00 00 00 25 81 32 3e 04 00 00 00 73 3d 43 3e
       6e-45 0.17432077 6e-45 0.1906641
0003c0 00 00 00 00 11 4e d8 3e 00 00 00 00 48 13 ea 3e
       0.0 0.4224706 0.0 0.45717835
0003d0 00 00 00 00 82 38 0f 3d 00 00 00 00 be f7 1f 3d
       0.0 0.034966 0.0 0.039054625
0003e0 00 00 00 00 97 ea 74 3e 00 00 00 00 79 c6 85 3e
       0.0 0.23917614 0.0 0.26127985
0003f0 04 00 00 00 75 f8 13 3e 00 00 00 00 77 0c 24 3e
       6e-45 0.14450248 0.0 0.1602038
