images/models/other_models/Attention/best_models12.pth.tar (torch, 471237 bytes, 18 tensors)

bn1d0.weight f4 [739]
0.6526328 0.9539902 0.8054645 0.91085875 1.0353645 1.0968473 0.9819283 1.0346352
1.1352115 0.9972003 1.0192829 0.8693919 1.2104007 0.9673386 0.9587395 0.9964448
1.0142089 1.008193 0.9640178 0.9230449 1.0625404 0.9528285 0.97744435 0.95938236
0.9814589 1.0807371 1.1866835 0.9672581 0.97830325 1.222664 1.0701152 1.074249
1.0347764 1.0794026 0.9960018 0.9919445 1.1551682 1.0764159 1.0301094 1.0779794
1.0343876 1.1317146 0.9918792 0.99369806 0.995206 1.1636442 1.1387452 0.9761288
0.99913114 0.998053 1.054676 1.0088379 0.9879681 0.9930015 0.9956862 1.0607063
1.2291286 0.9913915 1.0023599 1.0806823 1.281839 1.1332699 1.0813278 0.98923117
0.98878014 1.0915756 0.97275543 1.0172129 1.0477358 1.0607156 0.98624575 1.0255756
1.0011575 1.0393147 0.9901213 1.0097147 0.9880246 1.0068921 1.0088747 1.0152494
0.9898642 0.99290586 0.9972691 1.0166436 0.99277914 0.98967224 1.033367 1.0130157
1.1048373 1.0061598 1.0501381 1.0234387 1.0179484 1.0480125 1.1312648 1.0132194
0.98786646 1.0040871 1.0081023 0.98986 1.0441574 1.0204505 0.99747497 1.0022752
1.0077752 1.0449351 1.2531961 0.9976947 0.9945584 0.99054927 1.0179499 1.0416598
0.97770077 1.1076894 0.9945299 1.0983381 0.9736883 0.9817608 1.0163028 1.0203618
1.0646244 1.0017446 0.9878646 0.97010565 1.018061 1.1650375 0.95900875 0.90037274
0.8940876 0.89696383 0.87965876 0.8735337 0.87600684 0.8664018 0.9140205 0.98122466
1.0394167 0.9899908 0.99499667 1.0869268 1.0432479 1.034107 1.1326371 0.98477405
1.0194969 0.99397594 1.0098586 1.0174805 0.99695224 1.0081941 1.0028204 1.0435311
1.0230724 0.99293524 1.0085722 1.0065547 0.98560566 1.0378048 1.0296024 1.0287387
1.0073365 0.9970414 1.2636929 0.9961477 1.0086347 1.0346695 1.0071217 0.9921368
1.0003662 1.0681107 0.99054354 1.011106 0.9968408 1.0048896 1.1073918 1.0057249
1.0369049 1.1451305 0.99917907 1.0056922 1.0473468 1.2304473 1.019143 0.9975132
1.0197539 1.0798725 1.062242 1.3245157 1.3191131 1.06543 1.0253221 1.0375968
0.9746499 1.0741366 1.0883347 1.2698873 0.9821328 1.0481188 1.0215774 1.0197749
0.9855999 0.9786382 1.0583698 0.9743886 1.0014082 0.95688003 1.014865 1.0446444
0.97363544 0.98385006 1.0519059 0.9955693 1.1263869 1.0225089 0.8452431 0.8820693
0.7738597 0.65960675 0.49889907 0.84924513 0.8987258 0.9647416 0.67971796 0.7209385
0.63329065 0.58137673 0.5922908 0.99987346 0.9999249 1.0001198 1.0004525 1.0000118
0.9998366 0.9999895 1.0000803 1.0010396 0.9999944 1.0002673 0.9996268 0.99997544
1.0001609 1.0002334 1.0000665 1.0002943 1.0001574 0.99985933 1.001779 1.000676
0.99983627 1.0003748 1.000167 1.0001448 0.99967337 0.99979013 0.9996454 1.0001843
00000000: f112 273f b438 743f ec32 4e3f 0a2e 693f
00000010: d386 843f 7e65 8c3f a75f 7b3f ed6e 843f
00000020: 9c4e 913f 8548 7f3f dd77 823f 7890 5e3f
00000030: 69ee 9a3f 81a3 773f f46f 753f 0217 7f3f
00000040: 99d1 813f 780c 813f dfc9 763f ac4c 6c3f
00000050: 5301 883f 92ec 733f cb39 7a3f 159a 753f
00000060: e440 7b3f 9855 8a3f 3fe5 973f 3a9e 773f
00000070: 1572 7a3f 4180 9c3f 89f9 883f fe80 893f
00000080: 8e73 843f dd29 8a3f f9f9 7e3f 13f0 7d3f
00000090: 8ddc 933f ffc7 893f a0da 833f 3bfb 893f
000000a0: d066 843f 06dc 903f cceb 7d3f ff62 7e3f
000000b0: d2c5 7e3f 4bf2 943f 67c2 913f 94e3 793f
000000c0: 0fc7 7f3f 6780 7f3f a0ff 863f 9a21 813f
000000d0: 7aeb 7c3f 5935 7e3f 4ae5 7e3f 39c5 873f
000000e0: 1654 9d3f d5cb 7d3f 544d 803f cc53 8a3f
000000f0: 4d13 a43f fd0e 913f f368 8a3f 413e 7d3f
00000100: b220 7d3f c0b8 8b3f 8006 793f 0834 823f
00000110: 351c 863f 87c5 873f 9a7a 7c3f 1046 833f
00000120: ee25 803f 4408 853f 9778 7d3f 553e 813f
00000130: 2eef 7c3f d7e1 803f ce22 813f b1f3 813f
00000140: bd67 7d3f 142f 7e3f 074d 7f3f 6121 823f
00000150: c626 7e3f 295b 7d3f 5f45 843f 80aa 813f
00000160: 4f6b 8d3f d8c9 803f ed6a 863f 0a00 833f
00000170: 224c 823f 4625 863f 49cd 903f 2cb1 813f
00000180: d1e4 7c3f ed85 803f 7f09 813f 7767 7d3f
00000190: f3a6 853f 1f9e 823f 855a 7f3f 8e4a 803f
000001a0: c7fe 803f 6fc0 853f bb68 a03f eb68 7f3f
000001b0: 619b 7e3f a394 7d3f 2f4c 823f 1c55 853f
000001c0: 994a 7a3f c4c8 8d3f 8399 7e3f 5896 8c3f
000001d0: a343 793f ad54 7b3f 3616 823f 379b 823f
000001e0: 9d45 883f 2b39 803f b2e4 7c3f d858 783f
000001f0: d34f 823f f31f 953f 9981 753f d47e 663f
00000200: ede2 643f 6c9f 653f 5131 613f e89f 5f3f
00000210: fc41 603f 82cc 5d3f 3ffd 693f 8a31 7b3f
00000220: 9b0b 853f 0970 7d3f 1ab8 7e3f 6b20 8b3f
00000230: 2689 853f 9e5d 843f 41fa 903f 271a 7c3f
00000240: e07e 823f 3575 7e3f 0c43 813f cd3c 823f
00000250: 4338 7f3f 810c 813f 6b5c 803f 6d92 853f
00000260: 09f4 823f 0131 7e3f e518 813f c9d6 803f
00000270: a750 7c3f cad6 843f 03ca 833f b6ad 833f
00000280: 67f0 803f 1b3e 7f3f b0c0 a13f 8903 7f3f
00000290: f11a 813f 0d70 843f 5de9 803f adfc 7d3f
000002a0: 000c 803f dab7 883f 4394 7d3f ec6b 813f
000002b0: f530 7f3f 39a0 803f 04bf 8d3f 98bb 803f
000002c0: 4db9 843f a393 923f 33ca 7f3f 86ba 803f
000002d0: 760f 863f 4c7f 9d3f 4773 823f 065d 7f3f
000002e0: 4c87 823f 4339 8a3f 8cf7 873f bb89 a93f
000002f0: b3d8 a83f 0360 883f c13d 833f f9cf 843f
00000300: a882 793f 4f7d 893f 8d4e 8b3f ab8b a23f
00000310: 0e6d 7b3f c228 863f 0cc3 823f fc87 823f
00000320: 4650 7c3f 0888 7a3f a978 873f 8871 793f
00000330: 252e 803f 17f6 743f 19e7 813f e8b6 853f
00000340: 2c40 793f 99dd 7b3f daa4 863f a1dd 7e3f
00000350: 722d 903f 92e1 823f da61 583f 4bcf 613f
00000360: ab1b 463f fddb 283f b36f ff3e 2168 593f
00000370: e512 663f 4ef9 763f ff01 2e3f 6d8f 383f
00000380: 561f 223f 1bd5 143f 5fa0 173f b5f7 7f3f
00000390: 14fb 7f3f ed03 803f d40e 803f 6300 803f
000003a0: 4bf5 7f3f 50ff 7f3f a202 803f 1122 803f
000003b0: a2ff 7f3f c208 803f 8be7 7f3f 64fe 7f3f
000003c0: 4605 803f a607 803f 2e02 803f a509 803f
000003d0: 2805 803f c8f6 7f3f 4b3a 803f 2716 803f
000003e0: 45f5 7f3f 480c 803f 7905 803f bf04 803f
000003f0: 98ea 7f3f 3ff2 7f3f c3e8 7f3f 0a06 803f

bn1d0.bias f4 [739]
0.111795776 -0.09449357 -0.06643199 0.19360596 -0.06357558 0.018970547 -0.025943808 -0.070052534
0.013471697 -0.007851733 -0.034813967 0.0075360015 0.03966154 -0.0619872 -0.0012123904 -0.042343784
-0.03358176 -0.03187787 -0.04649767 0.05249362 -0.009503898 0.018278096 0.0038923414 0.038632724
0.0034334674 0.014485885 0.03676489 0.04188773 0.0554971 -0.008059676 0.044027966 0.041981753
-0.020226447 -0.017138397 0.0043750014 0.05926606 0.08965659 -0.06302139 0.029199777 -0.00870827
0.025545036 -0.02718531 0.010468017 0.03663681 -0.027373938 -0.059671696 0.051183544 -0.021750323
-0.03163242 -0.0060443953 0.01021087 -0.06559803 0.020066025 0.029949697 -0.04328147 -0.012543727
-0.029584764 -0.015300277 -0.011053696 -0.08209384 -0.094335616 -0.02343945 -0.060494795 -0.055156842
-0.022114879 -0.01523967 -0.038643803 -0.009769948 0.0040756757 -0.0034066169 -0.038435187 0.030103782
-0.02449107 0.026544694 -0.009558891 0.052786943 -0.03510482 0.03588446 -0.0110952165 -0.03695519
0.07255219 -0.0017501827 0.032107648 0.025889607 -0.011613762 -0.010746934 0.07724112 -0.02867148
0.031128896 0.0027760942 0.020072334 0.016528055 0.035195872 -0.02061732 -0.026096646 0.053374715
-0.0021615135 0.020051127 0.02415303 0.00054624135 0.0029972664 0.053965945 -0.047852337 -0.007620713
-0.04463495 -0.0014665439 -0.041186806 8.807734e-05 0.011356912 -0.0018887762 -0.01993324 -0.038096648
-0.025303405 -0.041671816 -0.03376221 0.0019859439 -0.03142749 -0.032453936 -0.030536165 -0.02204439
0.02072156 0.012005624 0.005275958 -0.03561268 0.00853075 -0.039743256 -0.014210188 -0.036373712
-0.021723298 -0.043054637 -0.05907437 0.00018940121 -0.028279852 -0.038007997 -0.035139937 -0.059008446
-0.037470702 0.0044942186 -0.0042680847 -0.0003403313 -0.02527757 -0.02237697 0.00049234193 -0.010478917
-0.04079924 -0.020622963 0.005778661 -0.0023894983 -0.030999847 0.029820368 0.03509781 -0.0063497047
-0.011719131 -0.030649545 0.047817152 0.003706559 -0.011913943 0.0016255322 0.029876653 0.0041551697
0.02107117 0.046327956 -0.0036904954 0.0022325933 0.03888589 0.040191755 0.0034263725 0.018920552
-0.016723687 -0.018588345 0.017845286 0.014576005 0.01652844 -0.012602372 0.053726304 -0.013317959
0.008138126 -0.05987062 0.019876393 -0.005242359 -0.02141496 0.00096198835 -0.0018306798 0.0071360893
-0.041652057 0.02004846 -0.009591909 -0.019850211 0.064713456 -0.044638988 0.022786941 -0.018666748
-0.0072719348 0.01657192 -0.0057273577 -0.043685805 -0.03980933 0.016327132 0.019976158 -0.006971943
0.026065437 -0.043629505 0.019193303 0.026149223 0.005856652 0.05768517 -0.013881413 0.03330417
-0.04087865 0.0054412466 0.0012845558 -0.055181824 0.05426898 -0.0824502 0.022547476 0.031283997
-0.045141984 0.023299402 -0.04713314 0.0674977 -0.04970738 -0.13931507 -0.03118982 0.116273865
-0.1370698 -0.07316202 -0.0035305095 -0.006494331 -0.0062946044 -6.494342e-05 0.009688286 -0.0033997863
-0.029833512 0.010884832 -0.004258047 0.012023647 0.0428012 -0.013781778 0.0030770367 -0.0137156155
0.0072043994 -0.008234354 0.0102258455 0.026527863 0.0072974083 -0.00022926026 -0.014676182 -0.0037533597
-0.031962182 -0.0222283 -0.0032518797 0.018714502 -0.013988941 0.010362404 0.003840317 0.015433373
00000000: 2ff5 e43d d885 c1bd 7f0d 88bd a440 463e
00000010: ea33 82bd 1f68 9b3c 1c88 d4bc b477 8fbd
00000020: 65b8 5c3c 8ea4 00bc 1799 0ebd 90f0 f63b
00000030: 2474 223d 4ae6 7dbd 12e9 9eba ad70 2dbd
00000040: 078d 09bd 5f92 02bd 5774 3ebd 8d03 573d
00000050: 3db6 1bbc f2bb 953c a716 7f3b 593d 1e3d
00000060: 0604 613b 3556 6d3c c896 163d 7892 2b3d
00000070: ed50 633d bb0c 04bc ab56 343d 0ff5 2b3d
00000080: efb1 a5bc d365 8cbc 2c5c 8f3b f8c0 723d
00000090: e09d b73d 5c11 81bd 5f34 ef3c 22ad 0ebc
000000a0: d343 d13c bab3 debc 0c82 2b3c 7b10 163d
000000b0: 4f3f e0bc 4f6a 74bd d6a5 513d bc2d b2bc
000000c0: ff90 01bd 1010 c6bb 7e4b 273c 4358 86bd
000000d0: 8161 a43c 1159 f53c e947 31bd 3484 4dbc
000000e0: bf5b f2bc 03ae 7abc 901a 35bc d120 a8bd
000000f0: 0833 c1bd 1704 c0bc 64c9 77bd 24ec 61bd
00000100: 432a b5bc cfaf 79bc f748 1ebd 2212 20bc
00000110: 3f8d 853b 8c41 5fbb 376e 1dbd 359c f63c
00000120: 7fa1 c8bc 4274 d93c e59c 1cbc 1f37 583d
00000130: 12ca 0fbd 95fb 123d b6c8 35bc 535e 17bd
00000140: 3e96 943d 6366 e5ba 4f83 033d 7116 d43c
00000150: a647 3ebc e913 30bc 9830 9e3d 74e0 eabc
00000160: 0702 ff3c 22ef 353b bc6e a43c d865 873c
00000170: 8c29 103d a7e5 a8bc a2c8 d5bc 729f 5a3d
00000180: 2ea8 0dbb 4342 a43c 93dc c53c a331 0f3a
00000190: c96d 443b 650b 5d3d d000 44bd 2db7 f9bb
000001a0: 23d3 36bd 0c39 c0ba 7fb3 28bd 29b6 b838
000001b0: 5712 3a3c d090 f7ba 094b a3bc 3b0b 1cbd
000001c0: 1649 cfbc 11b0 2abd 3e4a 0abd 9c26 023b
000001d0: 1dba 00bd 6bee 04bd fb26 fabc 7096 b4bc
000001e0: 43c0 a93c 3db3 443c f2e1 ac3b 9ade 11bd
000001f0: 8fc4 0b3c d3c9 22bd d9d1 68bc 9afc 14bd
00000200: 0ff5 b1bc 0f5a 30bd f7f7 71bd 009a 4639
00000210: 26ab e7bc 46ae 1bbd e5ee 0fbd d7b2 71bd
00000220: e17a 19bd 3d44 933b 4adb 8bbb 7e6e b2b9
00000230: e812 cfbc e84f b7bc 8210 013a c3af 2bbc
00000240: 1b1d 27bd 7df1 a8bc ec5a bd3b 2199 1cbb
00000250: 64f3 fdbc d849 f43c b9c2 0f3d 2f11 d0bb
00000260: 9901 40bc c114 fbbc ebdb 433d bee9 723b
00000270: b332 43bc cf0f d53a e2bf f43c 1728 883b
00000280: 729d ac3c 62c2 3d3d 3ddc 71bb b350 123b
00000290: d046 1f3d 1ca0 243d fe8c 603b 46ff 9a3c
000002a0: 1d00 89bc 9646 98bc 4730 923c 32d0 6e3c
000002b0: a766 873c 2e7a 4ebc 1d10 5c3d 9233 5abc
000002c0: c655 053c e53a 75bd d1d3 a23c 18c8 abbb
000002d0: 6d6e afbc f22d 7c3a 6cf3 efba dbd5 e93b
000002e0: 599b 2abd ab3c a43c 6227 1dbc e99c a2bc
000002f0: 7d88 843d 5fd7 36bd aeab ba3c 02eb 98bc
00000300: 6949 eebb d6c1 873c 8fac bbbb e3ef 32bd
00000310: 1c0f 23bd 7ac0 853c 0aa5 a33c e674 e4bb
00000320: 2f87 d53c dab4 32bd 463b 9d3c e536 d63c
00000330: 28e9 bf3b 4947 6c3d de6e 63bc f469 083d
00000340: 5f70 27bd 7c4c b23b 8a5e a83a 5606 62bd
00000350: 2649 5e3d a7db a8bd 7cb5 b83c a623 003d
00000360: cde6 38bd 63de be3c ae0e 41bd 3c3c 8a3d
00000370: f799 4bbd 9ca8 0ebe cb81 ffbc fe20 ee3d
00000380: 075c 0cbe f8d5 95bd 1f60 67bb 66ce d4bb
00000390: f842 cebb 3c32 88b8 9ebb 1e3c f3ce 5ebb
000003a0: 6965 f4bc 4b56 323c 1687 8bbb d5fe 443c
000003b0: 5050 2f3d f7cc 61bc 1ca8 493b 76b7 60bc
000003c0: e212 ec3b 62e9 06bc 4e8a 273c f650 d93c
000003d0: 191f ef3b 9565 70b9 5e74 70bc edfa 75bb
000003e0: c7ea 02bd 2018 b6bc 7d1d 55bb 284f 993c
000003f0: df31 65bc 13c7 293c d4ad 7b3b 42dc 7c3c

bn1d0.running_mean f4 [739]
-0.0036178154 -0.0026181974 -0.0017621485 -0.005296549 -0.0054265666 -0.006711453 -0.004221529 -0.0016997266
0.0014623096 0.0010282402 -0.00010833446 -0.0020497192 -0.0032221358 -0.004164864 -0.0031536836 -0.0025176327
-0.0015703898 -0.0008322867 0.00023984107 -0.00013008279 0.0009088362 0.0007003924 0.0010350876 0.0017807232
0.0019271933 0.0025433225 0.002065769 0.002171585 0.0022182884 0.0022349954 0.0022607006 0.0020009812
0.0020060032 0.0015458197 0.00184088 0.0014825566 0.0009844303 0.000747322 0.0005436825 0.0003839009
0.00023362474 -0.00018278814 -0.00025849478 -0.0002115553 -0.0006760009 -0.000603605 -0.0010514377 -0.0011534803
-0.0010155197 -0.0016268061 -0.0014556207 -0.0014727169 -0.001646372 -0.0016973547 -0.002392222 -0.0024867544
-0.003559558 -0.004511707 -0.006109011 -0.007656802 -0.008973985 -0.009192369 -0.008623499 -0.009881914
-0.0052635167 -0.0039352607 -0.0028337517 -0.0018234375 -0.001519708 -0.0013312631 -0.0012586075 -0.0010538268
-0.0015497765 -0.0009910916 -0.00067265483 -0.0004918321 -0.0005222744 -0.00018623262 0.0003401084 0.00044489527
0.0005793653 0.000987848 0.0012663655 0.0010385598 0.0009517077 0.00085325673 0.000876265 0.0010588781
0.00078689563 0.0006006024 0.00061563385 0.0005285318 0.0004024735 0.00043528195 2.1888567e-05 -0.00012002824
7.013231e-05 -0.00055043603 -0.00072858797 -0.0008606936 -0.0013041648 -0.0021976575 -0.0018183594 -0.0022319108
-0.0026698885 -0.0028521055 -0.0033664159 -0.0037001534 -0.0041004405 -0.004579019 -0.0065215537 -0.005368827
-0.005542107 -0.00544441 -0.005507523 -0.0054104785 -0.005008847 -0.0047848974 -0.0043968996 -0.0042097545
-0.0053193946 -0.004027046 -0.0046129203 -0.0050164424 -0.005958296 -0.007501671 -0.009080824 -0.010811981
-0.012378336 -0.01805831 -0.013867749 -0.013366742 -0.012168666 -0.010549439 -0.008924426 -0.0074502155
-0.0059315474 -0.0047163386 -0.0038546135 -0.003934432 -0.0024049229 -0.0017655707 -0.0014625647 -0.0011592306
-0.0008260807 -0.0005439835 -0.00037415072 -0.00029226686 -0.00010134993 5.9168313e-05 0.0001749424 0.00037535964
0.00076247746 0.00085332023 0.00124961 0.0013309324 0.0015562127 0.0015914922 0.0024051876 0.0019375898
0.0019741443 0.0021127306 0.0021101804 0.0021533016 0.0021416773 0.0022860537 0.002221638 0.0029922335
0.00225767 0.0022447624 0.002227941 0.00216129 0.0021083176 0.00208288 0.0021021175 0.00195565
0.002089894 0.002512663 0.0020040574 0.0018959946 0.00177509 0.0019018138 0.001766366 0.0017386238
0.0018570152 0.0017113292 0.0022516244 0.0016185067 0.0015773893 0.0016749507 0.0015685727 0.0016255529
0.0016523867 0.0016103972 0.0014750346 0.0020259665 0.0012490734 0.0014764341 0.0014340994 0.0012913371
0.0014007188 0.001235714 0.0012275829 0.0013140425 0.0010135064 0.0014291414 0.0008876785 0.0009643056
0.001071685 0.0012714101 0.0014309897 0.002314424 0.003217099 0.0051886574 0.011194942 0.012498376
0.017319227 0.021080378 0.02249748 0.022807531 0.01757381 0.010490853 0.0031838012 -0.00032998968
-0.0040041925 -0.00543151 -0.006537241 0.0019316676 0.001933848 0.0019554459 0.001940982 0.0019094668
0.0019374863 0.0019533725 0.0019438111 0.0019526264 0.001950836 0.0019658552 0.0019416199 0.001909821
0.0019385234 0.0019180952 0.0019644827 0.0019346619 0.002026222 0.0019391469 0.0019933756 0.0020754081
0.002029027 0.0019513615 0.0019346885 0.0019260304 0.001955531 0.0019523483 0.0019376678 0.0019720043
00000000: df18 6dbb 1096 2bbb e4f7 e6ba ac8e adbb
00000010: 57d1 b1bb c0eb dbbb c054 8abb 5cc9 deba
00000020: f8aa bf3a 04c6 863a 9f31 e3b8 9554 06bb
00000030: 782a 53bb 6979 88bb 08ae 4ebb defe 24bb
00000040: 8ad5 cdba d12d 5aba d97d 7b39 d566 08b9
00000050: f73e 6e3a 8a9a 373a c7ab 873a 2867 e93a
00000060: e099 fc3a dfad 263b da61 073b 2751 0e3b
00000070: b460 113b 0079 123b 4328 143b e522 033b
00000080: 2677 033b 1a9d ca3a af49 f13a 5852 c23a
00000090: 0008 813a eee7 433a ea85 0e3a 4e46 c939
000000a0: 2af9 7439 d1aa 3fb9 9586 87b9 f2d4 5db9
000000b0: a735 31ba 3f3b 1eba 65d0 89ba 6030 97ba
000000c0: 301b 85ba 8e3a d5ba 87ca beba 2e08 c1ba
000000d0: 14cb d7ba c679 deba d3c6 1cbb d1f8 22bb
000000e0: 7947 69bb f1d6 93bb 192e c8bb e9e5 fabb
000000f0: 9f07 13bc 979b 16bc 9449 0dbc c0e7 21bc
00000100: 9479 acbb 5cf3 80bb 77b6 39bb 6900 efba
00000110: f030 c7ba c77d aeba dcf7 a4ba 8f20 8aba
00000120: df21 cbba 84e7 81ba 1a55 30ba 4bee 00ba
00000130: 3ee9 08ba 7047 43b9 9450 b239 d540 e939
00000140: 8ce0 173a ae7a 813a 2dfc a53a 4920 883a
00000150: 067c 793a 17ad 5f3a 26b5 653a 0eca 8a3a
00000160: ac47 4e3a bf71 1d3a 7d62 213a 2b8d 0a3a
00000170: 1403 d339 8e36 e439 579d b737 acb7 fbb8
00000180: ff13 9338 234b 10ba b6fe 3eba 2ba0 61ba
00000190: 82f0 aaba 9306 10bb 0456 eeba 4045 12bb
000001a0: 4cf9 2ebb 64ea 3abb 169f 5cbb 467e 72bb
000001b0: fd5c 86bb 980b 96bb c2b2 d5bb fcec afbb
000001c0: 909a b5bb 0567 b2bb 7478 b4bb 624a b1bb
000001d0: 4121 a4bb a1ca 9cbb de13 90bb fbf1 89bb
000001e0: 514e aebb 4ff5 83bb fb27 97bb f860 a4bb
000001f0: cf3d c3bb 94d0 f5bb bdc7 14bc bc24 31bc
00000200: 81ce 4abc 05ef 93bc 8e35 63bc 2e00 5bbc
00000210: 165f 47bc 8ed7 2cbc c137 12bc f020 f4bb
00000220: 6d5d c2bb 848b 9abb af9d 7cbb 68ec 80bb
00000230: e99b 1dbb b96a e7ba 87b3 bfba 53f1 97ba
00000240: 568d 58ba 1d9a 0eba a929 c4b9 653b 99b9
00000250: d48b d4b8 7e2b 7838 be70 3739 ebcb c439
00000260: ffe0 473a 5ab1 5f3a f4c9 a33a ae72 ae3a
00000270: d5f9 cb3a 9e99 d03a 5aa0 1d3b baf6 fd3a
00000280: a560 013b bd75 0a3b f44a 0a3b 681e 0d3b
00000290: 625b 0c3b 9ed1 153b e798 113b 5919 443b
000002a0: 6bf5 133b dd1c 133b a602 123b 6ea4 0d3b
000002b0: b32b 0a3b ed80 083b aec3 093b 5d2a 003b
000002c0: 9af6 083b 7dab 243b 8156 033b 0683 f83a
000002d0: 23aa e83a 4846 f93a 6885 e73a 89e2 e33a
000002e0: 1767 f33a ae4e e03a fd8f 133b 1324 d43a
000002f0: 67c0 ce3a 058a db3a 9198 cd3a 8110 d53a
00000300: e694 d83a f713 d33a f355 c13a 14c6 043b
00000310: f3b7 a33a e884 c13a 64f8 bb3a 1542 a93a
00000320: 5398 b73a aef7 a13a d9e6 a03a f33b ac3a
00000330: a2d7 843a 0752 bb3a 19b3 683a 74c9 7c3a
00000340: c877 8c3a 72a5 a63a 0c90 bb3a 97ad 173b
00000350: f7d5 523b 9d05 aa3b fd6a 373c fdc5 4c3c
00000360: 0de1 8d3c c2b0 ac3c a34c b83c dcd6 ba3c
00000370: f3f6 8f3c d4e1 2b3c 52a7 503b 7702 adb9
00000380: 9a35 83bb cffa b1bb 5a36 d6bb 0230 fd3a
00000390: 2c79 fd3a f026 003b 8c68 fe3a 1347 fa3a
000003a0: 41f3 fd3a 2704 003b 7ac7 fe3a 45ef ff3a
000003b0: 32b3 ff3a 94d5 003b f47d fe3a f552 fa3a
000003c0: 0d16 fe3a 9868 fb3a 8dbe 003b 7b94 fd3a
000003d0: 5dca 043b f92a fe3a 4ba3 023b 9203 083b
000003e0: 6df9 043b d4c4 ff3a 6095 fd3a db72 fc3a
000003f0: 5e28 003b f0e5 ff3a 58f9 fd3a be3c 013b

bn1d0.running_var f4 [739]
1.6439095e-05 1.0282813e-05 7.902025e-06 6.345031e-06 7.1109152e-06 4.424114e-06 3.2470832e-06 1.8414228e-06
1.868664e-06 1.5966099e-06 2.4329825e-06 1.8646895e-06 2.038029e-06 1.9040909e-06 1.3631549e-06 1.0380455e-06
1.2912587e-06 1.0690759e-06 7.324913e-07 1.0149744e-06 7.0614743e-07 5.6466575e-07 8.967551e-07 7.2073846e-07
6.371767e-07 5.172187e-07 7.4832786e-07 6.4167546e-07 5.291014e-07 4.1200934e-07 4.553703e-07 4.7379314e-07
3.791172e-07 3.81794e-07 4.5159135e-07 5.088731e-07 3.7165435e-07 4.093448e-07 4.3563568e-07 4.228951e-07
3.7599258e-07 4.1331523e-07 4.12713e-07 4.0490926e-07 4.560139e-07 4.5853193e-07 4.234709e-07 3.8462042e-07
4.061221e-07 3.2974074e-07 4.7439698e-07 5.412817e-07 4.261464e-07 5.103899e-07 5.647525e-07 5.441916e-07
4.6100027e-07 6.9810125e-07 9.2098185e-07 1.4662666e-06 1.6841756e-06 1.5050201e-06 1.6161988e-06 1.911999e-06
6.3037675e-07 4.787241e-07 4.164816e-07 3.692456e-07 3.169568e-07 2.822076e-07 3.286231e-07 3.0171492e-07
3.3209562e-07 3.1143148e-07 3.1841438e-07 3.3578164e-07 2.4679608e-07 1.7853732e-07 2.6336426e-07 2.6382926e-07
3.2706703e-07 2.5148873e-07 3.095931e-07 3.3729674e-07 2.5891308e-07 2.3235354e-07 2.3166218e-07 1.8829047e-07
1.5796053e-07 2.0659523e-07 1.8939296e-07 1.9752325e-07 1.2237054e-07 1.7747806e-07 1.9663815e-07 1.9341594e-07
1.6028639e-07 1.3685833e-07 1.5730674e-07 1.833483e-07 1.4077338e-07 1.8627696e-07 1.6685567e-07 1.7636536e-07
3.0730607e-07 2.3083246e-07 2.492375e-07 3.4870774e-07 3.078515e-07 4.0637858e-07 7.142613e-07 4.3625033e-07
5.097276e-07 5.4916956e-07 4.6225952e-07 3.6252212e-07 4.1881538e-07 3.990471e-07 3.1403604e-07 2.732677e-07
4.3484016e-07 2.625474e-07 2.4866134e-07 2.9968146e-07 4.6505693e-07 6.539156e-07 8.08373e-07 1.1109488e-06
1.5684907e-06 3.262871e-06 2.0799005e-06 2.028379e-06 1.7826459e-06 1.4249827e-06 1.2638928e-06 8.9054595e-07
6.093151e-07 5.0590563e-07 3.1938183e-07 3.97089e-07 1.6474283e-07 2.1631685e-07 1.3440693e-07 1.5643508e-07
1.5272325e-07 1.155289e-07 1.3510977e-07 9.567869e-08 9.532806e-08 1.11427845e-07 9.4133505e-08 1.2027378e-07
1.674896e-07 1.17132345e-07 1.6731593e-07 1.8860192e-07 1.669044e-07 1.57281e-07 3.4397547e-07 1.3156303e-07
1.9833801e-07 1.6019294e-07 1.9159607e-07 2.2120481e-07 2.1780234e-07 2.002138e-07 2.5704347e-07 2.8111333e-07
1.8610274e-07 2.3026998e-07 1.9262434e-07 1.9329167e-07 2.4733657e-07 2.4389647e-07 1.9583304e-07 2.1640149e-07
2.2393958e-07 2.5211554e-07 2.0718036e-07 2.5464942e-07 2.1028293e-07 3.232073e-07 2.9746724e-07 2.3346928e-07
2.7916374e-07 3.2196314e-07 2.8118077e-07 3.0334039e-07 3.060688e-07 3.4515182e-07 4.2061814e-07 4.4626935e-07
3.281544e-07 4.452442e-07 4.4307265e-07 4.1839036e-07 5.112146e-07 4.2366383e-07 5.132696e-07 4.4523634e-07
7.199655e-07 6.280495e-07 5.302371e-07 5.22336e-07 6.0159266e-07 7.385383e-07 7.9274514e-07 1.1129055e-06
7.426084e-07 8.816769e-07 8.9996774e-07 9.4793796e-07 1.0474172e-06 1.2990271e-06 2.761651e-06 3.852486e-06
6.1683345e-06 1.0629629e-05 1.1442491e-05 1.3450989e-05 1.3169677e-05 1.428871e-05 1.7222479e-05 1.6743266e-05
2.1594042e-05 3.7348127e-05 5.0305753e-05 1.4217852e-10 6.2638485e-11 2.3252514e-10 1.6990512e-10 4.156474e-12
6.120107e-11 2.0190893e-10 1.4663595e-10 2.1873175e-10 3.8279652e-10 1.2248855e-10 1.4896788e-10 1.1761223e-11
9.8268296e-11 3.9784915e-11 1.3363664e-10 1.5404615e-10 4.1719947e-10 1.12624604e-10 3.6821454e-10 4.9127574e-10
4.953184e-10 2.496257e-10 6.487644e-11 1.0210432e-10 1.480204e-10 5.919874e-11 1.1327605e-10 2.2846729e-10
00000000: b0e6 8937 5884 2c37 f092 0437 67e7 d436
00000010: 4c9a ee36 da72 9436 77e8 5936 ce26 f735
00000020: cece fa35 194b d635 5246 2336 3e46 fa35
00000030: 12c5 0836 1190 ff35 a5f5 b635 f952 8b35
00000040: 504f ad35 2b7d 8f35 6ba0 4435 413a 8835
00000050: 158e 3d35 8993 1735 8bb8 7035 c578 4135
00000060: 730a 2b35 00d7 0a35 b3e0 4835 9a3f 2c35
00000070: 9207 0e35 2232 dd34 9e79 f434 a25d fe34
00000080: 7989 cb34 5ef9 cc34 3e72 f234 7e99 0835
00000090: c987 c734 ecc3 db34 50e1 e934 430a e334
000000a0: 07dc c934 9de5 dd34 d892 dd34 4e62 d934
000000b0: 13d2 f434 262c f634 6659 e334 d47d ce34
000000c0: ff08 da34 3907 b134 a0b0 fe34 984c 1135
000000d0: 1ec9 e434 ba01 0935 7f99 1735 9014 1235
000000e0: 657f f734 2765 3b35 6439 7735 89cc c435
000000f0: d50b e235 1900 ca35 2bec d835 e54f 0036
00000100: 2937 2935 ab81 0035 cc98 df34 bb3c c634
00000110: 362a aa34 5182 9734 9d6d b034 62fb a134
00000120: e04a b234 d132 a734 8af2 aa34 7a45 b434
00000130: 657f 8434 f7b3 3f34 8264 8d34 6ba4 8d34
00000140: c097 af34 5904 8734 2736 a634 b615 b534
00000150: be00 8b34 db7c 7934 d1be 7834 e42c 4a34
00000160: dc9b 2934 77d4 5d34 f15b 4b34 c716 5434
00000170: f564 0334 cc90 3e34 7c23 5334 c5ad 4f34
00000180: 301b 2c34 55f3 1234 26e8 2834 66de 4434
00000190: 7e27 1734 6c03 4834 f028 3334 f15e 3d34
000001a0: d3fb a434 beda 7734 f1ce 8534 0736 bb34
000001b0: ca46 a534 3f2c da34 aabb 3f35 ca35 ea34
000001c0: 37d4 0835 a56a 1335 772c f834 a9a0 c234
000001d0: 8cd9 e034 9e3c d634 c998 a834 a0b5 9234
000001e0: fa73 e934 3df4 8c34 c17f 8534 e8e3 a034
000001f0: f0ac f934 bd88 2f35 f8fe 5835 e91b 9535
00000200: ee84 d235 b2f7 5a36 6b94 0b36 491f 0836
00000210: 3f43 ef35 0842 bf35 07a3 a935 da0d 6f35
00000220: d18f 2335 92cd 0735 8177 ab34 7f2f d534
00000230: 2ae4 3034 b944 6834 7f51 1034 8cf8 2734
00000240: 3ffc 2334 af18 f833 b112 1134 eb77 cd33
00000250: 28b7 cc33 1b4a ef33 7126 ca33 9b24 0134
00000260: 31d7 3334 308a fb33 74a7 3334 8082 4a34
00000270: 5536 3334 12e1 2834 a1ab b834 c543 0d34
00000280: bdf6 5434 8001 2c34 87b9 4d34 5184 6d34
00000290: 0ddd 6934 5afa 5634 c9ff 8934 eceb 9634
000002a0: 88d3 4734 2140 7734 2dd4 4e34 9c8b 4f34
000002b0: aec9 8434 e0f0 8234 2d46 5234 fd5b 6834
000002c0: 0b74 7034 7f5a 8734 4e75 5e34 c0b6 8834
000002d0: 22ca 6134 4685 ad34 96b3 9f34 8caf 7a34
000002e0: f9df 9534 47da ac34 31f5 9634 c9da a234
000002f0: c751 a434 4e4d b934 51d1 e134 cb96 ef34
00000300: 332d b034 e609 ef34 71df ed34 229f e034
00000310: 663a 0935 ea73 e334 9ec7 0935 d108 ef34
00000320: a743 4135 3c97 2835 9e55 0e35 a836 0c35
00000330: 227d 2135 f73f 4635 08cd 5435 245f 9535
00000340: a957 4735 60ac 6c35 5095 7135 cd75 7e35
00000350: fb94 8c35 3b5a ae35 ce54 3936 9a44 8136
00000360: 97f9 ce36 e955 3237 20f9 3f37 8fab 6137
00000370: 55f3 5c37 8bb9 6f37 fe78 9037 e473 8c37
00000380: da24 b537 3fa6 1c38 64ff 5238 b253 1c2f
00000390: 55be 892e 02aa 7f2f 0ad0 3a2f 313e 922c
000003a0: 2495 862e 5000 5e2f 5a3a 212f 847f 702f
000003b0: d271 d22f 76ad 062f bbca 232f d7e7 4e2d
000003c0: 2218 d82e d5f9 2e2e 5fef 122f 2360 292f
000003d0: 9b5b e52f 04aa f72e 976d ca2f 750a 0730
000003e0: ef26 0830 b23b 892f 30aa 8e2e 9f87 e02e
000003f0: 0ac0 222f ee2d 822e bf18 f92e d333 7b2f

bn1d1.weight f4 [512]
1.0 1.011093 1.0 1.0030216 1.0 0.99979514 1.0 1.0000442
1.0 1.0031767 1.0 1.0042609 1.0 1.0043453 1.0 1.0018793
1.0 1.0000145 1.0 0.99976426 1.0 1.0084 1.0 1.0056926
1.0 1.0046848 1.0 1.0011511 1.0 0.99940765 1.0 0.9997283
1.0 0.9956047 1.0 0.9976916 1.0 1.0000682 1.0 0.9999862
1.0 0.99832594 1.0 0.9987524 1.0 0.9996332 1.0 0.9996739
1.0 0.9997726 1.0 1.0000504 1.0 1.0251031 1.0 1.0054704
1.0 1.0001004 1.0 0.9999117 1.0 1.0256681 1.0 1.01638
1.0 1.072537 1.0 1.0618134 1.0 1.0015774 1.0 0.9988725
1.0 1.0014759 1.0 0.98830414 1.0 1.000168 1.0 0.99987507
1.0 0.998461 1.0 1.0009167 1.0 0.9731673 1.0 0.9740457
1.0 1.0918238 1.0 1.0689844 1.0 0.99930555 1.0 1.0007169
1.0 1.0116594 1.0 1.004354 1.0 0.9996506 1.0 0.9995376
1.0 1.0004394 1.0 0.99991566 1.0 1.0004687 1.0 0.9999199
1.0 0.9999001 1.0 1.0003082 1.0 1.0114794 1.0 1.0079814
1.0 1.0147659 1.0 1.0095987 1.0 0.9998975 1.0 1.0003359
1.0 1.0613999 1.0 1.0637174 1.0 0.99964154 1.0 0.999682
1.0 1.0008379 1.0 1.0000222 1.0 0.97310865 1.0 0.9672302
1.0 1.0156524 1.0 1.0024292 1.0 0.9997614 1.0 0.9995515
1.0 1.0000924 1.0 1.0000151 1.0 1.0068966 1.0 1.0037047
1.0 0.99832034 1.0 1.00057 1.0 1.0001664 1.0 0.9996393
1.0 1.0009838 1.0 1.0008327 1.0 1.1219652 1.0 1.1291786
1.0 1.0008343 1.0 1.0009261 1.0 0.99948287 1.0 1.0002505
1.0 1.0095664 1.0 0.9945802 1.0 0.9975478 1.0 1.0012645
1.0 0.9999337 1.0 1.0000064 1.0 1.0128695 1.0 1.0032897
1.0 0.9995981 1.0 0.99954295 1.0 0.99986964 1.0 1.0001159
1.0 0.9699406 1.0 0.96852684 1.0 1.0005864 1.0 0.99771434
1.0 1.0000502 1.0 1.0007219 1.0 1.0103911 1.0 1.0238078
1.0 0.9928757 1.0 1.0008808 1.0 0.99995744 1.0 0.99962544
1.0 1.0335251 1.0 1.044587 1.0 1.016725 1.0 1.0134091
1.0 0.970737 1.0 0.9819235 1.0 1.0005149 1.0 0.99930334
1.0 1.0013362 1.0 1.0068018 1.0 1.008881 1.0 1.009038
00000000: 0000 803f 7f6b 813f 0000 803f 0363 803f
00000010: 0000 803f 93f2 7f3f 0000 803f 7301 803f
00000020: 0000 803f 1868 803f 0000 803f 9f8b 803f
00000030: 0000 803f 638e 803f 0000 803f 953d 803f
00000040: 0000 803f 7a00 803f 0000 803f 8df0 7f3f
00000050: 0000 803f 4013 813f 0000 803f 89ba 803f
00000060: 0000 803f 8399 803f 0000 803f b825 803f
00000070: 0000 803f 2ed9 7f3f 0000 803f 32ee 7f3f
00000080: 0000 803f f3df 7e3f 0000 803f b768 7f3f
00000090: 0000 803f 3c02 803f 0000 803f 18ff 7f3f
000000a0: 0000 803f 4a92 7f3f 0000 803f 3dae 7f3f
000000b0: 0000 803f f6e7 7f3f 0000 803f a1ea 7f3f
000000c0: 0000 803f 19f1 7f3f 0000 803f a701 803f
000000d0: 0000 803f 9436 833f 0000 803f 41b3 803f
000000e0: 0000 803f 4a03 803f 0000 803f 37fa 7f3f
000000f0: 0000 803f 1849 833f 0000 803f bd18 823f
00000100: 0000 803f e448 893f 0000 803f 80e9 873f
00000110: 0000 803f b033 803f 0000 803f 1cb6 7f3f
00000120: 0000 803f 5d30 803f 0000 803f 8001 7d3f
00000130: 0000 803f 8105 803f 0000 803f d0f7 7f3f
00000140: 0000 803f 249b 7f3f 0000 803f 0a1e 803f
00000150: 0000 803f 7e21 793f 0000 803f 0f5b 793f
00000160: 0000 803f e2c0 8b3f 0000 803f 7bd4 883f
00000170: 0000 803f 7dd2 7f3f 0000 803f 7e17 803f
00000180: 0000 803f 0e7e 813f 0000 803f ac8e 803f
00000190: 0000 803f 1ae9 7f3f 0000 803f b2e1 7f3f
000001a0: 0000 803f 660e 803f 0000 803f 79fa 7f3f
000001b0: 0000 803f 5c0f 803f 0000 803f c0fa 7f3f
000001c0: 0000 803f 74f9 7f3f 0000 803f 190a 803f
000001d0: 0000 803f 2878 813f 0000 803f 8905 813f
000001e0: 0000 803f d9e3 813f 0000 803f 883a 813f
000001f0: 0000 803f 48f9 7f3f 0000 803f 020b 803f
00000200: 0000 803f f4db 873f 0000 803f e427 883f
00000210: 0000 803f 82e8 7f3f 0000 803f 29eb 7f3f
00000220: 0000 803f 751b 803f 0000 803f ba00 803f
00000230: 0000 803f a61d 793f 0000 803f 669c 773f
00000240: 0000 803f e600 823f 0000 803f 9a4f 803f
00000250: 0000 803f 5df0 7f3f 0000 803f 9be2 7f3f
00000260: 0000 803f 0703 803f 0000 803f 7f00 803f
00000270: 0000 803f fde1 803f 0000 803f 6579 803f
00000280: 0000 803f ec91 7f3f 0000 803f ae12 803f
00000290: 0000 803f 7405 803f 0000 803f 5ce8 7f3f
000002a0: 0000 803f 3d20 803f 0000 803f 491b 803f
000002b0: 0000 803f 8e9c 8f3f 0000 803f ed88 903f
000002c0: 0000 803f 571b 803f 0000 803f 591e 803f
000002d0: 0000 803f 1cde 7f3f 0000 803f 3508 803f
000002e0: 0000 803f 7939 813f 0000 803f cf9c 7e3f
000002f0: 0000 803f 4b5f 7f3f 0000 803f 6f29 803f
00000300: 0000 803f a8fb 7f3f 0000 803f 3600 803f
00000310: 0000 803f b5a5 813f 0000 803f cc6b 803f
00000320: 0000 803f a9e5 7f3f 0000 803f 0ce2 7f3f
00000330: 0000 803f 75f7 7f3f 0000 803f cc03 803f
00000340: 0000 803f 074e 783f 0000 803f 60f1 773f
00000350: 0000 803f 3713 803f 0000 803f 356a 7f3f
00000360: 0000 803f a501 803f 0000 803f a817 803f
00000370: 0000 803f 7f54 813f 0000 803f 220c 833f
00000380: 0000 803f 1a2d 7e3f 0000 803f dd1c 803f
00000390: 0000 803f 36fd 7f3f 0000 803f 74e7 7f3f
000003a0: 0000 803f 8d4a 843f 0000 803f 07b5 853f
000003b0: 0000 803f 0b24 823f 0000 803f 64b7 813f
000003c0: 0000 803f 3882 783f 0000 803f 575f 7b3f
000003d0: 0000 803f df10 803f 0000 803f 58d2 7f3f
000003e0: 0000 803f c92b 803f 0000 803f e2de 803f
000003f0: 0000 803f 0323 813f 0000 803f 2828 813f

bn1d1.bias f4 [512]
0.0074182777 0.00028178125 -0.005014173 -0.00018344114 0.006078999 0.00343343 0.005464824 0.018197935
-0.0103594195 0.004737634 -0.0010392144 0.009343509 0.008086002 -0.025667343 0.011082169 -0.013995401
-0.003178092 -0.0067014396 0.0063018533 0.0056729564 0.0006976014 -0.030875634 -0.0008623928 -0.018429603
0.018393995 -0.02256305 -0.029989589 0.012069592 0.00022469938 0.01478866 -0.005978058 0.011057636
-0.00825379 0.030768894 0.0065179765 0.037608556 -0.0014166354 -0.0053970735 -0.01303495 0.0033040224
0.0010697598 -0.012661542 0.01917606 -0.01199576 -0.0015690916 -0.0015983444 0.004491088 0.01009804
-0.0028237945 -0.0071841083 0.016612459 -0.0040642694 0.012467909 0.016921492 -0.0068409215 0.009320707
0.030668333 0.0029499426 0.007884428 -0.0078608245 -0.010785239 -0.032420352 0.0007579671 -0.056779753
0.014454944 -0.0013238486 0.01607457 -0.008151682 -0.0018013066 0.010008911 0.0038061123 0.003260895
0.01789198 -0.030933516 -0.015601874 -0.0033507303 0.00056851987 -0.0036459642 -0.000615448 -0.0015563037
-0.0024174491 -0.022636207 -0.0040690512 0.016473843 0.003346462 -0.05931845 0.006313563 -0.041978076
-0.0028106812 0.007804352 0.006622382 0.012272378 0.0094610015 -0.01148982 -0.01425123 0.017278172
-0.0018236247 -0.0053983545 -0.011403022 0.0058999755 0.008001493 -0.014291816 -0.007522683 -0.0069829314
0.0043077106 -0.0050085196 0.0004848843 0.006196938 -0.011021836 -0.0064640283 0.011663962 0.010766197
-0.010291459 0.0032849612 -0.01597992 0.002353421 0.013085149 -0.032091685 0.019942103 -0.020042142
-0.011093205 -0.030532883 0.0011002492 -0.017413532 0.028401203 0.005888491 0.017115282 -0.006859254
0.012255008 -0.03194032 0.0039032197 -0.025207799 -0.0030130052 -0.009095544 0.017055705 -0.009068784
0.01483688 -0.005188062 0.0028078703 -0.009235358 0.008584109 0.04795832 0.005579563 0.055928722
0.013740201 -0.080546476 -0.00052450993 -0.08593918 -0.007933685 -0.012988496 -0.00058766286 -0.0033924223
-0.009917591 0.009798553 -0.017402451 -0.014191761 -0.0016792482 0.00985248 0.021542525 -0.0017241809
0.012769558 -0.021481112 -0.009365995 -0.011940295 -0.00045667004 0.008427541 -0.013747732 0.015896467
0.00092537684 0.0063785543 -0.0070796693 -0.014296292 -0.0147407595 -0.0544501 -0.0098845335 -0.034225907
-0.0111044645 -0.0032853214 -0.015815722 -0.021566903 -0.003575029 -0.008390054 0.011752651 0.0017004189
-0.00081747497 -0.06354308 -0.001993357 -0.038476054 0.002843283 -0.0068272124 0.004156354 -0.016317025
-0.008950894 0.0009248746 0.0011143528 0.008363302 -0.031408496 0.05626304 0.012056957 0.03349431
0.0010345004 0.005153234 -0.004152349 -0.0031977848 0.012935049 -0.0011014676 -0.009616865 -0.0037653083
0.0016609104 -0.048941933 0.019424882 -0.04229459 -0.0027560312 -0.0055223056 0.009403397 -0.0004675788
-0.006070323 -0.012586523 0.0006811233 -0.004260041 0.013483615 -0.020409815 0.016195051 -0.017575359
-0.0031823632 -0.033539265 -0.0063677486 -0.016765056 -0.005679106 -0.007922496 0.018764004 -0.011360936
0.00050698215 0.025307754 0.0053842952 0.02821126 0.00090805104 -0.075740896 0.002182379 -0.053392492
0.012304438 -0.11140574 0.007242278 -0.104320295 0.01772948 0.009354634 -0.006821541 -0.0024109408
-0.00015514465 -0.066809595 -0.011121887 -0.07322638 0.0014995679 0.0012094235 0.013235392 -0.01073529
00000000: 0615 f33b 0abc 9339 ef4d a4bb 1b5a 40b9
00000010: 5732 c73b 6603 613b 4412 b33b d613 953c
00000020: 8eba 29bc 283e 9b3b 4036 88ba 8415 193c
00000030: 277b 043c 5244 d2bc fc91 353c f74c 65bc
00000040: 8947 50bb c097 dbbb c77f ce3b 35e4 b93b
00000050: 3ddf 363a e6ee fcbc 3312 62ba aef9 96bc
00000060: 01af 963c 25d6 b8bc baac f5bc 8abf 453c
00000070: 489d 6b39 234c 723c 96e3 c3bb 162b 353c
00000080: e83a 07bc 0c0f fc3c c094 d53b 6e0b 1a3d
00000090: 65ae b9ba efd9 b0bb 8b90 55bc 4c88 583b
000000a0: 2f37 8c3a 5b72 4fbc 1d17 9d3c dd89 44bc
000000b0: faa9 cdba 8a7f d1ba fa29 933b 4072 253c
000000c0: 690f 39bb ab68 ebbb da16 883c 902d 85bb
000000d0: 3346 4c3c f19e 8a3c cf29 e0bb e1b5 183c
000000e0: 283c fb3c d353 413b b02d 013c b0ca 00bc
000000f0: 92b4 30bc 34cb 04bd 50b2 463a e391 68bd
00000100: 6ed4 6c3c fd84 adba d1ae 833c a28e 05bc
00000110: d219 ecba 6afc 233c f86f 793b bdb4 553b
00000120: 3492 923c 4968 fdbc 019f 7fbc ed97 5bbb
00000130: b908 153a 21f1 6ebb 0456 21ba e3fc cbba
00000140: 116e 1ebb 916f b9bc ad55 85bb 27f4 863c
00000150: 5150 5b3b e7f7 72bd 01e2 ce3b 34f1 2bbd
00000160: 6833 38bb a6bb ff3b 9100 d93b 1612 493c
00000170: 5102 1b3c cc3f 3cbc fe7d 69bc f48a 8d3c
00000180: b106 efba aee4 b0bb bed3 3abc 9554 c13b
00000190: b218 033c 3928 6abc d780 f6bb 13d1 e4bb
000001a0: b227 8d3b 821e a4bb 1238 fe39 af0f cb3b
000001b0: ee94 34bc 33d0 d3bb 341a 3f3c b464 303c
000001c0: 829d 28bc 8148 573b 52e8 82bc da3b 1a3b
000001d0: 1863 563c 9272 03bd 9f5d a33c 6b2f a4bc
000001e0: 46c0 35bc 1920 fabc 3d36 903a d3a6 8ebc
000001f0: a4a9 e83c 3ef4 c03b 5935 8c3c 98c3 e0bb
00000200: 3bc9 483c dad3 02bd 29cd 7f3b 9680 cebc
00000210: d775 45bb 7a05 15bc 68b8 8b3c 3d95 14bc
00000220: 6316 733c 9e00 aabb 3f04 383b e64f 17bc
00000230: 5da4 0c3c f16f 443d c4d4 b63b 8415 653d
00000240: 941e 613c 8df5 a4bd 447f 09ba e100 b0bd
00000250: 49fc 01bc b3cd 54bc 630d 1aba 6753 5ebb
00000260: 647d 22bc 1c8a 203c 968f 8ebc 8f84 68bc
00000270: 381a dcba 4c6c 213c f379 b03c e9fd e1ba
00000280: 6837 513c 28f9 afbc d573 19bc 3aa1 43bc
00000290: 376d efb9 ab13 0a3c 2b3e 61bc 4f39 823c
000002a0: fd94 723a 3103 d13b 92fc e7bb ff3a 6abc
000002b0: 3a83 71bc 1107 5fbd bdf2 21bc 7730 0cbd
000002c0: 80ef 35bc 8c4e 57bb f98f 81bc 13ad b0bc
000002d0: 094b 6abb 7076 09bc 318e 403c 97e0 de3a
000002e0: d14b 56ba e022 82bd fba2 02bb 1199 1dbd
000002f0: 5f56 3a3b cfb6 dfbb 0632 883b 48ab 85bc
00000300: c5a6 12bc 4973 723a 7a0f 923a 3b06 093c
00000310: 32a6 00bd 1374 663d 8b8a 453c 5431 093d
00000320: 1398 873a 76dc a83b 6e10 88bb ed91 51bb
00000330: 87ed 533c 1f5f 90ba 0e90 1dbc 64c3 76bb
00000340: e8b2 d93a 5677 48bd ee20 9f3c 183d 2dbd
00000350: 889e 34bb 75f4 b4bb b510 1a3c 5d25 f5b9
00000360: 8fe9 c6bb b437 4ebc 698d 323a d097 8bbb
00000370: 61ea 5c3c 7c32 a7bc 7cab 843c 33fa 8fbc
00000380: 328f 50bb 7860 09bd 8ca8 d0bb df56 89bc
00000390: cb17 babb 5bcd 01bc f8b6 993c 3823 3abc
000003a0: ffe6 043a 3552 cf3c be6e b03b 4d1b e73c
000003b0: 460a 6e3a 0b1e 9bbd 3e06 0f3b 16b2 5abd
000003c0: 8e98 493c b128 e4bd a250 ed3b e1a5 d5bd
000003d0: 6a3d 913c 2e44 193c 3c87 dfbb e000 1ebb
000003e0: 53ae 22b9 78d3 88bd 9338 36bc b6f7 95bd
000003f0: 268d c43a 8585 9e3a 42d9 583c 12e3 2fbc

bn1d1.running_mean f4 [512]
0.0 0.2907634 0.0 0.3099819 0.0 0.051738262 0.0 0.055795573
0.0 0.13118498 0.0 0.14072597 4.589322e-36 0.06692664 6e-45 0.07157077
6e-45 0.028765181 6e-45 0.031017967 0.0 0.4220111 0.0 0.44908306
0.0 0.3781148 0.0 0.4068331 1.0959299e-37 0.007933629 6e-45 0.008558212
6e-45 0.5305232 6e-45 0.5633582 6e-45 0.024560515 6e-45 0.026483009
0.0 0.11517058 0.0 0.123679504 4.5870625e-36 0.025198646 6e-45 0.02715669
1.2192043e-35 0.013916507 6e-45 0.015010537 0.0 0.2909564 0.0 0.30988932
2.337e-42 0.022231622 6e-45 0.023964994 6e-45 0.15688516 6e-45 0.1675594
6e-45 0.3577736 0.0 0.38039705 2.337e-42 0.075047106 6e-45 0.08062632
6e-45 0.1904909 6e-45 0.20398507 6e-45 0.026965845 6e-45 0.029064769
0.0 0.038995244 0.0 0.042027 0.0 0.3186801 0.0 0.34016013
6e-45 0.32265145 6e-45 0.34182325 0.0 0.033388533 0.0 0.036007285
0.0 0.20403145 0.0 0.21798766 6e-45 0.025359256 6e-45 0.027360983
0.0 0.080416486 0.0 0.0866589 0.0 0.058108333 0.0 0.06266794
1.0133713e-36 0.023897056 6e-45 0.025764564 6e-45 0.17323084 0.0 0.1855351
6e-45 0.30792758 6e-45 0.3281858 2.0694775e-37 0.025308875 6e-45 0.027248833
2.1480519e-35 0.15127529 6e-45 0.16174364 0.0 0.044045858 0.0 0.047552396
0.0 0.07291071 0.0 0.07849653 0.0 0.66135955 0.0 0.702523
6e-45 0.4614387 0.0 0.48885933 6e-45 0.026834205 6e-45 0.028920634
0.0 0.054220546 0.0 0.058435164 6e-45 0.18197934 0.0 0.19485544
2.337e-42 0.06813179 6e-45 0.07315957 2.3461622e-35 0.025033465 6e-45 0.026988752
0.0 0.1060751 0.0 0.11431455 2.3461622e-35 0.21326783 6e-45 0.22781081
6e-45 0.0460346 6e-45 0.049581412 0.0 0.07265334 0.0 0.078396186
2.0630412e-36 0.14090006 0.0 0.1506751 0.0 0.27719572 6e-45 0.2956182
2.1501278e-35 0.017804053 6e-45 0.019203408 6e-45 0.27154434 6e-45 0.2879729
0.0 0.06202764 0.0 0.0669209 6e-45 0.015596082 6e-45 0.016803728
0.0 0.4430142 0.0 0.4711158 6e-45 0.13653015 0.0 0.14612797
0.0 0.05567231 0.0 0.059944727 0.0 0.09841018 0.0 0.10507579
0.0 0.24295853 0.0 0.2592576 8.9909355e-38 0.017727848 6e-45 0.019118415
2.3946494e-35 0.30773833 6e-45 0.32684216 6e-45 0.20194116 6e-45 0.21336432
0.0 0.4288919 0.0 0.4568029 0.0 0.042642497 0.0 0.045992807
0.0 0.36165658 0.0 0.38447008 6e-45 0.19218278 0.0 0.20638241
00000000: 0000 0000 f1de 943e 0000 0000 f3b5 9e3e
00000010: 0000 0000 80eb 533d 0000 0000 e689 643d
00000020: 0000 0000 5b55 063e 0000 0000 781a 103e
00000030: 4b35 c304 d610 893d 0400 0000 b293 923d
00000040: 0400 0000 f5a4 eb3c 0400 0000 6419 fe3c
00000050: 0000 0000 d711 d83e 0000 0000 37ee e53e
00000060: 0000 0000 4398 c13e 0000 0000 6e4c d03e
00000070: 952b 1502 0dfc 013c 0400 0000 be37 0c3c
00000080: 0400 0000 5ed0 073f 0400 0000 3e38 103f
00000090: 0400 0000 2233 c93c 0400 0000 e5f2 d83c
000000a0: 0000 0000 8ede eb3d 0000 0000 ae4b fd3d
000000b0: b01c c304 646d ce3c 0400 0000 b577 de3c
000000c0: e6a5 8105 1002 643c 0400 0000 c1ee 753c
000000d0: 0000 0000 3df8 943e 0000 0000 d0a9 9e3e
000000e0: 8406 0000 171f b63c 0400 0000 3c52 c43c
000000f0: 0400 0000 81a6 203e 0400 0000 b194 2b3e
00000100: 0400 0000 1a2e b73e 0000 0000 67c3 c23e
00000110: 8406 0000 4cb2 993d 0400 0000 691f a53d
00000120: 0400 0000 0c10 433e 0400 0000 76e1 503e
00000130: 0400 0000 7ae7 dc3c 0400 0000 3d19 ee3c
00000140: 0000 0000 7ab9 1f3d 0000 0000 8124 2c3d
00000150: 0000 0000 0a2a a33e 0000 0000 7829 ae3e
00000160: 0400 0000 9232 a53e 0400 0000 7503 af3e
00000170: 0000 0000 6ac2 083d 0000 0000 607c 133d
00000180: 0000 0000 9fed 503e 0000 0000 2838 5f3e
00000190: 0400 0000 37be cf3c 0400 0000 2424 e03c
000001a0: 0000 0000 66b1 a43d 0000 0000 397a b13d
000001b0: 0000 0000 0103 6e3d 0000 0000 0d58 803d
000001c0: 8c6a ac03 c2c3 c33c 0400 0000 3510 d33c
000001d0: 0400 0000 6d63 313e 0000 0000 eafc 3d3e
000001e0: 0400 0000 afa8 9d3e 0400 0000 f807 a83e
000001f0: 62d7 8c02 8f54 cf3c 0400 0000 f238 df3c
00000200: 896b e405 e9e7 1a3e 0400 0000 20a0 253e
00000210: 0000 0000 6e69 343d 0000 0000 4dc6 423d
00000220: 0000 0000 3652 953d 0000 0000 cac2 a03d
00000230: 0000 0000 dc4e 293f 0000 0000 8cd8 333f
00000240: 0400 0000 b141 ec3e 0000 0000 c54b fa3e
00000250: 0400 0000 68d3 db3c 0400 0000 f7ea ec3c
00000260: 0000 0000 5d16 5e3d 0000 0000 b659 6f3d
00000270: 0400 0000 cb58 3a3e 0000 0000 2f88 473e
00000280: 8406 0000 ae88 8b3d 0400 0000 afd4 953d
00000290: 9c7c f905 fb12 cd3c 0400 0000 8417 dd3c
000002a0: 0000 0000 e73d d93d 0000 0000 bf1d ea3d
000002b0: 9c7c f905 e262 5a3e 0400 0000 3d47 693e
000002c0: 0400 0000 c78e 3c3d 0400 0000 e115 4b3d
000002d0: 0000 0000 46cb 943d 0000 0000 2e8e a03d
000002e0: 0f81 2f04 1b48 103e 0000 0000 934a 1a3e
000002f0: 0000 0000 99ec 8d3e 0400 0000 455b 973e
00000300: 0ca4 e405 ced9 913c 0400 0000 7750 9d3c
00000310: 0400 0000 dc07 8b3e 0400 0000 2f71 933e
00000320: 0000 0000 b210 7e3d 0000 0000 d30d 893d
00000330: 0400 0000 b686 7f3c 0400 0000 f9a7 893c
00000340: 0000 0000 c2d2 e23e 0000 0000 1736 f13e
00000350: 0400 0000 8fce 0b3e 0000 0000 92a2 153e
00000360: 0000 0000 a608 643d 0000 0000 9a88 753d
00000370: 0000 0000 478b c93d 0000 0000 fa31 d73d
00000380: 0000 0000 1fca 783e 0000 0000 6abd 843e
00000390: adc1 f401 fe39 913c 0400 0000 399e 9c3c
000003a0: 8fa4 fe05 e18f 9d3e 0400 0000 db57 a73e
000003b0: 0400 0000 aac9 4e3e 0400 0000 2d7c 5a3e
000003c0: 0000 0000 b897 db3e 0000 0000 12e2 e93e
000003d0: 0000 0000 e6a9 2e3d 0000 0000 f462 3c3d
000003e0: 0000 0000 0d2b b93e 0000 0000 43d9 c43e
000003f0: 0400 0000 90cb 443e 0000 0000 e955 533e

bn1d1.running_var f4 [512]
6e-45 0.0009630725 6e-45 0.0010251489 6e-45 5.5880882e-08 6e-45 6.059621e-08
6e-45 1.6068638e-05 6e-45 1.7340617e-05 6e-45 4.1504816e-05 6e-45 4.407233e-05
6e-45 7.830652e-09 6e-45 8.538719e-09 6e-45 0.004446874 6e-45 0.004748343
6e-45 9.993534e-05 6e-45 0.000108799104 6e-45 4.4216075e-11 6e-45 4.8296193e-11
6e-45 0.0133280475 6e-45 0.014158538 6e-45 4.2827764e-09 6e-45 4.667373e-09
6e-45 1.2875678e-05 6e-45 1.3874114e-05 6e-45 6.1845293e-09 6e-45 6.7357915e-09
6e-45 3.184357e-10 6e-45 3.47444e-10 6e-45 0.0013672987 6e-45 0.0014511622
6e-45 5.102891e-09 6e-45 5.543115e-09 6e-45 0.00013258184 6e-45 0.00014137082
6e-45 0.002948982 6e-45 0.00314466 6e-45 3.6832923e-06 6e-45 3.9483057e-06
6e-45 0.00011088691 6e-45 0.00011838818 6e-45 1.08252225e-08 6e-45 1.1798348e-08
6e-45 2.7354252e-08 6e-45 2.9702507e-08 6e-45 0.001430045 6e-45 0.0015279676
6e-45 0.0030688343 6e-45 0.0032376638 6e-45 1.0379072e-08 6e-45 1.13109415e-08
6e-45 0.00017596707 6e-45 0.00018753504 6e-45 4.0225596e-09 6e-45 4.3711683e-09
6e-45 3.1743403e-07 6e-45 3.4524868e-07 6e-45 5.5903183e-08 6e-45 6.081384e-08
6e-45 4.3873554e-09 6e-45 4.7781707e-09 6e-45 0.00011550597 6e-45 0.0001243495
6e-45 0.0012914694 6e-45 0.0013778376 6e-45 3.434543e-08 6e-45 3.7122597e-08
6e-45 8.0034515e-05 6e-45 8.5849286e-05 6e-45 2.4132265e-09 6e-45 2.640531e-09
6e-45 5.166505e-07 6e-45 5.6088544e-07 6e-45 0.03025043 6e-45 0.032164898
6e-45 0.01280812 6e-45 0.013605591 6e-45 1.1072496e-08 6e-45 1.20520065e-08
6e-45 1.8574009e-07 6e-45 2.015676e-07 6e-45 6.6416076e-05 6e-45 7.159017e-05
6e-45 3.4735835e-06 6e-45 3.7521804e-06 6e-45 4.227137e-09 6e-45 4.6051682e-09
6e-45 5.422404e-07 6e-45 5.90882e-07 6e-45 0.00049955666 6e-45 0.0005369105
6e-45 1.273341e-07 6e-45 1.3770567e-07 6e-45 3.3921356e-08 6e-45 3.7056573e-08
6e-45 6.3703184e-05 6e-45 6.836398e-05 6e-45 0.0007538481 6e-45 0.0008036884
6e-45 1.0015668e-09 6e-45 1.0928551e-09 6e-45 0.0026298764 6e-45 0.0027599428
6e-45 2.4542103e-08 6e-45 2.682034e-08 6e-45 4.841203e-09 6e-45 5.25383e-09
6e-45 0.007336456 6e-45 0.007728075 6e-45 3.9333278e-05 6e-45 4.2051484e-05
6e-45 3.5391986e-07 6e-45 3.8172968e-07 6e-45 3.082517e-05 6e-45 3.263685e-05
6e-45 0.0012944352 6e-45 0.0013593737 6e-45 1.6657357e-09 6e-45 1.8169249e-09
6e-45 0.0017542822 6e-45 0.0018537005 6e-45 0.0022114892 6e-45 0.0023039866
6e-45 0.004124519 6e-45 0.00441241 6e-45 1.7056644e-08 6e-45 1.858215e-08
6e-45 0.003631356 6e-45 0.003846043 6e-45 4.3159675e-05 6e-45 4.6777594e-05
00000000: 0400 0000 b476 7c3a 0400 0000 4a5e 863a
00000010: 0400 0000 ae01 7033 0400 0000 1e21 8233
00000020: 0400 0000 23cb 8637 0400 0000 b176 9137
00000030: 0400 0000 7515 2e38 0400 0000 4eda 3838
00000040: 0400 0000 9287 0632 0400 0000 afb1 1232
00000050: 0400 0000 15b7 913b 0400 0000 fd97 9b3b
00000060: 0400 0000 6194 d138 0400 0000 132b e438
00000070: 0400 0000 e076 422e 0400 0000 ae68 542e
00000080: 0400 0000 e25d 5a3c 0400 0000 36f9 673c
00000090: 0400 0000 b327 9331 0400 0000 a65e a031
000000a0: 0400 0000 9e04 5837 0400 0000 dec4 6837
000000b0: 0400 0000 b27f d431 0400 0000 a670 e731
000000c0: 0400 0000 d70f af2f 0400 0000 6502 bf2f
000000d0: 0400 0000 ee36 b33a 0400 0000 ec34 be3a
000000e0: 0400 0000 8155 af31 0400 0000 c175 be31
000000f0: 0400 0000 ab05 0b39 0400 0000 f13c 1439
00000100: 0400 0000 b543 413b 0400 0000 a416 4e3b
00000110: 0400 0000 7b2e 7736 0400 0000 b07b 8436
00000120: 0400 0000 f58b e838 0400 0000 2c47 f838
00000130: 0400 0000 d5f9 3932 0400 0000 afb1 4a32
00000140: 0400 0000 a3f8 ea32 0400 0000 8124 ff32
00000150: 0400 0000 5970 bb3a 0400 0000 1646 c83a
00000160: 0400 0000 7f1e 493b 0400 0000 fc2e 543b
00000170: 0400 0000 a44f 3232 0400 0000 0c52 4232
00000180: 0400 0000 cd83 3839 0400 0000 0ea5 4439
00000190: 0400 0000 cf36 8a31 0400 0000 3431 9631
000001a0: 0400 0000 cd6b aa34 0400 0000 9e5a b934
000001b0: 0400 0000 331a 7033 0400 0000 c398 8233
000001c0: 0400 0000 96bf 9631 0400 0000 3c2d a431
000001d0: 0400 0000 cc3b f238 0400 0000 d163 0239
000001e0: 0400 0000 8646 a93a 0400 0000 8f98 b43a
000001f0: 0400 0000 3383 1333 0400 0000 ba70 1f33
00000200: 0400 0000 34d8 a738 0400 0000 fc09 b438
00000210: 0400 0000 eed5 2531 0400 0000 b674 3531
00000220: 0400 0000 f4af 0a35 0400 0000 c18f 1635
00000230: 0400 0000 c0cf f73c 0400 0000 57bf 033d
00000240: 0400 0000 26d9 513c 0400 0000 fce9 5e3c
00000250: 0400 0000 5a39 3e32 0400 0000 490d 4f32
00000260: 0400 0000 d96f 4734 0400 0000 7b6e 5834
00000270: 0400 0000 dc48 8b38 0400 0000 ae22 9638
00000280: 0400 0000 b61b 6936 0400 0000 f8cd 7b36
00000290: 0400 0000 4a3e 9131 0400 0000 7d3b 9e31
000002a0: 0400 0000 7a8e 1135 0400 0000 1a9d 1e35
000002b0: 0400 0000 aef4 023a 0400 0000 74bf 0c3a
000002c0: 0400 0000 55b9 0834 0400 0000 3fdc 1334
000002d0: 0400 0000 edb0 1133 0400 0000 2228 1f33
000002e0: 0400 0000 6398 8538 0400 0000 a25e 8f38
000002f0: 0400 0000 e49d 453a 0400 0000 9eae 523a
00000300: 0400 0000 80a7 8930 0400 0000 6c33 9630
00000310: 0400 0000 015a 2c3b 0400 0000 28e0 343b
00000320: 0400 0000 a8d0 d232 0400 0000 8d62 e632
00000330: 0400 0000 ac57 a631 0400 0000 2d85 b431
00000340: 0400 0000 a766 f03b 0400 0000 cb3b fd3b
00000350: 0400 0000 c9f9 2438 0400 0000 7060 3038
00000360: 0400 0000 6002 be34 0400 0000 87f0 cc34
00000370: 0400 0000 464a 0138 0400 0000 8de3 0838
00000380: 0400 0000 0aaa a93a 0400 0000 032d b23a
00000390: 0400 0000 ddef e430 0400 0000 5db7 f930
000003a0: 0400 0000 f1ef e53a 0400 0000 def7 f23a
000003b0: 0400 0000 a2ee 103b 0400 0000 7bfe 163b
000003c0: 0400 0000 f926 873b 0400 0000 fa95 903b
000003d0: 0400 0000 f583 9232 0400 0000 949e 9f32
000003e0: 0400 0000 0bfc 6d3b 0400 0000 e50d 7c3b
000003f0: 0400 0000 5906 3538 0400 0000 0f33 4438

SA.in_proj_weight f4 [12, 4]
-0.2602523 0.53451747 -0.02686727 0.46585214 -0.16252981 0.41250664 0.18609062 0.39483294
-0.5673838 0.076598294 0.45590985 0.590002 -0.18380558 0.5072125 -0.6142816 -0.09024623
-0.6053896 -0.36971468 -0.61801225 0.50545096 -0.5474457 -0.16085379 0.19562429 -0.48116595
0.2933862 -0.4407411 0.31231666 -0.5402383 -0.266324 0.5441013 0.26186287 -0.40595832
-0.3436345 -0.6460459 -0.09154434 0.17718132 -0.27192953 -0.50833875 -0.8045961 -0.25417018
0.07682715 0.28684556 -0.33806136 0.06873914 0.22183295 -0.11200811 0.083331116 0.15204594
00000000: ca3f 85be 23d6 083f c018 dcbc 2c84 ee3e
00000010: 376e 26be 1234 d33e 8a8e 3e3e 8b27 ca3e
00000020: 1140 11bf 91df 9c3d 046d e93e 5f0a 173f
00000030: 8837 3cbe aed8 013f 8f41 1dbf 04d3 b8bd
00000040: d0fa 1abf 3e4b bdbe 0d36 1ebf 3c65 013f
00000050: 6725 0cbf dbb6 24be bc51 483e 625b f6be
00000060: b736 963e d1a8 e1be f8e7 9f3e 0f4d 0abf
00000070: 9f5b 88be 394a 0b3f e412 863e c5d9 cfbe
00000080: dcf0 afbe 4463 25bf 997b bbbd 056f 353e
00000090: 593a 8bbe 7d22 02bf 03fa 4dbf 9822 82be
000000a0: 8e57 9d3d 6cdd 923e 6116 adbe 1bc7 8c3d
000000b0: 2d28 633e 8264 e5bd 81a9 aa3d eeb1 1b3e

SA.in_proj_bias f4 [12]
-0.038989417 -0.1501454 0.0003064191 0.00016768275 1.969124e-08 -2.1350388e-07 -2.477634e-10 -3.3322374e-09
-1.6211616e-05 -2.8335795e-05 1.094071e-06 3.543118e-06
00000000: 5eb3 1fbd b7bf 19be e0a6 a039 ffd3 2f39
00000010: 7f25 a932 803f 65b4 9935 88af 57fd 64b1
00000020: 2efe 87b7 a8b2 edb7 fed7 9235 4ec6 6d36

SA.out_proj.weight f4 [4, 4]
0.08324158 -0.048448205 0.35154903 -0.46839982 -0.046323016 -0.7450967 -0.21508437 0.10806189
0.03246832 0.37173057 0.07523841 -0.47684056 -0.6693779 -0.4881096 0.19805527 0.06938084
00000000: 907a aa3d a071 46bd 3cfe b33e 1ad2 efbe
00000010: 34bd 3dbd a8be 3ebf 143f 5cbe 8d4f dd3d
00000020: 80fd 043d 7853 be3e 9816 9a3d 7224 f4be
00000030: 5a5c 2bbf 80e9 f9be 00cf 4a3e 8b17 8e3d

SA.out_proj.bias f4 [4]
3.299457e-07 3.553829e-05 1.7213097e-07 2.9021085e-05
00000000: 6423 b134 f30e 1538 00d3 3834 4e72 f337
