images/models/other_models/Attention/best_models4.pth.tar (torch, 471215 bytes, 18 tensors)

bn1d0.weight f4 [739]
00000000: 56e5 373f e829 823f 8b16 793f a6f5 6c3f
00000010: 880b 833f 1fb3 863f a286 763f 2fac 7d3f
00000020: a59d 883f 9fb7 6c3f 18b7 733f 157b 683f
00000030: 8124 943f c081 813f d9ad 783f d348 7d3f
00000040: fe27 7e3f accb 803f cff1 793f fa8d 713f
00000050: 35d4 863f 03e7 7c3f c85d 803f 8ed0 793f
00000060: f299 773f 4d1e 8c3f 8191 8e3f 50c3 7b3f
00000070: c0fc 793f 1931 953f b6e4 823f 66ff 8b3f
00000080: 7b92 813f 5583 873f 103b 813f f3e4 813f
00000090: 1744 883f 84a1 813f bffb 803f cbaf 813f
000000a0: 74dd 7e3f eabe 823f ea1a 7e3f 547d 7c3f
000000b0: c593 803f 115f 8d3f e435 893f 4902 813f
000000c0: 9453 803f 61d1 803f 6ea2 833f 8995 7b3f
000000d0: 27a8 7d3f 41cf 803f de5a 823f d73f 8d3f
000000e0: 97a4 9a3f 2aab 7d3f 2b70 7a3f 3ecb 853f
000000f0: c2fe 993f 2e68 893f aefa 833f fb93 7b3f
00000100: 2080 7d3f 142c 853f 4e03 7b3f a6c0 813f
00000110: 423f 843f d410 873f e20f 7d3f fe3e 7d3f
00000120: 4936 7d3f c357 7e3f e791 7e3f 2185 803f
00000130: 9e77 7d3f db17 7f3f e83b 803f d8d3 803f
00000140: 0efa 7c3f fb0c 803f adcf 7e3f ab20 803f
00000150: 1d52 803f d419 7f3f b96b 813f b697 803f
00000160: b22d 8e3f ec8c 813f 17b0 833f 9c2a 813f
00000170: 93b5 813f 9ff2 843f ca35 8d3f b3aa 813f
00000180: 271c 7f3f af6a 803f 016b 803f 04e1 7d3f
00000190: 19d5 833f 95da 843f 715b 7f3f 038e 7e3f
000001a0: 2432 7e3f 56fa 823f c4ad 973f 18a2 7f3f
000001b0: 01d7 7e3f ad15 7f3f 4d7e 813f b9e9 823f
000001c0: 3447 7b3f 34a4 813f 3849 803f d98e 883f
000001d0: ab0a 7c3f a242 7f3f 331d 833f 6cad 823f
000001e0: 31c7 893f 39d8 7e3f d8e4 7d3f 7238 7b3f
000001f0: b12c 813f a38a 8e3f a0a2 783f b6b8 753f
00000200: 012b 703f 5b0b 7e3f 1535 723f ccce 683f
00000210: 72eb 6c3f dbb9 6f3f d98f 753f 1720 803f
00000220: d52d 853f bf92 7f3f c23c 7c3f 81d9 8c3f
00000230: efde 833f b070 823f 7a81 8c3f f22d 7e3f
00000240: e7d5 813f 3a47 803f e703 813f dd9a 813f
00000250: 216e 7e3f f462 803f 18a3 7f3f 7e5e 853f
00000260: 85cb 823f a95b 7f3f 9642 803f 9e95 7e3f
00000270: 5dae 7d3f 87be 823f 2753 853f 41b4 813f
00000280: f972 803f 9e50 7f3f 26b4 9c3f 2c73 7d3f
00000290: 0be7 7d3f 71e3 843f b066 823f afb2 803f
000002a0: 75b8 7f3f c99a 873f 6be2 7f3f 3fe7 823f
000002b0: fc08 803f 258f 7f3f 3bdc 873f 0f51 7f3f
000002c0: dec3 803f 158f 933f a201 7e3f f60f 803f
000002d0: c78b 853f c235 8d3f 67b9 813f 7610 803f
000002e0: 8096 813f 16c9 853f dbad 813f 7888 9b3f
000002f0: 8fa2 a53f d0db 8a3f e00d 803f 3db4 823f
00000300: 2dbc 7d3f f26a 8c3f 1420 873f b9d2 8f3f
00000310: 4150 7b3f 1897 873f 9ab7 853f ead3 803f
00000320: 3cf4 7e3f c64a 793f 3344 843f 8072 7b3f
00000330: ddec 813f e57a 763f 94ad 7b3f f71c 7b3f
00000340: 2ede 7c3f 5b91 7c3f 6fe0 863f 5273 843f
00000350: b385 863f 246f 803f 4010 5a3f 8eab 5f3f
00000360: 45c2 743f 9d9a 423f d5c1 2a3f 663d 513f
00000370: d342 4d3f d8e0 7c3f 0c2e 3d3f ff84 613f
00000380: bfd7 283f b547 1e3f ffe4 3a3f 60fa 7f3f
00000390: 43fa 7f3f c001 803f 620d 803f 3dff 7f3f
000003a0: 76fc 7f3f 55fd 7f3f 4306 803f 781c 803f
000003b0: 84f3 7f3f 5e04 803f 23e3 7f3f 6eff 7f3f
000003c0: 0f03 803f 8706 803f 3701 803f 4e0c 803f
000003d0: df04 803f 04ff 7f3f 0a28 803f bd09 803f
000003e0: e2e8 7f3f 7408 803f 4503 803f e301 803f
000003f0: 03ed 7f3f 3af3 7f3f f9ec 7f3f 4401 803f
0.71834314 1.0169039 0.9730002 0.9256233 1.0237894 1.0523413 0.96299183 0.99090856
1.0673109 0.92467684 0.95201254 0.9081281 1.157364 1.0117722 0.9714027 0.98939246
0.99279773 1.0062156 0.97634596 0.94357264 1.053351 0.98789996 1.002862 0.97583854
0.96719277 1.0946747 1.1138154 0.983449 0.9765129 1.1655608 1.0226047 1.0937316
1.0122827 1.0586954 1.009615 1.0147995 1.0645779 1.0127416 1.0076827 1.0131773
0.9955666 1.0214512 0.9925982 0.98628736 1.0045096 1.1044637 1.0719571 1.0078822
1.0025506 1.0063897 1.0283945 0.9827505 0.99084705 1.0063249 1.018398 1.1035107
1.2081479 0.990893 0.97827405 1.045265 1.2030871 1.0734918 1.0310876 0.98272675
0.9902363 1.0404077 0.9805192 1.0136917 1.0331805 1.055201 0.9885236 0.98924243
0.9891096 0.99352664 0.9944138 1.0040628 0.99010646 0.99645776 1.0018282 1.006465
0.98819053 1.0003961 0.9953564 1.000997 1.0025059 0.99648786 1.0110999 1.0046299
1.1107695 1.0121131 1.0288113 1.0091128 1.0133537 1.0386542 1.103204 1.0130218
0.9965233 1.0032557 1.0032655 0.9917147 1.0299407 1.0379206 0.99748904 0.9943544
0.9929526 1.0232646 1.1849904 0.9985671 0.9954682 0.9964245 1.0116669 1.0227576
0.9815552 1.0128236 1.0022345 1.0668594 0.9845378 0.9971105 1.0243286 1.0209174
1.0763913 0.9954868 0.9917731 0.98133004 1.0091764 1.1136059 0.97123146 0.9598497
0.9381562 0.9923608 0.94612247 0.90940547 0.9254676 0.9364297 0.9592262 1.0009793
1.0404612 0.9983329 0.9853021 1.1003877 1.0302409 1.019064 1.0977013 0.99288857
1.0143403 1.0021737 1.0079316 1.0125386 0.99386793 1.0030198 0.99858236 1.0419462
1.0218359 0.9974924 1.002032 0.9944705 0.9909418 1.0214394 1.0416001 1.0133134
1.0035087 0.9973239 1.2242477 0.99003863 0.9918067 1.038191 1.0187588 1.005453
0.99890834 1.0594112 0.9995486 1.0226821 1.0002742 0.99827796 1.0614084 0.9973306
1.0059774 1.152804 0.9922124 1.0004871 1.0433282 1.103203 1.0134705 1.0005023
1.0124054 1.0451992 1.0131181 1.2151022 1.2940234 1.0848331 1.0004234 1.0211254
0.9911526 1.0970137 1.0556664 1.1236182 0.9816933 1.0592985 1.0446656 1.0064671
0.9959142 0.9737972 1.0333313 0.9822159 1.015041 0.9628127 0.98311734 0.9809107
0.9877652 0.98659295 1.0537242 1.0347693 1.0509552 1.0033917 0.85181046 0.87371147
0.9560893 0.7601717 0.66702014 0.8173431 0.8018009 0.98780584 0.73898387 0.8809356
0.659542 0.61828166 0.7300567 0.99991417 0.99991244 1.0000534 1.0004084 0.9999884
0.999946 0.9999593 1.0001911 1.0008688 0.9998095 1.0001333 0.9995596 0.9999913
1.0000933 1.0001992 1.0000371 1.0003755 1.0001487 0.999985 1.0012219 1.0002972
0.99964726 1.000258 1.0000998 1.0000576 0.99971026 0.9998051 0.99970967 1.0000386

bn1d0.bias f4 [739]
00000000: f0f2 403d deda 12bd aac4 773c 3953 093d
00000010: d629 fabc 003b ad3d 5cff 27bd 7f94 acbd
00000020: fce3 58bc db37 8b3c 1350 2cbd 5c89 e0bc
00000030: 69f8 7a3c 26a6 11bc e271 3bbd 9522 52b9
00000040: b9e9 2bbb daea 06bb 0de7 cfbb e755 763d
00000050: 04a7 163d 5c1e 153c 671d a13c 2b4a 2f3d
00000060: 71a1 1c3c f4c7 e23c 4f24 ec3c fce9 2b3d
00000070: f3a5 6e3c c8a5 e33b fabc bd3c 9f2e 863d
00000080: 8149 45bc 664f c93c e665 483b 611c f3bb
00000090: 905d b53d 3776 debc 27d1 643c 1718 473d
000000a0: 44b4 e5bb 913a 133c 4e0a 23bc 1950 68bc
000000b0: 9177 083a 0e9e e8bc 8070 1f3d 5971 3fbd
000000c0: 8c39 2abc 1469 e93b 2d8f b53c 33e6 34bc
000000d0: 4cfb e9bb d2af bd3c b7e7 12bd e74e 1cbc
000000e0: 8378 9fbc e69b 9e3c 4828 e2bc ef95 13bd
000000f0: cae0 69bd e002 b2bd c47c 9abc 71b5 8dbd
00000100: 2641 68bb 4639 59bc f373 52bd 792c debc
00000110: e4a3 63bc 01b5 9b3b f321 94bc 3cec cc3c
00000120: 1dfb 1dbc 0fef 463c f621 debb acb0 4b3d
00000130: b193 003c b326 473b a609 04bd 6f7b 38bc
00000140: 0b80 213d ab10 03bd 8435 69bc c3c9 fd3b
00000150: 814c 6dbb 25f8 8f3b e2de 373b a550 8e3b
00000160: 7a48 f73c 9962 ef3b d2b2 bc3c 28d0 8c3c
00000170: 447d b73b 0b84 103c 86eb 06bd 6be1 293d
00000180: 2116 ed3b 2092 e23c b50a 943c a856 af3b
00000190: ee31 8cbc c081 f43c b638 aabc f774 a9bc
000001a0: ba43 7dbc 1f3a 98bc 7701 22bd 1bcb 1fbc
000001b0: 2c0f 5a3c d182 973b 1460 f0bc c526 ecbc
000001c0: a76e 1dbb c29a e4bc b70a 55bc f8a6 053c
000001d0: 433d 8ebc 0a6f 9e3c 5b21 54bc cd1b dabb
000001e0: cce5 f83b f0b8 083d 80d3 ed3b 81cf d0bc
000001f0: 30be 223c 2018 5fbc f8b4 3bbc c226 5a3c
00000200: e118 90ba 2247 493c ca12 3a3c 846c a53c
00000210: db39 d23c 5e6b 3dbb defc d93c dbf7 f7bb
00000220: 18e2 963b bb43 3cbc bbdc 8bbb def4 4c3c
00000230: 1f4d f1bc f021 303c b47a 993a 5b0f 2aba
00000240: a920 86ba 068c 16bd 7748 0c3c 6206 1bbd
00000250: 17fb c0bc 288e 513c 4c0b 843c 1844 18bc
00000260: 3960 0abc 16cd 43bc 1b6b be3c d7d0 883c
00000270: cec3 a5bc baa8 a23c 765d 053d 4a3b 8c3c
00000280: 89d5 01bb eea5 8a3c 4d21 333c 635a 01bc
00000290: 530b a93b 7120 683c 76fa 8fbb fa7e b43b
000002a0: 70b3 dd3b 1901 a9bc edb2 423a 7a55 bbbb
000002b0: 580d ec3c 0efc 153c e0ab 993c e640 c5bb
000002c0: 2144 0dbb 8e57 50bd d31a 243c 8ff4 d83b
000002d0: dea2 b3bc 4c5f 6ebc da32 08bb 7353 933c
000002e0: feb1 04bd ab5e d2bb c48d 87ba 1c20 ffbb
000002f0: 643c 323d ac25 88bc 9625 1d3c 2889 a2bc
00000300: 41b8 c7bc 8d7e 55bb 9cd6 883b d6c6 32bd
00000310: d3c9 12bd 2e97 e53b d23a 8d3a 972a b93c
00000320: 40fa 9dbb cca0 93bc 996d 213d a419 10bc
00000330: a4fd 9b3c 504b be3c d3f5 e1bc 7dec 573d
00000340: 060c 60bd 84a6 523b 9d61 d03c 1528 a6bc
00000350: 13b5 20bc 117c ecbc 5b5b 5abc 0453 363d
00000360: 4c31 57bd f35a 95b9 70aa 4bbb 361d 233d
00000370: 9c3e a03c 5fbb c43c 6ab1 5fbd 6906 083e
00000380: ab44 23be 242a 41bd dbfb 3e3d 6b19 6abc
00000390: 901a efbb fcd8 92bb 3456 5a3c 3a19 4abc
000003a0: 6ecf 53bc 8cbc 133c 9391 b0bc 47b7 a0bb
000003b0: dfa0 f93b b214 f8bb 401d 183c 902b 98bc
000003c0: e498 cc3c 4c16 8fbc a677 743c 7a92 3f3c
000003d0: 7d8d dd3c da0b 9dba 7ed0 af3a 4b6f 3ebc
000003e0: a109 c9bb cc1a 82ba 59c0 92bb 8b10 a33c
000003f0: d481 2f3c ae06 bc3b d904 63ba b2ca 863c
0.047106683 -0.03585326 0.015122572 0.033526633 -0.030537527 0.08458519 -0.041015014 -0.08426761
-0.013237949 0.016994407 -0.042068552 -0.027409248 0.015318015 -0.0088897105 -0.045762904 -0.00020040043
-0.002623184 -0.002058676 -0.006344682 0.060140517 0.036780372 0.0091014765 0.01966734 0.04279534
0.009559975 0.027683236 0.028825907 0.04197119 0.014565933 0.006947253 0.0231614 0.06551861
-0.0120414505 0.024573993 0.0030578314 -0.0074191545 0.08855736 -0.027155979 0.013965881 0.04860696
-0.0070100147 0.008986131 -0.009951187 -0.014179253 0.0005205805 -0.028395679 0.038925648 -0.046738956
-0.010389697 0.007123122 0.022162998 -0.011041212 -0.0071405526 0.023155127 -0.03586551 -0.009540296
-0.019466644 0.019361448 -0.027607098 -0.03603166 -0.05709914 -0.086919546 -0.018858321 -0.06919373
-0.0035439222 -0.013258284 -0.05138011 -0.027120816 -0.013894055 0.004751802 -0.018082594 0.02501499
-0.00964239 0.012141957 -0.006778951 0.049729034 0.007847712 0.0030388057 -0.032235764 -0.011259898
0.039428752 -0.031998318 -0.0142339505 0.007744999 -0.003620893 0.004393595 0.0028056432 0.0043431097
0.030185927 0.007305455 0.023034487 0.0171891 0.0055996496 0.008820544 -0.032939456 0.04147474
0.007235304 0.027657568 0.018071512 0.0053509064 -0.017113652 0.029847026 -0.020778995 -0.020685656
-0.015458042 -0.018582402 -0.03955218 -0.009753014 0.013309281 0.004623749 -0.029342689 -0.02882708
-0.0024022253 -0.027905826 -0.013003043 0.008157484 -0.017363196 0.019340057 -0.012947406 -0.006656146
0.0075957533 0.033379495 0.007257879 -0.02548957 0.00993304 -0.013616592 -0.0114567205 0.013314905
-0.0010993743 0.012285026 0.011357019 0.020193346 0.025662353 -0.0028903107 0.026609834 -0.0075673885
0.004604589 -0.011490758 -0.0042682565 0.012509553 -0.02945572 0.010750279 0.0011709542 -0.00064872735
-0.0010233122 -0.03675463 0.008562199 -0.037847884 -0.023557229 0.01279024 0.016118668 -0.009293579
-0.008445793 -0.011950752 0.023244431 0.016701145 -0.020234969 0.019855846 0.032559834 0.017118115
-0.0019811115 0.016924825 0.0109332325 -0.007895085 0.0051588207 0.014167891 -0.004393871 0.005508301
0.0067657754 -0.020630406 0.0007427175 -0.0057169767 0.028814957 0.009154333 0.018758714 -0.0060196994
-0.00215555 -0.05086475 0.010016161 0.0066209505 -0.021928247 -0.014549088 -0.0020782263 0.017984128
-0.03239631 -0.0064199767 -0.0010341932 -0.00778581 0.043514624 -0.016619526 0.009591481 -0.019840792
-0.024379851 -0.003257665 0.004175974 -0.043646656 -0.035837006 0.0070065474 0.0010774976 0.022603316
-0.004821092 -0.01802101 0.03941116 -0.008795176 0.019041844 0.023229271 -0.027583038 0.052715767
-0.054698966 0.0032142708 0.02543717 -0.020282784 -0.009808796 -0.028867753 -0.013327445 0.044512764
-0.052537248 -0.00028487257 -0.003107693 0.03982278 0.019561104 0.024015127 -0.054612555 0.13283695
-0.15944164 -0.04715933 0.046626907 -0.014288287 -0.0072968677 -0.004481433 0.0133262165 -0.012335116
-0.012927873 0.009017121 -0.02155379 -0.004904661 0.0076180543 -0.0075708264 0.0092843175 -0.01857546
0.024975248 -0.017466687 0.014921105 0.011692638 0.027045006 -0.0011981681 0.0013413576 -0.011623214
-0.006135181 -0.0009926199 -0.004478496 0.01990535 0.010712106 0.005738101 -0.0008660085 0.016454075

bn1d0.running_mean f4 [739]
00000000: cc4c 6ebb f6b1 1fbb b427 e3ba 7996 afbb
00000010: 0d9c b3bb 976d d8bb d5a3 91bb ea1e d6ba
00000020: 4a21 c53a 6efc 893a 365a d0b8 288f 05bb
00000030: 9306 59bb 38f8 86bb 7aac 55bb 0bc0 1fbb
00000040: af60 caba c952 60ba 34c4 7a39 4912 11b9
00000050: 74c2 833a 154a 373a 0502 8d3a 81e5 ef3a
00000060: 6ad4 fd3a f4ae 293b cd1c 053b d412 143b
00000070: e9d7 113b 8e4c 143b 7ed0 163b f7ef 013b
00000080: bc07 053b a8cf d23a 3b3a f53a 50ad c73a
00000090: 9d16 783a ce0f 553a 0500 fd39 7e01 e539
000000a0: 8d8f 5d39 d1c7 51b9 9c40 8eb9 523e 58b9
000000b0: f034 3dba 38c9 18ba 3c28 8cba d47d 9bba
000000c0: 41b1 82ba 6ba2 d8ba aa4f c3ba 2172 c2ba
000000d0: 96df d5ba d2c8 dfba e043 24bb 995a 20bb
000000e0: 34a5 6cbb 3167 94bb 5c9c cabb 1c3f fbbb
000000f0: c6d9 14bc 5a67 17bc f99a 0ebc 86c2 22bc
00000100: 16db aebb 4468 7dbb 3f57 3dbb b076 f1ba
00000110: 4d0e ccba 6f4a a9ba a613 a9ba 0659 8dba
00000120: ddbb caba a0d7 79ba 0f8a 33ba f7b1 0aba
00000130: d7e1 03ba 4dc5 35b9 f76b b039 7a58 d939
00000140: aa3f 1f3a 0407 7f3a 9acc a73a d969 8a3a
00000150: ba6f 7b3a e6a3 683a 0ba3 663a ae9a 893a
00000160: bf2d 583a 1eff 223a a14f 1d3a 302e 043a
00000170: a935 e639 d014 e439 2e80 7038 98e5 07b9
00000180: f6ed b237 9fe0 02ba 455e 42ba 49ca 63ba
00000190: 9714 a7ba c669 13bb cb60 eeba cc71 12bb
000001a0: c028 2fbb e7e4 3dbb b0db 5cbb 89bb 74bb
000001b0: f19c 86bb d67f 97bb a9bb d6bb 5f86 b0bb
000001c0: 8838 b7bb b8b0 b2bb d746 b6bb bc9b b1bb
000001d0: 6fcb a5bb e6b1 9dbb a09f 90bb af8e 8abb
000001e0: be97 afbb 257f 84bb 7d99 97bb 6e78 a4bb
000001f0: fccb c4bb 10b2 f6bb 02be 15bc 89c4 31bc
00000200: aa5f 4bbc fe51 94bc b2fb 63bc c9c0 5bbc
00000210: cd68 47bc 8fb8 2cbc 0597 12bc b831 f2bb
00000220: 73ea c3bb 6419 99bb 8af0 7dbb abdd 80bb
00000230: 541d 1cbb dd92 e3ba 3609 c5ba 124e 92ba
00000240: 1f09 5dba 34e6 0dba a3d7 bfb9 808d 8db9
00000250: 8ee4 16b9 ccbd af38 d209 2c39 1e88 be39
00000260: 3c86 483a e88f 643a 6975 a23a c672 ad3a
00000270: 70d3 ca3a f919 d33a 1747 1b3b ff8b 003b
00000280: 6c17 023b 5cb5 093b 5ef1 093b d586 0d3b
00000290: 1907 0b3b a100 173b dbf6 113b 3d47 443b
000002a0: b851 133b 3cb3 103b 14fc 143b d0a7 0c3b
000002b0: 3a32 0c3b edaa 083b 4a5d 093b f0dc 013b
000002c0: a6d1 063b 1beb 243b d398 033b e38e fa3a
000002d0: 5efd ea3a 92fe fa3a 7068 e43a 8f90 e53a
000002e0: 596b f43a 1505 dd3a 7021 153b 5cbc d63a
000002f0: 1521 d73a 16ff d43a 0a4d d63a 5061 ce3a
00000300: 8ebb d43a ee1d da3a e68f c93a a5a8 063b
00000310: cca0 9a3a 9d4e c43a afb7 bb3a e570 ac3a
00000320: 4d9f c03a ed83 a43a aa63 a13a 7432 a93a
00000330: b4a8 8a3a a212 c03a ea4a 5c3a e5d1 823a
00000340: 3611 8e3a ea6f a63a 78e8 c23a 31b4 163b
00000350: c687 573b c6fb a73b 3567 393c 8845 4e3c
00000360: 4365 8e3c 8cc1 ac3c 636e b93c a98c bd3c
00000370: bb99 903c 0deb 2a3c e9b0 5f3b a41a 86b9
00000380: 31bb 87bb 40ab c0bb b4a7 c0bb 952a fd3a
00000390: f880 fd3a 1b18 003b f45b fe3a 6547 fa3a
000003a0: b7e3 fd3a 7819 003b 70d5 fe3a ebea ff3a
000003b0: 40cc ff3a 0bd6 003b ab6d fe3a aa51 fa3a
000003c0: e421 fe3a 306e fb3a 0eb8 003b ea8f fd3a
000003d0: 48de 043b ed3c fe3a b7ab 023b 8f13 083b
000003e0: c4e3 043b e8ce ff3a 8c9d fd3a d579 fc3a
000003f0: e22f 003b 3be8 ff3a 6ffa fd3a 3f2a 013b
-0.0036361692 -0.0024367548 -0.0017330558 -0.005358514 -0.005481249 -0.006604861 -0.004444579 -0.0016336117
0.0015039828 0.00105275 -9.935016e-05 -0.0020379517 -0.003311549 -0.0041189454 -0.0032604025 -0.002437594
-0.0015440191 -0.0008557258 0.00023914949 -0.0001383509 0.0010052458 0.0006991935 0.0010758048 0.001830265
0.0019365672 0.0025891634 0.0020311356 0.002259423 0.0022253937 0.0022628638 0.0023012455 0.0019826868
0.00202988 0.0016083615 0.0018709371 0.0015234146 0.0009463819 0.000812766 0.00048255935 0.00043679395
0.00021129679 -0.0002000623 -0.00027132488 -0.00020622581 -0.0007217666 -0.0005828324 -0.0010693143 -0.0011863061
-0.0009971039 -0.0016527897 -0.0014901061 -0.0014835038 -0.0016317244 -0.0017073399 -0.002506487 -0.0024468063
-0.003610921 -0.004528903 -0.0061831903 -0.0076674353 -0.009085124 -0.0092409495 -0.008703941 -0.009934073
-0.0053361757 -0.0038666883 -0.0028891114 -0.0018422212 -0.0015568227 -0.001291586 -0.0012899532 -0.0010783977
-0.0015467365 -0.0009530727 -0.00068488804 -0.0005290801 -0.0005030906 -0.00017335005 0.00033649776 0.00041455386
0.00060748553 0.00097285234 0.0012802065 0.001056011 0.00095915387 0.00088745204 0.0008798099 0.0010498369
0.0008246563 0.0006217825 0.00060009403 0.0005042283 0.00043908998 0.00043503055 5.7339836e-05 -0.00012960134
2.1330063e-05 -0.00049925776 -0.000741456 -0.00086895056 -0.0012747225 -0.0022493466 -0.0018186806 -0.002234566
-0.002672717 -0.0028975548 -0.003370028 -0.0037343225 -0.0041080643 -0.0046233935 -0.0065531326 -0.005387112
-0.005591456 -0.0054531954 -0.005562644 -0.0054201763 -0.0050596516 -0.004812467 -0.00441356 -0.004228435
-0.0053586653 -0.004043477 -0.0046264515 -0.005019239 -0.006005762 -0.007528551 -0.00913954 -0.01085008
-0.012412945 -0.018105503 -0.013914989 -0.013412663 -0.012170983 -0.010542049 -0.008947139 -0.007391181
-0.0059788763 -0.0046722163 -0.0038748109 -0.003932675 -0.0023821192 -0.0017362494 -0.0015032652 -0.0011162183
-0.000843184 -0.0005413026 -0.0003659102 -0.0002699904 -0.00014390258 8.380003e-05 0.00016406857 0.0003634104
0.0007649397 0.00087189535 0.001239461 0.0013233058 0.001547439 0.0016105763 0.0023693496 0.0019614694
0.0019850386 0.002101264 0.0021048407 0.0021595259 0.0021213947 0.0023041146 0.0022272381 0.0029949688
0.0022479128 0.0022079488 0.0022733258 0.0021462329 0.0021392242 0.0020853833 0.0020960146 0.0019815527
0.0020571738 0.0025164548 0.0020080104 0.001911607 0.0017928293 0.0019149354 0.0017426144 0.0017514395
0.0018647715 0.0016862476 0.0022755526 0.001638304 0.0016413057 0.0016250338 0.0016349864 0.0015745554
0.0016230212 0.0016641 0.0015377968 0.0020547297 0.0011797189 0.0014977042 0.001432171 0.0013156204
0.0014695913 0.0012551524 0.0012313027 0.0012908713 0.0010578842 0.001465399 0.0008403497 0.0009980766
0.001083887 0.0012698148 0.0014870306 0.0022995586 0.0032887324 0.0051264493 0.01131611 0.01258982
0.01738227 0.021088384 0.022635644 0.023138361 0.01765143 0.010432017 0.0034132546 -0.0002557832
-0.004142188 -0.0058797896 -0.005879367 0.0019315059 0.0019340804 0.0019545618 0.0019406066 0.0019094764
0.0019370232 0.001954643 0.0019442271 0.0019524967 0.0019515827 0.001965883 0.0019411346 0.0019097824
0.0019388762 0.0019182619 0.0019640955 0.0019345258 0.0020274092 0.0019396819 0.0019938776 0.002076361
0.002027736 0.0019516619 0.0019349321 0.0019262383 0.001955979 0.0019524166 0.0019377003 0.0019709019

bn1d0.running_var f4 [739]
00000000: 035c a137 2c8b 2f37 efc1 f836 894b f936
00000010: 341c 1037 9439 9636 d9d7 6c36 fcaa f535
00000020: 2785 2a36 b6df d335 5dfc 2936 1e63 0736
00000030: 084c 0036 8c0b d535 6594 c235 d750 8935
00000040: cb00 9a35 9de1 6835 c3cd 3c35 7711 8135
00000050: 5d93 3635 3374 1235 f10a 5735 a709 3835
00000060: b7d5 3735 597a 2335 6975 3935 51e9 2535
00000070: 1c9d 0935 cd1e 1335 0526 f034 4fc3 0735
00000080: a943 b834 2675 e234 6b1c ec34 399c 0d35
00000090: cbb4 df34 e7e1 f634 8fc2 dd34 4232 f734
000000a0: dc17 ea34 cc52 ec34 ddc1 ce34 bbb1 e034
000000b0: 3ce8 e434 1662 f334 73fa db34 4d76 ec34
000000c0: 92cc c634 6fe8 a934 026f df34 b738 1735
000000d0: 34d4 1435 6938 e534 9307 0b35 f33a 1a35
000000e0: 90e0 1435 9108 4835 df75 9b35 ade2 d335
000000f0: 0f27 0936 000c f135 4f7f fc35 fee6 0e36
00000100: ed23 3a35 5117 1535 ed49 0035 fb36 c534
00000110: 8d5d b134 c0b1 8f34 05e9 be34 60fa b434
00000120: 0ab2 a234 de86 a934 39bc bb34 b78d af34
00000130: d93a 8f34 7152 6034 dbaa 9f34 c467 8d34
00000140: d939 9f34 1c1e 7a34 d89e c134 742b ac34
00000150: bcdf 8034 27a5 8d34 3043 7234 9670 4334
00000160: 2fc6 4734 f0da 5434 0de9 4234 d49c 5a34
00000170: 7eaa 1634 00f6 4a34 5ff7 5434 0bbe 4c34
00000180: b5e1 2a34 46ac 1c34 61e2 2a34 e170 3234
00000190: c5ab 1834 c83a 5534 d686 2934 39f4 5334
000001a0: ca73 9434 8dbb 8e34 3eb2 6c34 342f b934
000001b0: 56fd aa34 82f6 e834 dadd 5135 dacc e834
000001c0: f991 1c35 e2b4 0e35 8fe0 0035 70fa dd34
000001d0: d2fe fd34 528f c534 cfe6 b034 4713 a834
000001e0: b0f0 f334 d4d6 8434 5d92 8834 7e0a ab34
000001f0: f85d fd34 a635 3435 8a43 5d35 defc 9935
00000200: a086 db35 1b72 5836 8940 0736 7351 0d36
00000210: 7089 f135 6440 ce35 0ebb 9f35 81ee 7935
00000220: 26a8 3735 cb1f f934 c9bd a834 8281 fc34
00000230: 5ba6 2834 547a 7134 ed61 1534 10d8 4c34
00000240: f13c 2b34 16f9 1834 62f8 1334 99eb d033
00000250: d6a9 e333 0083 d933 1f6f bf33 66c9 fa33
00000260: 9564 3734 c3a9 0934 0737 3134 03f4 5234
00000270: a207 2534 5843 2f34 fc4f 9334 59ee 2a34
00000280: 3c02 6134 8499 3f34 9060 5c34 5b8b 6f34
00000290: 04b5 6f34 34bb 4a34 a5cb 8634 e8ff 9934
000002a0: 4813 5934 efac 8434 48e6 4334 54e4 6834
000002b0: 95bb 9034 771e 6f34 0d89 6534 5658 8734
000002c0: 340f 8334 9ae6 9834 f84a 7e34 f632 8134
000002d0: 356b 7534 e365 a034 a688 8434 ff52 8434
000002e0: 6f85 9134 fa35 ac34 1871 a934 c37b a134
000002f0: b2b8 a734 89f4 ca34 3fc9 ca34 5dd6 ff34
00000300: c6d5 a834 6c8c cc34 d8fa e634 db3c 0935
00000310: 3c04 ed34 4deb f034 a39a 0b35 7a0f cd34
00000320: 5e60 3d35 f764 1635 e78c 0b35 02e5 1735
00000330: 184e 1e35 8456 3835 dc71 4035 29f3 8635
00000340: 164b 5135 b110 5035 bde2 6635 0e1b 8935
00000350: a9af 9635 048a a735 c925 6936 cbe2 8536
00000360: 939a d436 814d 3637 e58f 4b37 c30f 6b37
00000370: 656f 5b37 7340 7537 363b 6b37 76f5 9237
00000380: 3c94 ea37 bd4f 3038 40e0 5a38 00c2 2e2f
00000390: fa16 8e2e 44a9 882f 33d7 362f 1889 962c
000003a0: 647d 862e 6ab9 622f 9b9a 162f d2ed 832f
000003b0: 8bd7 d82f 5746 002f d3c3 232f d61c 562d
000003c0: 4f78 dd2e ed77 322e 882c 102f c670 222f
000003d0: 2805 dd2f f620 fd2e d8cc c82f 54a2 f52f
000003e0: 9d75 ff2f 1e5d 9c2f 8e44 a42e 6fd6 dc2e
000003f0: 27a7 172f 94ce 832e 3798 e62e 28d4 7c2f
1.9235542e-05 1.0463216e-05 7.413553e-06 7.4295717e-06 8.589635e-06 4.4770513e-06 3.529238e-06 1.8303685e-06
2.540948e-06 1.5785834e-06 2.5329857e-06 2.0174261e-06 1.9117742e-06 1.5873097e-06 1.4497315e-06 1.0230823e-06
1.1474125e-06 8.6755045e-07 7.033488e-07 9.616332e-07 6.8014725e-07 5.455833e-07 8.0109663e-07 6.855939e-07
6.848381e-07 6.090027e-07 6.9088725e-07 6.180681e-07 5.12651e-07 5.480659e-07 4.4731146e-07 5.057563e-07
3.43219e-07 4.2181017e-07 4.3979102e-07 5.2753927e-07 4.166853e-07 4.5985436e-07 4.1306018e-07 4.6043903e-07
4.3603256e-07 4.4018668e-07 3.8511544e-07 4.1852567e-07 4.2637282e-07 4.5333644e-07 4.0974155e-07 4.40445e-07
3.7029218e-07 3.164782e-07 4.1617756e-07 5.6334414e-07 5.544309e-07 4.2695618e-07 5.1792557e-07 5.7455253e-07
5.546108e-07 7.451827e-07 1.1582705e-06 1.5786696e-06 2.0437326e-06 1.7959392e-06 1.8812515e-06 2.1294104e-06
6.934268e-07 5.5540755e-07 4.779129e-07 3.6734113e-07 3.3036886e-07 2.6765156e-07 3.5559802e-07 3.3709784e-07
3.0304392e-07 3.1576832e-07 3.4968414e-07 3.26994e-07 2.6678643e-07 2.0891618e-07 2.9740372e-07 2.6338796e-07
2.9658148e-07 2.3294018e-07 3.6064625e-07 3.2069113e-07 2.4004646e-07 2.638346e-07 2.2562449e-07 1.8201749e-07
1.8605418e-07 1.9823688e-07 1.8152441e-07 2.0359886e-07 1.4031863e-07 1.890221e-07 1.9834032e-07 1.9068118e-07
1.5914596e-07 1.4591305e-07 1.591484e-07 1.6618607e-07 1.4218593e-07 1.9858555e-07 1.5788405e-07 1.9739754e-07
2.7651396e-07 2.6586022e-07 2.2044057e-07 3.449328e-07 3.1849294e-07 4.3392726e-07 7.8181404e-07 4.3362417e-07
5.8326947e-07 5.316234e-07 4.801049e-07 4.1346675e-07 4.7310328e-07 3.679839e-07 3.295049e-07 3.1306465e-07
4.54374e-07 2.4743224e-07 2.5438467e-07 3.1858866e-07 4.7193294e-07 6.7133294e-07 8.24272e-07 1.1472982e-06
1.6355953e-06 3.2252926e-06 2.0154132e-06 2.1058047e-06 1.7995899e-06 1.5366936e-06 1.1900863e-06 9.31068e-07
6.84175e-07 4.6402997e-07 3.1430525e-07 4.7032887e-07 1.5706739e-07 2.2489377e-07 1.3912332e-07 1.9077584e-07
1.5947786e-07 1.424672e-07 1.3780803e-07 9.72861e-08 1.0601404e-07 1.0128679e-07 8.9143434e-08 1.1678166e-07
1.7079795e-07 1.2820878e-07 1.6504428e-07 1.9646545e-07 1.5369599e-07 1.6322645e-07 2.743908e-07 1.5919194e-07
2.0955571e-07 1.784411e-07 2.0524226e-07 2.2309307e-07 2.2324463e-07 1.888082e-07 2.5107616e-07 2.8684667e-07
2.0216714e-07 2.4712742e-07 1.8244566e-07 2.1689749e-07 2.6958574e-07 2.2269693e-07 2.1377146e-07 2.5209982e-07
2.4411713e-07 2.847999e-07 2.3682867e-07 2.40652e-07 2.2856405e-07 2.9876455e-07 2.468634e-07 2.4647304e-07
2.710544e-07 3.207677e-07 3.156099e-07 3.0078635e-07 3.1240558e-07 3.7803355e-07 3.7771858e-07 4.765342e-07
3.144798e-07 3.810013e-07 4.302335e-07 5.1125033e-07 4.414777e-07 4.4874687e-07 5.200656e-07 3.8195486e-07
7.054822e-07 5.602628e-07 5.1986575e-07 5.6585134e-07 5.897323e-07 6.867124e-07 7.169126e-07 1.0054547e-06
7.796783e-07 7.751033e-07 8.6011624e-07 1.0215169e-06 1.1226995e-06 1.2482637e-06 3.47417e-06 3.990111e-06
6.336087e-06 1.0866091e-05 1.2133246e-05 1.4010761e-05 1.3079353e-05 1.4618144e-05 1.4020878e-05 1.7518858e-05
2.7964e-05 4.2035932e-05 5.21841e-05 1.589413e-10 6.461494e-11 2.4858526e-10 1.6629258e-10 4.278477e-12
6.1158884e-11 2.0620453e-10 1.3697347e-10 2.3997743e-10 3.9443324e-10 1.1666522e-10 1.4894334e-10 1.21708945e-11
1.00712876e-10 4.057903e-11 1.3112544e-10 1.477388e-10 4.020333e-10 1.1510963e-10 3.6525338e-10 4.4680581e-10
4.64678e-10 2.8442398e-10 7.470034e-11 1.0042533e-10 1.3792754e-10 5.993886e-11 1.0486228e-10 2.299464e-10

bn1d1.weight f4 [512]
00000000: 0000 803f 0500 803f 0000 803f 97be 7e3f
00000010: 0000 803f 91f6 7f3f 0000 803f 8b13 803f
00000020: 0000 803f f0d8 7f3f 0000 803f 9e23 803f
00000030: 0000 803f 3070 803f 0000 803f ab1c 803f
00000040: 0000 803f 7901 803f 0000 803f 3afa 7f3f
00000050: 0000 803f c6ea 7c3f 0000 803f 3f46 7c3f
00000060: 0000 803f f2f8 7f3f 0000 803f 6212 803f
00000070: 0000 803f f1d9 7f3f 0000 803f f8ee 7f3f
00000080: 0000 803f 5de5 813f 0000 803f 6eaa 813f
00000090: 0000 803f f105 803f 0000 803f 9d00 803f
000000a0: 0000 803f 670e 803f 0000 803f 0812 803f
000000b0: 0000 803f bfe4 7f3f 0000 803f eeee 7f3f
000000c0: 0000 803f 7ef3 7f3f 0000 803f 4201 803f
000000d0: 0000 803f bdec 803f 0000 803f 11f2 7f3f
000000e0: 0000 803f f6ff 7f3f 0000 803f c2fb 7f3f
000000f0: 0000 803f f663 813f 0000 803f e2fd 803f
00000100: 0000 803f fd99 803f 0000 803f f17e 803f
00000110: 0000 803f 1529 803f 0000 803f d7d7 7f3f
00000120: 0000 803f 5d51 803f 0000 803f 4c69 7e3f
00000130: 0000 803f a603 803f 0000 803f dcf8 7f3f
00000140: 0000 803f 5cae 7f3f 0000 803f b21a 803f
00000150: 0000 803f c412 7d3f 0000 803f 7bdd 7d3f
00000160: 0000 803f b4cc 823f 0000 803f fb62 813f
00000170: 0000 803f 96dc 7f3f 0000 803f 8313 803f
00000180: 0000 803f 620a 803f 0000 803f b160 803f
00000190: 0000 803f 45ff 7f3f 0000 803f c2f8 7f3f
000001a0: 0000 803f 18fb 7f3f 0000 803f bee9 7f3f
000001b0: 0000 803f 2b07 803f 0000 803f d9f0 7f3f
000001c0: 0000 803f 76f6 7f3f 0000 803f 48ff 7f3f
000001d0: 0000 803f 7fa1 803f 0000 803f b0c2 7f3f
000001e0: 0000 803f ea63 803f 0000 803f 62dd 7f3f
000001f0: 0000 803f fcfc 7f3f 0000 803f 8a00 803f
00000200: 0000 803f 8d57 813f 0000 803f a86e 813f
00000210: 0000 803f f4e8 7f3f 0000 803f a4ef 7f3f
00000220: 0000 803f fe0c 803f 0000 803f ce09 803f
00000230: 0000 803f acdb 7f3f 0000 803f be03 7e3f
00000240: 0000 803f eed0 833f 0000 803f 923f 823f
00000250: 0000 803f 22e3 7f3f 0000 803f 97df 7f3f
00000260: 0000 803f 7502 803f 0000 803f d0f7 7f3f
00000270: 0000 803f 9a28 803f 0000 803f bc20 803f
00000280: 0000 803f d152 7f3f 0000 803f c015 803f
00000290: 0000 803f 0003 803f 0000 803f 61e4 7f3f
000002a0: 0000 803f 0ffa 7f3f 0000 803f 66ed 7f3f
000002b0: 0000 803f 6446 833f 0000 803f 8485 833f
000002c0: 0000 803f 1a0e 803f 0000 803f 5b10 803f
000002d0: 0000 803f 7df9 7f3f 0000 803f 51f6 7f3f
000002e0: 0000 803f acc3 7f3f 0000 803f 0086 7d3f
000002f0: 0000 803f 82e5 7f3f 0000 803f cd43 803f
00000300: 0000 803f 3ffd 7f3f 0000 803f eefe 7f3f
00000310: 0000 803f a04f 833f 0000 803f 99af 813f
00000320: 0000 803f d5e6 7f3f 0000 803f fce3 7f3f
00000330: 0000 803f 18f7 7f3f 0000 803f 1a02 803f
00000340: 0000 803f 6a47 7f3f 0000 803f 6721 7e3f
00000350: 0000 803f 990b 7f3f 0000 803f 19be 7e3f
00000360: 0000 803f 02fb 7f3f 0000 803f 5905 803f
00000370: 0000 803f 3a11 7f3f 0000 803f b65e 803f
00000380: 0000 803f 745b 803f 0000 803f c56c 813f
00000390: 0000 803f 8002 803f 0000 803f 61eb 7f3f
000003a0: 0000 803f 6046 833f 0000 803f bb44 843f
000003b0: 0000 803f 673f 843f 0000 803f facf 823f
000003c0: 0000 803f 3c62 803f 0000 803f 9982 813f
000003d0: 0000 803f f210 803f 0000 803f 37d6 7f3f
000003e0: 0000 803f 13d7 7d3f 0000 803f e206 7f3f
000003f0: 0000 803f f263 803f 0000 803f c513 803f
1.0 1.0000006 1.0 0.9950957 1.0 0.99985605 1.0 1.0005964
1.0 0.99940395 1.0 1.001087 1.0 1.0034237 1.0 1.0008749
1.0 1.000045 1.0 0.9999119 1.0 0.98795736 1.0 0.9854469
1.0 0.99989235 1.0 1.000561 1.0 0.9994193 1.0 0.9997401
1.0 1.0148121 1.0 1.0130136 1.0 1.0001813 1.0 1.0000187
1.0 1.0004395 1.0 1.0005503 1.0 0.99958414 1.0 0.9997395
1.0 0.99980915 1.0 1.0000384 1.0 1.0072247 1.0 0.9997874
1.0 0.9999994 1.0 0.99993527 1.0 1.0108631 1.0 1.0077479
1.0 1.0046993 1.0 1.003874 1.0 1.0012537 1.0 0.9993872
1.0 1.002483 1.0 0.9937942 1.0 1.0001113 1.0 0.99989104
1.0 0.99875426 1.0 1.0008147 1.0 0.9885676 1.0 0.9916608
1.0 1.021872 1.0 1.0108331 1.0 0.9994596 1.0 1.0005955
1.0 1.0003169 1.0 1.0029508 1.0 0.99998885 1.0 0.9998895
1.0 0.99992514 1.0 0.9996604 1.0 1.0002187 1.0 0.9997688
1.0 0.99985445 1.0 0.99998903 1.0 1.0049285 1.0 0.99906445
1.0 1.0030491 1.0 0.9994718 1.0 0.999954 1.0 1.0000165
1.0 1.0104843 1.0 1.0111895 1.0 0.99964833 1.0 0.9997504
1.0 1.0003965 1.0 1.0002992 1.0 0.9994457 1.0 0.9922446
1.0 1.0298135 1.0 1.017565 1.0 0.9995595 1.0 0.99950546
1.0 1.000075 1.0 0.99987507 1.0 1.0012391 1.0 1.000999
1.0 0.9973574 1.0 1.0006638 1.0 1.0000916 1.0 0.99957854
1.0 0.99990934 1.0 0.99971616 1.0 1.0255857 1.0 1.0275121
1.0 1.0004303 1.0 1.0004991 1.0 0.99990064 1.0 0.99985224
1.0 0.99907947 1.0 0.9903259 1.0 0.99959576 1.0 1.0020691
1.0 0.999958 1.0 0.99998367 1.0 1.0258675 1.0 1.0131713
1.0 0.99961597 1.0 0.9995725 1.0 0.9998641 1.0 1.0000641
1.0 0.99718344 1.0 0.9926972 1.0 0.9962707 1.0 0.99508816
1.0 0.9999238 1.0 1.0001632 1.0 0.9963566 1.0 1.0028903
1.0 1.0027909 1.0 1.0111319 1.0 1.0000763 1.0 0.99968535
1.0 1.0255852 1.0 1.0333475 1.0 1.0331849 1.0 1.021972
1.0 1.0029979 1.0 1.011798 1.0 1.0005171 1.0 0.9993624
1.0 0.991563 1.0 0.9961988 1.0 1.0030501 1.0 1.0006033

bn1d1.bias f4 [512]
00000000: 3377 fd3b 1f04 d43b 7b25 88bc 5108 d83b
00000010: 1db5 883c 22e0 d0ba 10e4 403c 9756 d43c
00000020: 6e2f 9bbb c285 2b3b e18b 2ebc 2c7b 4c3c
00000030: 49ea 4e3c 284f 8cbc cf08 0b3b 585f 66bc
00000040: 184e 9bbc ca0f 8cbb 1779 013c be61 213c
00000050: 4ddc 9b3b e58f ccbc 48f7 32bb db1e 63b9
00000060: f749 a33b babd cdbb 7a8b dabc 1f16 c1ba
00000070: 14a1 a4b8 0d8c 013b 34a5 1fbc 36ac b43b
00000080: 3bb3 38bc e9dc 2d3c 72ae 45bb 2607 653c
00000090: 8aa0 9c3a db63 30bc c238 e9b9 6851 043c
000000a0: a2ab 68bb 8828 9a3b 17cc 163c 195c eebb
000000b0: c026 073c 3d56 213c 7c9f a43c 9aac 04bb
000000c0: 3a57 cabb 903b 19ba 7701 a33b 57d4 c0bc
000000d0: 3011 583c 88e0 8f3c 8e5d 1fbc 9274 6a3c
000000e0: e6c8 8a3c 8105 8d3b a78a 8c3c e2e9 eb3a
000000f0: e56b f0bb c672 98bc 6c46 2bbc c825 ffbc
00000100: 96c1 9d3c a24e d939 601f 8a3c d392 08bc
00000110: 6d92 acb8 44af db3b 7e00 e93b c888 cbbb
00000120: 1c25 993c e233 abbc 4c41 c2bb 1800 02bb
00000130: 6c8d a33b dea6 82bc d237 02ba 6528 29ba
00000140: bbda f4bb d11a d4bc 56d8 c33b 613b a53c
00000150: 04b3 58bb f32c bdbc 6c8a 5d3c c491 d2bb
00000160: 7369 f4ba 75fa e93c bb1b 783c eca3 ac3c
00000170: 4a9b 653c 50d1 8ebb c916 54bc 62ce ae3c
00000180: daef 55bc 47b2 cb3b 2b7e 33bc 2277 623c
00000190: e4ee aa3b 65d1 29bc e9b8 1cbc 9c57 8c3c
000001a0: df43 afba a487 5e3b 3e51 c5bb 61b6 3a3c
000001b0: 9929 febb 1e4f f33b 3809 313c 1562 ecb9
000001c0: be94 55bc 6e2c 803b 4855 4dbc 076d 303c
000001d0: 519e 603c 0bb4 8dba aa44 ad3c 58ef 5abc
000001e0: 7bcd dabb 4c69 99bc a0d3 18bc 3b7e 273b
000001f0: 1abc bc3c 360f 843b e97f 2b3c 3043 2dbc
00000200: 8b35 2c3c a053 aebc 3822 843c 8630 efbb
00000210: c9db d53b daa0 76bc 3063 a03c b52f 1dbc
00000220: f273 9c3c 28e5 21ba b557 b43b ef79 33bc
00000230: 23e2 e3bb 7233 fe3c f75e a33c f93b 1a3d
00000240: d237 1a3a 5814 12bd ffb6 9bbb 0870 49bd
00000250: bfd1 3dbc 04be 4abc bf77 d33a ec60 cfbb
00000260: 68ca 43bc addb 5f3c bdf9 5abc 0039 5bbc
00000270: beda f73b acf6 753b c8ac 9a3c 5046 083c
00000280: a052 1d3a 9158 40bc 685b d8bc d657 42bb
00000290: 4877 3d3c 745f b53b 0e07 f0bb 4615 6c3c
000002a0: 986c 423b e8a5 7aba b269 dbbb b4e0 27bb
000002b0: 5246 59bc da96 b2bc 8ec7 deb9 c469 603c
000002c0: ae77 b0bc ac6f d63b 014c 01bc 4061 54bc
000002d0: b38e 603c 489a e8b9 cd82 bd3c 802b 7c39
000002e0: d52c c638 7643 edbc 8c35 9a3b 63b9 d8bc
000002f0: 8741 103c 809e 2f3c d140 8abb 404c 9f3a
00000300: 2ad5 4dbb f0c8 ca3b 42fc d73a 1803 973c
00000310: 796c 87bc 1e1e 123d 2eac 923c 3b72 8a3b
00000320: f3ab 80bb 4343 c7b9 c244 843b e8e7 9fbb
00000330: 681b 423c 6521 3e3c 597c eabb c64b a7ba
00000340: 80df d03b b938 1bbd eaff 6c3b 81a1 43bd
00000350: f5ec 06bc 80cd e73b 1595 c73b 37d3 513c
00000360: 4868 82bc 54ce 24bc 370c 50bb e1e5 113c
00000370: 16a9 c03c ef1f 43bc b3ee f03c 3a82 5abc
00000380: cefe a73b e764 2fbc 62dc fdbb 2578 8e3c
00000390: 82b9 34bb 1e07 7bbc 9612 773c bfe1 c8bc
000003a0: f40b d93b 58ba 2c3c 1a88 eb3b 0dee a23c
000003b0: a5a8 49bc 4df6 e5bc 246e 05bc d77d eebb
000003c0: ffda 0f3c 0b9b 96bd 51cf 853c f5ab 6dbd
000003d0: 32dd 9f3c f8c5 143b 9c40 97bc d453 593b
000003e0: ab73 bb3b 475f 42bc 43ca 83bc fb33 99bc
000003f0: 94a3 0c3c 180f 213b e11c 793b 3902 15bc
0.007735157 0.006470218 -0.016619435 0.0065927883 0.016687924 -0.0015935937 0.011773124 0.025920196
-0.0047358787 0.0026172255 -0.010653467 0.012480538 0.0126291 -0.017127588 0.0021214967 -0.014060818
-0.018958136 -0.004274343 0.007902405 0.009849964 0.0047564865 -0.024970958 -0.0027308036 -0.00021659902
0.0049831825 -0.0062787207 -0.026677836 -0.0014731324 -7.8501325e-05 0.0019767315 -0.009743977 0.005513693
-0.011273201 0.010611751 -0.0030163792 0.013978755 0.00119497 -0.010765995 -0.0004448351 0.008076049
-0.0035502692 0.0047045387 0.009203932 -0.0072741625 0.008248985 0.009847221 0.02009558 -0.002024448
-0.006174949 -0.00058453623 0.00497454 -0.023538752 0.013187692 0.01756312 -0.009726895 0.014310019
0.016941499 0.0043036346 0.017155958 0.001799878 -0.007337081 -0.018609416 -0.010453802 -0.031145945
0.019257348 0.0004144805 0.016860664 -0.008335787 -8.228873e-05 0.006704243 0.0071106544 -0.006211374
0.018694453 -0.020898763 -0.005928194 -0.0019836482 0.004991224 -0.01594871 -0.00049674243 -0.00064528576
-0.0074723638 -0.025891693 0.005976717 0.020169916 -0.0033065686 -0.023092723 0.013521772 -0.006426068
-0.0018647149 0.02856181 0.01514333 0.021074258 0.014014075 -0.004358448 -0.0129448855 0.021338645
-0.013057673 0.0062163207 -0.010955374 0.013822349 0.0052164663 -0.010364865 -0.00956557 0.01713162
-0.0013371668 0.003395536 -0.0060216477 0.011396022 -0.0077564237 0.007425203 0.010805421 -0.00045086505
-0.013035951 0.0039115464 -0.01253254 0.010768182 0.013709621 -0.0010811103 0.021150906 -0.013362728
-0.006677327 -0.018726967 -0.009327799 0.0025557417 0.023038913 0.0040301336 0.010467508 -0.010575101
0.0105108125 -0.02128011 0.016129598 -0.0072994856 0.0065264446 -0.015052998 0.019578546 -0.009593894
0.019098256 -0.00061758095 0.0055036196 -0.010954364 -0.006954448 0.03103039 0.019942744 0.03765485
0.00058829517 -0.035663933 -0.0047520394 -0.049179107 -0.011585652 -0.012374405 0.001613371 -0.0063286927
-0.011950113 0.013663215 -0.013365206 -0.013380289 0.007563918 0.003753106 0.018881217 0.008317545
0.0006001387 -0.011739866 -0.026410773 -0.0029654405 0.011564083 0.0055350605 -0.0073250597 0.014409369
0.0029666778 -0.0009561465 -0.0066959495 -0.0025616111 -0.013261395 -0.021800447 -0.0004249182 0.0136970915
-0.021541443 0.006544074 -0.007891656 -0.012962639 0.013705897 -0.00044365437 0.02313366 0.00024048798
9.449726e-05 -0.028962832 0.0047060903 -0.026455587 0.008804685 0.010718942 -0.0042191525 0.0012153462
-0.0031407573 0.0061885044 0.0016478377 0.018434092 -0.016531216 0.035673253 0.017904367 0.004225043
-0.003926748 -0.00038006352 0.004036517 -0.0048799403 0.0118473545 0.011604642 -0.0071559367 -0.0012763671
0.0063742995 -0.03789589 0.003616328 -0.047761444 -0.008235206 0.007074058 0.00609077 0.012806705
-0.015918866 -0.010058958 -0.0031745562 0.008904905 0.023518126 -0.011909469 0.029410696 -0.0133367125
0.0051268106 -0.010705209 -0.007747219 0.017391274 -0.0027576392 -0.015321521 0.015080115 -0.024521707
0.0066237394 0.010542475 0.0071878554 0.019888902 -0.012308274 -0.028071547 -0.008143935 -0.007278185
0.00878024 -0.07353791 0.016334208 -0.05802532 0.019514654 0.0022701006 -0.018463425 0.0033161538
0.005720576 -0.011863536 -0.016087657 -0.018701544 0.008583922 0.0024575647 0.0038011598 -0.009094768

bn1d1.running_mean f4 [512]
00000000: 0000 0000 a2ec 8e3e 0000 0000 7e85 983e
00000010: 0000 0000 6b44 443d 0000 0000 8665 523d
00000020: 0000 0000 5b0d bb3d 0000 0000 0834 c83d
00000030: 0000 0000 4d89 523d 7671 2e02 52cf 603d
00000040: 0400 0000 fd99 d13c 0400 0000 64d6 e03c
00000050: 0000 0000 1700 803e 0000 0000 ee74 883e
00000060: 0000 0000 41f6 9c3d 0000 0000 fd07 a83d
00000070: 322b 0a26 0ba6 2a3c 91df e307 db57 373c
00000080: 0400 0000 b5cf 373e 0400 0000 0d88 433e
00000090: 0400 0000 e6c2 de3c 0400 0000 2eb1 ee3c
000000a0: 0000 0000 0002 af3d 0000 0000 953f bb3d
000000b0: f19d 9332 3bcc 913c 0400 0000 fa52 9c3c
000000c0: b08f d032 3a1a 613c af51 4303 d6b4 713c
000000d0: 0000 0000 7c43 713e 0000 0000 abac 803e
000000e0: 05d7 6125 0fa6 953c 6a0e d203 ae8e a03c
000000f0: a670 b929 1fda 983d 5c16 f507 b58b a23d
00000100: 0000 0000 fe49 3a3e 0000 0000 7655 463e
00000110: 296b d81d 15d1 1c3d 0400 0000 62d5 273d
00000120: d082 8126 80e6 4a3d 09b0 2b06 edbd 583d
00000130: cc8f 512a 78ce ad3c 0400 0000 6d4a ba3c
00000140: 0000 0000 f990 213d 0000 0000 aa2c 2d3d
00000150: 0000 0000 e5a2 783e 0000 0000 0075 843e
00000160: 0000 0000 9464 343e 0400 0000 692e 3f3e
00000170: 0000 0000 ea77 ea3c 0000 0000 5557 fb3c
00000180: 0000 0000 c5e4 343e 0000 0000 1756 413e
00000190: 0000 0000 8f7c 9d3c 0400 0000 c5f2 a83c
000001a0: 0000 0000 49cd f93c 0000 0000 cee9 053d
000001b0: 0000 0000 7a13 1f3d 0000 0000 6388 2a3d
000001c0: d183 5a33 3e85 9f3c aecf 6a07 ac16 ab3c
000001d0: 0000 0000 1ec5 223e 0000 0000 39af 2d3e
000001e0: 7c84 1829 9394 db3d e1d3 e404 ac13 ea3d
000001f0: 0400 0000 7e0a b03c 0400 0000 bac6 bc3c
00000200: 7e7f 1829 a9bb c33d f248 3a05 30cb d03d
00000210: 0000 0000 518a d93c 0000 0000 c57b e93c
00000220: 0000 0000 fcd6 153d 0000 0000 6c8b 203d
00000230: 0000 0000 c812 ef3e 0000 0000 d518 ff3e
00000240: 0000 0000 30e2 6c3e 0000 0000 b56f 7b3e
00000250: c4b0 cf2a 5c54 903c b1d9 0300 3ed1 9a3c
00000260: 0000 0000 4ce3 283d 0000 0000 4d16 353d
00000270: 0000 0000 2b2b e23d 0000 0000 65c4 f13d
00000280: 926a 532c 282b a63c 0ba7 3b06 1af8 b13c
00000290: 3fa1 d92c fda0 963c 6805 0200 bc98 a13c
000002a0: 0000 0000 d458 303d 0000 0000 f009 3d3d
000002b0: e87e 1829 296f cf3d a1d0 8704 b297 dd3d
000002c0: 0400 0000 0966 1a3d 0400 0000 1b6e 253d
000002d0: 0000 0000 b89f 083d 0000 0000 9f87 123d
000002e0: df84 1829 6616 093e 0000 0000 3acb 113e
000002f0: 0000 0000 68c9 313d 7900 0000 b2b7 3d3d
00000300: 89b9 3c31 033f 633c 1c00 0000 1fea 733c
00000310: 0688 431c 4afa 293e 0400 0000 89da 323e
00000320: 0000 0000 7dc5 693d 0000 0000 f3ae 7a3d
00000330: ddae 3b31 c5c4 8b3c e130 1e06 3be0 953c
00000340: 0000 0000 793b c03e 0000 0000 338f cb3e
00000350: 0000 0000 faa0 3c3e 0000 0000 7437 493e
00000360: 0000 0000 013c e63c 0000 0000 fabc f63c
00000370: 0000 0000 8e22 0f3e 0000 0000 12ae 183e
00000380: 0000 0000 42a9 303e 0000 0000 a44e 3c3e
00000390: 6db0 0b28 43b3 953c 87fd d103 b583 a03c
000003a0: 0400 0000 c95f 263e 0400 0000 424f 303e
000003b0: 66fa 8302 d8ee 8a3e e049 3605 8cb2 933e
000003c0: 0000 0000 54d5 b13e 0000 0000 230b bd3e
000003d0: 0000 0000 e762 143d 0000 0000 2e1d 1f3d
000003e0: 0000 0000 3727 8b3e 0000 0000 0733 943e
000003f0: 0000 0000 e4ea 1b3e 0000 0000 a137 263e
0.0 0.27914912 0.0 0.29789346 0.0 0.04791681 0.0 0.05136635
0.0 0.09133407 0.0 0.09775549 0.0 0.05140047 1.2816063e-37 0.054885216
6e-45 0.025586123 6e-45 0.02744598 0.0 0.2500007 0.0 0.2665171
0.0 0.07664157 0.0 0.08204649 4.793691e-16 0.010415564 3.4286564e-34 0.01119038
6e-45 0.17950328 6e-45 0.19094868 6e-45 0.027192544 6e-45 0.02913722
0.0 0.08545303 0.0 0.09142987 1.7184876e-08 0.01779758 6e-45 0.019082535
2.4279728e-08 0.013739163 5.739912e-37 0.014752587 0.0 0.235609 0.0 0.25131735
1.958849e-16 0.01826766 1.2346e-36 0.019599285 8.235192e-14 0.07463478 3.6876645e-34 0.07936803
0.0 0.18192288 0.0 0.19368538 5.7285525e-21 0.038285334 6e-45 0.040974982
8.98663e-16 0.04953623 3.2290856e-35 0.052915502 1.8612819e-13 0.021216616 6e-45 0.022740567
0.0 0.039444897 0.0 0.042278923 0.0 0.2428089 0.0 0.25870514
0.0 0.17616493 6e-45 0.18670048 0.0 0.028621633 0.0 0.030681292
0.0 0.17665394 0.0 0.18880497 0.0 0.019224433 6e-45 0.020623574
0.0 0.030493395 0.0 0.032693677 0.0 0.038836934 0.0 0.041633975
5.0876967e-08 0.019472715 1.7665235e-34 0.020884834 0.0 0.15895507 0.0 0.16961373
3.3865692e-14 0.10721698 5.3797122e-36 0.11429533 6e-45 0.021489378 6e-45 0.023043979
3.3861362e-14 0.09557278 8.759076e-36 0.10195005 0.0 0.026555212 0.0 0.0285014
0.0 0.03658198 0.0 0.039195463 0.0 0.46694016 0.0 0.49823633
0.0 0.23133159 0.0 0.24554332 3.6893242e-13 0.01761835 3.536e-40 0.018898603
0.0 0.041232392 0.0 0.04421072 0.0 0.1104339 0.0 0.118050374
3.0044062e-12 0.02028425 3.5293515e-35 0.02172475 6.185413e-12 0.018387312 1.8561e-40 0.01972615
0.0 0.043053463 0.0 0.046152055 3.3860854e-14 0.10128624 3.1929943e-36 0.10819949
6e-45 0.037694965 6e-45 0.040388208 0.0 0.033355445 0.0 0.03577387
3.3866027e-14 0.1338745 0.0 0.14237681 0.0 0.043404967 1.7e-43 0.046317764
2.7463065e-09 0.013870004 3.9e-44 0.014887362 6.4695894e-22 0.16599384 6e-45 0.17466177
0.0 0.057073105 0.0 0.061202 2.731148e-09 0.0170616 2.9752408e-35 0.018295398
0.0 0.37545374 0.0 0.3975769 0.0 0.18420783 0.0 0.1965006
0.0 0.028104784 0.0 0.030119408 0.0 0.13978025 0.0 0.14910153
0.0 0.17252067 0.0 0.18389374 7.754306e-15 0.018273955 1.2342123e-36 0.019594053
6e-45 0.16247477 6e-45 0.17217734 1.9392442e-37 0.27135348 8.5711676e-36 0.28847158
0.0 0.3473307 0.0 0.3692256 0.0 0.036227133 0.0 0.038846187
0.0 0.27178356 0.0 0.2894518 0.0 0.15226322 0.0 0.16232158

bn1d1.running_var f4 [512]
00000000: 0400 0000 38ed cc39 0400 0000 2565 c739
00000010: 0400 0000 21b1 0633 0400 0000 cd40 0333
00000020: 0400 0000 8d78 7535 0400 0000 eeed 6e35
00000030: 0400 0000 0afb 5f36 0400 0000 c51f 5836
00000040: 0400 0000 8b1c 4931 0400 0000 6b70 4431
00000050: 0400 0000 39f0 a439 0400 0000 4a67 a039
00000060: 0400 0000 cb35 cf34 0400 0000 e5bf c934
00000070: 0400 0000 d67b 912f 0400 0000 3e19 8e2f
00000080: 0400 0000 d7c4 4539 0400 0000 19f4 3f39
00000090: 0400 0000 2be7 cc32 0400 0000 1758 c732
000000a0: 0400 0000 5fd7 9135 0400 0000 0f0a 8e35
000000b0: 0400 0000 f9a5 8131 0400 0000 08a9 7c31
000000c0: 0400 0000 3840 f32f 0400 0000 438e ed2f
000000d0: 0400 0000 0b33 5139 0400 0000 eb6d 4b39
000000e0: 0400 0000 6f1c 7131 0400 0000 11c8 6a31
000000f0: 0400 0000 824d 0538 0400 0000 b7ca 0038
00000100: 0400 0000 bd94 2139 0400 0000 3db9 1c39
00000110: 0400 0000 3ff8 2534 0400 0000 06f7 2034
00000120: 0400 0000 1169 6535 0400 0000 b22a 5e35
00000130: 0400 0000 aed1 f631 0400 0000 1d36 f031
00000140: 0400 0000 da1b 8d32 0400 0000 818b 8932
00000150: 0400 0000 4992 db39 0400 0000 b76d d539
00000160: 0400 0000 2fa6 e839 0400 0000 bc99 e139
00000170: 0400 0000 1e23 a132 0400 0000 76df 9c32
00000180: 0400 0000 83f9 1638 0400 0000 c380 1238
00000190: 0400 0000 8e1a 7f31 0400 0000 7c14 7831
000001a0: 0400 0000 ef99 0632 0400 0000 5a48 0332
000001b0: 0400 0000 4a1e 8032 0400 0000 d6c4 7932
000001c0: 0400 0000 92df 1e31 0400 0000 5af6 1a31
000001d0: 0400 0000 a71d 1538 0400 0000 0dd5 1038
000001e0: 0400 0000 8052 9b37 0400 0000 5c79 9637
000001f0: 0400 0000 fc88 d131 0400 0000 6ddd cb31
00000200: 0400 0000 2721 5537 0400 0000 377f 4e37
00000210: 0400 0000 ae71 9b30 0400 0000 e7e6 9730
00000220: 0400 0000 6d07 0d33 0400 0000 4b66 0933
00000230: 0400 0000 28e3 f13b 0400 0000 4d4a ed3b
00000240: 0400 0000 898e 8a3a 0400 0000 41b5 863a
00000250: 0400 0000 26dc dc30 0400 0000 5f78 d730
00000260: 0400 0000 2522 5632 0400 0000 64f5 5032
00000270: 0400 0000 3535 6936 0400 0000 cdc9 6236
00000280: 0400 0000 2c5f 5932 0400 0000 da4b 5332
00000290: 0400 0000 c57a a930 0400 0000 044a a530
000002a0: 0400 0000 458e a432 0400 0000 237b a032
000002b0: 0400 0000 f75e c336 0400 0000 a8c9 bd36
000002c0: 0400 0000 869b 0733 0400 0000 86dd 0333
000002d0: 0400 0000 8c09 ca31 0400 0000 3322 c531
000002e0: 0400 0000 7f18 af38 0400 0000 f999 a938
000002f0: 0400 0000 b0a3 f635 0400 0000 30c6 ed35
00000300: 0400 0000 79ab 4d30 0400 0000 f68e 4830
00000310: 0400 0000 368a 823a 0400 0000 4529 7e3a
00000320: 0400 0000 c4b5 c332 0400 0000 322a bf32
00000330: 0400 0000 f729 b331 0400 0000 b177 ae31
00000340: 0400 0000 6900 233c 0400 0000 bce1 203c
00000350: 0400 0000 bf7e b738 0400 0000 1968 b238
00000360: 0400 0000 e1a9 3e33 0400 0000 9a91 3933
00000370: 0400 0000 8eeb 0138 0400 0000 88ff fb37
00000380: 0400 0000 6b69 ab38 0400 0000 9b61 a638
00000390: 0400 0000 2d36 ae31 0400 0000 c0b9 a931
000003a0: 0400 0000 1cd8 b439 0400 0000 4332 af39
000003b0: 0400 0000 1b72 ab3a 0400 0000 8dd9 a63a
000003c0: 0400 0000 1e5f 8a3b 0400 0000 c96a 873b
000003d0: 0400 0000 12c8 2232 0400 0000 e1d1 1e32
000003e0: 0400 0000 1e5c 823a 0400 0000 4bdb 7d3a
000003f0: 0400 0000 5a71 8c38 0400 0000 c400 8838
6e-45 0.00039086654 6e-45 0.00038031596 6e-45 3.1360404e-08 6e-45 3.055975e-08
6e-45 9.1445037e-07 6e-45 8.900814e-07 6e-45 3.3375713e-06 6e-45 3.2205e-06
6e-45 2.9265574e-09 6e-45 2.8585656e-09 6e-45 0.00031459497 6e-45 0.00030594534
6e-45 3.8595894e-07 6e-45 3.757879e-07 6e-45 2.6463337e-10 6e-45 2.5847585e-10
6e-45 0.00018860713 6e-45 0.00018306113 6e-45 2.3853849e-08 6e-45 2.3206708e-08
6e-45 1.0866023e-06 6e-45 1.0582752e-06 6e-45 3.773263e-09 6e-45 3.676691e-09
6e-45 4.4247073e-10 6e-45 4.3211132e-10 6e-45 0.00019950808 6e-45 0.00019400536
6e-45 3.5086278e-09 6e-45 3.4165206e-09 6e-45 3.1781856e-05 6e-45 3.070637e-05
6e-45 0.00015409566 6e-45 0.00014946326 6e-45 1.5457134e-07 6e-45 1.4991028e-07
6e-45 8.546204e-07 6e-45 8.2763574e-07 6e-45 7.18338e-09 6e-45 6.9910713e-09
6e-45 1.6427226e-08 6e-45 1.6012338e-08 6e-45 0.00041879926 6e-45 0.0004070827
6e-45 0.00044374305 6e-45 0.00043029885 6e-45 1.8758836e-08 6e-45 1.8262408e-08
6e-45 3.5995163e-05 6e-45 3.492903e-05 6e-45 3.7122478e-09 6e-45 3.6100394e-09
6e-45 7.834827e-09 6e-45 7.641654e-09 6e-45 1.4914935e-08 6e-45 1.4538463e-08
6e-45 2.311911e-09 6e-45 2.2549984e-09 6e-45 3.5551984e-05 6e-45 3.4530694e-05
6e-45 1.8515857e-05 6e-45 1.7937906e-05 6e-45 6.098274e-09 6e-45 5.933251e-09
6e-45 1.2703508e-05 6e-45 1.2308176e-05 6e-45 1.1310044e-09 6e-45 1.1052322e-09
6e-45 3.2835874e-08 6e-45 3.1990833e-08 6e-45 0.0073818155 6e-45 0.0072415234
6e-45 0.0010571043 6e-45 0.0010277407 6e-45 1.6069677e-09 6e-45 1.567752e-09
6e-45 1.2464203e-08 6e-45 1.2162989e-08 6e-45 3.4750676e-06 6e-45 3.3794088e-06
6e-45 1.2652702e-08 6e-45 1.2299063e-08 6e-45 1.2331262e-09 6e-45 1.2026367e-09
6e-45 1.915681e-08 6e-45 1.8682448e-08 6e-45 5.8225082e-06 6e-45 5.656115e-06
6e-45 3.1573585e-08 6e-45 3.070229e-08 6e-45 5.880059e-09 6e-45 5.7373426e-09
6e-45 8.349213e-05 6e-45 8.0872276e-05 6e-45 1.8376068e-06 6e-45 1.7715556e-06
6e-45 7.4822243e-10 6e-45 7.2962736e-10 6e-45 0.0009959403 6e-45 0.00096954807
6e-45 2.2783645e-08 6e-45 2.2254515e-08 6e-45 5.2143565e-09 6e-45 5.077674e-09
6e-45 0.009948828 6e-45 0.009819444 6e-45 8.749728e-05 6e-45 8.507091e-05
6e-45 4.4392326e-08 6e-45 4.3206093e-08 6e-45 3.0975374e-05 6e-45 3.0040523e-05
6e-45 8.173551e-05 6e-45 7.933677e-05 6e-45 5.0702256e-09 6e-45 4.9396647e-09
6e-45 0.0003449329 6e-45 0.0003341605 6e-45 0.0013080271 6e-45 0.001272963
6e-45 0.0042227646 6e-45 0.004132603 6e-45 9.475132e-09 6e-45 9.244531e-09
6e-45 0.0009945666 6e-45 0.0009683861 6e-45 6.6968336e-05 6e-45 6.485128e-05

SA.in_proj_weight f4 [12, 4]
00000000: 1495 91be 6cab 023f bab6 50bd e22e e23e
00000010: d062 3fbe c2b9 c63e ef99 253e 3bad bd3e
00000020: 4728 11bf 17a5 9d3d 7e9d e93e 2922 173f
00000030: fcd9 39be 226f 023f 1bab 1cbf 9417 b4bd
00000040: 0ae9 17bf 6d27 b7be 4724 1bbf 0277 043f
00000050: f1ee 0fbf 4cdd 33be 442b 393e bdee fdbe
00000060: 9eee 953e eaf0 e1be df9f 9f3e 7670 0abf
00000070: e529 8cbe 5963 093f 9e44 823e 0ba8 d3be
00000080: f52c 97be 4f01 19bf ead7 30bd cff6 663e
00000090: 31d5 6ebe 3d75 f0be 3412 44bf a9a5 5cbe
000000a0: 4246 a23d ce18 943e ffda abbe cfb5 913d
000000b0: c247 603e fa25 ebbd 09e8 a43d 83d1 183e
-0.2843405 0.5104282 -0.05095551 0.44176394 -0.18690038 0.38813597 0.16172002 0.37046227
-0.56702083 0.07697504 0.4562797 0.590365 -0.1814956 0.50950825 -0.61198586 -0.0879356
-0.59339964 -0.35772267 -0.6060223 0.5174409 -0.5622397 -0.17564887 0.18082911 -0.49596205
0.29283613 -0.44129115 0.3117666 -0.5407785 -0.27375713 0.5366722 0.25442976 -0.41339144
-0.29526487 -0.5976762 -0.04317466 0.22555088 -0.23323514 -0.46964446 -0.76590276 -0.2154757
0.07923557 0.28925174 -0.33565518 0.07114755 0.21902373 -0.11481853 0.0805207 0.14923672

SA.in_proj_bias f4 [12]
00000000: 8478 debc a54c e2bd a79c 8539 e3c2 8738
00000010: 51a2 8732 3021 07b4 af0d 9caf fd6a 9fb1
00000020: 4887 d9b6 3f89 c7b6 3e19 5736 fd38 ea34
-0.027157076 -0.11049775 0.00025484452 6.473602e-05 1.5789881e-08 -1.2584928e-07 -2.8385957e-10 -4.639672e-09
-6.4828528e-06 -5.9466397e-06 3.205219e-06 4.362736e-07
