images/models/other_models/Attention/best_models19.pth.tar (torch, 471237 bytes, 18 tensors)

bn1d0.weight f4 [739]
0	0x3f0a851e	0.5410937
1	0x3f60b966	0.87782896
2	0x3f3bdd90	0.7338495
3	0x3f6f46be	0.9346732
4	0x3f89aaf6	1.0755298
5	0x3f8a30f4	1.0796189
6	0x3f75498a	0.95815337
7	0x3f75e4d3	0.96052283
8	0x3f8b8a58	1.0901594
9	0x3f789d6d	0.9711521
10	0x3f8a5cff	1.080963
11	0x3f588e99	0.84592587
12	0x3f9dfe21	1.2343179
13	0x3f8044f1	1.0021039
14	0x3f74b993	0.95595664
15	0x3f802891	1.001238
16	0x3f7bc81d	0.98352224
17	0x3f7b2c48	0.9811444
18	0x3f7683c7	0.96294826
19	0x3f6f0ba6	0.9337715
20	0x3f88d5b0	1.0690212
21	0x3f6f5d0d	0.9350136
22	0x3f82b3d0	1.0211124
23	0x3f79ccde	0.9757823
24	0x3f7b24b9	0.9810291
25	0x3f8b2bf5	1.087279
26	0x3f9a5400	1.2056885
27	0x3f737aeb	0.9510943
28	0x3f758d0d	0.9591835
29	0x3f9fdae6	1.2488678
30	0x3f8aff74	1.0859208
31	0x3f892941	1.0715715
32	0x3f837a11	1.0271627
33	0x3f8dd315	1.1080042
34	0x3f812250	1.0088596
35	0x3f7ba8b4	0.98304296
36	0x3f9444ad	1.1583458
37	0x3f8d682e	1.1047418
38	0x3f83201d	1.0244175
39	0x3f8a30ec	1.079618
40	0x3f83cc8a	1.0296795
41	0x3f8ab4a4	1.0836377
42	0x3f7e55db	0.99349755
43	0x3f7f6c09	0.99774224
44	0x3f81db7e	1.0145109
45	0x3f9a1728	1.2038317
46	0x3f95d8cd	1.1706787
47	0x3f7b5b28	0.9818597
48	0x3f7d19b9	0.98867375
49	0x3f7d26a5	0.9888709
50	0x3f86da76	1.0535419
51	0x3f7e04c3	0.99226016
52	0x3f7e9935	0.99452525
53	0x3f7e5081	0.9934159
54	0x3f7d2cf5	0.98896724
55	0x3f8476ad	1.0348717
56	0x3f9e2e40	1.2357864
57	0x3f83ac92	1.0287039
58	0x3f820a36	1.0159366
59	0x3f8a83a3	1.0821422
60	0x3fb63f9c	1.4238162
61	0x3f8db13e	1.1069715
62	0x3f8ab285	1.083573
63	0x3f7ba921	0.98304945
64	0x3f7e49ee	0.9933156
65	0x3f8e8919	1.1135589
66	0x3f79b216	0.9753736
67	0x3f8501bc	1.0391154
68	0x3f8b9ad8	1.090663
69	0x3f88b709	1.0680858
70	0x3f7baa85	0.9830707
71	0x3f7db448	0.9910321
72	0x3f7e0a53	0.99234504
73	0x3f859178	1.0435019
74	0x3f7b2b43	0.9811289
75	0x3f819a14	1.0125146
76	0x3f7d2869	0.98889786
77	0x3f827086	1.019059
78	0x3f808534	1.004065
79	0x3f802db5	1.0013949
80	0x3f7d85f0	0.990325
81	0x3f7e0c78	0.99237776
82	0x3f7fb9cf	0.99892896
83	0x3f7f2ca5	0.996775
84	0x3f7f059d	0.9961794
85	0x3f7cc096	0.9873136
86	0x3f85b32a	1.0445302
87	0x3f839852	1.028086
88	0x3f8db204	1.1069951
89	0x3f806d0f	1.0033282
90	0x3f86de71	1.0536634
91	0x3f838907	1.0276192
92	0x3f839827	1.0280808
93	0x3f872b84	1.0560155
94	0x3f957dab	1.1678976
95	0x3f81a5e6	1.0128753
96	0x3f7e828f	0.99417967
97	0x3f809633	1.0045837
98	0x3f82169e	1.0163152
99	0x3f7e0943	0.9923288
100	0x3f857f2d	1.0429436
101	0x3f828f54	1.019999
102	0x3f7ee4ff	0.9956817
103	0x3f7ef0c7	0.9958615
104	0x3f7e68ac	0.99378467
105	0x3f852c2b	1.0404104
106	0x3fa48bfb	1.2855219
107	0x3f7fb221	0.9988118
108	0x3f7e5f9e	0.9936465
109	0x3f7b8aa6	0.98258436
110	0x3f8156e1	1.0104638
111	0x3f858e38	1.0434027
112	0x3f779fa7	0.96727985
113	0x3f8ad1a1	1.0845224
114	0x3f7f27da	0.99670184
115	0x3f912a8b	1.1341108
116	0x3f762127	0.96144336
117	0x3f79ad10	0.975297
118	0x3f847bdb	1.0350298
119	0x3f84a508	1.0362864
120	0x3f89e271	1.077223
121	0x3f7e3a8e	0.993081
122	0x3f7b3b9b	0.98137826
123	0x3f783baf	0.9696607
124	0x3f83e01b	1.0302767
125	0x3f954624	1.166203
126	0x3f725c44	0.94672036
127	0x3f634900	0.88783264
128	0x3f600f33	0.8752319
129	0x3f62d254	0.88602185
130	0x3f5b4199	0.8564697
131	0x3f5a7204	0.85330224
132	0x3f599d77	0.850059
133	0x3f59a544	0.850178
134	0x3f68bfe4	0.909178
135	0x3f7a28fc	0.9771879
136	0x3f8646b4	1.0490327
137	0x3f7dd33e	0.99150455
138	0x3f8094fb	1.0045465
139	0x3f900d67	1.125409
140	0x3f872f6d	1.0561348
141	0x3f839b0e	1.0281694
142	0x3f92bf3d	1.1464611
143	0x3f7df0bc	0.99195457
144	0x3f832645	1.0246054
145	0x3f801212	1.0005515
146	0x3f8296a5	1.0202223
147	0x3f825d0b	1.0184644
148	0x3f7e5a21	0.99356276
149	0x3f809f7f	1.0048674
150	0x3f811325	1.0083967
151	0x3f85ef89	1.0463725
152	0x3f82c9f4	1.0217881
153	0x3f7fc661	0.9991208
154	0x3f83180b	1.0241712
155	0x3f807200	1.003479
156	0x3f7bda84	0.98380303
157	0x3f854787	1.0412453
158	0x3f862c2c	1.048223
159	0x3f84cc53	1.0374855
160	0x3f7deb8a	0.9918753
161	0x3f812691	1.0089895
162	0x3fa90f60	1.3207817
163	0x3f7fd93c	0.9994085
164	0x3f82c02b	1.0214895
165	0x3f870ee1	1.0551416
166	0x3f81b71d	1.0134007
167	0x3f7e3361	0.9929715
168	0x3f8127db	1.0090288
169	0x3f89557a	1.072921
170	0x3f7d4523	0.9893362
171	0x3f82d9d5	1.0222727
172	0x3f7ddbda	0.9916359
173	0x3f81e35f	1.0147513
174	0x3f8f6790	1.120348
175	0x3f813fc2	1.0097582
176	0x3f85e88d	1.0461594
177	0x3f94e91c	1.1633639
178	0x3f7d8987	0.99037975
179	0x3f7e02d9	0.99223095
180	0x3f869da4	1.0516858
181	0x3fa2fdc5	1.2733694
182	0x3f832dd3	1.024836
183	0x3f7fad17	0.9987349
184	0x3f836246	1.0264366
185	0x3f8b91ed	1.0903908
186	0x3f883a83	1.0642856
187	0x3fa871ed	1.3159767
188	0x3fb538b4	1.415793
189	0x3f8c5c0a	1.0965588
190	0x3f840e53	1.0316871
191	0x3f85dbe8	1.0457735
192	0x3f78ff2d	0.9726437
193	0x3f871fd0	1.0556583
194	0x3f8ae15d	1.0850025
195	0x3f9b6b5e	1.2142141
196	0x3f7a5e38	0.97800016
197	0x3f87df60	1.0615044
198	0x3f803860	1.0017204
199	0x3f88f643	1.0700153
200	0x3f7f26da	0.9966866
201	0x3f773628	0.9656701
202	0x3f8a5eb3	1.081015
203	0x3f7c1ce2	0.9848157
204	0x3f7e50d9	0.99342114
205	0x3f72480e	0.94641197
206	0x3f86b448	1.0523767
207	0x3f8547a8	1.0412493
208	0x3f7875db	0.97054833
209	0x3f7edd79	0.9955669
210	0x3f883b63	1.0643123
211	0x3f7969b9	0.97426945
212	0x3f930384	1.1485448
213	0x3f87e56d	1.061689
214	0x3f581fc6	0.8442348
215	0x3f731d73	0.9496681
216	0x3f30f067	0.69116825
217	0x3f19cced	0.60078317
218	0x3ee16012	0.44018608
219	0x3f4951c4	0.7864039
220	0x3f43e357	0.7651877
221	0x3f71df9d	0.9448183
222	0x3f15627a	0.5835339
223	0x3f29be60	0.66306114
224	0x3f04a9d1	0.5182162
225	0x3ec0154c	0.37516248
226	0x3f14f1e0	0.5818157
227	0x3f7ff8d4	0.99989057
228	0x3f7ff90a	0.9998938
229	0x3f80041e	1.0001256
230	0x3f800e4c	1.0004363
231	0x3f80006d	1.000013
232	0x3f7ff0c6	0.99976766
233	0x3f7fee68	0.99973154
234	0x3f800178	1.0000448
235	0x3f801e5f	1.0009269
236	0x3f8004ef	1.0001506
237	0x3f800832	1.0002501
238	0x3f7fee64	0.9997313
239	0x3f7ffb9b	0.99993294
240	0x3f8006dd	1.0002095
241	0x3f800681	1.0001985
242	0x3f8003a6	1.0001113
243	0x3f800b91	1.000353
244	0x3f7fffdb	0.9999978
245	0x3f7ff31d	0.99980336
246	0x3f803e66	1.0019042
247	0x3f8015b0	1.0006618
248	0x3f7ff1d0	0.9997835
249	0x3f800efb	1.0004572
250	0x3f8005c4	1.000176
251	0x3f80058d	1.0001694
252	0x3f7ff28c	0.9997947
253	0x3f7ff1ae	0.9997815
254	0x3f7febeb	0.9996936
255	0x3f8005f5	1.0001818

bn1d0.bias f4 [739]
0	0x3c5ee096	0.01360335
1	0x3de97331	0.11398924
2	0xbda52275	-0.08063213
3	0xbd4a2787	-0.049354102
4	0xbe02091d	-0.12698789
5	0xbcc92dce	-0.024557974
6	0x3af7a58a	0.0018893939
7	0xbdd7a294	-0.10529056
8	0xbc2f9a09	-0.010717877
9	0x3d6de228	0.058077008
10	0x3c8683dd	0.0164203
11	0xbd0c5fe6	-0.034271143
12	0x3d9dd5c5	0.07706789
13	0xbd00ea27	-0.031473305
14	0x3cebdd9c	0.028792195
15	0xbd501a17	-0.05080613
16	0xbcbdc2a8	-0.023164108
17	0xbc2a99c3	-0.010412636
18	0x3b04ff57	0.0020293796
19	0x3d917c84	0.071038276
20	0xbcc29cc7	-0.023756398
21	0x3cb6d7a7	0.022319628
22	0x3b732f9e	0.003710724
23	0x3d9f5a42	0.07780887
24	0x3cb5adfe	0.022177693
25	0xbd08a4f9	-0.033360455
26	0x3de7ce2f	0.11318623
27	0x3d64cff0	0.055862367
28	0x3da97745	0.08274702
29	0xbdbbc0a1	-0.091676004
30	0x3dab3606	0.083599135
31	0x3d32cccd	0.043652344
32	0x3bd74d47	0.0065704915
33	0x3d00205c	0.03128086
34	0x3d0afaa8	0.03393045
35	0x3d6f8cf7	0.058484044
36	0x3cacabc1	0.021077992
37	0xbb4594f0	-0.0030148588
38	0xbc825923	-0.015911644
39	0x3d8b13ed	0.0679091
40	0x3ce93b38	0.02847062
41	0xbc33a07c	-0.010963555
42	0xbcecb9f4	-0.028897263
43	0xbb2316ab	-0.0024885337
44	0xbd56a35a	-0.052401878
45	0xbd272cea	-0.040814318
46	0x3b1580e1	0.0022812414
47	0xbd1d958e	-0.038472705
48	0xbd055d93	-0.032559942
49	0xbd3d6b27	-0.046244767
50	0x3d05cbfc	0.032665238
51	0xbdc6b505	-0.097024955
52	0xbc40e5e1	-0.011773557
53	0x3d019153	0.031632733
54	0xbd91cbf7	-0.07118981
55	0xbd7c9b34	-0.06167145
56	0xbceabef1	-0.028655501
57	0xbd9c29fd	-0.07625196
58	0xbdce2939	-0.10066456
59	0xbd70b912	-0.058770247
60	0xbe272708	-0.16323483
61	0xbce50832	-0.02795801
62	0xbd881941	-0.06645442
63	0xbe0a3119	-0.13495292
64	0xbd9a1d8a	-0.075251654
65	0x3ca9b989	0.020718353
66	0xbc3a62bc	-0.011376079
67	0xbdb80e3a	-0.089870885
68	0x3c207433	0.009793329
69	0xbc21594f	-0.009847953
70	0xbd582941	-0.052773718
71	0x3cfea977	0.031086667
72	0xbd93eee1	-0.07223297
73	0x3ca4b2a4	0.020104714
74	0x3d3eda23	0.04659475
75	0x3c9e76d5	0.019343773
76	0xbcb1cfcb	-0.021705529
77	0x3d17de44	0.037077203
78	0xbd6455fe	-0.05574607
79	0x3a415d2f	0.0007376251
80	0x3dd45bcd	0.10369072
81	0xbd309663	-0.04311217
82	0x3c8910d4	0.016731657
83	0x3c852daa	0.016257126
84	0x3b93571f	0.0044964696
85	0xbcb1db58	-0.021711037
86	0x3daada44	0.08342412
87	0x3cb1b2f7	0.021691782
88	0xbc8749d8	-0.016514704
89	0x3d3029d1	0.04300863
90	0x3b6dc9ed	0.0036283687
91	0xbbdd323d	-0.0067503736
92	0x3d4f82a4	0.050661698
93	0xbd5bd8be	-0.0536735
94	0x3d335d1e	0.043789975
95	0x3d8f56bf	0.069989674
96	0xbd0a38a1	-0.03374541
97	0x3d2374c0	0.039906263
98	0x3c9d7960	0.019222915
99	0xbbf87e2e	-0.007583401
100	0x3c0b87d2	0.008516269
101	0x3d8a973f	0.06767129
102	0xbd5e6e07	-0.05430415
103	0xbcbc4fc7	-0.02298726
104	0xbc39ef8c	-0.011348616
105	0xbd548ba6	-0.05189099
106	0xbc05c05c	-0.008163538
107	0x3b6baf2b	0.0035962563
108	0xbca5d8bb	-0.020244947
109	0x3d0858bd	0.033287752
110	0xbc9eb52e	-0.019373503
111	0xbdd56356	-0.104193375
112	0xbd8e8d29	-0.06960518
113	0xbc14bb95	-0.009077926
114	0xbd3cce8c	-0.046095416
115	0xbcfdfb17	-0.031003518
116	0xbd60f32b	-0.054919403
117	0x3bfc5a72	0.0077012116
118	0xbda225c9	-0.07917363
119	0x3c0ab801	0.0084667215
120	0xbcb59bd3	-0.02216903
121	0x3ccbe87d	0.024891132
122	0xbbb25951	-0.0054427763
123	0xbd512fd2	-0.051070996
124	0xbd402b17	-0.046916094
125	0xbdcebf2b	-0.10095056
126	0xbc82b517	-0.015955491
127	0xbd11768c	-0.035513446
128	0xbd02ee74	-0.031965688
129	0xbd4b608b	-0.049652617
130	0x3c101047	0.008792943
131	0x3c8984b3	0.016786909
132	0xba9f7964	-0.0012166915
133	0xbcbc0577	-0.022951825
134	0x3ca56c1a	0.020193148
135	0x3c214527	0.009843147
136	0x3c0b3315	0.008496066
137	0x3d6ee4a6	0.058323525
138	0x3c0863cb	0.008324574
139	0x3d982683	0.074292205
140	0xbc204b9a	-0.00978365
141	0xbd2ec92d	-0.042672325
142	0x3d89337c	0.06699273
143	0x3cab5769	0.020915704
144	0xba24e4b7	-0.00062901847
145	0xbcb0e807	-0.021595014
146	0x3c8d6e8e	0.01726463
147	0x3c58c510	0.013230577
148	0x3bcdbf15	0.0062788823
149	0x3c0bd40c	0.008534443
150	0x3b2db36e	0.0026504654
151	0xbd07191a	-0.032982923
152	0x3ceededf	0.029159008
153	0xbd8e51fd	-0.06949232
154	0x3d5503d3	0.0520056
155	0x3cf29200	0.029610634
156	0xbcf9edfc	-0.030508988
157	0xbd464043	-0.04840113
158	0xbc2fc964	-0.010729168
159	0x3c7fe486	0.015618449
160	0x3c6771b3	0.014126229
161	0x3d46cb95	0.048533995
162	0xbdc87021	-0.09787012
163	0x3c8dc7ea	0.01730724
164	0xbb554340	-0.0032541305
165	0x3d1c3b6f	0.038142618
166	0xbd0ed2e1	-0.03486908
167	0xbc62f27e	-0.01385176
168	0x3bc176f5	0.0059040734
169	0xbd917f73	-0.07104387
170	0x3c48547c	0.012227174
171	0x3d07aa72	0.033121534
172	0x3b9ddfa0	0.004817918
173	0xbd4cd21f	-0.050005075
174	0x3c8dc3d5	0.017305294
175	0xbca8a6f9	-0.020587431
176	0xbcc6df1b	-0.024276307
177	0xbdcac04a	-0.098999575
178	0x3cf9db07	0.030499948
179	0xbc89bb53	-0.016812956
180	0xbd0e9b79	-0.03481624
181	0xbdf43050	-0.119232774
182	0xbc4698fd	-0.012121436
183	0x3d226b87	0.039653327
184	0xbd7433dc	-0.05961977
185	0xbd23f913	-0.040032458
186	0x3d50e556	0.05099996
187	0xbdb3c78e	-0.087782964
188	0xbc7aeda7	-0.01531545
189	0x3d25d3ac	0.04048507
190	0xbc83b4fb	-0.01607751
191	0xbd4115d3	-0.047139954
192	0xbcc2e1d1	-0.023789318
193	0xbbcf69d0	-0.0063297525
194	0x3d7fcddc	0.062452182
195	0xbe10c9fe	-0.14139554
196	0x3a9780a6	0.0011558726
197	0xbbc16275	-0.0059016296
198	0xbbc8e294	-0.006130526
199	0xbd5ebc4a	-0.054378785
200	0x3d9c5259	0.07632894
201	0xbd24c1bb	-0.04022382
202	0x3c19ae7f	0.009379982
203	0xbc02cbaa	-0.007983128
204	0xbb08b281	-0.002085835
205	0x3d84bef6	0.064817354
206	0xbca87b07	-0.020566477
207	0x3d350b5e	0.044200294
208	0xbcb34019	-0.02188115
209	0xbc9a9071	-0.018867703
210	0x3da881c1	0.082278736
211	0xbdb76fe6	-0.0895689
212	0xbcee9f61	-0.029128732
213	0xbda09308	-0.07840544
214	0xbc2833d1	-0.01026626
215	0xbd26c4d5	-0.040715057
216	0xbd2d507c	-0.042313084
217	0xbd093bd8	-0.033504337
218	0xbdb1ab4d	-0.08675251
219	0x3dfbd40b	0.12296303
220	0xbcde26a6	-0.027118038
221	0xbbec5242	-0.0072119543
222	0xbc8d174b	-0.017223021
223	0x3e5eb91d	0.21750303
224	0x3b8710a1	0.0041218554
225	0xbddd0e16	-0.10793702
226	0xbe4f6753	-0.20254259
227	0xbba79a9f	-0.005114868
228	0xbcd77611	-0.026301416
229	0x3a36ef3b	0.0006978397
230	0x3ce7062e	0.028201189
231	0x3a160d4b	0.00057240267
232	0xbcf5d07f	-0.030006645
233	0x3bdcaf11	0.0067347367
234	0xbb9c86ed	-0.0047768266
235	0x3cbfb7ee	0.023403134
236	0x3cda35b8	0.026636943
237	0xbced227b	-0.028947106
238	0x3c1e37ce	0.00965686
239	0xbcc029ca	-0.023457427
240	0x3c342be2	0.010996791
241	0xbc900b01	-0.017583372
242	0x3ca6aed5	0.020347038
243	0x3d143efd	0.036192883
244	0x3a229de6	0.0006203338
245	0xb9b07ea0	-0.0003366368
246	0xbc2e7251	-0.010647372
247	0xbbd6e4d0	-0.0065580383
248	0xbd16e268	-0.03683701
249	0xb90c742f	-0.00013394722
250	0xba842fac	-0.0010085008
251	0x3cc9c731	0.024631115
252	0xbb11cb7b	-0.0022246528
253	0x3bc98a70	0.0061505362
254	0x3c0fe2fa	0.008782143
255	0x3c39f333	0.011349487

bn1d0.running_mean f4 [739]
0	0xbb5e5086	-0.0033922507
1	0xbb23c637	-0.0024989971
2	0xbadcfed1	-0.0016860609
3	0xbbb739fc	-0.005591629
4	0xbbb073b2	-0.0053848857
5	0xbbd614f6	-0.0065332605
6	0xbb8d1c97	-0.0043063867
7	0xbae1b4d5	-0.001722003
8	0x3abbc237	0.0014324848
9	0x3a889c05	0.0010422474
10	0xb9293cd0	-0.0001613975
11	0xbb0a5bf4	-0.0021111937
12	0xbb57a58c	-0.003290507
13	0xbb8ab287	-0.004232708
14	0xbb536344	-0.0032255212
15	0xbb2225d3	-0.0024741783
16	0xbad604f5	-0.0016328382
17	0xba547ac1	-0.000810545
18	0x3933ce13	0.00017147539
19	0xb8e03c71	-0.000106924104
20	0x3a668d45	0.00087948545
21	0x3a49605b	0.00076818996
22	0x3a7e3980	0.0009697899
23	0x3af33166	0.0018554151
24	0x3afe8178	0.0019417247
25	0x3b24912b	0.002511094
26	0x3b077b2b	0.002067278
27	0x3b13052f	0.002243351
28	0x3b0f75ae	0.002189021
29	0x3b16eb01	0.0023028257
30	0x3b1615fb	0.0022901285
31	0x3afe4c2c	0.0019401363
32	0x3b07fd45	0.0020750326
33	0x3ad38563	0.0016137775
34	0x3af0c532	0.0018369316
35	0x3ac86f7f	0.0015292017
36	0x3a8556e6	0.0010172992
37	0x3a3e6210	0.0007262537
38	0x3a04b7dc	0.00050627976
39	0x39e6d5a8	0.00044028205
40	0x3975659e	0.00023402876
41	0xb9775af6	-0.00023589641
42	0xb96573bb	-0.00021882255
43	0xb9814593	-0.00024656634
44	0xba3b8053	-0.00071526057
45	0xba0ce034	-0.0005373985
46	0xba8df554	-0.001083056
47	0xba961c7a	-0.0011452578
48	0xba839d63	-0.0010041412
49	0xbad416ff	-0.001618117
50	0xbac5d236	-0.0015092555
51	0xbac2f688	-0.0014874497
52	0xbad76bbd	-0.0016435307
53	0xbadba5d5	-0.0016757796
54	0xbb238a20	-0.0024954155
55	0xbb1dc55d	-0.0024073937
56	0xbb6a2eda	-0.0035733492
57	0xbb977c1e	-0.00462295
58	0xbbcb52ba	-0.00620493
59	0xbbfa9917	-0.0076476443
60	0xbc156db5	-0.0091203945
61	0xbc174f51	-0.009235219
62	0xbc0e53b3	-0.008686948
63	0xbc240f30	-0.010013387
64	0xbbafb089	-0.005361621
65	0xbb7ffde4	-0.0039061243
66	0xbb39ddb6	-0.002836091
67	0xbaf38e94	-0.001858192
68	0xbaca3091	-0.0015425851
69	0xbab08157	-0.0013466281
70	0xbaa5487c	-0.0012610103
71	0xba8ffa20	-0.0010984577
72	0xbace1fee	-0.0015726069
73	0xba7e5940	-0.00097026303
74	0xba34f678	-0.0006903182
75	0xba03f55a	-0.00050338136
76	0xba029db7	-0.0004982608
77	0xb94a6fa8	-0.00019305816
78	0x39a2461e	0.0003095129
79	0x39e9b149	0.0004457331
80	0x3a170970	0.0005761599
81	0x3a79b9b2	0.0009526267
82	0x3aaa4f5c	0.0012993622
83	0x3a8bc24e	0.0010662766
84	0x3a7263dc	0.00092464476
85	0x3a6ebda1	0.00091072364
86	0x3a620077	0.0008621285
87	0x3a873e32	0.0010318218
88	0x3a533542	0.0008056947
89	0x3a2844be	0.0006418935
90	0x3a1f5b5a	0.0006078981
91	0x3a098775	0.000524632
92	0x39ceb9ac	0.00039429718
93	0x39f6844b	0.00047019342
94	0x371aee76	9.234636e-06
95	0xb8d90a95	-0.000103493374
96	0x383287aa	4.2564854e-05
97	0xba0d9236	-0.000540051
98	0xba3dc715	-0.00072394434
99	0xba6547ab	-0.0008746336
100	0xbaab4ec7	-0.0013069742
101	0xbb13de11	-0.0022562782
102	0xbaee3e3b	-0.0018176505
103	0xbb142e78	-0.0022610705
104	0xbb2f43e5	-0.002674335
105	0xbb3cf380	-0.002883166
106	0xbb5d2c27	-0.003374824
107	0xbb750cd8	-0.0037391689
108	0xbb876b2b	-0.0041326485
109	0xbb9831aa	-0.0046445923
110	0xbbd69b78	-0.006549295
111	0xbbb04a2c	-0.0053799357
112	0xbbb84da2	-0.005624489
113	0xbbb2868a	-0.005448167
114	0xbbb5e771	-0.0055512716
115	0xbbb1d98a	-0.005427544
116	0xbba65c8e	-0.0050769513
117	0xbb9c29d4	-0.0047657285
118	0xbb917c0e	-0.0044398373
119	0xbb8a64dc	-0.004223449
120	0xbbafa6f8	-0.0053604804
121	0xbb84d5b4	-0.0040537957
122	0xbb974415	-0.0046162703
123	0xbba4e0c1	-0.0050316756
124	0xbbc46431	-0.005993389
125	0xbbf6529e	-0.007517173
126	0xbc157ecb	-0.009124468
127	0xbc31257e	-0.0108121615
128	0xbc4b31f4	-0.0124020465
129	0xbc94488d	-0.018101001
130	0xbc63ea67	-0.013910866
131	0xbc5afe24	-0.013366256
132	0xbc47dba5	-0.012198363
133	0xbc2bfec2	-0.010497751
134	0xbc12eb83	-0.008967283
135	0xbbf1adb8	-0.007375445
136	0xbbc30edd	-0.0059526996
137	0xbb9acf96	-0.004724453
138	0xbb7c8b44	-0.0038535157
139	0xbb812118	-0.0039407127
140	0xbb1bda9f	-0.0023781431
141	0xbae8bfef	-0.0017757396
142	0xbac12260	-0.0014734976
143	0xba942e61	-0.0011305326
144	0xba5aef02	-0.0008351655
145	0xba132ebd	-0.00056145695
146	0xb9c0ff0b	-0.00036811116
147	0xb98c2fe2	-0.00026738556
148	0xb9189a51	-0.00014553337
149	0x388ce4f4	6.718366e-05
150	0x39338ed4	0.00017123978
151	0x39c396f7	0.00037305776
152	0x3a496b89	0.00076835655
153	0x3a6c660d	0.00090178923
154	0x3a9b58cf	0.0011852029
155	0x3aae0809	0.0013277541
156	0x3aca5c2f	0.001543885
157	0x3ad18449	0.0015984859
158	0x3b1d34cd	0.002398777
159	0x3afdee1d	0.0019373331
160	0x3b02daaf	0.0019966771
161	0x3b0840f6	0.0020790673
162	0x3b092b4c	0.0020930348
163	0x3b0e8ffc	0.0021753302
164	0x3b0b0616	0.0021213344
165	0x3b1646b8	0.0022930335
166	0x3b1388d3	0.0022511974
167	0x3b41e524	0.0029586041
168	0x3b13e8c6	0.0022569164
169	0x3b1222c0	0.0022298545
170	0x3b13514b	0.0022478874
171	0x3b0c73b5	0.0021431271
172	0x3b0b56c6	0.0021261438
173	0x3b093616	0.0020936779
174	0x3b09c11a	0.0021019639
175	0x3b0053cd	0.00195812
176	0x3b0771eb	0.0020667266
177	0x3b24f63c	0.0025171181
178	0x3b04a277	0.0020238438
179	0x3af6c9bd	0.0018828433
180	0x3aed9e70	0.0018128883
181	0x3af8d9a5	0.0018985762
182	0x3ae9771b	0.0017811985
183	0x3ae6feb1	0.0017623511
184	0x3aed65d2	0.001811201
185	0x3ae7bb4e	0.0017679723
186	0x3b1151c8	0.002217399
187	0x3ad80cd4	0.0016483315
188	0x3ad3fbcd	0.0016173065
189	0x3adc8e60	0.0016827099
190	0x3ace1a3f	0.0015724375
191	0x3ad1c117	0.001600298
192	0x3adb05fc	0.0016710158
193	0x3acfc20c	0.0015850677
194	0x3ac887ec	0.0015299297
195	0x3b082082	0.002077133
196	0x3aa019b3	0.001221469
197	0x3abf21c6	0.0014582209
198	0x3abbe153	0.001433412
199	0x3aa8a63b	0.0012866923
200	0x3ac0ccdf	0.0014709494
201	0x3aa29d4f	0.0012406501
202	0x3aa0dba4	0.0012272489
203	0x3aad1687	0.0013205566
204	0x3a802cb4	0.0009778948
205	0x3abd2d92	0.0014433137
206	0x3a662c78	0.000878043
207	0x3a8ade9a	0.0010594905
208	0x3a8cf26e	0.0010753402
209	0x3a9d5ba2	0.0012005458
210	0x3ac34c68	0.001490009
211	0x3b14bb1f	0.002269454
212	0x3b53e117	0.003233021
213	0x3ba9a8ee	0.0051776087
214	0x3c36fdcf	0.011168911
215	0x3c4e515a	0.012592638
216	0x3c8daf94	0.017295636
217	0x3cabbbe8	0.020963624
218	0x3cb9a327	0.022660805
219	0x3cbac194	0.022797383
220	0x3c8edd47	0.017439498
221	0x3c2db2e6	0.010601735
222	0x3b54fa04	0.0032497654
223	0xb9609f4a	-0.00021421644
224	0xbb89fbc9	-0.0042109233
225	0xbbb57744	-0.005537899
226	0xbbd1d139	-0.006403115
227	0x3afd4e32	0.0019325672
228	0x3afd873f	0.0019342675
229	0x3b003cab	0.001956741
230	0x3afe8503	0.0019418303
231	0x3afa422c	0.0019093207
232	0x3afe046a	0.0019379978
233	0x3b001251	0.0019542167
234	0x3afec9fd	0.0019438859
235	0x3affee16	0.0019525911
236	0x3affba60	0.00195105
237	0x3b00e3a8	0.0019666944
238	0x3afe5367	0.0019403518
239	0x3afa4d7b	0.0019096577
240	0x3afe308c	0.001939313
241	0x3afb63cd	0.0019179523
242	0x3b00bf5d	0.0019645311
243	0x3afd924b	0.0019345967
244	0x3b04ddd3	0.002027382
245	0x3afe4161	0.0019398147
246	0x3b02b4d0	0.0019944198
247	0x3b07fbbb	0.0020749408
248	0x3b04d433	0.0020268082
249	0x3affea12	0.0019524714
250	0x3afdaf4e	0.0019354613
251	0x3afc7a28	0.001926248
252	0x3b003475	0.0019562517
253	0x3affe776	0.0019523937
254	0x3afdf9e4	0.0019376841
255	0x3b01293d	0.0019708418

bn1d0.running_var f4 [739]
0	0x3793dee0	1.762755e-05
1	0x374e64b2	1.2302002e-05
2	0x3704b424	7.909755e-06
3	0x36bf192b	5.6951735e-06
4	0x37033c14	7.8221965e-06
5	0x36865eb9	4.0045384e-06
6	0x367b559b	3.7451744e-06
7	0x35fcd44e	1.8837252e-06
8	0x360e91ff	2.124463e-06
9	0x35d2f2e9	1.5716915e-06
10	0x361f8544	2.3770417e-06
11	0x35ff83b8	1.9037316e-06
12	0x3609a5fc	2.0511206e-06
13	0x35f257f5	1.8056004e-06
14	0x35b1cdd0	1.3247427e-06
15	0x35a27b1e	1.2105772e-06
16	0x359ede33	1.1836586e-06
17	0x356c5e0f	8.8053724e-07
18	0x354a6fea	7.541372e-07
19	0x35743b75	9.0983605e-07
20	0x355daae1	8.2577577e-07
21	0x351314bf	5.4791957e-07
22	0x355c0ead	8.197774e-07
23	0x353e8ee0	7.0988426e-07
24	0x3527d5d5	6.2523515e-07
25	0x350bf07a	5.2131475e-07
26	0x353585da	6.7622534e-07
27	0x352f606c	6.533289e-07
28	0x35119594	5.4234374e-07
29	0x3507bd43	5.056683e-07
30	0x350d4e43	5.264048e-07
31	0x3504873e	4.9370635e-07
32	0x34d32353	3.9327514e-07
33	0x34ee3d37	4.4375494e-07
34	0x35049f7f	4.940593e-07
35	0x3515313c	5.557847e-07
36	0x34e05698	4.1786257e-07
37	0x34ed0ee4	4.4155524e-07
38	0x34d9b248	4.0549116e-07
39	0x34f94d35	4.643604e-07
40	0x34d9adff	4.0545999e-07
41	0x34e3cf52	4.243289e-07
42	0x34d4ae25	3.9614784e-07
43	0x34dc3845	4.1019135e-07
44	0x34f7db68	4.6166974e-07
45	0x352e44b1	6.492001e-07
46	0x34f86f96	4.627479e-07
47	0x34d8fa05	4.0415048e-07
48	0x34ce4cac	3.8426276e-07
49	0x34bc50a0	3.507639e-07
50	0x34f09175	4.4809318e-07
51	0x35000e04	4.770411e-07
52	0x34d4aca1	3.961368e-07
53	0x34d8ebae	4.0404615e-07
54	0x3504154a	4.920481e-07
55	0x351550d3	5.562444e-07
56	0x35194847	5.710212e-07
57	0x35431129	7.266813e-07
58	0x3598e946	1.1392774e-06
59	0x35d52eb8	1.5883334e-06
60	0x360b7dc5	2.0785822e-06
61	0x35e82eb8	1.7298944e-06
62	0x3604e381	1.9801957e-06
63	0x3619cb46	2.2917097e-06
64	0x3553c0cd	7.888419e-07
65	0x3503f82d	4.9162446e-07
66	0x34f3bfec	4.540192e-07
67	0x34cd92a9	3.8290935e-07
68	0x34ab5438	3.191251e-07
69	0x34b0abd8	3.2907587e-07
70	0x34988f6d	2.8416562e-07
71	0x34a3c7d4	3.050651e-07
72	0x34b899a3	3.4384456e-07
73	0x3491f25a	2.718469e-07
74	0x34b800af	3.4273168e-07
75	0x34aa96bf	3.177465e-07
76	0x34990ae1	2.8506386e-07
77	0x3479e88a	2.327453e-07
78	0x34aaa921	3.1788025e-07
79	0x34a14a58	3.004268e-07
80	0x34a09bf6	2.99158e-07
81	0x346ad961	2.187203e-07
82	0x3496f20b	2.8115787e-07
83	0x34ba9750	3.4755294e-07
84	0x346e6465	2.2202e-07
85	0x3487f18b	2.5321455e-07
86	0x348365ae	2.4474633e-07
87	0x344b658e	1.8942794e-07
88	0x3457bfa0	2.0093148e-07
89	0x343cb297	1.7573835e-07
90	0x3449670e	1.8757075e-07
91	0x34465b4d	1.8473402e-07
92	0x34006781	1.1958583e-07
93	0x3436fca9	1.7041988e-07
94	0x34528d48	1.9609172e-07
95	0x34444ca1	1.82818e-07
96	0x34423b38	1.8089202e-07
97	0x34122ca5	1.3613551e-07
98	0x34339f68	1.6728666e-07
99	0x342920bd	1.5751262e-07
100	0x3426960e	1.5514544e-07
101	0x346cdf45	2.2060438e-07
102	0x3440173b	1.7889845e-07
103	0x344e22c2	1.919789e-07
104	0x349d9452	2.9351446e-07
105	0x3492deb4	2.7356657e-07
106	0x34700bb6	2.2356002e-07
107	0x34d8d01f	4.0384563e-07
108	0x34de9e18	4.146575e-07
109	0x34ee9283	4.4437556e-07
110	0x356a607d	8.73122e-07
111	0x34ef5c09	4.4584183e-07
112	0x352700b9	6.22134e-07
113	0x35266199	6.198184e-07
114	0x35033955	4.888473e-07
115	0x34cb574b	3.787521e-07
116	0x3509ad3b	5.128856e-07
117	0x34d82fa8	4.026781e-07
118	0x34d56dc6	3.9754212e-07
119	0x34a4700a	3.06289e-07
120	0x350e1530	5.2929954e-07
121	0x34903b24	2.686512e-07
122	0x3498f8fc	2.8493366e-07
123	0x34af092f	3.2602972e-07
124	0x35021b35	4.8468365e-07
125	0x353fae11	7.1406345e-07
126	0x35818e0d	9.652591e-07
127	0x35a6fa7c	1.2440864e-06
128	0x35de63e9	1.6569367e-06
129	0x366d81c4	3.5391286e-06
130	0x3616f94b	2.249685e-06
131	0x360f5d7b	2.1363073e-06
132	0x35fd5934	1.887593e-06
133	0x35cb7bea	1.5160742e-06
134	0x35ae72cd	1.2997422e-06
135	0x357ad0f9	9.343635e-07
136	0x3530707e	6.5728807e-07
137	0x35085847	5.079241e-07
138	0x34bac9ac	3.4791935e-07
139	0x34e19f8d	4.2025604e-07
140	0x342f94c6	1.6352269e-07
141	0x3486eb92	2.5130845e-07
142	0x34160550	1.3971771e-07
143	0x343101bc	1.648504e-07
144	0x3437a01d	1.7101452e-07
145	0x34018371	1.206188e-07
146	0x34058c6b	1.2437674e-07
147	0x33d829c2	1.00658795e-07
148	0x33dc0f80	1.0247368e-07
149	0x33c8ee25	9.356544e-08
150	0x33cfd967	9.678734e-08
151	0x3406eaeb	1.2565185e-07
152	0x3434c177	1.6834188e-07
153	0x33fabeb9	1.16762244e-07
154	0x343db297	1.7666967e-07
155	0x344157a3	1.8006408e-07
156	0x3422a6e9	1.5148147e-07
157	0x3427ac7a	1.5615834e-07
158	0x34a48316	3.0642758e-07
159	0x341e07ba	1.4717708e-07
160	0x345a300f	2.0320316e-07
161	0x342d65c5	1.6148904e-07
162	0x34628d28	2.1099243e-07
163	0x3481ac4d	2.4153488e-07
164	0x3478cc9a	2.3171233e-07
165	0x3448afbb	1.8690382e-07
166	0x348fc243	2.677717e-07
167	0x34924713	2.7246332e-07
168	0x345afc50	2.0394623e-07
169	0x348dbab9	2.6399155e-07
170	0x3443f700	1.8250648e-07
171	0x345842a5	2.0140813e-07
172	0x349a1970	2.8703244e-07
173	0x34575ab1	2.0056429e-07
174	0x346cb495	2.2044908e-07
175	0x348f849f	2.673232e-07
176	0x3480635c	2.391415e-07
177	0x3489aafd	2.564265e-07
178	0x3475947c	2.2871421e-07
179	0x348445e9	2.4637782e-07
180	0x3498bb28	2.844838e-07
181	0x34aef08a	3.258504e-07
182	0x34976bc4	2.8204352e-07
183	0x34808ffb	2.3946617e-07
184	0x347d77ee	2.3606091e-07
185	0x34b2339f	3.3192643e-07
186	0x34b0bfd0	3.2922117e-07
187	0x349194e2	2.711668e-07
188	0x34ae027d	3.2411836e-07
189	0x34aa2258	3.1689956e-07
190	0x34c4be60	3.664636e-07
191	0x34e5a761	4.2776358e-07
192	0x34c36327	3.6393723e-07
193	0x34f39235	4.5368657e-07
194	0x34e95465	4.3461037e-07
195	0x34ec45e8	4.400929e-07
196	0x34e23294	4.213258e-07
197	0x3500e49c	4.8016386e-07
198	0x35053669	4.962554e-07
199	0x34ee08c6	4.4337338e-07
200	0x351d9afc	5.871259e-07
201	0x3529cde6	6.325703e-07
202	0x350a0bba	5.142607e-07
203	0x350c3a45	5.223886e-07
204	0x351212c6	5.441656e-07
205	0x3556bdb0	7.9997244e-07
206	0x354d6ef6	7.652992e-07
207	0x35866bdd	1.001517e-06
208	0x3560c506	8.373321e-07
209	0x355eef8e	8.305004e-07
210	0x357b37a5	9.358576e-07
211	0x3589f193	1.0277603e-06
212	0x35930fbd	1.0956934e-06
213	0x35c8c920	1.4959696e-06
214	0x365afd54	3.2631988e-06
215	0x368ba4a6	4.1616904e-06
216	0x36e1de5f	6.73141e-06
217	0x37536ce3	1.2601932e-05
218	0x374b0c26	1.2102571e-05
219	0x3762a179	1.35082455e-05
220	0x376794e6	1.3803341e-05
221	0x379146e9	1.7318367e-05
222	0x3788b20c	1.6295373e-05
223	0x37a1f30f	1.9305879e-05
224	0x37ac8b3d	2.0568836e-05
225	0x382a441f	4.05946e-05
226	0x385566d0	5.087891e-05
227	0x2f1518b9	1.3560254e-10
228	0x2e9f00d3	7.230629e-11
229	0x2f8266a5	2.3719796e-10
230	0x2f4e26b9	1.8749348e-10
231	0x2c9d4fc1	4.471063e-12
232	0x2e8149be	5.87934e-11
233	0x2f6dd845	2.1631859e-10
234	0x2f0d6f15	1.286334e-10
235	0x2f7047aa	2.1853333e-10
236	0x2fd79478	3.9213766e-10
237	0x2ef7ab06	1.12626394e-10
238	0x2f315378	1.612771e-10
239	0x2d6364f4	1.2925872e-11
240	0x2ef59783	1.1168224e-10
241	0x2e27bca1	3.813894e-11
242	0x2f279913	1.5242944e-10
243	0x2f1c7b10	1.4231838e-10
244	0x2ffd99e8	4.612979e-10
245	0x2f026077	1.1857702e-10
246	0x2fc0d0ab	3.5072864e-10
247	0x300955e7	4.9962384e-10
248	0x2ff80111	4.5111695e-10
249	0x2f8c58fb	2.5529076e-10
250	0x2e8eccbc	6.4937805e-11
251	0x2ee804b9	1.05509775e-10
252	0x2f26ab5d	1.5158493e-10
253	0x2e92d9d2	6.678004e-11
254	0x2ee1d7c3	1.02701424e-10
255	0x2f8940f0	2.4966296e-10

bn1d1.weight f4 [512]
0	0x3f800000	1.0
1	0x3f84a289	1.0362102
2	0x3f800000	1.0
3	0x3f83d09d	1.0298039
4	0x3f800000	1.0
5	0x3f7fefd6	0.99975336
6	0x3f800000	1.0
7	0x3f801aad	1.0008141
8	0x3f800000	1.0
9	0x3f805ea7	1.0028886
10	0x3f800000	1.0
11	0x3f809c2a	1.0047657
12	0x3f800000	1.0
13	0x3f80fdc8	1.0077448
14	0x3f800000	1.0
15	0x3f80dbf2	1.0067122
16	0x3f800000	1.0
17	0x3f800183	1.0000461
18	0x3f800000	1.0
19	0x3f7fecea	0.9997088
20	0x3f800000	1.0
21	0x3f8026cd	1.0011841
22	0x3f800000	1.0
23	0x3f8002de	1.0000875
24	0x3f800000	1.0
25	0x3f803ecd	1.0019165
26	0x3f800000	1.0
27	0x3f8067ed	1.0031716
28	0x3f800000	1.0
29	0x3f7fd948	0.9994092
30	0x3f800000	1.0
31	0x3f7fedb1	0.99972063
32	0x3f800000	1.0
33	0x3f7f4ff7	0.9973139
34	0x3f800000	1.0
35	0x3f7f474e	0.9971818
36	0x3f800000	1.0
37	0x3f7ffe02	0.9999696
38	0x3f800000	1.0
39	0x3f7ffd53	0.9999592
40	0x3f800000	1.0
41	0x3f7fca8e	0.9991845
42	0x3f800000	1.0
43	0x3f801a2f	1.0007991
44	0x3f800000	1.0
45	0x3f7feaad	0.9996746
46	0x3f800000	1.0
47	0x3f7fea77	0.9996714
48	0x3f800000	1.0
49	0x3f7ff04b	0.9997603
50	0x3f800000	1.0
51	0x3f800167	1.0000428
52	0x3f800000	1.0
53	0x3f826a64	1.0188718
54	0x3f800000	1.0
55	0x3f80475a	1.0021775
56	0x3f800000	1.0
57	0x3f8003eb	1.0001196
58	0x3f800000	1.0
59	0x3f7ff640	0.9998512
60	0x3f800000	1.0
61	0x3f83dd1a	1.030185
62	0x3f800000	1.0
63	0x3f8348bc	1.0256572
64	0x3f800000	1.0
65	0x3f87b2ca	1.0601437
66	0x3f800000	1.0
67	0x3f84d94d	1.0378815
68	0x3f800000	1.0
69	0x3f80ef2c	1.007299
70	0x3f800000	1.0
71	0x3f80b762	1.0055964
72	0x3f800000	1.0
73	0x3f7d4232	0.9892913
74	0x3f800000	1.0
75	0x3f7afc8b	0.980416
76	0x3f800000	1.0
77	0x3f80032c	1.0000968
78	0x3f800000	1.0
79	0x3f7ffb6d	0.9999302
80	0x3f800000	1.0
81	0x3f7f89ec	0.9981983
82	0x3f800000	1.0
83	0x3f802443	1.0011066
84	0x3f800000	1.0
85	0x3f7a7b93	0.9784481
86	0x3f800000	1.0
87	0x3f79ae0a	0.9753119
88	0x3f800000	1.0
89	0x3f8d5357	1.1041058
90	0x3f800000	1.0
91	0x3f89eeea	1.0776036
92	0x3f800000	1.0
93	0x3f7fd29e	0.9993075
94	0x3f800000	1.0
95	0x3f801514	1.0006433
96	0x3f800000	1.0
97	0x3f80ac49	1.0052577
98	0x3f800000	1.0
99	0x3f801658	1.0006819
100	0x3f800000	1.0
101	0x3f7fe959	0.99965435
102	0x3f800000	1.0
103	0x3f7fded3	0.9994938
104	0x3f800000	1.0
105	0x3f8021b8	1.001029
106	0x3f800000	1.0
107	0x3f801051	1.0004979
108	0x3f800000	1.0
109	0x3f80175b	1.0007128
110	0x3f800000	1.0
111	0x3f7fe206	0.9995426
112	0x3f800000	1.0
113	0x3f7ff7fe	0.9998778
114	0x3f800000	1.0
115	0x3f800ae8	1.0003328
116	0x3f800000	1.0
117	0x3f82cf42	1.02195
118	0x3f800000	1.0
119	0x3f823039	1.0170966
120	0x3f800000	1.0
121	0x3f82a42d	1.0206352
122	0x3f800000	1.0
123	0x3f80f63e	1.0075147
124	0x3f800000	1.0
125	0x3f7ffa87	0.9999165
126	0x3f800000	1.0
127	0x3f800c53	1.0003761
128	0x3f800000	1.0
129	0x3f899f91	1.0751821
130	0x3f800000	1.0
131	0x3f8a5e77	1.0810078
132	0x3f800000	1.0
133	0x3f7fe902	0.99964917
134	0x3f800000	1.0
135	0x3f7fee63	0.99973124
136	0x3f800000	1.0
137	0x3f801cd3	1.0008796
138	0x3f800000	1.0
139	0x3f7ff82a	0.99988043
140	0x3f800000	1.0
141	0x3f7d0811	0.98840433
142	0x3f800000	1.0
143	0x3f7bac6c	0.9830997
144	0x3f800000	1.0
145	0x3f8321ba	1.0244668
146	0x3f800000	1.0
147	0x3f806579	1.0030967
148	0x3f800000	1.0
149	0x3f7ffadd	0.9999216
150	0x3f800000	1.0
151	0x3f7fe5a2	0.99959767
152	0x3f800000	1.0
153	0x3f800450	1.0001316
154	0x3f800000	1.0
155	0x3f80038c	1.0001082
156	0x3f800000	1.0
157	0x3f8119ce	1.0086
158	0x3f800000	1.0
159	0x3f80dbe2	1.0067103
160	0x3f800000	1.0
161	0x3f802774	1.001204
162	0x3f800000	1.0
163	0x3f806a84	1.0032506
164	0x3f800000	1.0
165	0x3f800565	1.0001646
166	0x3f800000	1.0
167	0x3f7fe7b0	0.999629
168	0x3f800000	1.0
169	0x3f8025d3	1.0011543
170	0x3f800000	1.0
171	0x3f801c25	1.0008589
172	0x3f800000	1.0
173	0x3f93b22e	1.1538751
174	0x3f800000	1.0
175	0x3f94b72d	1.1618401
176	0x3f800000	1.0
177	0x3f8024a2	1.001118
178	0x3f800000	1.0
179	0x3f801fa1	1.0009652
180	0x3f800000	1.0
181	0x3f7fdc90	0.99945927
182	0x3f800000	1.0
183	0x3f800420	1.0001259
184	0x3f800000	1.0
185	0x3f83c1e4	1.0293546
186	0x3f800000	1.0
187	0x3f811287	1.0083779
188	0x3f800000	1.0
189	0x3f802fb1	1.0014554
190	0x3f800000	1.0
191	0x3f807a2c	1.0037284
192	0x3f800000	1.0
193	0x3f7ffb42	0.99992764
194	0x3f800000	1.0
195	0x3f800030	1.0000057
196	0x3f800000	1.0
197	0x3f82f168	1.0229921
198	0x3f800000	1.0
199	0x3f80b813	1.0056175
200	0x3f800000	1.0
201	0x3f7fe385	0.9995654
202	0x3f800000	1.0
203	0x3f7fdf8e	0.9995049
204	0x3f800000	1.0
205	0x3f7ff7d7	0.9998755
206	0x3f800000	1.0
207	0x3f800480	1.0001373
208	0x3f800000	1.0
209	0x3f78aff1	0.97143465
210	0x3f800000	1.0
211	0x3f78b9f9	0.9715877
212	0x3f800000	1.0
213	0x3f804df3	1.0023788
214	0x3f800000	1.0
215	0x3f7ff4e4	0.9998305
216	0x3f800000	1.0
217	0x3f800c18	1.0003691
218	0x3f800000	1.0
219	0x3f801f7b	1.0009607
220	0x3f800000	1.0
221	0x3f81cfc6	1.0141532
222	0x3f800000	1.0
223	0x3f83f182	1.0308077
224	0x3f800000	1.0
225	0x3f7cbb8f	0.9872369
226	0x3f800000	1.0
227	0x3f7f5dab	0.997523
228	0x3f800000	1.0
229	0x3f7ffcf3	0.99995345
230	0x3f800000	1.0
231	0x3f7fe7a2	0.9996282
232	0x3f800000	1.0
233	0x3f859a28	1.043767
234	0x3f800000	1.0
235	0x3f86f3e5	1.0543181
236	0x3f800000	1.0
237	0x3f820b70	1.015974
238	0x3f800000	1.0
239	0x3f81d48b	1.0142988
240	0x3f800000	1.0
241	0x3f78c7c0	0.97179794
242	0x3f800000	1.0
243	0x3f7d0528	0.9883599
244	0x3f800000	1.0
245	0x3f801432	1.0006163
246	0x3f800000	1.0
247	0x3f7fc8e8	0.99915934
248	0x3f800000	1.0
249	0x3f802f2a	1.0014393
250	0x3f800000	1.0
251	0x3f80f63c	1.0075145
252	0x3f800000	1.0
253	0x3f82a7b6	1.0207431
254	0x3f800000	1.0
255	0x3f82d36b	1.022077

bn1d1.bias f4 [512]
0	0x3bf846d4	0.0075768027
1	0x3cb1d930	0.021710008
2	0xba68dc4d	-0.0008882925
3	0x3cd450af	0.02591738
4	0x3b848d31	0.0040451516
5	0x3baa06b4	0.0051887874
6	0x3b751b72	0.0037400392
7	0x3c977923	0.01849038
8	0xbc81160c	-0.015757583
9	0x3c59a023	0.0132828085
10	0x3b867c6a	0.004104187
11	0x3c9fb81b	0.019496968
12	0x3b04d78f	0.0020270084
13	0xbd09724d	-0.03355627
14	0x3c72aba7	0.014811433
15	0xbca3cff0	-0.019996613
16	0x3b170a78	0.0023047011
17	0xbbcc41b9	-0.0062334207
18	0x3be9b239	0.0071318415
19	0x3ad01a53	0.0015876986
20	0xbabc3f06	-0.0014362044
21	0xbd83476c	-0.06410107
22	0xbb50c23f	-0.003185406
23	0xbd63b058	-0.055588096
24	0x3cb58bb9	0.022161352
25	0xbcbaa5ab	-0.022784075
26	0xbd0e1f74	-0.034697965
27	0x3d00ebcd	0.031474877
28	0xbb8fc9a3	-0.0043880506
29	0x3ca925f8	0.020647988
30	0xbb1979d2	-0.0023418558
31	0x3c68b98e	0.014204396
32	0xbc359631	-0.011083172
33	0x3d1c3005	0.038131732
34	0x3b3532c9	0.0027648679
35	0x3d35998d	0.04433589
36	0x3a767991	0.000940227
37	0x3ad153da	0.0015970424
38	0xbc70cbd5	-0.014697035
39	0x3b8bfd29	0.0042721224
40	0x3b84e7c2	0.004055948
41	0xbc84d00a	-0.016212482
42	0x3cade4b8	0.021227226
43	0xbc53b796	-0.012922188
44	0xbba61141	-0.005067975
45	0xbbddca9c	-0.0067685377
46	0xbbe80e02	-0.007081748
47	0x3c2a2fd1	0.010387377
48	0xba282b5f	-0.0006415154
49	0xbc1b4668	-0.009477235
50	0x3caed814	0.021343268
51	0x3a44ac5b	0.00075024896
52	0x3c2c8749	0.010530301
53	0x3b952e98	0.0045526735
54	0xbbcb9a47	-0.0062134597
55	0xbb0edcc7	-0.0021799074
56	0x3d0179e0	0.03161037
57	0x3c0e4435	0.008683254
58	0x3ad63df7	0.0016345371
59	0xbc4e2734	-0.012582589
60	0xbc51ab9f	-0.012797265
61	0xbd97ca64	-0.0741165
62	0x3b3e8a5c	0.0029074168
63	0xbdca31f5	-0.0987281
64	0x3c0f472c	0.008744996
65	0x3ccaf37d	0.024774307
66	0x3c2db430	0.010602042
67	0x3c67e494	0.014153618
68	0xbafc8b4c	-0.0019267588
69	0x3cc157be	0.023601409
70	0xbb3fdfb2	-0.002927762
71	0x3c99af60	0.018760383
72	0x3cbed3fb	0.02329444
73	0xbd1c1a94	-0.038111284
74	0xbca7f487	-0.020502342
75	0xbbbc4612	-0.0057456577
76	0xba5cf9cd	-0.0008429557
77	0x3a6735ec	0.00088199857
78	0xbac4e741	-0.0015022532
79	0xbb7695f5	-0.0037626002
80	0xb9ff1b7c	-0.00048657868
81	0xbcd8db88	-0.026471868
82	0xbc2ead40	-0.010661423
83	0x3c9ea451	0.019365462
84	0x3b9e92b6	0.0048392667
85	0xbdc31695	-0.095257916
86	0xb9d9f3cc	-0.00041571108
87	0xbd93ebed	-0.07222734
88	0x3b867002	0.004102708
89	0xbd2df670	-0.04247135
90	0xba9ded0c	-0.0012048795
91	0xbd0f8e19	-0.035047624
92	0x3b3f4729	0.0029186702
93	0xbc87316e	-0.016503062
94	0xbc8c2ced	-0.017111266
95	0x3c50d4a5	0.012746011
96	0x370a72de	8.252186e-06
97	0xbd32fb4f	-0.043696698
98	0xbc07e2ce	-0.008293821
99	0xbcec3f6c	-0.028838836
100	0x3bc202e0	0.005920753
101	0xbc878332	-0.016542051
102	0xbbbdc8e7	-0.0057917717
103	0xbc71f114	-0.01476695
104	0x3c2ea0eb	0.010658483
105	0xbc216138	-0.009849839
106	0x3a2eb1b4	0.0006664053
107	0x3961fbe9	0.00021551516
108	0xbc813118	-0.01577048
109	0xbc1ebfa0	-0.009689242
110	0x3c86b83d	0.016445274
111	0x3c684e6b	0.014178853
112	0xbc0128bf	-0.00788325
113	0x3bba1535	0.0056787976
114	0xbc737802	-0.014860155
115	0x3b5614e9	0.0032666272
116	0x3c7c408c	0.015396249
117	0xbd7f1afd	-0.062281597
118	0x3c8f57dc	0.01749795
119	0xbd289bc4	-0.041164175
120	0xbc7d5104	-0.01546121
121	0xbd5bb762	-0.053641684
122	0x3bd00a4c	0.0063488837
123	0xbd357fc3	-0.044311296
124	0x3d07cb69	0.03315297
125	0x3bd769aa	0.0065738754
126	0x3c8d5ffa	0.01725768
127	0xbc346dfd	-0.011012551
128	0x3c8dcd7d	0.017309899
129	0xbd668783	-0.056281578
130	0xba13eb52	-0.00056426704
131	0xbd4fb648	-0.050710946
132	0xbb189208	-0.00232804
133	0xbc29e949	-0.010370561
134	0x3c8876ae	0.016658153
135	0xb986743e	-0.0002564508
136	0x3c8741aa	0.016510803
137	0xbc31c8df	-0.010851114
138	0x3be77a38	0.00706413
139	0xbc66aa11	-0.014078633
140	0x3c57d9d0	0.013174489
141	0x3d9900c5	0.0747085
142	0x39998777	0.00029283363
143	0x3d98f533	0.07468643
144	0x3cb59da5	0.022169897
145	0xbd9f89bf	-0.07789945
146	0xb89c41d9	-7.450925e-05
147	0xbda71b62	-0.0815952
148	0xbb886ddb	-0.0041634864
149	0xbc592e92	-0.013255732
150	0x3b9ce447	0.004787955
151	0xbb4d411c	-0.0031319326
152	0xbc97c32f	-0.018525688
153	0x3c2d8e7e	0.010593055
154	0xbc91bb0a	-0.017789382
155	0xbc4eec0b	-0.012629519
156	0xbbba9dcc	-0.0056950804
157	0x3cb44602	0.022006039
158	0x3cb76659	0.02238767
159	0x3bf3786a	0.007430126
160	0x3c73db7e	0.014883874
161	0xbd18c408	-0.037296325
162	0xbc483684	-0.012220029
163	0xbca42d5a	-0.020041157
164	0xbb192502	-0.0023368006
165	0x3b8e6748	0.004345808
166	0xbc7e6096	-0.015525958
167	0x3c5a3d10	0.0133202225
168	0xb99f6b90	-0.00030406984
169	0x3b9410ed	0.0045186193
170	0xbbff985b	-0.0078001446
171	0xbc965766	-0.018352222
172	0xbc8ef535	-0.017450908
173	0xbd958779	-0.0730123
174	0xbc28ea63	-0.010309788
175	0xbd5eabb7	-0.05436298
176	0xbc512c8b	-0.0127669675
177	0xbc4cb605	-0.012494569
178	0xbcbb5513	-0.022867715
179	0xbce7e973	-0.02830956
180	0xbc1305ba	-0.008973533
181	0xbc525419	-0.012837433
182	0x3c0e3adf	0.008681028
183	0x3b2e16f9	0.0026563986
184	0xba7d923e	-0.0009672976
185	0xbdcb97d8	-0.09941071
186	0xbb9d03ca	-0.0047917115
187	0xbd8073fc	-0.06272122
188	0x3b6393ec	0.003472562
189	0xbccc50ee	-0.024940934
190	0x3bfb35f7	0.007666345
191	0xbd15403c	-0.03643821
192	0xbc6675d0	-0.014066175
193	0x3ab10148	0.001350441
194	0x3ad70262	0.0016403908
195	0x3b95568d	0.004557437
196	0xbd105b3d	-0.03524326
197	0x3d9fe3c7	0.07807117
198	0x3c2b6ba9	0.01046268
199	0x3d5027ec	0.050819322
200	0x3bde916c	0.006792238
201	0x3be0b559	0.006857556
202	0xbbc66a6c	-0.006055167
203	0x3b0d96be	0.0021604742
204	0x3c4d418b	0.012527834
205	0xbc1926c5	-0.009347622
206	0xbc0958e1	-0.008383007
207	0xbbaffd0f	-0.005370743
208	0x3bf952c6	0.0076087443
209	0xbd73937c	-0.059466824
210	0x3ca30dad	0.019903982
211	0xbd410f67	-0.04713383
212	0x3abe7a28	0.0014532255
213	0xbd0f3227	-0.03495994
214	0x3c1f5ac1	0.009726227
215	0xbd076e26	-0.03306403
216	0xbbc62348	-0.0060466863
217	0xbc4b64b2	-0.012414144
218	0xb8943861	-7.067691e-05
219	0xbbffe754	-0.007809559
220	0x3c470886	0.012148028
221	0xbd51b88d	-0.051201392
222	0x3c6139f1	0.013746724
223	0xbd5592c7	-0.05214193
224	0xbb3ee032	-0.002912533
225	0xbd5344bb	-0.05157922
226	0xbbe6952e	-0.0070368266
227	0xbd245a31	-0.040125076
228	0xbc1ba37d	-0.009499428
229	0xbba8d8e5	-0.005152809
230	0x3cac3f0b	0.021026155
231	0xbc058d9c	-0.008151438
232	0xbb86f454	-0.0041184817
233	0x3d62bae7	0.055354025
234	0x3bb5f0dd	0.005552395
235	0x3d844984	0.064593345
236	0x3ba0af36	0.0049036993
237	0xbdd7f01d	-0.10543845
238	0x3a9d8616	0.001201811
239	0xbd959d59	-0.07305402
240	0x3c636978	0.013880126
241	0xbdd51799	-0.104048915
242	0x3b2ff529	0.0026849008
243	0xbdd6582e	-0.10466038
244	0x3c80730d	0.01567986
245	0x3c099847	0.008398122
246	0xbc04845c	-0.008088198
247	0xbb0d5456	-0.002156516
248	0xbaafe8b6	-0.0013420794
249	0xbda9c354	-0.08289209
250	0xbc21c951	-0.009874658
251	0xbdc16c21	-0.09444452
252	0x3b01edce	0.001982558
253	0xbc348989	-0.011019119
254	0x3c62da34	0.013845969
255	0xbce53bcb	-0.027982613

bn1d1.running_mean f4 [512]
0	0x00000000	0.0
1	0x3d82291e	0.06355499
2	0x00000000	0.0
3	0x3d93fb22	0.07225634
4	0x00000000	0.0
5	0x3d4bab69	0.049724016
6	0x00000000	0.0
7	0x3d69727a	0.05699394
8	0x00000000	0.0
9	0x3d4a420a	0.049379386
10	0x00000000	0.0
11	0x3d675472	0.056477018
12	0x00000004	6e-45
13	0x3e1c1178	0.15241039
14	0x00000004	6e-45
15	0x3e30e5b3	0.17275123
16	0x00000004	6e-45
17	0x3cccca51	0.024998816
18	0x00000004	6e-45
19	0x3ceaf473	0.028681016
20	0x00000000	0.0
21	0x3f242b46	0.6412853
22	0x00000000	0.0
23	0x3f349a4a	0.70547926
24	0x00000000	0.0
25	0x3e8f657a	0.28007108
26	0x00000000	0.0
27	0x3ea2af2a	0.31774265
28	0x00000004	6e-45
29	0x3c4b019f	0.012390523
30	0x00000004	6e-45
31	0x3c68bb68	0.014204837
32	0x00000004	6e-45
33	0x3dd06cb4	0.101769835
34	0x00000004	6e-45
35	0x3deac87e	0.11464022
36	0x00000004	6e-45
37	0x3cc905ab	0.024538836
38	0x00000004	6e-45
39	0x3ce685c2	0.028139953
40	0x00000000	0.0
41	0x3e07ce7b	0.1326236
42	0x00000000	0.0
43	0x3e1ac02a	0.15112367
44	0x00000004	6e-45
45	0x3cbd0c3b	0.023077121
46	0x00000004	6e-45
47	0x3cd8bb76	0.026456576
48	0x00000004	6e-45
49	0x3ba6bcb9	0.0050884155
50	0x00000004	6e-45
51	0x3bbea767	0.0058182958
52	0x00000000	0.0
53	0x3f0982a8	0.5371499
54	0x00000000	0.0
55	0x3f15b091	0.58472544
56	0x00000004	6e-45
57	0x3c475848	0.012167044
58	0x00000004	6e-45
59	0x3c647171	0.013943062
60	0x00000004	6e-45
61	0x3ef04f7b	0.4693564
62	0x00000004	6e-45
63	0x3f05f554	0.52327466
64	0x00000004	6e-45
65	0x3d88fa78	0.06688398
66	0x00000000	0.0
67	0x3d99da2c	0.07512316
68	0x00000004	6e-45
69	0x3d2fc481	0.04291201
70	0x00000004	6e-45
71	0x3d489f20	0.04897988
72	0x00000004	6e-45
73	0x3e9adb69	0.30245522
74	0x00000004	6e-45
75	0x3eaf7a8d	0.34273186
76	0x00000004	6e-45
77	0x3cc7bba5	0.024381468
78	0x00000004	6e-45
79	0x3ce50677	0.027957184
80	0x00000000	0.0
81	0x3d19b4d3	0.037525963
82	0x00000000	0.0
83	0x3d3024b3	0.04300375
84	0x00000000	0.0
85	0x3e66916f	0.22516416
86	0x00000000	0.0
87	0x3e82676d	0.25469533
88	0x00000004	6e-45
89	0x3ec3d45a	0.3824795
90	0x00000004	6e-45
91	0x3ed8691c	0.42267692
92	0x00000000	0.0
93	0x3d0923f2	0.033481546
94	0x00000000	0.0
95	0x3d1d507a	0.038406827
96	0x00000000	0.0
97	0x3ed1616b	0.40894637
98	0x00000000	0.0
99	0x3eea7971	0.45795777
100	0x00000004	6e-45
101	0x3c94edb6	0.018179756
102	0x00000004	6e-45
103	0x3caacd34	0.020849802
104	0x00000000	0.0
105	0x3d968d93	0.07351222
106	0x00000000	0.0
107	0x3dac79f0	0.08421695
108	0x00000000	0.0
109	0x3d57491b	0.052559953
110	0x00000000	0.0
111	0x3d76e506	0.060277008
112	0x00000004	6e-45
113	0x3d2e5ba0	0.04256785
114	0x00000004	6e-45
115	0x3d47feba	0.04882691
116	0x00000004	6e-45
117	0x3e76b232	0.24091414
118	0x00000000	0.0
119	0x3e8bbacc	0.27290952
120	0x00000004	6e-45
121	0x3e2619da	0.16220799
122	0x00000004	6e-45
123	0x3e3b49b7	0.18289839
124	0x00000004	6e-45
125	0x3cedf02d	0.029045189
126	0x00000004	6e-45
127	0x3d0858de	0.033287875
128	0x00000004	6e-45
129	0x3e98ad4d	0.29819718
130	0x00000004	6e-45
131	0x3eab7f8f	0.33495757
132	0x00000000	0.0
133	0x3d1357f8	0.035972565
134	0x00000000	0.0
135	0x3d29260c	0.04129605
136	0x00000000	0.0
137	0x3d9c1992	0.07622065
138	0x00000000	0.0
139	0x3db2a60a	0.08723076
140	0x00000000	0.0
141	0x3e9bcd38	0.30430007
142	0x00000000	0.0
143	0x3ead2065	0.33813778
144	0x00000004	6e-45
145	0x3f01cb5b	0.5070092
146	0x00000000	0.0
147	0x3f0e1793	0.5550472
148	0x00000004	6e-45
149	0x3cf8bd5f	0.030363737
150	0x00000004	6e-45
151	0x3d0e982c	0.03481309
152	0x00000000	0.0
153	0x3d4dfc15	0.050289232
154	0x00000000	0.0
155	0x3d6c4c2a	0.057689823
156	0x00000004	6e-45
157	0x3d92d069	0.07168657
158	0x00000000	0.0
159	0x3da7b1c7	0.08188205
160	0x00000004	6e-45
161	0x3e112cca	0.14177242
162	0x00000004	6e-45
163	0x3e255297	0.16144787
164	0x00000004	6e-45
165	0x3cb7474f	0.02237287
166	0x00000004	6e-45
167	0x3cd228b0	0.025654167
168	0x00000000	0.0
169	0x3de385a1	0.11109472
170	0x00000000	0.0
171	0x3e023bde	0.1271815
172	0x00000004	6e-45
173	0x3e7b6714	0.2455104
174	0x00000004	6e-45
175	0x3e8bf696	0.27336568
176	0x00000004	6e-45
177	0x3d14703e	0.036239855
178	0x00000004	6e-45
179	0x3d29e088	0.041473895
180	0x00000000	0.0
181	0x3d300f35	0.042983253
182	0x00000000	0.0
183	0x3d4a0f51	0.049331013
184	0x00000004	6e-45
185	0x3e87f3ea	0.2655328
186	0x00000000	0.0
187	0x3e98d43f	0.2984943
188	0x00000000	0.0
189	0x3ec6062e	0.3867659
190	0x00000004	6e-45
191	0x3edcc372	0.43117863
192	0x00000004	6e-45
193	0x3c685bb6	0.014182022
194	0x00000004	6e-45
195	0x3c852bfe	0.016256329
196	0x00000004	6e-45
197	0x3dbbca42	0.09169437
198	0x00000004	6e-45
199	0x3dd42fe1	0.10360695
200	0x00000000	0.0
201	0x3cca3ad4	0.024686255
202	0x00000000	0.0
203	0x3ce80622	0.028323237
204	0x00000004	6e-45
205	0x3c80be6c	0.0157158
206	0x00000004	6e-45
207	0x3c93817a	0.018006075
208	0x00000000	0.0
209	0x3ec73ca6	0.3891346
210	0x00000000	0.0
211	0x3ede0bbe	0.43368334
212	0x00000004	6e-45
213	0x3e03ca66	0.12870178
214	0x00000000	0.0
215	0x3e15b7dc	0.14620918
216	0x00000000	0.0
217	0x3d0bcc30	0.034130275
218	0x00000000	0.0
219	0x3d201472	0.039082
220	0x00000004	6e-45
221	0x3e9811fd	0.29701224
222	0x00000000	0.0
223	0x3eaa3882	0.33246237
224	0x00000000	0.0
225	0x3e7bcb36	0.24589238
226	0x00000000	0.0
227	0x3e8d96b1	0.2765403
228	0x00000004	6e-45
229	0x3c0a78ef	0.008451684
230	0x00000004	6e-45
231	0x3c1e8f47	0.009677715
232	0x00000004	6e-45
233	0x3dfcc3e2	0.12342049
234	0x00000004	6e-45
235	0x3e0e7a57	0.13913856
236	0x00000004	6e-45
237	0x3ebc4bb5	0.3677651
238	0x00000004	6e-45
239	0x3eceec98	0.40414882
240	0x00000000	0.0
241	0x3f40032a	0.7500483
242	0x00000000	0.0
243	0x3f503ad2	0.8133975
244	0x00000000	0.0
245	0x3d1a74fd	0.037709225
246	0x00000000	0.0
247	0x3d3137bd	0.043266047
248	0x00000000	0.0
249	0x3eefc774	0.46831858
250	0x00000000	0.0
251	0x3f03fe72	0.5156013
252	0x00000004	6e-45
253	0x3e2eec02	0.17082217
254	0x00000000	0.0
255	0x3e4609a9	0.19339623
