images/models/other_models/Attention/best_models18.pth.tar (torch, 471237 bytes, 18 tensors)

bn1d0.weight f4 [739]
000000 12 5e 0b 3f 31 ba 59 3f 2c 32 3a 3f ca 48 6c 3f
       0.54440415 0.8504973 0.72732806 0.9229857
000010 9d 84 89 3f ba 18 88 3f c2 05 73 3f 2e 35 75 3f
       1.0743595 1.0632546 0.9493066 0.9578427
000020 d6 c7 8c 3f 3a 1f 78 3f 51 15 88 3f 14 3f 59 3f
       1.0998485 0.9692265 1.0631505 0.84861875
000030 9c f3 9f 3f c5 c5 7f 3f 21 81 74 3f fb 50 7f 3f
       1.2496219 0.9991115 0.95509535 0.9973294
000040 c5 c5 7b 3f 1b 5b 7c 3f ae 71 76 3f af 05 6f 3f
       0.9834865 0.98576516 0.9626721 0.9336805
000050 dc bb 88 3f 63 91 6f 3f ca 2c 84 3f e6 5b 7a 3f
       1.068233 0.9358122 1.0326169 0.97796476
000060 24 19 7c 3f 25 69 8b 3f ed 0a 9a 3f 60 fd 73 3f
       0.9847586 1.0891463 1.2034584 0.95308495
000070 f4 20 75 3f 84 8c 9f 3f 83 88 8a 3f df c8 89 3f
       0.9575341 1.2464757 1.082291 1.0764426
000080 89 58 83 3f 04 58 8c 3f d7 a4 80 3f 82 0c 7c 3f
       1.0261394 1.096436 1.0050305 0.98456585
000090 a4 47 95 3f 9d 3b 8d 3f 06 36 83 3f 42 a6 88 3f
       1.1662488 1.1033818 1.0250862 1.0675738
0000a0 24 c0 83 3f 9f 3d 8b 3f 5e ba 7d 3f fb 50 7f 3f
       1.0293012 1.087818 0.991125 0.9973294
0000b0 a9 77 81 3f c1 37 9b 3f 02 ec 94 3f 29 96 7b 3f
       1.0114642 1.212639 1.1634524 0.98276
0000c0 d1 d3 7c 3f ea fa 7c 3f e6 09 87 3f 8c 91 7d 3f
       0.98760706 0.98820364 1.0549896 0.9905021
0000d0 b8 f9 7d 3f dd fd 7e 3f 09 d0 7c 3f 4c 72 84 3f
       0.99209166 0.99606115 0.98754936 1.0347381
0000e0 69 1e a0 3f 42 80 83 3f 24 d8 80 3f ae 74 8b 3f
       1.250928 1.0273516 1.0065961 1.0894983
0000f0 98 59 b5 3f 0f 82 8e 3f 1e c1 8b 3f 63 a5 7b 3f
       1.4167967 1.1133441 1.091831 0.98299235
000100 4a a9 7e 3f b3 96 8e 3f 2d d1 79 3f f4 31 84 3f
       0.99477065 1.113974 0.975848 1.0327744
000110 4d 4e 8c 3f 8b 52 89 3f dd ad 7b 3f 92 f3 7e 3f
       1.0961396 1.0728315 0.9831217 0.9959041
000120 66 95 7d 3f 34 4b 86 3f b0 5b 7b 3f 52 d9 81 3f
       0.9905609 1.04917 0.9818678 1.0144446
000130 3e 0e 7d 3f fe a8 82 3f c9 87 80 3f 1d 7e 7f 3f
       0.98849857 1.0207822 1.0041438 0.9980181
000140 8a ab 7d 3f a4 00 7e 3f 44 c4 7f 3f 69 87 7f 3f
       0.9908987 0.9921973 0.9990885 0.99815995
000150 c8 ff 7e 3f e9 c0 7c 3f 7c c7 85 3f 24 65 83 3f
       0.9960904 0.9873186 1.0451503 1.0265241
000160 0e e5 8c 3f 2d 57 80 3f 90 dd 86 3f 2e de 83 3f
       1.1007402 1.0026604 1.0536366 1.0302179
000170 c2 4e 83 3f 20 1a 87 3f 77 78 95 3f ed 31 82 3f
       1.025841 1.0554848 1.1677388 1.0171486
000180 c4 9f 7e 3f 2f 8a 80 3f b6 23 82 3f 16 43 7e 3f
       0.99462533 1.004217 1.0167148 0.99321115
000190 e4 ed 85 3f 07 ac 82 3f bc c2 7e 3f 16 08 7f 3f
       1.0463223 1.0208749 0.9951589 0.99621713
0001a0 3f 62 7e 3f c3 25 85 3f 11 ff a4 3f 8c 5e 7f 3f
       0.9936866 1.0402149 1.289034 0.9975364
0001b0 df 9a 7e 3f 4d 30 7b 3f 44 7f 81 3f 7b b1 84 3f
       0.99455065 0.98120576 1.0116963 1.0366663
0001c0 88 af 77 3f fb d6 8a 3f 73 03 7f 3f 24 f9 90 3f
       0.96752214 1.0846857 0.9961464 1.1326032
0001d0 e6 50 76 3f 9e db 79 3f 1a 97 84 3f 06 6c 84 3f
       0.9621719 0.97600734 1.0358613 1.0345466
0001e0 b6 a6 89 3f 1f 65 7e 3f 8d e8 7b 3f a8 59 78 3f
       1.0754001 0.9937305 0.9840172 0.97011805
0001f0 52 bf 83 3f c3 12 95 3f 48 42 72 3f 49 72 63 3f
       1.0292761 1.1646351 0.9463239 0.8884626
000200 16 87 60 3f a6 16 64 3f ad 22 5a 3f d0 d9 5a 3f
       0.87706125 0.8909706 0.8520916 0.85488605
000210 ec 5f 59 3f bd 25 59 3f 2b 87 67 3f 9f 9d 78 3f
       0.8491199 0.8482321 0.90440625 0.9711551
000220 dd 26 85 3f f3 ce 7c 3f d4 35 80 3f b2 fb 8e 3f
       1.0402485 0.9875328 1.0016427 1.1170561
000230 9a 37 87 3f 0c d2 83 3f 32 3c 92 3f a6 de 7d 3f
       1.0563843 1.0298476 1.142462 0.9916786
000240 79 1f 83 3f 93 05 80 3f bc 77 82 3f c5 71 82 3f
       1.024398 1.0001701 1.019279 1.019097
000250 6b 4e 7e 3f e5 9e 80 3f f5 0d 81 3f 51 89 85 3f
       0.99338406 1.0048491 1.0082384 1.0432531
000260 9e dd 82 3f c5 c6 7f 3f 46 28 83 3f a8 70 80 3f
       1.0223882 0.99912673 1.0246665 1.003438
000270 36 ed 7b 3f 52 50 85 3f 29 2e 85 3f bf 87 84 3f
       0.9840883 1.0415137 1.0404712 1.0353926
000280 78 c4 7d 3f 38 45 81 3f 39 ad a6 3f 66 7b 7f 3f
       0.9912791 1.0099249 1.3021613 0.99797666
000290 d3 e1 82 3f cf 50 86 3f ac 74 81 3f 40 16 7d 3f
       1.0225166 1.0493411 1.011373 0.98862076
0002a0 d8 18 81 3f 45 01 89 3f ff 48 7d 3f 4f 9a 82 3f
       1.0085707 1.0703512 0.9893951 1.0203341
0002b0 ef d3 7d 3f 79 2d 82 3f 9b 12 8f 3f 96 4b 81 3f
       0.9915151 1.0170127 1.1177553 1.0101192
0002c0 d6 0c 86 3f 2a b7 93 3f 59 c4 7d 3f 76 7c 7e 3f
       1.0472667 1.1540272 0.9912773 0.9940866
0002d0 c0 60 86 3f 58 97 a1 3f bb dc 82 3f c8 02 7f 3f
       1.0498276 1.2624311 1.0223612 0.9961362
0002e0 b4 fd 82 3f 72 e2 8b 3f 8c 98 88 3f d9 b6 a6 3f
       1.0233674 1.0928481 1.0671554 1.3024551
0002f0 b7 ff b4 3f 93 57 8c 3f a9 70 84 3f 4c 10 86 3f
       1.4140538 1.0964226 1.0346881 1.0473723
000300 e8 fa 78 3f 0f 74 86 3f d9 04 8b 3f 4e 9d 9b 3f
       0.9725785 1.0504168 1.0860854 1.215738
000310 31 74 7a 3f d4 fa 87 3f 80 3d 7f 3f 4d f0 88 3f
       0.97833544 1.0623422 0.99703217 1.0698334
000320 69 71 7f 3f 0b bb 79 3f da 05 8b 3f bb 68 7c 3f
       0.99782425 0.9755103 1.0861161 0.98597306
000330 58 33 7f 3f 07 8b 72 3f 5a 22 86 3f 27 34 85 3f
       0.9968772 0.9474339 1.0479233 1.0406541
000340 aa f5 79 3f bf 62 7e 3f ed c3 87 3f a1 eb 77 3f
       0.9764048 0.99369425 1.0606667 0.96843916
000350 39 d8 92 3f 2d d2 88 3f ea 5d 5b 3f 72 2a 78 3f
       1.1472236 1.068914 0.85690176 0.96939766
000360 52 06 3a 3f dd 10 17 3f 85 8d e9 3e 8b 03 4a 3f
       0.72665894 0.59010106 0.45615783 0.78911656
000370 88 0f 42 3f cd 25 7a 3f d7 0c 13 3f c1 fe 31 3f
       0.7580495 0.9771393 0.5744147 0.6952935
000380 83 d9 05 3f c2 1c b8 3e 65 1c 18 3f 37 f8 7f 3f
       0.5228502 0.3595944 0.59418327 0.9998812
000390 49 f9 7f 3f fb 03 80 3f e6 0d 80 3f 55 00 80 3f
       0.99989754 1.0001215 1.0004241 1.0000101
0003a0 15 f0 7f 3f b7 ee 7f 3f b0 01 80 3f 47 1e 80 3f
       0.9997571 0.99973625 1.0000515 1.000924
0003b0 cc 03 80 3f 53 08 80 3f d8 ed 7f 3f 7b fb 7f 3f
       1.0001159 1.000254 0.99972296 0.99993104
0003c0 b3 06 80 3f b8 06 80 3f 66 03 80 3f 83 0b 80 3f
       1.0002044 1.000205 1.0001037 1.0003513
0003d0 51 ff 7f 3f 5d f3 7f 3f e6 3d 80 3f 0d 16 80 3f
       0.99998957 0.9998072 1.001889 1.0006729
0003e0 30 f1 7f 3f 65 0f 80 3f d2 05 80 3f 43 05 80 3f
       0.999774 1.0004698 1.0001776 1.0001606
0003f0 70 f1 7f 3f 04 f1 7f 3f 37 ec 7f 3f 53 06 80 3f
       0.9997778 0.99977136 0.9996981 1.000193

bn1d0.bias f4 [739]
000000 de 1b a0 3c 7c 4f f2 3d 55 8b aa bd 10 52 4c bd
       0.019544538 0.11831567 -0.08327357 -0.04988295
000010 6e 89 10 be 6a 28 86 bc 9f 25 76 bc a6 09 bf bd
       -0.14114925 -0.016376693 -0.015023618 -0.09328012
000020 7f fe 4f bc a7 df 67 3d ad db e3 3c 7b 71 12 bd
       -0.012694954 0.056609776 0.02781471 -0.035752755
000030 c7 92 a0 3d 89 ed 00 bd a6 66 04 3d 3d d5 65 bd
       0.078404956 -0.03147653 0.032324456 -0.056111563
000040 58 1f aa bc c0 e8 ef bb a3 98 03 3c e7 76 8f 3d
       -0.020766899 -0.007321447 0.008031997 0.07005101
000050 ee b0 a1 bc 45 2d 9d 3c 1d 19 d1 3b eb 7f a3 3d
       -0.019737687 0.019186625 0.0063811676 0.07983383
000060 32 4e 8e 3c 63 9b 11 bd 0e 7a f4 3d 22 2d 61 3d
       0.01737127 -0.03554858 0.119373426 0.054974683
000070 95 f1 a9 3d 3b fc c8 bd 96 9c b5 3d 40 9f 31 3d
       0.08298031 -0.09813734 0.08867757 0.043364763
000080 af ac 05 3b ee 47 11 3d 91 12 13 3d 09 9a 80 3d
       0.0020397117 0.035468988 0.03590638 0.0627938
000090 5e 06 97 3c 40 ec b9 39 30 44 91 bc ee 73 92 3d
       0.018435653 0.0003546197 -0.01773271 0.07151018
0000a0 41 f1 ec 3c ab 6b 2f bc 1a 40 dd bc 95 af 01 bb
       0.028923633 -0.010706822 -0.027008105 -0.0019788493
0000b0 68 6c 57 bd 9f 83 30 bd cf bf f6 3a 43 d2 16 bd
       -0.05259362 -0.043094274 0.0018825474 -0.036821615
0000c0 99 b0 0f bd c5 e3 39 bd 44 55 0f 3d 6e 6e c4 bd
       -0.035080526 -0.045383234 0.034993425 -0.09591375
0000d0 d4 c9 74 bc 85 f4 fc 3c 70 c7 9b bd 21 73 73 bd
       -0.014940698 0.030878315 -0.07606399 -0.059435967
0000e0 66 75 a9 bc 0b c8 a9 bd 7d c8 ca bd e9 67 70 bd
       -0.020685863 -0.08290108 -0.09901521 -0.058692846
0000f0 59 b7 23 be 53 e2 e4 bc da f6 77 bd cf 76 0b be
       -0.1598791 -0.027939951 -0.06053815 -0.1361954
000100 34 0c 97 bd 43 fa 9e 3c d4 76 09 bc 1b 17 be bd
       -0.073753744 0.019406443 -0.008390147 -0.09281751
000110 a7 79 27 3c 8f 35 18 bc d1 78 62 bd 33 4e fd 3c
       0.010221875 -0.009290113 -0.055291 0.030921077
000120 69 4e 91 bd 9c ff bd 3c 9f e6 36 3d ae 91 86 3c
       -0.07095034 0.023193173 0.04465353 0.016426887
000130 f9 e6 a5 bc 78 ee 29 3d b6 b1 75 bd cc b4 0a bb
       -0.020251738 0.041487187 -0.05998393 -0.0021164892
000140 29 59 d1 3d 17 d3 3f bd ae 05 bb 3c 08 9e 29 3c
       0.10222084 -0.04683217 0.022829857 0.010352619
000150 23 4f 96 3b ed 0e a9 bc 71 c7 ac 3d 6d 89 df 3c
       0.0045870706 -0.020637 0.08436478 0.02728721
000160 66 2f 96 bc 00 c7 38 3d af 92 ce 3b e1 16 11 bc
       -0.018333148 0.045111656 0.006304107 -0.008855552
000170 e6 3c 59 3d be f3 60 bd 9c 8d 35 3d e5 10 95 3d
       0.053036593 -0.05491995 0.044324502 0.07278613
000180 44 be 10 bd 3a 92 2b 3d 27 42 a4 3c 8e 2f a8 bb
       -0.0353377 0.0418875 0.020051075 -0.005132622
000190 7e 69 4c 3c 32 cf 8b 3d 00 31 4b bd f9 f6 b2 bc
       0.012476323 0.06826629 -0.049607277 -0.021846281
0001a0 cc 1a ce bb f5 82 64 bd fe a2 a2 ba a7 5a bb 3a
       -0.0062898155 -0.055788953 -0.0012408195 0.0014293984
0001b0 41 cf 76 bc 42 04 09 3d ae 6c 86 bc f9 4f d5 bd
       -0.015064062 0.033451326 -0.016409244 -0.10415644
0001c0 43 1e 8e bd e0 d4 84 bb 6f ce 31 bd 8d cf ec bc
       -0.06939366 -0.004053697 -0.04340976 -0.028907562
0001d0 d3 ea 5e bd 2c e4 4e 3c 1a 74 a5 bd f9 d0 4e 3c
       -0.054423165 0.012627643 -0.08078785 0.012623065
0001e0 2a f6 b2 bc 4e 8b dc 3c b2 bb 2f bb a7 56 4c bd
       -0.021845896 0.026921894 -0.0026814756 -0.049887326
0001f0 80 3b 45 bd 87 8b c8 bd 6a 8b 51 bc de 63 00 bd
       -0.048152447 -0.09792238 -0.012789587 -0.03134524
000200 f3 77 f5 bc 25 ed 4d bd f1 8f 4e 3c bd 80 8f 3c
       -0.029964423 -0.050274987 0.0126075605 0.017517442
000210 4a 7d 9c bb 1d 7d aa bc d6 b1 ba 3c 75 ca 02 3c
       -0.004775678 -0.020811612 0.022789877 0.00798284
000220 86 43 ec 3b 19 98 74 3d 71 ef 89 3b 40 ab a4 3d
       0.007210198 0.059715364 0.004209452 0.08040476
000230 40 f4 34 bc e6 67 3b bd 11 9b 8e 3d 29 2e a2 3c
       -0.011044562 -0.045753382 0.0696317 0.019797402
000240 a7 88 21 3b ae 30 bc bc f3 ba 95 3c 39 42 82 3c
       0.0024648102 -0.022972431 0.01827762 0.015900718
000250 4b a9 a7 3b ef e1 10 3c 5f 41 90 3a 54 f6 0f bd
       0.005116617 0.008842929 0.001100581 -0.035147026
000260 16 ec 00 3d 82 de 8e bd 42 1a 5f 3d b8 2a f1 3c
       0.03147515 -0.06976034 0.0544684 0.029439315
000270 1d 44 00 bd 31 83 4c bd 6c 6f 34 bc d4 7d 9d 3c
       -0.031314958 -0.0499298 -0.011012893 0.019225039
000280 06 d5 76 3c ea 70 48 3d c0 53 d7 bd 95 e1 8e 3c
       0.015065437 0.04893581 -0.10514021 0.01744155
000290 89 e3 99 bb f5 4f 29 3d 13 b1 16 bd 9a 8f 5d bc
       -0.0046963138 0.04133602 -0.036789965 -0.013523007
0002a0 26 ec d5 3b 5b b1 9c bd 5f 15 33 3c d8 d6 0a 3d
       0.006528395 -0.07651015 0.010930388 0.033896297
0002b0 ee dd cb 3b 79 ae 52 bd 77 40 97 3c 5a 4e a9 bc
       0.0062215244 -0.05143592 0.018463356 -0.020667244
0002c0 b7 1d e2 bc aa 61 cd bd 4d 89 ff 3c d5 f8 65 bc
       -0.02760206 -0.100283936 0.0311934 -0.014036377
0002d0 33 56 0d bd 92 cd 01 be d7 14 6b bc 74 60 24 3d
       -0.034506034 -0.12676075 -0.01434823 0.040131047
0002e0 0d 31 7a bd 03 dc 29 bd fe 13 5d 3d 57 fd b9 bd
       -0.061081935 -0.041469585 0.053974144 -0.09081524
0002f0 68 ee a7 bc 27 1f 31 3d 4f 9e 4a bc 2a 6e 63 bd
       -0.020499423 0.0432426 -0.012366845 -0.055524983
000300 96 35 a6 bc a3 c0 36 bc 6b ec 89 3d 12 ac 14 be
       -0.020289224 -0.011154327 0.06734546 -0.14518765
000310 c1 18 47 3a f2 27 28 bc 66 66 e7 bb 66 63 75 bd
       0.0007594936 -0.01026343 -0.0070617674 -0.059909247
000320 7d 24 aa 3d bd 30 36 bd 94 fe e5 3b 67 f4 22 bc
       0.08307741 -0.044480074 0.0070188735 -0.009945965
000330 8c 36 92 3b 7b 00 76 3d 2e 72 a3 bc 40 8e 37 3d
       0.004462069 0.060059052 -0.019951906 0.044813395
000340 d7 e6 a1 bc 90 6d b1 bc e6 9d ad 3d 88 2d b8 bd
       -0.019763393 -0.021658689 0.08477382 -0.089930594
000350 49 d3 e3 bc 39 9a ae bd 5d 07 07 bc 04 17 34 bd
       -0.02781071 -0.085255094 -0.008241502 -0.043967262
000360 41 ba 3b bd 59 5d e6 bc 1e a4 b8 bd 8e 16 f9 3d
       -0.045831922 -0.028120684 -0.09015678 0.12162505
000370 d2 b4 c6 bc 08 c2 48 bc 46 7d 74 bc f9 62 67 3e
       -0.024256144 -0.012253292 -0.014922446 0.22596349
000380 52 51 2d bb e8 a9 c8 bd ad f1 4c be 26 69 a5 bb
       -0.0026446176 -0.09798032 -0.20014067 -0.005047935
000390 48 79 e2 bc f0 ea dd ba 9d 16 ec 3c b5 22 58 3b
       -0.027645722 -0.0016930979 0.028819377 0.0032979671
0003a0 63 99 fb bc 0a 07 01 3c b6 39 a3 bb 0a 32 be 3c
       -0.030712789 0.007875213 -0.004981245 0.02321722
0003b0 ed 3f d4 3c e8 a8 eb bc f1 4d 3c 3c f2 3a be bc
       0.025909388 -0.028767064 0.011493192 -0.023221467
0003c0 55 be 18 3c ff 13 8c bc 3d 94 a6 3c b8 a6 15 3d
       0.009322722 -0.017099379 0.020334357 0.03653595
0003d0 4f f2 aa ba aa 74 be b9 c7 3f 2b bc 84 f2 dd bb
       -0.0013042184 -0.00036326546 -0.010452217 -0.006773295
0003e0 34 ad 19 bd e0 27 b8 b9 ba cc e5 39 72 31 c3 3c
       -0.037518695 -0.00035124924 0.00043830817 0.023827288
0003f0 f2 b6 2d bb a1 bd c3 3b c0 65 05 3c 25 24 2a 3c
       -0.002650675 0.0059735333 0.008141935 0.010384594

bn1d0.running_mean f4 [739]
000000 3b e8 5c bb b4 e3 1f bb ce ce ea ba 94 9e b3 bb
       -0.0033707756 -0.0024397196 -0.0017914416 -0.0054815505
000010 3c 06 ae bb 78 97 dc bb e5 ee 89 bb 44 e8 e1 ba
       -0.005310802 -0.0067319237 -0.0042093867 -0.0017235358
000020 df e4 c0 3a 4e 3c 7e 3a 91 07 ba b8 af 41 06 bb
       0.0014716646 0.0009698317 -8.8705805e-05 -0.0020485928
000030 ae 12 50 bb f0 a0 87 bb bc 94 54 bb 14 01 20 bb
       -0.0031749415 -0.0041390583 -0.0032437285 -0.0024414705
000040 ad d4 d4 ba 8c ac 4c ba b6 35 44 39 78 df 04 b9
       -0.0016237699 -0.0007807694 0.00018712025 -0.0001267175
000050 63 68 72 3a 0c 09 41 3a 6c d2 85 3a d2 be ed 3a
       0.0009247122 0.0007363714 0.0010209805 0.0018138534
000060 92 f1 f9 3a 68 09 29 3b f2 73 06 3b 07 19 10 3b
       0.0019069186 0.002579296 0.0020515886 0.0021987574
000070 42 c8 12 3b b3 83 14 3b 7f 30 13 3b e9 d0 02 3b
       0.0022397195 0.0022661507 0.0022459326 0.0019960946
000080 21 fe 02 3b 2b c1 d6 3a 71 2a f1 3a 23 c3 bf 3a
       0.0019987898 0.0016384473 0.0018399489 0.0014630299
000090 fd 2d 82 3a ec 05 49 3a b8 96 fc 39 46 59 f8 39
       0.0009931918 0.0007668424 0.0004817748 0.0004736876
0000a0 ff 14 23 39 12 74 29 b9 21 30 6d b9 8f 13 90 b9
       0.00015552713 -0.00016160336 -0.0002262001 -0.00027480393
0000b0 9b 24 36 ba 0f 94 10 ba cf 0f 8d ba 07 5d a0 ba
       -0.00069482037 -0.00055152265 -0.0010762158 -0.0012234756
0000c0 81 4b 84 ba ea 0d d8 ba 9a 51 c4 ba 72 6c bb ba
       -0.0010093303 -0.0016483639 -0.0014977932 -0.0014299287
0000d0 c9 6b dc ba 1e 17 df ba 8b 32 22 bb 73 13 20 bb
       -0.001681679 -0.0017020439 -0.0024749364 -0.0024425655
0000e0 1d 9d 69 bb 63 c6 95 bb 63 8b c8 bb 20 88 fb bb
       -0.0035646625 -0.0045707687 -0.006120132 -0.0076761395
0000f0 e0 e6 13 bc 78 6d 17 bc 6f 45 0d bc 0a 18 23 bc
       -0.009027213 -0.009242408 -0.008622511 -0.009954462
000100 94 fc ac bb 28 7f 80 bb 45 0d 39 bb c7 e2 ef ba
       -0.005279133 -0.003921408 -0.002823667 -0.0018301838
000110 6a eb c9 ba 68 85 a8 ba 20 04 aa ba c1 12 87 ba
       -0.0015405242 -0.0012857141 -0.00129712 -0.0010305272
000120 fb 02 cf ba ac 1d 7d ba 55 c9 29 ba da dc 0f ba
       -0.0015793735 -0.00096556055 -0.0006476839 -0.00054879265
000130 b2 70 02 ba 57 af 24 b9 9a 52 a8 39 53 98 e1 39
       -0.00049758994 -0.00015705578 0.00032105 0.00043028835
000140 08 76 2a 3a 5e 68 71 3a f7 4e aa 3a d6 22 8e 3a
       0.00065025734 0.00092089723 0.0012993504 0.0010844122
000150 f3 27 6b 3a a4 03 6f 3a e5 ce 68 3a b1 f8 85 3a
       0.00089704915 0.0009117669 0.00088809273 0.001022121
000160 61 e3 56 3a 87 4b 1e 3a 63 53 1d 3a 19 77 0b 3a
       0.0008197334 0.0006038476 0.00060015003 0.0005320176
000170 76 25 da 39 18 a8 eb 39 04 45 75 37 7a 21 d3 b8
       0.0004160811 0.00044947932 1.4619207e-05 -0.000100674995
000180 31 ff 38 38 86 0d 0b ba 48 dc 3f ba f9 84 65 ba
       4.4106684e-05 -0.00053044443 -0.0007318896 -0.0008755471
000190 76 dc a9 ba 55 13 13 bb d8 19 ef ba e0 61 11 bb
       -0.0012959379 -0.0022441943 -0.0018241955 -0.0022183582
0001a0 19 be 2d bb 42 87 3c bb 19 2c 5d bb 93 82 73 bb
       -0.0026511012 -0.0028767143 -0.0033748208 -0.0037156686
0001b0 97 49 86 bb 0e a3 97 bb a3 98 d5 bb 24 c5 af bb
       -0.004098128 -0.004627592 -0.00651844 -0.005364077
0001c0 3f c9 b7 bb 02 31 b1 bb 9e 29 b6 bb 1b a2 b1 bb
       -0.005608707 -0.0054074535 -0.0055591604 -0.005420936
0001d0 3d 5d a5 bb c7 c5 9c bb 1e 34 90 bb 62 0d 8a bb
       -0.0050465153 -0.004784319 -0.004400744 -0.004213021
0001e0 92 f0 ae bb a3 09 85 bb a7 55 97 bb 2b bf a3 bb
       -0.005338737 -0.0040599867 -0.004618365 -0.004997154
0001f0 31 be c4 bb bb aa f7 bb 7c ec 14 bc 7f 67 31 bc
       -0.006004118 -0.0075581945 -0.009089585 -0.010827898
000200 e4 d9 4b bc e1 55 94 bc b5 f6 63 bc 03 7e 5b bc
       -0.012442086 -0.018107357 -0.0139138 -0.013396743
000210 f1 10 48 bc 86 24 2d bc a3 f7 12 bc c4 f8 f2 bb
       -0.01221107 -0.01056779 -0.008970174 -0.007414909
000220 b1 67 c3 bb af 7b 9a bb 12 8e 7c bb e9 81 81 bb
       -0.0059632887 -0.0047144513 -0.003853683 -0.003952254
000230 af 89 1c bb fd 34 e7 ba e4 4c c2 ba 97 cd 90 ba
       -0.0023885777 -0.0017639693 -0.0014823941 -0.0011047599
000240 8e 7b 62 ba bb b8 0b ba 2a 4f c4 b9 42 82 84 b9
       -0.0008639627 -0.0005329956 -0.00037443015 -0.00025274052
000250 50 9f 26 b9 85 fb 52 38 4c 11 50 39 62 97 ce 39
       -0.00015890342 5.0302147e-05 0.0001984287 0.0003940417
000260 a0 02 41 3a e4 e7 6b 3a e7 48 a0 3a 7a 5d ab 3a
       0.0007362757 0.0008999093 0.0012228758 0.0013074123
000270 d5 11 ce 3a 25 33 d1 3a 3c a4 1e 3b 66 be fe 3a
       0.0015721867 0.0015960677 0.0024206778 0.0019435405
000280 29 5a 01 3b 37 77 0c 3b 46 78 08 3b 3b 1e 0e 3b
       0.0019737578 0.0021433362 0.0020823642 0.00216855
000290 a7 ac 0b 3b 5b 7a 17 3b 01 ed 12 3b 3a 8f 44 3b
       0.0021312626 0.00231137 0.0022419097 0.0029992596
0002a0 9c f2 14 3b cd e8 0f 3b 94 82 14 3b 90 7f 0b 3b
       0.0022727614 0.0021958828 0.0022660838 0.002128575
0002b0 07 42 0d 3b 6e 1c 09 3b 1d 22 09 3b 66 3d 01 3b
       0.0021554248 0.0020921486 0.0020924874 0.0019720434
0002c0 ef a7 09 3b 40 bb 23 3b bd b8 04 3b a7 15 f8 3a
       0.0021004637 0.0024983436 0.0020251714 0.0018927351
0002d0 f4 9a ea 3a bc 1d fb 3a 0c 4e e4 3a 82 dd e7 3a
       0.0017898963 0.0019158642 0.0017418279 0.0017689916
0002e0 d5 b2 f2 3a c0 59 e0 3a ee 27 14 3b 3f 63 d8 3a
       0.0018516431 0.0017116591 0.0022606808 0.001650907
0002f0 01 79 d0 3a 78 76 d8 3a 20 d6 d5 3a 2b cf cf 3a
       0.0015905203 0.0016514799 0.0016314425 0.0015854588
000300 59 a8 d4 3a 24 8f d5 3a ad 99 c2 3a 16 b2 08 3b
       0.0016224488 0.001629327 0.0014846824 0.00208581
000310 16 f5 9f 3a e8 ee bd 3a ce c9 be 3a be c7 ae 3a
       0.0012203779 0.0014490755 0.0014555992 0.0013334674
000320 2b f5 b8 3a 47 ee a4 3a 1d fc 9b 3a ad b6 ad 3a
       0.0014111152 0.0012583219 0.0011900697 0.0013253294
000330 67 fb 81 3a dc 76 c0 3a ac 77 79 3a 5e 7f 82 3a
       0.0009916843 0.001468386 0.00095164287 0.0009956171
000340 f4 ac 87 3a 2a 7b a2 3a b8 5d c5 3a 28 13 17 3b
       0.0010351227 0.0012396325 0.0015057838 0.002305219
000350 b8 49 58 3b 56 ec a6 3b 1b ca 37 3c 1b d5 4e 3c
       0.0033002924 0.0050940914 0.011217619 0.0126240505
000360 0e 15 8d 3c 07 ad ad 3c 1d b4 b9 3c ed 14 bc 3c
       0.017221954 0.02120067 0.022668893 0.022959197
000370 3d 34 90 3c 0b d1 2a 3c 4a b5 6e 3b 8e f8 d9 b9
       0.017603034 0.010425816 0.0036423975 -0.00041574653
000380 ef c0 86 bb aa f1 bc bb f4 aa c9 bb 06 31 fd 3a
       -0.004112355 -0.0057661133 -0.0061544124 0.0019316978
000390 8d 91 fd 3a 09 29 00 3b 83 63 fe 3a 19 42 fa 3a
       0.0019345746 0.001955571 0.0019408319 0.0019093185
0003a0 3d e1 fd 3a 2b 12 00 3b a4 cd fe 3a 78 d2 ff 3a
       0.0019369494 0.001954208 0.0019439948 0.0019517681
0003b0 17 d3 ff 3a 94 df 00 3b b6 67 fe 3a a3 56 fa 3a
       0.0019517866 0.0019664513 0.001940957 0.0019099306
0003c0 d1 31 fe 3a 1c 78 fb 3a fb c7 00 3b 10 97 fd 3a
       0.0019393509 0.0019185576 0.0019650448 0.0019347388
0003d0 db f8 04 3b 15 4b fe 3a 34 cc 02 3b 88 f9 07 3b
       0.002028993 0.0019401038 0.001995814 0.0020748097
0003e0 21 f3 04 3b 02 ea ff 3a 12 94 fd 3a 40 69 fc 3a
       0.0020286518 0.0019524696 0.0019346497 0.0019257441
0003f0 fb 36 00 3b c4 e0 ff 3a eb ff fd 3a 94 40 01 3b
       0.001956402 0.0019521941 0.0019378638 0.001972233

bn1d0.running_var f4 [739]
000000 2e ea 88 37 66 10 13 37 12 73 ee 36 68 2d c5 36
       1.6321512e-05 8.765701e-06 7.1063487e-06 5.8763435e-06
000010 58 8f f3 36 34 6d a5 36 33 9c 7d 36 9a c1 df 35
       7.2586517e-06 4.930096e-06 3.7790858e-06 1.667114e-06
000020 26 48 08 36 b6 57 c9 35 6e c8 20 36 de 50 05 36
       2.0307575e-06 1.5001194e-06 2.3958523e-06 1.9865615e-06
000030 3e 79 0b 36 29 41 cb 35 88 ae b2 35 a3 2c 9a 35
       2.0783186e-06 1.5143643e-06 1.3312829e-06 1.1486885e-06
000040 7f 85 92 35 32 d8 6c 35 43 53 59 35 be 74 78 35
       1.09167e-06 8.8231457e-07 8.095996e-07 9.255708e-07
000050 00 76 5e 35 c6 61 16 35 88 05 6a 35 49 4b 37 35
       8.287316e-07 5.6021634e-07 8.717984e-07 6.8282367e-07
000060 ea f4 33 35 28 22 0f 35 62 f1 2f 35 b5 d6 2b 35
       6.7039093e-07 5.3321355e-07 6.554384e-07 6.4014904e-07
000070 89 a9 16 35 54 8b fe 34 9e 91 fa 34 dc 4e 07 35
       5.612606e-07 4.741256e-07 4.667208e-07 5.0406175e-07
000080 68 b6 b5 34 c0 c6 df 34 c2 cd d5 34 56 4d 13 35
       3.3846595e-07 4.1681596e-07 3.982405e-07 5.4874306e-07
000090 d8 ba e1 34 11 8a f2 34 1f 1d d2 34 bf 9a f7 34
       4.2045463e-07 4.517647e-07 3.9136737e-07 4.6119928e-07
0000a0 2e 85 c8 34 3e 47 e5 34 2d 97 cd 34 a8 d0 e6 34
       3.7349804e-07 4.270641e-07 3.829422e-07 4.2992656e-07
0000b0 9c ce fb 34 30 23 05 35 9e 16 d1 34 fc ad c9 34
       4.690272e-07 4.9597566e-07 3.894574e-07 3.7565758e-07
0000c0 be 9b db 34 97 fd b5 34 61 7d eb 34 bb c4 13 35
       4.0905246e-07 3.3898388e-07 4.3863386e-07 5.504805e-07
0000d0 3f 03 df 34 7f 46 e4 34 85 02 04 35 75 30 14 35
       4.153935e-07 4.2519602e-07 4.91775e-07 5.520481e-07
0000e0 89 e7 08 35 37 1d 3f 35 75 b2 89 35 42 93 cf 35
       5.1000876e-07 7.119556e-07 1.0259233e-06 1.546556e-06
0000f0 fe 7f f9 35 e6 97 e1 35 c1 98 eb 35 6b 32 0c 36
       1.8589196e-06 1.6808015e-06 1.7553322e-06 2.0890973e-06
000100 c7 40 22 35 ec fa 07 35 90 72 e9 34 c8 03 bc 34
       6.0443966e-07 5.065656e-07 4.3482987e-07 3.502048e-07
000110 2e 3e bb 34 d2 d9 94 34 7a 6f ad 34 89 2c a9 34
       3.4876706e-07 2.7725633e-07 3.230487e-07 3.1511107e-07
000120 20 fd bd 34 45 af a2 34 ce a9 b3 34 a4 54 a4 34
       3.5388166e-07 3.0302377e-07 3.3464897e-07 3.0608965e-07
000130 10 07 83 34 27 ec 45 34 cc 58 92 34 1a ac 7b 34
       2.440579e-07 1.8432966e-07 2.7259227e-07 2.3438807e-07
000140 6b 5d a0 34 6a fc 76 34 67 4a ac 34 80 a3 aa 34
       2.9870293e-07 2.3002363e-07 3.209163e-07 3.178393e-07
000150 79 c8 4c 34 7e fa 6d 34 a2 f7 7d 34 b7 de 3d 34
       1.9071912e-07 2.2163474e-07 2.365255e-07 1.768302e-07
000160 65 11 4b 34 77 84 51 34 75 9a 5c 34 dd 51 4e 34
       1.8912176e-07 1.9512832e-07 2.0545288e-07 1.9215027e-07
000170 d8 b8 f9 33 be 95 33 34 a9 53 4f 34 8d e6 3d 34
       1.1628589e-07 1.672515e-07 1.9308813e-07 1.768587e-07
000180 16 c5 24 34 e0 6b 26 34 a8 1a 37 34 05 f6 2e 34
       1.534539e-07 1.54992e-07 1.70529e-07 1.6294514e-07
000190 8f 7a 37 34 1e d3 3f 34 77 92 1f 34 c9 1c 53 34
       1.708779e-07 1.7865065e-07 1.4861313e-07 1.9661378e-07
0001a0 3a 33 8c 34 09 06 85 34 2e 67 7f 34 0d fc bc 34
       2.6114304e-07 2.4777572e-07 2.3786262e-07 3.520112e-07
0001b0 de b5 9a 34 ac 1d d8 34 a7 1e 43 35 58 3d dc 34
       2.881706e-07 4.0254724e-07 7.2687766e-07 4.1022827e-07
0001c0 1f 67 06 35 ba a0 15 35 a4 c8 ea 34 f2 7a c3 34
       5.006895e-07 5.5740713e-07 4.3731882e-07 3.6411035e-07
0001d0 71 10 f5 34 c4 e9 ce 34 03 2c b3 34 0a 42 8d 34
       4.564677e-07 3.8540577e-07 3.337337e-07 2.6311346e-07
0001e0 e6 85 eb 34 3b fe 81 34 b2 79 85 34 fd d6 a8 34
       4.3869585e-07 2.42131e-07 2.4861725e-07 3.1448863e-07
0001f0 38 56 da 34 87 12 23 35 cb cc 57 35 aa f1 97 35
       4.0668397e-07 6.074919e-07 8.0391754e-07 1.132071e-06
000200 73 e9 b7 35 2c d6 4a 36 0c 8c f5 35 60 c0 00 36
       1.3702505e-06 3.022501e-06 1.8294681e-06 1.9185463e-06
000210 a8 98 e3 35 94 36 b4 35 5a 33 a0 35 b2 e3 6d 35
       1.6957247e-06 1.3426929e-06 1.1935874e-06 8.862072e-07
000220 71 dc 1b 35 be 66 f0 34 64 4a a7 34 bf fe e8 34
       5.8062784e-07 4.4778238e-07 3.11603e-07 4.339872e-07
000230 c7 06 2a 34 8f d2 83 34 fb e7 1d 34 2d 4d 27 34
       1.583495e-07 2.4553853e-07 1.4706158e-07 1.5581163e-07
000240 f6 45 32 34 ff df 01 34 93 d8 13 34 d8 1f e5 33
       1.6602993e-07 1.209555e-07 1.3769231e-07 1.0669436e-07
000250 30 5f e7 33 c0 e0 e5 33 b1 98 c5 33 47 98 0e 34
       1.077409e-07 1.0704525e-07 9.201302e-08 1.3280179e-07
000260 a4 b7 2b 34 3f 89 f4 33 9e b5 49 34 77 64 5e 34
       1.5992424e-07 1.13871e-07 1.8785656e-07 2.071191e-07
000270 7f 1b 16 34 04 35 28 34 62 e7 96 34 d4 19 1a 34
       1.3979842e-07 1.5665506e-07 2.810803e-07 1.4351764e-07
000280 54 13 60 34 35 54 23 34 53 22 50 34 d5 7b 75 34
       2.0868657e-07 1.5211192e-07 1.9383997e-07 2.2862453e-07
000290 0c ea 64 34 b5 59 37 34 09 50 88 34 88 2d 8c 34
       2.13193e-07 1.7075838e-07 2.5390207e-07 2.611016e-07
0002a0 ee f3 60 34 85 26 7b 34 f9 08 47 34 8b 4d 60 34
       2.0950367e-07 2.339021e-07 1.8536583e-07 2.0889836e-07
0002b0 f4 67 7c 34 1c 1d 62 34 d0 b2 5f 34 84 bd 82 34
       2.3507147e-07 2.105848e-07 2.0833545e-07 2.4352278e-07
0002c0 e0 9e 59 34 a7 a2 89 34 f1 d6 62 34 58 d3 94 34
       2.0267498e-07 2.5636584e-07 2.1126085e-07 2.772092e-07
0002d0 b6 9b 78 34 1c 01 aa 34 4a 4a 80 34 79 76 84 34
       2.3153447e-07 3.1665775e-07 2.389591e-07 2.4673116e-07
0002e0 22 5e 99 34 8d 14 b5 34 58 de b5 34 e9 ca 90 34
       2.856696e-07 3.372883e-07 3.3875654e-07 2.6969727e-07
0002f0 67 31 a3 34 be 65 b0 34 8c 7d ca 34 e0 e6 cf 34
       3.039706e-07 3.2856582e-07 3.771678e-07 3.8724738e-07
000300 77 49 aa 34 7d db e2 34 64 2c c7 34 c3 b7 f2 34
       3.171842e-07 4.225548e-07 3.7098937e-07 4.5209717e-07
000310 c5 46 fa 34 f0 f3 e6 34 b1 32 00 35 fe 3a d1 34
       4.661762e-07 4.3018326e-07 4.775748e-07 3.8972206e-07
000320 39 ed 29 35 1a 40 1c 35 b8 39 0e 35 17 5e 0e 35
       6.330261e-07 5.820781e-07 5.2983114e-07 5.303604e-07
000330 00 45 1b 35 78 47 45 35 ee bc 34 35 01 79 80 35
       5.784241e-07 7.349222e-07 6.7330154e-07 9.57196e-07
000340 fa fa 63 35 45 48 87 35 70 71 96 35 b8 1a 84 35
       8.492931e-07 1.0079317e-06 1.1208886e-06 9.842543e-07
000350 bf ad a4 35 5f 6d b5 35 a6 f4 36 36 72 ac 80 36
       1.2269519e-06 1.3517382e-06 2.7262518e-06 3.8347725e-06
000360 6d 14 db 36 7d e1 33 37 a6 23 37 37 e0 8e 5e 37
       6.5290865e-06 1.0721732e-05 1.091595e-05 1.3265497e-05
000370 66 10 40 37 f8 41 74 37 c3 ad 84 37 7c 28 a0 37
       1.144791e-05 1.4558893e-05 1.581654e-05 1.9092338e-05
000380 b4 e5 de 37 2b c0 3e 38 56 86 58 38 12 d0 08 2f
       2.6571426e-05 4.54785e-05 5.1623523e-05 1.244305e-10
000390 7e 73 9f 2e b8 c2 97 2f 39 3e 3f 2f d7 3c 8b 2c
       7.2509984e-11 2.7605096e-10 1.7393455e-10 3.957372e-12
0003a0 53 2e 86 2e 53 28 54 2f a3 82 21 2f 88 a3 6f 2f
       6.101843e-11 1.9295614e-10 1.4689276e-10 2.1795021e-10
0003b0 4f 36 da 2f 08 de f0 2e c2 37 2c 2f dd 36 6d 2d
       3.9692558e-10 1.0953377e-10 1.5663118e-10 1.3484072e-11
0003c0 0d 95 d3 2e ad 5f 19 2e 18 2f 27 2f f1 40 29 2f
       9.621646e-11 3.487315e-11 1.5205293e-10 1.5393532e-10
0003d0 04 7b f2 2f 15 fa 00 2f 4c 78 af 2f 2d fe 06 30
       4.4106951e-10 1.1730379e-10 3.191779e-10 4.911012e-10
0003e0 72 00 f8 2f 35 6d 91 2f 90 26 8d 2e ae b1 d1 2e
       4.5111254e-10 2.6452943e-10 6.418788e-11 9.535782e-11
0003f0 12 74 1a 2f 37 21 80 2e 6d 8c ed 2e e0 61 7e 2f
       1.4047455e-10 5.826666e-11 1.0802457e-10 2.3135938e-10

bn1d1.weight f4 [512]
000000 00 00 80 3f d6 9c 84 3f 00 00 80 3f 5d c5 83 3f
       1.0 1.0360363 1.0 1.0294605
000010 00 00 80 3f 0e f2 7f 3f 00 00 80 3f 2e 1f 80 3f
       1.0 0.9997872 1.0 1.0009515
000020 00 00 80 3f bb 60 80 3f 00 00 80 3f 25 a7 80 3f
       1.0 1.002952 1.0 1.0051008
000030 00 00 80 3f bf ee 80 3f 00 00 80 3f f8 c7 80 3f
       1.0 1.007286 1.0 1.0061026
000040 00 00 80 3f a3 01 80 3f 00 00 80 3f cf ec 7f 3f
       1.0 1.00005 1.0 0.99970716
000050 00 00 80 3f cf fc 7f 3f 00 00 80 3f 2f d5 7f 3f
       1.0 0.9999513 1.0 0.9993467
000060 00 00 80 3f 61 3a 80 3f 00 00 80 3f d1 52 80 3f
       1.0 1.0017816 1.0 1.0025274
000070 00 00 80 3f 53 d9 7f 3f 00 00 80 3f ba ed 7f 3f
       1.0 0.99940985 1.0 0.99972117
000080 00 00 80 3f 17 3b 7f 3f 00 00 80 3f 6e 2f 7f 3f
       1.0 0.9969954 1.0 0.99681747
000090 00 00 80 3f 84 fe 7f 3f 00 00 80 3f 62 fd 7f 3f
       1.0 0.99997735 1.0 0.99996006
0000a0 00 00 80 3f 94 c7 7f 3f 00 00 80 3f cb 13 80 3f
       1.0 0.9991391 1.0 1.000604
0000b0 00 00 80 3f c3 ea 7f 3f 00 00 80 3f 09 ea 7f 3f
       1.0 0.9996759 1.0 0.99966484
0000c0 00 00 80 3f 4b f0 7f 3f 00 00 80 3f 67 01 80 3f
       1.0 0.9997603 1.0 1.0000428
0000d0 00 00 80 3f 0b 00 83 3f 00 00 80 3f a7 cd 80 3f
       1.0 1.0234388 1.0 1.006276
0000e0 00 00 80 3f f4 03 80 3f 00 00 80 3f 30 f6 7f 3f
       1.0 1.0001206 1.0 0.9998503
0000f0 00 00 80 3f 0b 11 84 3f 00 00 80 3f 82 77 83 3f
       1.0 1.0317701 1.0 1.0270846
000100 00 00 80 3f 44 b0 87 3f 00 00 80 3f d0 d3 84 3f
       1.0 1.0600667 1.0 1.037714
000110 00 00 80 3f 5b e9 80 3f 00 00 80 3f d0 ad 80 3f
       1.0 1.0071214 1.0 1.0053043
000120 00 00 80 3f 75 41 7d 3f 00 00 80 3f d0 3a 7b 3f
       1.0 0.98928005 1.0 0.98136616
000130 00 00 80 3f 3c 03 80 3f 00 00 80 3f 74 fb 7f 3f
       1.0 1.0000987 1.0 0.9999306
000140 00 00 80 3f 88 89 7f 3f 00 00 80 3f ea 23 80 3f
       1.0 0.9981923 1.0 1.001096
000150 00 00 80 3f 52 b9 7a 3f 00 00 80 3f 0a e1 79 3f
       1.0 0.97939026 1.0 0.9760901
000160 00 00 80 3f 2f 52 8d 3f 00 00 80 3f b4 fb 89 3f
       1.0 1.1040705 1.0 1.0779939
000170 00 00 80 3f 82 d2 7f 3f 00 00 80 3f 0c 15 80 3f
       1.0 0.99930584 1.0 1.0006423
000180 00 00 80 3f 5b a7 80 3f 00 00 80 3f 0a 22 80 3f
       1.0 1.0051073 1.0 1.0010388
000190 00 00 80 3f 5f e9 7f 3f 00 00 80 3f 07 df 7f 3f
       1.0 0.9996547 1.0 0.9994969
0001a0 00 00 80 3f b9 1f 80 3f 00 00 80 3f 64 0e 80 3f
       1.0 1.0009681 1.0 1.0004392
0001b0 00 00 80 3f 75 17 80 3f 00 00 80 3f 5e e1 7f 3f
       1.0 1.0007159 1.0 0.9995326
0001c0 00 00 80 3f 1b f8 7f 3f 00 00 80 3f c1 0a 80 3f
       1.0 0.99987954 1.0 1.0003282
0001d0 00 00 80 3f b1 d2 82 3f 00 00 80 3f a0 35 82 3f
       1.0 1.0220548 1.0 1.0172615
0001e0 00 00 80 3f 1e 9d 82 3f 00 00 80 3f bb ec 80 3f
       1.0 1.0204198 1.0 1.0072244
0001f0 00 00 80 3f a2 f9 7f 3f 00 00 80 3f 99 0b 80 3f
       1.0 0.99990284 1.0 1.0003539
000200 00 00 80 3f 15 1f 89 3f 00 00 80 3f bc c6 89 3f
       1.0 1.071261 1.0 1.0763774
000210 00 00 80 3f f7 e8 7f 3f 00 00 80 3f 3d ee 7f 3f
       1.0 0.9996485 1.0 0.999729
000220 00 00 80 3f 81 1c 80 3f 00 00 80 3f 3c f8 7f 3f
       1.0 1.0008699 1.0 0.9998815
000230 00 00 80 3f 60 03 7d 3f 00 00 80 3f 14 a2 7b 3f
       1.0 0.98833275 1.0 0.98294187
000240 00 00 80 3f 3d 68 83 3f 00 00 80 3f 86 90 80 3f
       1.0 1.0266186 1.0 1.0044105
000250 00 00 80 3f c3 f9 7f 3f 00 00 80 3f d1 e4 7f 3f
       1.0 0.9999048 1.0 0.9995852
000260 00 00 80 3f 21 04 80 3f 00 00 80 3f 5a 03 80 3f
       1.0 1.000126 1.0 1.0001023
000270 00 00 80 3f 34 18 81 3f 00 00 80 3f 52 d9 80 3f
       1.0 1.0085511 1.0 1.0066321
000280 00 00 80 3f 82 14 80 3f 00 00 80 3f bd 59 80 3f
       1.0 1.0006258 1.0 1.0027386
000290 00 00 80 3f 5b 05 80 3f 00 00 80 3f 95 e7 7f 3f
       1.0 1.0001634 1.0 0.9996274
0002a0 00 00 80 3f 38 27 80 3f 00 00 80 3f 16 1f 80 3f
       1.0 1.0011969 1.0 1.0009487
0002b0 00 00 80 3f 88 11 93 3f 00 00 80 3f af 02 94 3f
       1.0 1.1489725 1.0 1.1563319
0002c0 00 00 80 3f d3 23 80 3f 00 00 80 3f 34 1e 80 3f
       1.0 1.0010933 1.0 1.0009217
0002d0 00 00 80 3f c3 db 7f 3f 00 00 80 3f 58 05 80 3f
       1.0 0.99944705 1.0 1.0001631
0002e0 00 00 80 3f 61 a2 83 3f 00 00 80 3f 61 13 81 3f
       1.0 1.0283929 1.0 1.0084039
0002f0 00 00 80 3f 80 49 80 3f 00 00 80 3f e8 91 80 3f
       1.0 1.002243 1.0 1.0044527
000300 00 00 80 3f 3e fb 7f 3f 00 00 80 3f 39 00 80 3f
       1.0 0.9999274 1.0 1.0000068
000310 00 00 80 3f 2a aa 82 3f 00 00 80 3f b3 82 80 3f
       1.0 1.020818 1.0 1.0039886
000320 00 00 80 3f 82 e3 7f 3f 00 00 80 3f 8a df 7f 3f
       1.0 0.99956524 1.0 0.9995047
000330 00 00 80 3f dc f7 7f 3f 00 00 80 3f 77 04 80 3f
       1.0 0.9998758 1.0 1.0001363
000340 00 00 80 3f d3 83 79 3f 00 00 80 3f 37 9f 79 3f
       1.0 0.9746677 1.0 0.9750857
000350 00 00 80 3f 5c 3b 80 3f 00 00 80 3f 1f c5 7f 3f
       1.0 1.0018115 1.0 0.9991016
000360 00 00 80 3f 01 0c 80 3f 00 00 80 3f a0 1f 80 3f
       1.0 1.0003663 1.0 1.0009651
000370 00 00 80 3f 62 b4 81 3f 00 00 80 3f 41 de 83 3f
       1.0 1.0133173 1.0 1.0302202
000380 00 00 80 3f 9d 40 7c 3f 00 00 80 3f f5 c6 7e 3f
       1.0 0.9853609 1.0 0.99522334
000390 00 00 80 3f f3 fc 7f 3f 00 00 80 3f a0 e7 7f 3f
       1.0 0.99995345 1.0 0.99962807
0003a0 00 00 80 3f 3d 95 85 3f 00 00 80 3f ce ec 86 3f
       1.0 1.0436169 1.0 1.0541017
0003b0 00 00 80 3f 46 d2 81 3f 00 00 80 3f 1c ab 81 3f
       1.0 1.0142295 1.0 1.0130343
0003c0 00 00 80 3f 72 56 78 3f 00 00 80 3f 8c 9a 7c 3f
       1.0 0.97006905 1.0 0.9867332
0003d0 00 00 80 3f 3d 14 80 3f 00 00 80 3f 79 c9 7f 3f
       1.0 1.0006176 1.0 0.999168
0003e0 00 00 80 3f 5c 19 80 3f 00 00 80 3f 02 e6 80 3f
       1.0 1.0007739 1.0 1.0070193
0003f0 00 00 80 3f 3d 89 82 3f 00 00 80 3f 12 c0 82 3f
       1.0 1.0198132 1.0 1.0214865

bn1d1.bias f4 [512]
000000 5a 0f f5 3b 55 77 b7 3c 69 d2 74 ba a2 54 de 3c
       0.0074786367 0.02239577 -0.0009339215 0.027139965
000010 ea 86 82 3b 29 fd b5 3b 43 79 6a 3b 24 28 99 3c
       0.003983368 0.0055538607 0.0035777844 0.018695898
000020 c7 77 83 bc d5 a7 62 3c 87 dc 94 3b d1 2f a5 3c
       -0.016048325 0.01383396 0.0045428905 0.020164402
000030 ce 6f 09 3b 23 60 0c bd 80 28 79 3c f1 8f aa bc
       0.0020971182 -0.03427137 0.01520741 -0.02082059
000040 e0 d2 2f 3b 13 36 d8 bb d8 13 eb 3b 8e e3 b4 3a
       0.0026828572 -0.006598243 0.0071739964 0.0013800727
000050 55 c3 f9 ba 7a 8c 84 bd e6 ce 45 bb b1 5a 69 bd
       -0.0019055406 -0.06472106 -0.0030183136 -0.056971256
000060 51 dd b6 3c e3 b3 c3 bc 91 dd 0e bd 2d 23 00 3d
       0.022322329 -0.023889488 -0.03487927 0.031283546
000070 4e 1d 9c bb ea a2 ab 3c 4a 53 1f bb ea 28 6c 3c
       -0.0047642356 0.020951707 -0.0024311119 0.014414052
000080 05 e2 35 bc 05 76 1d 3d c9 82 23 3b b8 04 35 3d
       -0.011101251 0.03844263 0.002494978 0.044193953
000090 39 36 fc 39 c6 df 01 3b 9f 93 7a bc 51 25 89 3b
       0.00048105585 0.0019817217 -0.015293985 0.0041853567
0000a0 5f 3f 8e 3b 9f ff 85 bc 08 7a b0 3c cc a4 50 bc
       0.0043410505 -0.016357241 0.021542564 -0.012734603
0000b0 52 13 a9 bb c7 cc d6 bb 8c e1 fb bb da ed 2d 3c
       -0.005159774 -0.006555173 -0.0076867994 0.01061579
0000c0 69 52 54 ba c2 ca 1b bc 31 e4 b1 3c 7a 5e 82 3a
       -0.0008099438 -0.00950879 0.021715255 0.0009946369
0000d0 30 85 2d 3c 64 22 a3 3b 83 4b d3 bb b0 ca bf ba
       0.010590836 0.004978465 -0.0064482107 -0.0014632549
0000e0 05 8a 04 3d 1a 00 0e 3c 21 2d b7 3a f3 54 4c bc
       0.03235819 0.008667016 0.0013975241 -0.012471425
0000f0 18 c7 55 bc b4 4e 9a bd 9c 93 41 3b 94 94 cc bd
       -0.013047956 -0.07534543 0.0029537445 -0.099892765
000100 ab 23 09 3c fb a0 cc 3c 43 61 2a 3c 12 c4 6f 3c
       0.00837032 0.024979105 0.010399166 0.014634149
000110 ad 54 14 bb 4e 5e c6 3c 42 bb 45 bb 02 2d a0 3c
       -0.0022633479 0.02421489 -0.0030171429 0.019552711
000120 1f e0 c3 3c b9 4a 1a bd b0 46 ab bc 26 cc b6 bb
       0.02391058 -0.037668917 -0.02090773 -0.0055785356
000130 d9 87 75 ba a3 de 98 3a 0d 86 da ba 92 03 80 bb
       -0.0009366251 0.0011663031 -0.001667203 -0.0039066756
000140 d0 6a 12 ba cf 57 dc bc 2a fc 2d bc 6a d0 9e 3c
       -0.00055853743 -0.02689734 -0.010619203 0.019386489
000150 c8 d4 9d 3b ed fa c6 bd d0 46 8f b9 3b f9 97 bd
       0.0048166253 -0.09715829 -0.00027327845 -0.07420584
000160 de 20 8a 3b bb a3 2d bd ee 60 9f ba d7 02 0e bd
       0.004215344 -0.042392474 -0.0012159625 -0.034670677
000170 83 2a 2c 3b ca 15 88 bc 0b 04 8f bc ef 7f 4a 3c
       0.0026270456 -0.016611952 -0.017457983 0.012359603
000180 ed 11 1f 39 db e2 30 bd b9 a9 0a bc 02 d7 e8 bc
       0.000151701 -0.043185096 -0.008463317 -0.028422836
000190 fe 1c be 3b 15 18 86 bc a1 1f ba bb 0b 1e 7a bc
       0.005801796 -0.016368905 -0.00568004 -0.015265952
0001a0 d8 dd 30 3c 53 14 24 bc bc 72 4b 3a 64 fd 20 39
       0.010795079 -0.010014611 0.0007760932 0.00015353184
0001b0 ca fd 81 bc 07 5f 23 bc 57 e6 8a 3c 2c 0d 69 3c
       -0.015868086 -0.009971387 0.016955538 0.014224332
0001c0 9f 74 01 bc fa b6 be 3b 8f 4a 79 bc 5c f5 4e 3b
       -0.00790134 0.0058201523 -0.01521553 0.003157935
0001d0 f4 9e 7e 3c 9f a6 84 bd a6 c0 8f 3c 52 cb 31 bd
       0.015540827 -0.06477093 0.017547917 -0.043406792
0001e0 c7 a1 80 bc 75 eb 65 bd d4 99 ca 3b 12 f5 3d bd
       -0.015702141 -0.056132752 0.0061828885 -0.046376295
0001f0 dc e4 07 3d ad 8f d8 3b 8f 8e 8b 3c 51 78 3c bc
       0.03317724 0.0066089244 0.01703575 -0.011503295
000200 9d 78 91 3c d9 bd 72 bd cc 98 72 ba a5 b2 5c bd
       0.017757708 -0.059263084 -0.0009254336 -0.053881306
000210 b2 85 21 bb 86 db 2a bc 7f 6d 87 3c a2 49 5a b9
       -0.002464634 -0.010428315 0.016531704 -0.0002081753
000220 ca 24 89 3c 54 06 34 bc bd f3 f3 3b e7 5a 67 bc
       0.016741175 -0.010987837 0.0074448274 -0.014120794
000230 a3 e1 5b 3c c3 0f 99 3d 4e 29 4d b8 eb 2a 99 3d
       0.013420495 0.074737094 -4.8914277e-05 0.07478889
000240 18 8d b8 3c 52 86 a3 bd e3 9f 99 38 72 c1 a9 bd
       0.022528216 -0.07984604 7.32539e-05 -0.0828885
000250 c6 3d 84 bb d3 1a 5e bc 0d f1 a2 3b 2d ca 60 bb
       -0.0040356843 -0.0135562 0.004972583 -0.0034300194
000260 ff 06 9b bc 46 bf 2d 3c 49 e1 93 bc 26 37 4a bc
       -0.018924234 0.010604685 -0.01805176 -0.01234225
000270 1f 3f ba bb f1 b1 bb 3c 1c 59 b9 3c bb af 07 3c
       -0.005683794 0.022911998 0.022625498 0.0082816435
000280 f6 f0 75 3c 2e 16 1b bd 06 53 46 bc b6 1f aa bc
       0.015011063 -0.03786295 -0.012104755 -0.020767074
000290 23 07 10 bb 8d f6 97 3b c9 1c 7f bc b4 47 5f 3c
       -0.002197691 0.0046375454 -0.015570828 0.013627935
0002a0 8e ed 99 b9 76 b8 9d 3b d5 a8 05 bc bf c9 99 bc
       -0.00029359426 0.004813249 -0.0081579285 -0.018772958
0002b0 64 ba 8f bc 6d d3 9d bd 48 b8 28 bc fa 94 6f bd
       -0.017544933 -0.07706342 -0.010297842 -0.058491684
0002c0 d4 c6 51 bc 5c 80 53 bc 54 ee ba bc ed e0 ea bc
       -0.012803752 -0.012909021 -0.022818722 -0.028671706
0002d0 1a 1b 13 bc b4 17 52 bc 68 18 0b 3c 77 28 2c 3b
       -0.0089786295 -0.012823034 0.008489706 0.0026269236
0002e0 a8 24 71 ba cd ec d0 bd 87 62 ab bb 42 55 83 bd
       -0.00091988826 -0.10201416 -0.0052302512 -0.06412746
0002f0 3d d5 42 3b 87 f2 d1 bc 07 c4 f9 3b b3 ae 19 bd
       0.002972915 -0.025628341 0.0076222452 -0.03752012
000300 51 fe 6c bc 90 13 c6 3a cc 91 83 3a e5 dc 89 3b
       -0.014464931 0.0015112031 0.0010037958 0.004207241
000310 1a c5 11 bd e5 50 9f 3d c3 5f 2d 3c 9e 3e 4f 3d
       -0.03558836 0.07779101 0.010581913 0.050596826
000320 3c 34 e3 3b fa 24 dc 3b bb 8e c4 bb 0b b1 0e 3b
       0.006933717 0.006718275 -0.00599846 0.0021773006
000330 b5 ec 54 3c 9c 5c 19 bc 73 19 06 bc 86 a8 ba bb
       0.0129958885 -0.009360459 -0.0081847785 -0.005696359
000340 e6 62 f4 3b 5b 44 7f bd 2f d4 a6 3c c0 92 4a bd
       0.0074580787 -0.06232105 0.020364849 -0.049456358
000350 5b a3 b0 3a 27 b8 0f bd 56 c8 19 3c 2f 4a 08 bd
       0.0013476418 -0.03508773 0.009386143 -0.033273872
000360 87 f0 c4 bb a4 44 49 bc 5c d9 57 b8 31 ea 01 bc
       -0.0060101184 -0.012284432 -5.1462426e-05 -0.007929371
000370 a9 22 43 3c 00 f0 51 bd c9 32 5e 3c 00 e3 54 bd
       0.011910119 -0.051254272 0.013561913 -0.051974297
000380 c6 a0 34 bb 7d b1 5a bd c4 c7 dc bb 45 f2 2a bd
       -0.0027561649 -0.053391922 -0.006737681 -0.041734952
000390 af a5 1f bc 02 eb ad bb fd 7e b1 3c cb 79 09 bc
       -0.009744092 -0.005307556 0.021666998 -0.008390854
0003a0 1c 21 8b bb e0 96 67 3d 8e 6b b1 3b b5 8d 86 3d
       -0.0042458903 0.05654037 0.005414433 0.06569997
0003b0 f5 29 a5 3b ef 41 de bd 33 cd bd 3a 63 30 9b bd
       0.005040402 -0.108524196 0.001448071 -0.075775884
0003c0 a6 9a 64 3c e6 5c da bd c2 a7 35 3b 62 70 dc bd
       0.013952887 -0.1066225 0.00277184 -0.10763623
0003d0 03 7c 7b 3c a2 54 10 3c 7f 91 01 bc 20 8b e2 ba
       0.015349391 0.008809241 -0.007908224 -0.0017283894
0003e0 20 86 a7 ba 0d e9 ad bd 11 bb 29 bc 80 d6 c6 bd
       -0.0012781061 -0.084917165 -0.0103595415 -0.097088814
0003f0 44 5e e1 3a b0 a8 4e bc 51 c8 65 3c 3a 5c f3 bc
       0.0017194231 -0.01261346 0.01402481 -0.029707063

bn1d1.running_mean f4 [512]
000000 00 00 00 00 08 c1 93 3d 00 00 00 00 82 25 a9 3d
       0.0 0.07214552 0.0 0.08259107
000010 00 00 00 00 69 a9 42 3d 00 00 00 00 d1 b9 60 3d
       0.0 0.047524843 0.0 0.05486471
000020 00 00 00 00 d5 f3 5e 3d 00 00 00 00 61 47 80 3d
       0.0 0.054431755 0.0 0.062636144
000030 04 00 00 00 14 d0 23 3e 04 00 00 00 6c a7 3a 3e
       6e-45 0.15997344 6e-45 0.18227929
000040 04 00 00 00 44 ba d9 3c 04 00 00 00 b9 76 fb 3c
       6e-45 0.026578076 6e-45 0.03069626
000050 00 00 00 00 5b 4f 23 3f 00 00 00 00 c2 76 34 3f
       0.0 0.6379296 0.0 0.7049371
000060 00 00 00 00 31 41 89 3e 00 00 00 00 3e f9 9c 3e
       0.0 0.2680755 0.0 0.30658907
000070 04 00 00 00 ee ad 6d 3c 04 00 00 00 23 2f 89 3c
       6e-45 0.0145068 6e-45 0.01674611
000080 04 00 00 00 79 58 cc 3d 04 00 00 00 81 65 e8 3d
       6e-45 0.09977812 6e-45 0.11347485
000090 04 00 00 00 c7 00 d3 3c 04 00 00 00 46 a0 f3 3c
       6e-45 0.025757207 6e-45 0.02973951
0000a0 00 00 00 00 35 0e 00 3e 00 00 00 00 87 d8 12 3e
       0.0 0.1250542 0.0 0.14340411
0000b0 04 00 00 00 eb 00 a6 3c 04 00 00 00 5b 91 bf 3c
       6e-45 0.02026411 6e-45 0.02338474
0000c0 04 00 00 00 a4 23 94 3b 04 00 00 00 c1 56 aa 3b
       6e-45 0.0045208503 6e-45 0.00519833
0000d0 00 00 00 00 8f 2b 07 3f 00 00 00 00 cd 43 14 3f
       0.0 0.5280084 0.0 0.57915956
0000e0 04 00 00 00 aa 28 3c 3c 04 00 00 00 2a f6 58 3c
       6e-45 0.011484304 6e-45 0.013242284
0000f0 04 00 00 00 4f 15 ef 3e 04 00 00 00 fe 17 06 3f
       6e-45 0.46695945 6e-45 0.5238036
000100 04 00 00 00 73 c9 6e 3d 00 00 00 00 39 50 87 3d
       6e-45 0.058297586 0.0 0.06607098
000110 04 00 00 00 c6 8a 0e 3d 04 00 00 00 5d d3 23 3d
       6e-45 0.034800313 6e-45 0.039996494
000120 04 00 00 00 e4 ee 9a 3e 04 00 00 00 63 ad b0 3e
       6e-45 0.30260384 6e-45 0.34507284
000130 04 00 00 00 66 e2 d5 3c 04 00 00 00 4f e3 f6 3c
       6e-45 0.026108932 6e-45 0.030137686
000140 00 00 00 00 8c ff 17 3d 00 00 00 00 be 74 2f 3d
       0.0 0.037108943 0.0 0.042835943
000150 00 00 00 00 ee f2 69 3e 00 00 00 00 b0 f1 84 3e
       0.0 0.22846577 0.0 0.25965643
000160 04 00 00 00 fb f5 c7 3e 04 00 00 00 71 98 dd 3e
       6e-45 0.39054856 6e-45 0.43280366
000170 00 00 00 00 c1 10 03 3d 00 00 00 00 d6 5b 17 3d
       0.0 0.0319984 0.0 0.036952816
000180 00 00 00 00 b7 04 cf 3e 00 00 00 00 d0 0e e8 3e
       0.0 0.40433285 0.0 0.453238
000190 04 00 00 00 1e af 99 3c 04 00 00 00 69 6a b1 3c
       6e-45 0.01876026 6e-45 0.021657186
0001a0 00 00 00 00 bb 2b 8d 3d 00 00 00 00 40 d3 a2 3d
       0.0 0.068931065 0.0 0.07950449
0001b0 00 00 00 00 c4 04 53 3d 00 00 00 00 71 a6 73 3d
       0.0 0.051518217 0.0 0.059484903
0001c0 04 00 00 00 32 58 2b 3d 04 00 00 00 aa d8 45 3d
       6e-45 0.041832156 6e-45 0.04830233
0001d0 04 00 00 00 86 ad 5a 3e 00 00 00 00 4a c8 79 3e
       6e-45 0.21355256 0.0 0.2439281
0001e0 04 00 00 00 13 e1 1e 3e 04 00 00 00 df 9c 34 3e
       6e-45 0.15515547 6e-45 0.17637967
0001f0 04 00 00 00 57 fb c5 3c 04 00 00 00 24 6a e4 3c
       6e-45 0.0241677 6e-45 0.027882643
000200 04 00 00 00 25 36 85 3e 04 00 00 00 2c 1e 97 3e
       6e-45 0.26017871 6e-45 0.29515207
000210 00 00 00 00 f9 55 18 3d 00 00 00 00 ca 0d 30 3d
       0.0 0.037191365 0.0 0.0429819
000220 00 00 00 00 e7 09 9e 3d 00 00 00 00 92 02 b6 3d
       0.0 0.077167325 0.0 0.08887209
000230 00 00 00 00 49 0b a7 3e 00 00 00 00 27 09 ba 3e
       0.0 0.32625797 0.0 0.36335108
000240 04 00 00 00 94 26 fb 3e 00 00 00 00 c7 0f 0a 3f
       6e-45 0.4905287 0.0 0.53930324
000250 04 00 00 00 3b 9a 04 3d 04 00 00 00 71 f7 18 3d
       6e-45 0.032373648 6e-45 0.037345354
000260 00 00 00 00 38 f7 4b 3d 00 00 00 00 17 91 6b 3d
       0.0 0.049796313 0.0 0.057511415
000270 04 00 00 00 2b 4c 8c 3d 00 00 00 00 00 65 a1 3d
       6e-45 0.068504654 0.0 0.07880592
000280 04 00 00 00 c9 29 09 3e 04 00 00 00 db 72 1d 3e
       6e-45 0.13394846 6e-45 0.15375845
000290 04 00 00 00 98 fa b2 3c 04 00 00 00 ab 9d ce 3c
       6e-45 0.021848008 6e-45 0.025221666
0002a0 00 00 00 00 2e dd dd 3d 00 00 00 00 1b b6 ff 3d
       0.0 0.10833202 0.0 0.12485906
0002b0 04 00 00 00 41 22 52 3e 04 00 00 00 17 27 6e 3e
       6e-45 0.2052088 6e-45 0.23257099
0002c0 04 00 00 00 d4 db 16 3d 04 00 00 00 c2 ee 2d 3d
       6e-45 0.03683074 6e-45 0.042464025
0002d0 00 00 00 00 62 49 3a 3d 00 00 00 00 27 38 57 3d
       0.0 0.04548014 0.0 0.052543785
0002e0 04 00 00 00 b5 07 8f 3e 00 00 00 00 24 74 a1 3e
       6e-45 0.27935567 0.0 0.3153392
0002f0 00 00 00 00 42 78 bb 3e 04 00 00 00 46 83 d2 3e
       0.0 0.36615187 6e-45 0.4111578
000300 04 00 00 00 f2 62 6b 3c 04 00 00 00 68 d0 87 3c
       6e-45 0.014366852 6e-45 0.016578868
000310 04 00 00 00 8f 13 8f 3d 04 00 00 00 e3 65 a3 3d
       6e-45 0.069861524 6e-45 0.07978418
000320 00 00 00 00 3f 45 c8 3c 00 00 00 00 07 56 e7 3c
       0.0 0.024447082 0.0 0.028239263
000330 04 00 00 00 47 38 72 3c 04 00 00 00 4a ac 8b 3c
       6e-45 0.014783925 6e-45 0.017049927
000340 00 00 00 00 b0 7f d3 3e 00 00 00 00 f4 ac ec 3e
       0.0 0.41308355 0.0 0.46225703
000350 04 00 00 00 f9 27 e4 3d 00 00 00 00 0e 9b 02 3e
       6e-45 0.11140437 0.0 0.12754461
000360 00 00 00 00 19 9f fa 3c 00 00 00 00 a0 7b 10 3d
       0.0 0.030593442 0.0 0.035274148
000370 04 00 00 00 a2 00 92 3e 00 00 00 00 eb a9 a4 3e
       6e-45 0.28516108 0.0 0.32160887
000380 00 00 00 00 4e d6 5c 3e 00 00 00 00 92 14 7b 3e
       0.0 0.21566126 0.0 0.24519566
000390 04 00 00 00 c4 7e 0b 3c 04 00 00 00 f4 c5 20 3c
       6e-45 0.00851411 6e-45 0.009812821
0003a0 04 00 00 00 67 9f 04 3e 04 00 00 00 cd 5e 16 3e
       6e-45 0.12951432 6e-45 0.14684601
0003b0 04 00 00 00 10 1e c1 3e 04 00 00 00 42 0b d6 3e
       6e-45 0.37718248 6e-45 0.41805464
0003c0 00 00 00 00 77 a2 44 3f 00 00 00 00 04 bc 54 3f
       0.0 0.768104 0.0 0.8309939
0003d0 00 00 00 00 63 5d 17 3d 00 00 00 00 e4 d4 2e 3d
       0.0 0.036954295 0.0 0.042683497
0003e0 00 00 00 00 87 2d fd 3e 00 00 00 00 ed 40 0b 3f
       0.0 0.49448797 0.0 0.54395944
0003f0 04 00 00 00 53 11 2d 3e 00 00 00 00 e5 b3 45 3e
       6e-45 0.1690114 0.0 0.19306906
