images/models/other_models/Attention/best_models3.pth.tar (torch, 471215 bytes, 18 tensors)

bn1d0.weight f4 [739]
000000 b9 60 42 3f c0 01 81 3f d7 7e 71 3f 05 a6 60 3f
       0.7592884 1.0078659 0.9433417 0.87753326
000010 cf 2e 87 3f 93 ad 8c 3f ac 48 82 3f c8 ec 81 3f
       1.056116 1.0990471 1.0178428 1.0150385
000020 d1 fe 8a 3f 22 0c 73 3f 94 2c 7d 3f 1a 32 70 3f
       1.0859014 0.9494039 0.98896146 0.9382645
000030 7d dc 91 3f 55 fe 85 3f fa 63 7a 3f e0 1b 7e 3f
       1.1395413 1.0468241 0.978088 0.99261284
000040 9d a1 78 3f 58 79 7c 3f a4 a6 7c 3f 2e 24 74 3f
       0.971216 0.98622656 0.98691773 0.95367706
000050 ba d7 80 3f 46 39 7d 3f 69 27 7e 3f 2c ec 78 3f
       1.0065835 0.9891552 0.99278885 0.9723537
000060 69 6d 78 3f 87 d5 89 3f b0 f5 88 3f fc 10 7b 3f
       0.97041947 1.0768288 1.0699978 0.9807279
000070 cc 43 7c 3f ce 1c 92 3f b5 63 82 3f 62 93 8b 3f
       0.9854095 1.141504 1.0186678 1.0904353
000080 4e 78 81 3f b1 c8 86 3f 4c 42 83 3f ad 1d 81 3f
       1.0114839 1.0529996 1.0254607 1.0087181
000090 c9 4c 89 3f 80 e4 81 3f f0 f2 81 3f c1 86 81 3f
       1.0726558 1.0147858 1.0152264 1.0119249
0000a0 f7 4a 7e 3f 25 a4 80 3f e6 0e 81 3f 4e d7 7a 3f
       0.9933314 1.0050093 1.0082672 0.9798478
0000b0 eb 61 7c 3f e3 79 8a 3f 15 b4 86 3f 77 72 7e 3f
       0.9858691 1.0818447 1.0523707 0.9939341
0000c0 f1 e7 7d 3f 78 4c 80 3f 67 92 82 3f 06 0d 7f 3f
       0.9918204 1.0023336 1.0200928 0.9962925
0000d0 77 e9 7b 3f 44 00 84 3f ef f2 80 3f e3 5f 8a 3f
       0.98403114 1.0312581 1.0074137 1.0810512
0000e0 b2 db 90 3f 18 2b 80 3f 3d c3 7b 3f 14 86 85 3f
       1.1317046 1.0013151 0.98344785 1.0431542
0000f0 ca 3f 8f 3f 5c 3f 89 3f df f9 81 3f fa 87 7b 3f
       1.1191342 1.0722461 1.015438 0.9825436
000100 8d 06 7f 3f 0a 83 86 3f 61 8e 7b 3f c6 f8 82 3f
       0.9961937 1.050874 0.9826413 1.023217
000110 1c 5a 87 3f bc aa 85 3f ef df 7d 3f 42 ae 7f 3f
       1.0574374 1.0442729 0.9916982 0.9987527
000120 b2 bc 7e 3f 06 dc 7d 3f d0 91 7e 3f fc a8 80 3f
       0.99506676 0.99163854 0.9944124 1.005157
000130 f4 5b 7e 3f f4 e2 7f 3f 36 2d 80 3f 51 43 80 3f
       0.9935906 0.9995568 1.0013797 1.0020543
000140 27 ad 7d 3f e0 91 7f 3f 4b 6d 7f 3f fd 2d 80 3f
       0.99092335 0.9983196 0.9977614 1.0014035
000150 42 37 7f 3f ca b4 7f 3f 56 1d 81 3f 27 75 80 3f
       0.9969369 0.9988524 1.0087078 1.0035752
000160 31 d4 89 3f f4 df 81 3f a4 90 82 3f 65 9e 80 3f
       1.0767881 1.014647 1.0200391 1.0048338
000170 e3 53 81 3f c7 cc 84 3f 47 3d 8c 3f e5 0a 81 3f
       1.0103725 1.0374993 1.09562 1.008145
000180 aa c3 7f 3f 0e e9 7f 3f f8 17 81 3f 42 22 7e 3f
       0.99907935 0.9996499 1.008544 0.99271023
000190 70 ef 83 3f b5 32 84 3f 91 0f 7f 3f 27 b3 7e 3f
       1.0307446 1.0327975 0.9963313 0.99492115
0001a0 a6 42 7e 3f 4e 99 83 3f b8 a0 95 3f 57 03 7f 3f
       0.9932045 1.028116 1.1689672 0.9961447
0001b0 f3 2b 7e 3f 63 eb 7e 3f 62 1b 80 3f 80 58 81 3f
       0.9928581 0.9957792 1.0008357 1.0105133
0001c0 5b 56 7a 3f 2a d2 81 3f 00 49 7e 3f 0c 1d 87 3f
       0.9778802 1.0142262 0.9933014 1.0555739
0001d0 96 f7 7b 3f 2b 2d 7f 3f f1 a6 81 3f 38 9d 80 3f
       0.9842466 0.99678296 1.0129071 1.0047979
0001e0 e6 4a 86 3f 1d 52 80 3f 9d 18 7e 3f 83 14 7b 3f
       1.0491607 1.0025059 0.99256307 0.98078173
0001f0 af f4 81 3f 03 f9 8c 3f be 39 79 3f 46 e7 73 3f
       1.0152797 1.1013492 0.9735373 0.9527477
000200 15 d5 72 3f da 52 79 3f c0 b2 75 3f 61 14 6e 3f
       0.9485639 0.97392046 0.95975876 0.92999846
000210 c5 b9 70 3f 4a bf 70 3f 98 97 78 3f 1f dc 80 3f
       0.9403346 0.94041884 0.97106314 1.0067176
000220 3a b1 83 3f 48 41 81 3f 87 61 7d 3f b1 fd 8a 3f
       1.028846 1.0098047 0.9897694 1.085867
000230 c3 95 83 3f a6 36 81 3f f7 ef 88 3f a2 c6 7e 3f
       1.0280079 1.0094802 1.0698231 0.9952184
000240 ca 26 81 3f 48 07 80 3f e6 56 80 3f 02 89 80 3f
       1.0089962 1.0002222 1.0026519 1.0041811
000250 a5 47 7f 3f 48 13 80 3f 46 ed 7f 3f 30 ec 82 3f
       0.99718696 1.0005884 0.99971426 1.0228329
000260 b7 0e 84 3f 0d 5b 7f 3f 0d 18 80 3f e1 de 7d 3f
       1.0316991 0.9974831 1.000734 0.9916821
000270 03 48 7e 3f 69 07 81 3f 4d 94 85 3f b6 a9 80 3f
       0.9932863 1.0080386 1.0435883 1.0051792
000280 e2 94 80 3f 1d ce 7f 3f 3e 4e 97 3f 52 a7 7d 3f
       1.0045435 0.9992388 1.1820753 0.99083436
000290 05 cc 7d 3f f8 86 82 3f ab f2 81 3f b6 04 81 3f
       0.99139434 1.0197439 1.0152181 1.0079563
0002a0 79 60 7f 3f 14 d0 86 3f e7 7d 7f 3f 86 79 81 3f
       0.9975658 1.053225 0.99801487 1.0115211
0002b0 d3 01 7f 3f da d0 80 3f 5a eb 84 3f 1d cc 7f 3f
       0.9961216 1.0063736 1.0384324 0.9992083
0002c0 e0 cd 81 3f dd 6d 8d 3f 9a 8d 7e 3f 48 3b 80 3f
       1.0140953 1.1049153 0.99434817 1.0018091
0002d0 c7 82 85 3f 31 56 89 3f b1 a2 82 3f 6a 30 7f 3f
       1.0430535 1.0729429 1.02059 0.9968325
0002e0 39 50 7e 3f e9 7d 88 3f df 7b 85 3f 89 56 a0 3f
       0.9934116 1.0663425 1.0428427 1.2526408
0002f0 ee aa 9d 3f e7 df 87 3f 79 c1 7c 3f ce d7 84 3f
       1.2317789 1.0615205 0.98732716 1.0378358
000300 94 3d 80 3f a4 0a 8d 3f 91 49 88 3f 30 a7 90 3f
       1.0018792 1.1018872 1.0647451 1.1301022
000310 2c fb 7b 3f a3 b7 86 3f c7 e5 84 3f 7f b4 81 3f
       0.9843013 1.0524791 1.0382622 1.0133208
000320 1e 8a 7f 3f 08 c3 7b 3f c5 de 84 3f ca 2d 7d 3f
       0.99820125 0.9834447 1.0380484 0.98897994
000330 57 5d 81 3f e7 6e 77 3f b8 52 7a 3f 1c f7 7c 3f
       1.010661 0.966536 0.9778247 0.9881456
000340 d8 a7 7d 3f 80 b7 7d 3f 71 9e 86 3f e5 dd 7f 3f
       0.99084234 0.99108124 1.0517102 0.9994796
000350 59 4b 8d 3f 96 71 7d 3f 48 6e 64 3f 92 80 63 3f
       1.1038619 0.99001443 0.89230776 0.8886806
000360 aa e3 66 3f 33 f8 4a 3f 4b 81 39 3f ec 47 63 3f
       0.9019114 0.7928497 0.7246291 0.8878162
000370 ff 37 5a 3f 0f 73 87 3f d4 b6 4d 3f 40 5c 40 3f
       0.85241693 1.0581988 0.803571 0.7514076
000380 c6 45 2f 3f 2d fd 26 3f 07 b5 44 3f 4c fd 7f 3f
       0.6846584 0.65230066 0.76838726 0.99995875
000390 d8 f9 7f 3f 6b 02 80 3f 7c 0a 80 3f 22 ff 7f 3f
       0.99990606 1.0000738 1.00032 0.99998677
0003a0 08 fb 7f 3f 45 ff 7f 3f ba 06 80 3f 75 19 80 3f
       0.9999242 0.99998885 1.0002053 1.0007769
0003b0 b9 f5 7f 3f 36 02 80 3f 3c e3 7f 3f 53 ff 7f 3f
       0.9998432 1.0000675 0.9995611 0.9999897
0003c0 a1 02 80 3f 9c 06 80 3f a6 fd 7f 3f 24 0b 80 3f
       1.0000802 1.0002017 0.9999641 1.00034
0003d0 0f 06 80 3f 8c 01 80 3f 5e 1f 80 3f b9 0a 80 3f
       1.0001849 1.0000472 1.0009573 1.0003272
0003e0 45 ef 7f 3f 0e 06 80 3f cd 02 80 3f 85 02 80 3f
       0.9997447 1.0001848 1.0000855 1.0000769
0003f0 91 ee 7f 3f 99 f3 7f 3f c1 eb 7f 3f 6c 01 80 3f
       0.999734 0.99981076 0.99969107 1.0000434

bn1d0.bias f4 [739]
000000 ea 21 66 3d 2f 78 4d bd 36 d9 96 3d 7f f4 47 3d
       0.056184687 -0.050163444 0.073656484 0.048817154
000010 8a 15 03 bd e9 ab 95 3d 97 63 77 bd 18 40 19 bd
       -0.032002963 0.0730818 -0.06039771 -0.03741464
000020 35 f1 15 bb 25 bb 27 3c 2e 37 54 bd 0d d9 3f bd
       -0.0022879366 0.01023749 -0.051810436 -0.046837855
000030 ea a0 ef bc c1 72 07 bd 52 b0 91 bd dd f2 0a bc
       -0.029251534 -0.033068422 -0.071137086 -0.008480755
000040 7d f3 fd bc 8f 79 51 3c fe 94 97 bc f4 1d 25 3d
       -0.030999893 0.0127853295 -0.018503662 0.04031177
000050 2b df 15 3d 8a 14 0c 3c 7a b4 ab 3c fa 19 21 3d
       0.036589783 0.008549819 0.020960081 0.039331414
000060 65 85 d5 3c 7e e0 37 3d 49 d2 44 3c 61 89 3e 3d
       0.026064584 0.044891827 0.0120130265 0.046517733
000070 f2 a4 90 3c df 0b 18 3d 95 61 aa 3c a8 e1 85 3d
       0.017656777 0.037120696 0.020798484 0.06537181
000080 26 56 a5 bb 6a 68 fb 3b d1 94 b3 3c 73 9b 42 3c
       -0.00504567 0.0076723592 0.021921547 0.011877882
000090 f0 da b3 3d b8 b1 09 bd 6c d0 46 3c c8 ce 29 3d
       0.087819934 -0.03361675 0.012134653 0.041456968
0000a0 50 bb a1 bc 59 4c b5 3b fa cc 01 bb 01 04 28 bc
       -0.019742638 0.005532783 -0.0019806013 -0.010254861
0000b0 38 0b 2f 3b d3 b0 d8 bb 96 46 be 3c a9 40 ba bc
       0.0026709568 -0.006612876 0.023227017 -0.02273591
0000c0 e9 be 85 bc 33 ce 9c 3c f2 1e 4b bc 16 ef 90 bc
       -0.016326385 0.019141292 -0.012397515 -0.01769213
0000d0 bd 08 64 ba 30 df d9 3c 26 16 fe bc 50 0f 61 ba
       -0.0008698812 0.026595682 -0.03101642 -0.00085853506
0000e0 67 e9 59 bd 49 68 86 3b fe 18 35 bd 5c 9f 8a bd
       -0.053201105 0.004101787 -0.044213288 -0.06768677
0000f0 fd 82 a1 bd 99 99 c1 bd 7e dc 88 bd ab a2 b9 bd
       -0.07886312 -0.094531246 -0.066826805 -0.090642296
000100 87 cf c8 bc f1 73 1b bd 5f 82 0e bd 0a 5a 8f bc
       -0.02451302 -0.037952367 -0.0347923 -0.017498989
000110 f1 e2 0f bd 96 3e 2c 3c a2 29 0f bc cb 19 8a 3c
       -0.035128538 0.0105129685 -0.008737953 0.016858002
000120 9a e8 b0 bc 69 40 e6 3b 7f ac 29 bc ad e5 3c 3d
       -0.021595288 0.0070267213 -0.010356068 0.046117473
000130 c4 74 99 3c b3 11 a2 bb 86 e4 04 bc 44 61 b5 bc
       0.018732436 -0.0049459576 -0.008111125 -0.022141106
000140 d9 04 14 3d 0c 48 16 bc 97 0a 52 3c 02 99 9e 3c
       0.036137436 -0.009172451 0.012819908 0.01936007
000150 e5 a9 8a ba b3 84 2a 3c 5c d7 66 3c 9d 6e 92 3b
       -0.0010579197 0.0104076145 0.014089432 0.0044687525
000160 01 b6 00 3d 18 07 99 bb fa b3 ec 3c 90 8c 5a 3c
       0.031423572 -0.004670035 0.028894413 0.013339177
000170 2b 46 77 3b c9 b1 26 3a 67 99 95 bc 85 0d d2 3c
       0.0037731032 0.00063588895 -0.018261625 0.025641212
000180 63 eb e7 3b 57 e0 c2 3c 9f ce 04 3c 8e 1d 2b 3b
       0.007077621 0.023788614 0.008105903 0.0026110145
000190 c2 a6 ee bc 34 6b 08 3c b3 87 bf bc 78 f2 0b bd
       -0.02913225 0.0083263405 -0.023380136 -0.034166783
0001a0 35 91 ff bc 6e e0 1c bc a2 21 5b bd 05 2c 9f bc
       -0.03119717 -0.009574993 -0.05349887 -0.01943017
0001b0 80 86 42 bc ba ee 7a bc 70 68 84 bd c1 36 29 bd
       -0.011872888 -0.015315706 -0.06465232 -0.041311983
0001c0 48 ef 5f bc 4f 48 4c bd eb 5d 8e bc 24 95 98 bb
       -0.013667889 -0.049873646 -0.017378768 -0.004656451
0001d0 ae 8a ef bc 23 c3 31 bc 3f d2 35 bc 1b 44 dc bc
       -0.029240932 -0.010849747 -0.01109749 -0.026887944
0001e0 05 2f cb bb 39 82 65 3c 91 68 37 3c 27 24 90 bc
       -0.0062006735 0.014008098 0.011194364 -0.017595364
0001f0 ca 34 53 3c 01 8b 74 bc 0c 70 f5 bc c0 94 15 bc
       0.012891004 -0.014925719 -0.029960655 -0.009129703
000200 c4 22 3d 3a 08 a6 61 3b 50 24 97 bb f7 e3 36 ba
       0.00072149583 0.0034431238 -0.004612483 -0.00069767184
000210 15 9a 83 3c c9 8e 42 bc e6 20 f5 3b ac 92 c4 bc
       0.016064683 -0.011874863 0.0074807284 -0.02399572
000220 1c d1 39 bc 17 7b 4c bc 45 77 6c bc 16 3d bd bc
       -0.0113413595 -0.012480519 -0.014432733 -0.023100417
000230 db ef 00 bd 87 b3 10 3c 13 93 a2 bb e3 f2 79 bc
       -0.031478744 0.008831865 -0.0049613803 -0.015255663
000240 58 9c 64 bc 84 ff bd bc 8e 30 01 bb 09 e6 04 bd
       -0.013953291 -0.023193128 -0.0019712779 -0.03244594
000250 40 a5 f4 bc 00 27 89 3c 89 fe 3b 3b 9a 85 9e 3a
       -0.029863954 0.01674223 0.002868565 0.001209426
000260 2b f6 49 bc e5 33 cc bb 04 07 41 3c ac 80 8c 3c
       -0.012326757 -0.0062317722 0.011781458 0.0171512
000270 d3 a6 21 bc 4e 56 93 3c a9 fc 04 3d 8f b5 9f 3c
       -0.009866434 0.01798549 0.032467518 0.019495754
000280 79 a9 01 bb b3 2c 2e 3c a2 6d d1 3c 2f d3 cb 3b
       -0.0019784851 0.010630774 0.025564972 0.0062202434
000290 a2 f5 4f 3b a3 12 a1 3c 5a 1c d0 3b 80 ef e7 3c
       0.0031732102 0.019662207 0.006351036 0.028312445
0002a0 cb af 06 bb 6b fe aa 3b a0 d3 b1 bc a1 0a c8 3b
       -0.0020551558 0.0052183173 -0.021707356 0.0061047827
0002b0 d6 46 23 3c a4 5d cb 3c 93 12 4f 3c 5d 35 59 3c
       0.009965619 0.024824925 0.012638706 0.013257352
0002c0 d8 fd fb 3b 0b f2 19 bd f9 8d ff 3b c4 99 19 3c
       0.0076901726 -0.037584346 0.007798907 0.0093750395
0002d0 77 ce 0e bc 3f 6c 83 3c e2 9b ab ba a1 58 ce 3b
       -0.008716217 0.016042827 -0.0013092721 0.0062971865
0002e0 a8 f0 87 bc 64 1f 84 3c 88 90 a3 bc 2a 41 4a 3c
       -0.016594246 0.01612825 -0.019966379 0.012344638
0002f0 ba 70 38 3d 3f 47 c3 bc db 7e f3 3b df ef c9 bb
       0.04502938 -0.023837684 0.007430894 -0.006162628
000300 9d 92 90 bc c7 4d a8 bc 84 4b 53 3c ec 15 84 bc
       -0.017648036 -0.0205449 0.012896422 -0.016123734
000310 ad 1c f9 bc 45 1a a8 3a 2d dd 47 3c 65 66 83 3c
       -0.030409181 0.0012825212 0.0121987285 0.016040036
000320 15 2d fe ba e2 12 ee bb 17 d8 b2 3c 68 4e 54 bb
       -0.0019392098 -0.0072654346 0.021831555 -0.0032395367
000330 a8 42 c7 3c 4e e8 41 3c 54 dd fa 3b 08 be e7 3c
       0.024323776 0.011835171 0.007655779 0.028288856
000340 53 e1 12 bd 2f ef 95 3b 9d 48 78 bc 42 a5 1c 3c
       -0.035859417 0.004575632 -0.015154031 0.009560885
000350 99 99 c9 bc f2 b0 74 bc df 29 ec 3b 2e da 50 3d
       -0.024609374 -0.014934765 0.00720714 0.050989322
000360 2e 67 80 bd 60 9e a7 3c 9e cf 76 3c 8e 1d aa 3c
       -0.0626968 0.020461261 0.015064148 0.020766046
000370 f6 0c ec 3a 09 5e df bc a6 cd 3d bd 21 35 71 3d
       0.0018009234 -0.02726652 -0.0463387 0.05888856
000380 3c 93 20 be ed 3a 63 bc 69 9e a4 3d e9 0e a3 bb
       -0.15681165 -0.0138690295 0.08038027 -0.0049761427
000390 aa 5c 37 bc 1e f4 41 3c d5 2b c9 3c e2 ac 60 bc
       -0.011191526 0.011837987 0.024557034 -0.0137130935
0003a0 2a 59 39 bc 39 ff 50 b9 e8 ca e2 bc 9e 6d 21 3b
       -0.011312762 -0.00019931504 -0.027684644 0.0024631987
0003b0 9b 59 88 3c 22 40 a9 ba 2d d3 23 3c 91 3e 4e bc
       0.01664429 -0.001291279 0.009999079 -0.012588159
0003c0 65 d3 a8 3c 36 93 1b bc 2c 9d 4f 3c 12 88 12 3a
       0.020608613 -0.009495547 0.01267175 0.0005589734
0003d0 44 b7 72 3c a3 62 24 3c b7 c2 37 bb eb 21 bb bb
       0.014814202 0.010033282 -0.0028039643 -0.0057108304
0003e0 c8 dc a3 bb 74 1d ae bb d9 45 09 bb 4a 0e 99 3c
       -0.0050006844 -0.0053135697 -0.0020946173 0.018683571
0003f0 38 b7 5b 3b d4 45 cb 39 97 04 89 bb c9 40 71 3c
       0.0033525955 0.00038771203 -0.0041814554 0.014724919

bn1d0.running_mean f4 [739]
000000 d8 63 69 bb 4e 6d 1a bb 4b 44 fa ba 70 95 b2 bb
       -0.003561249 -0.0023563686 -0.0019093839 -0.0054499432
000010 24 41 b5 bb 56 71 d5 bb e2 02 8e bb 3c 68 e3 ba
       -0.005531447 -0.006513755 -0.0043338398 -0.001734979
000020 bf cd cc 3a 95 cd 7a 3a b8 b3 2a b9 95 b3 04 bb
       0.0015625282 0.0009567377 -0.00016279414 -0.002024864
000030 0e 83 57 bb bd d2 88 bb bc a2 56 bb 42 be 26 bb
       -0.0032884511 -0.0041755126 -0.0032750806 -0.0025442992
000040 7d 9c cf ba 2d 3f 57 ba 1d a6 18 39 54 6a 1f b9
       -0.0015839484 -0.0008211013 0.00014557732 -0.00015203032
000050 b0 38 79 3a 59 db 31 3a d3 13 80 3a 35 37 f1 3a
       0.0009507043 0.00067846995 0.0009771533 0.0018403294
000060 ab ed fe 3a 00 3e 26 3b 6b 60 05 3b 76 ce 13 3b
       0.0019449493 0.0025366545 0.002035166 0.002255348
000070 0b c5 12 3b 23 89 14 3b 77 89 14 3b a4 74 01 3b
       0.0022395279 0.0022664748 0.0022664943 0.001975336
000080 9c ae 03 3b 0a e9 d8 3a e2 5e f1 3a 91 37 c7 3a
       0.002009309 0.0016548943 0.0018415118 0.0015199055
000090 ce b2 7f 3a 29 3f 49 3a 1e ae f1 39 c0 d2 08 3a
       0.0009754122 0.0007676953 0.0004609683 0.00052193925
0000a0 78 27 37 39 f0 11 3b b9 00 53 89 b9 ea 34 51 b9
       0.00017466943 -0.00017840392 -0.00026192516 -0.00019951505
0000b0 b2 dd 39 ba 1b 8d 15 ba fb 76 8a ba c7 6d 9f ba
       -0.0007090225 -0.0005704925 -0.0010564023 -0.0012163454
0000c0 0e 17 80 ba 13 d0 d7 ba e1 12 c6 ba 9c d2 bc ba
       -0.0009772496 -0.0016465209 -0.0015111828 -0.0014406028
0000d0 e0 03 db ba 0d 15 da ba 2e b1 24 bb 7f 00 1f bb
       -0.0016709529 -0.0016638354 -0.0025130021 -0.002426177
0000e0 c2 83 6b bb 57 ce 95 bb 2d b3 ca bb 91 6e fb bb
       -0.0035936688 -0.0045717168 -0.00618591 -0.0076730927
0000f0 44 78 14 bc 0e c1 17 bc 87 dc 0e bc ae c0 23 bc
       -0.009061877 -0.009262336 -0.00871957 -0.009994669
000100 ad 27 ae bb 98 e6 7f bb c4 84 3a bb 36 80 ed ba
       -0.0053147883 -0.0039047357 -0.0028460482 -0.0018119875
000110 81 67 cf ba 73 f5 ab ba 19 b2 a5 ba 11 96 89 ba
       -0.0015823693 -0.0013119414 -0.0012641578 -0.0010496994
000120 6c d6 d3 ba cb 08 7a ba d3 ab 35 ba 9d 46 04 ba
       -0.0016161925 -0.00095380534 -0.0006930206 -0.00050459226
000130 d7 ca 05 ba 97 6b 28 b9 97 b0 a7 39 6d 1e ca 39
       -0.0005103773 -0.00016061809 0.00031984292 0.0003855111
000140 64 e9 28 3a 08 1d 7b 3a 44 00 a9 3a 3d 2a 8c 3a
       0.00064434693 0.0009579216 0.0012893756 0.001069374
000150 8f fd 6f 3a c6 61 6a 3a 55 10 66 3a 8e eb 87 3a
       0.00091549096 0.0008940961 0.00087762374 0.0010369883
000160 a7 58 56 3a 69 2f 1d 3a 62 f4 22 3a d4 d3 06 3a
       0.00081766624 0.00059961394 0.00062162254 0.0005143259
000170 2e 0a cf 39 d8 fe ea 39 60 a0 d9 37 df 22 ef b8
       0.000394897 0.0004482183 2.5943096e-05 -0.00011402903
000180 31 c7 b6 37 1c 7f 0b ba 14 15 3e ba 0a a7 6a ba
       2.1788846e-05 -0.000532137 -0.00072510657 -0.00089512824
000190 64 6d a9 ba b3 b6 13 bb 07 ed ee ba b7 9d 14 bb
       -0.0012926278 -0.0022539317 -0.0018228599 -0.0022677013
0001a0 2f 49 2f bb 25 78 3d bb 1e 19 5d bb 67 2d 76 bb
       -0.0026746502 -0.0028910723 -0.0033736895 -0.0037563683
0001b0 10 15 87 bb 5a ef 97 bb f2 16 d7 bb 78 e4 b0 bb
       -0.004122384 -0.004636687 -0.0065640146 -0.0053983293
0001c0 28 09 b8 bb be 02 b3 bb 6c 04 b6 bb 35 df b1 bb
       -0.005616326 -0.0054629734 -0.0055547263 -0.0054282197
0001d0 22 3d a6 bb 0b 6d 9d bb 5d d8 91 bb c7 10 89 bb
       -0.0050732056 -0.0048042587 -0.0044508413 -0.004182908
0001e0 e3 9e b0 bb cc 5e 84 bb 52 d5 97 bb 35 f4 a4 bb
       -0.0053900345 -0.004039621 -0.004633584 -0.0050339946
0001f0 52 68 c4 bb f2 64 f7 bb ef 8c 15 bc 88 9b 31 bc
       -0.0059938813 -0.0075498754 -0.0091278395 -0.010840304
000200 78 64 4b bc a8 7b 94 bc e7 9e 63 bc 87 3e 5b bc
       -0.01241409 -0.01812537 -0.013892866 -0.013381607
000210 b9 06 48 bc 01 bf 2c bc 46 5b 12 bc 5b c9 f2 bb
       -0.012208634 -0.010543586 -0.008932894 -0.0074092573
000220 89 04 c3 bb 4c 72 9a bb b2 78 7d bb 34 ab 80 bb
       -0.0059514684 -0.0047133323 -0.0038676676 -0.003926659
000230 e0 60 1c bb 2e 24 e8 ba 6a 1f c1 ba 5f 1c 94 ba
       -0.0023861453 -0.0017710978 -0.0014734094 -0.0011299959
000240 0d de 64 ba 8d 6c 08 ba 46 13 bd b9 48 f3 8d b9
       -0.0008730598 -0.00052041636 -0.0003606325 -0.00027074874
000250 4c 1e 32 b9 c2 58 ba 38 12 e1 2e 39 8e 81 be 39
       -0.0001698669 8.8857036e-05 0.00016677778 0.0003633615
000260 86 72 49 3a 36 da 64 3a 7e 55 a1 3a 56 d1 ac 3a
       0.0007684607 0.0008730026 0.0012308804 0.0013184946
000270 58 fe ca 3a 7c bf d1 3a 3a 7a 1c 3b 17 8e fe 3a
       0.0015487177 0.0016002501 0.0023876564 0.0019421008
000280 d7 d6 01 3b 7d 00 0b 3b 16 90 08 3b 24 55 0d 3b
       0.0019811892 0.0021210008 0.0020837835 0.002156564
000290 54 b1 0b 3b cb 01 18 3b 26 f5 0f 3b c9 3f 45 3b
       0.0021315413 0.0023194428 0.0021966188 0.0030097833
0002a0 99 65 12 3b 78 7b 12 3b d9 91 13 3b 07 52 0a 3b
       0.002233839 0.0022351425 0.0022517352 0.002110602
0002b0 1b dc 0c 3b 53 fa 07 3b d9 91 09 3b 0b c6 01 3b
       0.0021493498 0.002074857 0.0020991473 0.001980188
0002c0 71 8d 07 3b 78 81 23 3b 82 c9 03 3b a3 4c f3 3a
       0.002068367 0.0024948996 0.0020109122 0.0018562268
0002d0 e4 d5 ec 3a 36 cd fa 3a 1f 4b e6 3a e8 6a e2 3a
       0.0018069115 0.0019134644 0.0017569995 0.0017274292
0002e0 82 f4 f1 3a be e7 e3 3a a8 7a 12 3b ab ee d3 3a
       0.001845971 0.001738779 0.002235094 0.0016169151
0002f0 52 b4 d2 3a 06 9a d8 3a a9 27 d4 3a 5b a8 d2 3a
       0.0016075468 0.0016525395 0.0016186136 0.0016071902
000300 ab 7c d2 3a 35 48 d2 3a 6c 46 c6 3a 8e f1 06 3b
       0.0016058882 0.0016043248 0.0015127189 0.0020590755
000310 1e 0f 9f 3a 8e 00 ba 3a bf cb be 3a 90 81 ab 3a
       0.0012135243 0.0014190839 0.0014556571 0.0013084877
000320 87 18 bc 3a 31 f6 a2 3a 21 4e 9f 3a 53 13 a9 3a
       0.0014350571 0.001243299 0.0012154022 0.0012899436
000330 46 3e 7a 3a af 29 be 3a d3 81 6c 3a 2c d3 86 3a
       0.00095460226 0.0014508272 0.0009022031 0.0010286323
000340 65 bb 8b 3a e1 63 9b 3a 00 da bd 3a ca b8 1c 3b
       0.0010660706 0.0011855328 0.0014484525 0.0023913854
000350 15 b9 54 3b 02 53 a6 3b f1 44 39 3c cf 6b 50 3c
       0.003245895 0.0050758133 0.011307941 0.012721016
000360 4c 02 8c 3c 83 bd ac 3c 58 98 ba 3c 82 a8 bc 3c
       0.017090939 0.02108646 0.022777721 0.02302957
000370 3f 39 90 3c 0d 2a 2d 3c f2 84 5f 3b bc 4c e8 b9
       0.017605422 0.010569108 0.0034106341 -0.0004430766
000380 0a c2 7d bb 0c 2b bb bb 31 17 cf bb fa 37 fd 3a
       -0.0038720393 -0.0057119187 -0.0063199033 0.001931905
000390 b6 8f fd 3a e7 3c 00 3b 57 6c fe 3a 58 44 fa 3a
       0.0019345197 0.001956755 0.001941095 0.0019093854
0003a0 4f e6 fd 3a 4a 13 00 3b bb d7 fe 3a 62 04 00 3b
       0.0019371005 0.0019542747 0.0019442955 0.0019533862
0003b0 ed b5 ff 3a d5 e3 00 3b e3 5c fe 3a b7 53 fa 3a
       0.0019509174 0.0019667048 0.0019406345 0.0019098435
0003c0 12 31 fe 3a 11 64 fb 3a dc c5 00 3b d4 8d fd 3a
       0.0019393286 0.0019179602 0.0019649183 0.0019344636
0003d0 57 e2 04 3b 89 47 fe 3a 91 c9 02 3b ed e8 07 3b
       0.002027651 0.0019399981 0.0019956569 0.00207382
0003e0 4e f7 04 3b 5f ec ff 3a 11 95 fd 3a c0 78 fc 3a
       0.0020289007 0.00195254 0.0019346793 0.001926206
0003f0 dd 34 00 3b 74 e7 ff 3a 9e f7 fd 3a 44 47 01 3b
       0.001956276 0.0019523934 0.0019376164 0.0019726316

bn1d0.running_var f4 [739]
000000 f5 2d 89 37 41 ed 1f 37 5b 5b 03 37 ec 4a ef 36
       1.6353073e-05 9.5323785e-06 7.829479e-06 7.131477e-06
000010 c3 c6 e6 36 58 15 88 36 ab e5 79 36 b3 d9 f5 35
       6.877673e-06 4.0556006e-06 3.7237576e-06 1.8317281e-06
000020 0c c6 18 36 9e 3a de 35 f3 98 22 36 99 0c 17 36
       2.2765043e-06 1.6557349e-06 2.422891e-06 2.2508086e-06
000030 70 8d 12 36 8c b8 e4 35 b1 98 b9 35 05 04 96 35
       2.1838023e-06 1.7041034e-06 1.3828013e-06 1.1177041e-06
000040 36 7a 99 35 20 7e 65 35 65 6c 5c 35 d2 65 83 35
       1.1434956e-06 8.5492684e-07 8.211412e-07 9.789894e-07
000050 fd d9 3d 35 67 8b 0c 35 a0 d6 54 35 56 d8 37 35
       7.07252e-07 5.235692e-07 7.9288475e-07 6.848762e-07
000060 8d 78 34 35 32 63 11 35 1d e7 29 35 43 23 39 35
       6.723065e-07 5.416106e-07 6.329372e-07 6.8969183e-07
000070 70 2d 17 35 eb 33 06 35 9b 08 f1 34 80 b3 0e 35
       5.6318004e-07 4.999444e-07 4.489601e-07 5.316033e-07
000080 a8 b2 be 34 7a b7 f2 34 24 60 e8 34 0d 27 11 35
       3.5520247e-07 4.520951e-07 4.328332e-07 5.4073536e-07
000090 4d e3 d3 34 5f d2 ff 34 a6 20 d9 34 17 9b 00 35
       3.9467196e-07 4.7650516e-07 4.0443155e-07 4.79094e-07
0000a0 f8 4f e1 34 05 f2 fc 34 55 a0 d3 34 2e af f7 34
       4.19677e-07 4.711475e-07 3.941847e-07 4.6134795e-07
0000b0 60 a7 0b 35 fd aa 07 35 f7 81 f3 34 bc 8e fa 34
       5.20251e-07 5.054024e-07 4.535684e-07 4.6669982e-07
0000c0 b2 e2 ba 34 1a 57 b3 34 02 f7 de 34 cd a7 09 35
       3.4810142e-07 3.3404723e-07 4.1530444e-07 5.128066e-07
0000d0 b1 45 df 34 1a 65 ec 34 9e 9e 01 35 a9 ee 21 35
       4.1587694e-07 4.4031987e-07 4.8287063e-07 6.032447e-07
0000e0 d9 e5 0b 35 16 3e 46 35 d4 87 97 35 48 39 e8 35
       5.211601e-07 7.3851095e-07 1.1289908e-06 1.7302018e-06
0000f0 f6 97 03 36 3e ac f9 35 27 3e 00 36 6f bd 0f 36
       1.9608974e-06 1.8602075e-06 1.9109664e-06 2.1418925e-06
000100 f9 cc 2f 35 b6 d3 1b 35 ba 91 ee 34 df fe b8 34
       6.5490855e-07 5.805008e-07 4.4436985e-07 3.4458114e-07
000110 f7 ea a8 34 83 26 82 34 e5 ae 98 34 fb 1f ae 34
       3.1463398e-07 2.4242408e-07 2.843946e-07 3.2433294e-07
000120 95 ee bd 34 e4 7e a5 34 b3 ec af 34 8c b1 a6 34
       3.5377585e-07 3.082597e-07 3.2768511e-07 3.1049092e-07
000130 d3 7f 83 34 c3 ca 51 34 37 8a 9c 34 fd fb 7e 34
       2.4493656e-07 1.9538406e-07 2.915783e-07 2.3747266e-07
000140 cd 90 aa 34 1b 81 85 34 60 9a 99 34 ef 5f ac 34
       3.1770324e-07 2.4867117e-07 2.8610793e-07 3.2107297e-07
000150 94 a5 78 34 68 7d 83 34 ac b9 7e 34 3d 68 60 34
       2.3157037e-07 2.4491897e-07 2.372314e-07 2.0899547e-07
000160 56 dc 38 34 94 a0 40 34 ef 73 53 34 2c 53 4b 34
       1.7216493e-07 1.7939811e-07 1.9693083e-07 1.8936106e-07
000170 c8 d2 0b 34 41 09 44 34 2f cc 55 34 81 f7 3f 34
       1.3022066e-07 1.8257289e-07 1.9911452e-07 1.7878303e-07
000180 25 4d 26 34 ed 34 1c 34 6e 67 35 34 7f 37 32 34
       1.548802e-07 1.4547886e-07 1.6894566e-07 1.6597731e-07
000190 5e 58 22 34 09 8c 4b 34 e7 e1 42 34 d7 c3 48 34
       1.5119574e-07 1.8956793e-07 1.8149841e-07 1.8697698e-07
0001a0 67 93 8e 34 55 c6 82 34 46 81 86 34 11 2f ce 34
       2.655681e-07 2.4358692e-07 2.5053504e-07 3.8404735e-07
0001b0 69 52 ad 34 75 93 da 34 ad 9f 69 35 2e a1 dd 34
       3.2283722e-07 4.0712953e-07 8.703162e-07 4.1281731e-07
0001c0 d3 b1 17 35 02 7a 20 35 69 e2 ee 34 48 47 cc 34
       5.651065e-07 5.978219e-07 4.449569e-07 3.8049825e-07
0001d0 3b 3d ed 34 fb c3 d2 34 11 e1 bd 34 4b 9c 97 34
       4.418924e-07 3.9258143e-07 3.536775e-07 2.823966e-07
0001e0 9b 77 fe 34 08 58 87 34 4c 5c 84 34 a4 e6 a5 34
       4.739821e-07 2.520976e-07 2.465407e-07 3.0901458e-07
0001f0 d2 b4 dd 34 a0 2d 2e 35 48 62 50 35 cd f4 93 35
       4.1296022e-07 6.4886444e-07 7.7629056e-07 1.10236e-06
000200 1f 9f c7 35 12 f5 43 36 81 d2 f5 35 e7 b6 f3 35
       1.4872966e-06 2.9199914e-06 1.8315187e-06 1.8158142e-06
000210 08 5c df 35 3b bf b1 35 53 49 99 35 a7 54 61 35
       1.6641579e-06 1.3243183e-06 1.1420728e-06 8.3942217e-07
000220 1d 48 17 35 df 7f fc 34 0b 52 a8 34 8f 5e d3 34
       5.635682e-07 4.7031696e-07 3.1352133e-07 3.9370613e-07
000230 c2 fb 21 34 03 a0 86 34 55 78 09 34 cb b6 40 34
       1.5085882e-07 2.507587e-07 1.2802896e-07 1.7947893e-07
000240 78 f1 21 34 54 c4 0e 34 19 ce 21 34 a7 c2 ea 33
       1.5082139e-07 1.3296204e-07 1.5069271e-07 1.0931881e-07
000250 70 82 de 33 77 92 da 33 5a 27 d2 33 32 50 04 34
       1.0361407e-07 1.0178058e-07 9.786045e-08 1.2322633e-07
000260 77 16 3e 34 95 d6 03 34 8f 37 42 34 14 76 39 34
       1.7703302e-07 1.227839e-07 1.808787e-07 1.7272424e-07
000270 ab ea 09 34 e2 38 33 34 47 6b 9b 34 3d c6 1c 34
       1.2844491e-07 1.6691368e-07 2.8949054e-07 1.4600751e-07
000280 d0 9e 43 34 97 f3 30 34 df aa 4c 34 a8 7f 5b 34
       1.8218566e-07 1.6479895e-07 1.9061143e-07 2.0442405e-07
000290 73 44 65 34 4f d1 39 34 a4 75 85 34 6e bc 82 34
       2.1352189e-07 1.7305614e-07 2.4858775e-07 2.4351488e-07
0002a0 51 1f 43 34 ed 11 83 34 cb 6c 4c 34 33 42 53 34
       1.8172183e-07 2.4413694e-07 1.9038559e-07 1.967499e-07
0002b0 25 b1 83 34 d3 4a 69 34 4c af 5d 34 2f 8e 81 34
       2.452954e-07 2.1727037e-07 2.0646002e-07 2.4131575e-07
0002c0 7d 28 6f 34 8a c4 87 34 2f bf 81 34 51 19 87 34
       2.2273339e-07 2.528871e-07 2.4167227e-07 2.516413e-07
0002d0 d9 7c 7f 34 15 75 a5 34 f9 59 89 34 c3 4a 75 34
       2.3794145e-07 3.0818833e-07 2.5583702e-07 2.2844601e-07
0002e0 a7 83 8b 34 d3 45 ba 34 2f 4b b2 34 cd 6b 93 34
       2.5986557e-07 3.4696004e-07 3.3209787e-07 2.745932e-07
0002f0 94 02 a3 34 29 45 b9 34 89 74 d1 34 60 70 d7 34
       3.0362992e-07 3.4509256e-07 3.9014074e-07 4.0128634e-07
000300 77 63 a7 34 d1 df cc 34 68 39 cd 34 bb c0 ed 34
       3.1178544e-07 3.816081e-07 3.8225994e-07 4.428492e-07
000310 c8 eb e7 34 3c 0f f1 34 b5 80 05 35 81 95 d1 34
       4.3198656e-07 4.4900833e-07 4.9733654e-07 3.9038062e-07
000320 fa 82 39 35 25 7f 29 35 71 7d 0a 35 d5 a8 ff 34
       6.9108467e-07 6.3142426e-07 5.159155e-07 4.7620293e-07
000330 c4 ff 16 35 39 09 31 35 92 15 3c 35 41 d2 85 35
       5.625154e-07 6.595106e-07 7.0066847e-07 9.970464e-07
000340 b1 52 63 35 39 1f 6c 35 b6 60 7c 35 80 ad 7f 35
       8.468442e-07 8.7962286e-07 9.401805e-07 9.524738e-07
000350 4a c8 93 35 08 18 9d 35 b5 a4 3e 36 16 2a 7e 36
       1.1010645e-06 1.1704406e-06 2.8408078e-06 3.7873447e-06
000360 bf e3 bf 36 f5 47 20 37 82 1c 32 37 44 c7 4b 37
       5.7187567e-06 9.553497e-06 1.0616264e-05 1.2146138e-05
000370 4b 40 3c 37 cc f3 7d 37 b3 42 88 37 05 08 90 37
       1.1220643e-05 1.51367385e-05 1.6243523e-05 1.7169872e-05
000380 38 c8 bc 37 6d 88 15 38 a0 25 52 38 2b 60 0f 2f
       2.250458e-05 3.5651425e-05 5.0102943e-05 1.303994e-10
000390 4b 33 a2 2e 72 e7 a7 2f f5 24 3f 2f ed 38 8c 2c
       7.3760185e-11 3.0541575e-10 1.7384479e-10 3.9853594e-12
0003a0 2d 2d 92 2e 1c f8 87 2f 6f 1b 19 2f 1f 4f 87 2f
       6.647336e-11 2.473265e-10 1.3925015e-10 2.4612576e-10
0003b0 10 6a d0 2f 00 a1 ec 2e 06 ae 1b 2f d1 b8 82 2d
       3.7910342e-10 1.0760637e-10 1.4158993e-10 1.4861364e-11
0003c0 c8 8e e1 2e 6b d9 2d 2e ee 97 1d 2f 94 c3 27 2f
       1.02571784e-10 3.9528752e-11 1.4333043e-10 1.5258045e-10
0003d0 9f f8 cf 2f d5 4e fb 2e 2f 60 ba 2f ea df f6 2f
       3.7829737e-10 1.1428162e-10 3.3901545e-10 4.490624e-10
0003e0 d9 90 dd 2f 80 7b 91 2f a2 25 85 2e 17 ee da 2e
       4.0302586e-10 2.6463098e-10 6.054825e-11 9.9557855e-11
0003f0 e5 c6 1f 2f 48 5f 7d 2e dc aa f8 2e 6b 1a 78 2f
       1.4531627e-10 5.7610167e-11 1.1308085e-10 2.2564854e-10

bn1d1.weight f4 [512]
000000 00 00 80 3f 18 66 7f 3f 00 00 80 3f 5b 71 7e 3f
       1.0 0.9976516 1.0 0.99391717
000010 00 00 80 3f b2 f9 7f 3f 00 00 80 3f 93 16 80 3f
       1.0 0.9999038 1.0 1.0006889
000020 00 00 80 3f 8e e0 7f 3f 00 00 80 3f 87 32 80 3f
       1.0 0.9995202 1.0 1.001542
000030 00 00 80 3f 4c 30 80 3f 00 00 80 3f 3a f4 7f 3f
       1.0 1.0014739 1.0 0.99982035
000040 00 00 80 3f 47 02 80 3f 00 00 80 3f 51 fb 7f 3f
       1.0 1.0000695 1.0 0.99992853
000050 00 00 80 3f 26 3e 7f 3f 00 00 80 3f 0c 4f 7e 3f
       1.0 0.99704206 1.0 0.99339366
000060 00 00 80 3f 8a 03 80 3f 00 00 80 3f a3 ec 7f 3f
       1.0 1.000108 1.0 0.99970454
000070 00 00 80 3f b2 da 7f 3f 00 00 80 3f 16 ef 7f 3f
       1.0 0.9994308 1.0 0.9997419
000080 00 00 80 3f 25 53 81 3f 00 00 80 3f fd 27 81 3f
       1.0 1.0103499 1.0 1.0090328
000090 00 00 80 3f 13 02 80 3f 00 00 80 3f 18 02 80 3f
       1.0 1.0000633 1.0 1.0000639
0000a0 00 00 80 3f c2 02 80 3f 00 00 80 3f d5 0e 80 3f
       1.0 1.0000842 1.0 1.0004526
0000b0 00 00 80 3f 24 e6 7f 3f 00 00 80 3f f9 ed 7f 3f
       1.0 0.9996054 1.0 0.9997249
0000c0 00 00 80 3f fb f4 7f 3f 00 00 80 3f 19 00 80 3f
       1.0 0.99983186 1.0 1.000003
0000d0 00 00 80 3f 6b 3b 80 3f 00 00 80 3f 69 aa 7f 3f
       1.0 1.0018133 1.0 0.998694
0000e0 00 00 80 3f 01 00 80 3f 00 00 80 3f 03 fa 7f 3f
       1.0 1.0000001 1.0 0.9999086
0000f0 00 00 80 3f 27 b3 80 3f 00 00 80 3f 48 8a 80 3f
       1.0 1.0054673 1.0 1.00422
000100 00 00 80 3f e7 a6 7f 3f 00 00 80 3f 61 3f 7f 3f
       1.0 0.9986405 1.0 0.99706084
000110 00 00 80 3f 9a 14 80 3f 00 00 80 3f 8e f2 7f 3f
       1.0 1.0006287 1.0 0.99979484
000120 00 00 80 3f aa 39 80 3f 00 00 80 3f 2d 4f 7e 3f
       1.0 1.0017598 1.0 0.9933956
000130 00 00 80 3f 95 03 80 3f 00 00 80 3f a7 fe 7f 3f
       1.0 1.0001093 1.0 0.99997944
000140 00 00 80 3f 0a b4 7f 3f 00 00 80 3f cc 19 80 3f
       1.0 0.9988409 1.0 1.0007873
000150 00 00 80 3f 96 dc 7f 3f 00 00 80 3f b4 60 7f 3f
       1.0 0.9994596 1.0 0.9975693
000160 00 00 80 3f d7 18 82 3f 00 00 80 3f e4 38 81 3f
       1.0 1.016383 1.0 1.0095487
000170 00 00 80 3f 18 dd 7f 3f 00 00 80 3f 30 13 80 3f
       1.0 0.9994674 1.0 1.0005856
000180 00 00 80 3f 1a d5 7f 3f 00 00 80 3f 62 02 80 3f
       1.0 0.9993454 1.0 1.0000727
000190 00 00 80 3f 08 fb 7f 3f 00 00 80 3f b0 f7 7f 3f
       1.0 0.9999242 1.0 0.99987316
0001a0 00 00 80 3f 33 f4 7f 3f 00 00 80 3f da e9 7f 3f
       1.0 0.99981993 1.0 0.99966204
0001b0 00 00 80 3f b0 06 80 3f 00 00 80 3f 8e f2 7f 3f
       1.0 1.0002041 1.0 0.99979484
0001c0 00 00 80 3f 85 f6 7f 3f 00 00 80 3f 42 fe 7f 3f
       1.0 0.99985534 1.0 0.9999734
0001d0 00 00 80 3f 58 a1 80 3f 00 00 80 3f ae d9 7f 3f
       1.0 1.0049238 1.0 0.9994153
0001e0 00 00 80 3f db 4c 80 3f 00 00 80 3f 3f 9b 7f 3f
       1.0 1.0023454 1.0 0.9984626
0001f0 00 00 80 3f 98 fb 7f 3f 00 00 80 3f 7c 02 80 3f
       1.0 0.99993277 1.0 1.0000758
000200 00 00 80 3f d4 5b 81 3f 00 00 80 3f 71 6b 81 3f
       1.0 1.0106149 1.0 1.0110914
000210 00 00 80 3f 58 ea 7f 3f 00 00 80 3f dd ee 7f 3f
       1.0 0.99966955 1.0 0.9997385
000220 00 00 80 3f d5 08 80 3f 00 00 80 3f 89 05 80 3f
       1.0 1.0002695 1.0 1.0001689
000230 00 00 80 3f b6 ad 80 3f 00 00 80 3f fa 5f 7f 3f
       1.0 1.0053012 1.0 0.99755824
000240 00 00 80 3f 60 ed 83 3f 00 00 80 3f 6d a8 82 3f
       1.0 1.0306816 1.0 1.020765
000250 00 00 80 3f 28 e4 7f 3f 00 00 80 3f 7b df 7f 3f
       1.0 0.99957514 1.0 0.9995038
000260 00 00 80 3f 43 01 80 3f 00 00 80 3f ba f9 7f 3f
       1.0 1.0000385 1.0 0.9999043
000270 00 00 80 3f 33 24 80 3f 00 00 80 3f ec 12 80 3f
       1.0 1.0011047 1.0 1.0005774
000280 00 00 80 3f 1a 50 7f 3f 00 00 80 3f 00 15 80 3f
       1.0 0.997316 1.0 1.0006409
000290 00 00 80 3f 65 03 80 3f 00 00 80 3f 69 ec 7f 3f
       1.0 1.0001036 1.0 0.9997011
0002a0 00 00 80 3f e8 fa 7f 3f 00 00 80 3f 1a fb 7f 3f
       1.0 0.9999223 1.0 0.99992526
0002b0 00 00 80 3f 39 3e 82 3f 00 00 80 3f 5f 74 82 3f
       1.0 1.0175239 1.0 1.0191764
0002c0 00 00 80 3f 43 0c 80 3f 00 00 80 3f 85 10 80 3f
       1.0 1.0003742 1.0 1.0005041
0002d0 00 00 80 3f c2 f9 7f 3f 00 00 80 3f d7 f8 7f 3f
       1.0 0.99990475 1.0 0.99989074
0002e0 00 00 80 3f 50 00 80 3f 00 00 80 3f 30 c8 7d 3f
       1.0 1.0000095 1.0 0.99133587
0002f0 00 00 80 3f b7 0c 80 3f 00 00 80 3f 3f 7d 80 3f
       1.0 1.000388 1.0 1.0038222
000300 00 00 80 3f ac fd 7f 3f 00 00 80 3f 7c fe 7f 3f
       1.0 0.9999645 1.0 0.9999769
000310 00 00 80 3f 79 64 83 3f 00 00 80 3f 47 7d 81 3f
       1.0 1.0265037 1.0 1.0116357
000320 00 00 80 3f 84 e9 7f 3f 00 00 80 3f 0f e3 7f 3f
       1.0 0.9996569 1.0 0.9995584
000330 00 00 80 3f 01 f9 7f 3f 00 00 80 3f 57 01 80 3f
       1.0 0.99989325 1.0 1.0000409
000340 00 00 80 3f 8c ab 81 3f 00 00 80 3f e0 5f 81 3f
       1.0 1.0130477 1.0 1.0107384
000350 00 00 80 3f b4 3b 80 3f 00 00 80 3f 61 ea 7f 3f
       1.0 1.001822 1.0 0.9996701
000360 00 00 80 3f 90 fb 7f 3f 00 00 80 3f 38 04 80 3f
       1.0 0.9999323 1.0 1.0001287
000370 00 00 80 3f 1d f4 7f 3f 00 00 80 3f 14 95 80 3f
       1.0 0.9998186 1.0 1.0045495
000380 00 00 80 3f a2 53 80 3f 00 00 80 3f 5d 58 81 3f
       1.0 1.0025523 1.0 1.0105091
000390 00 00 80 3f 30 00 80 3f 00 00 80 3f 04 eb 7f 3f
       1.0 1.0000057 1.0 0.9996798
0003a0 00 00 80 3f f7 59 82 3f 00 00 80 3f 6b 41 83 3f
       1.0 1.0183705 1.0 1.0254339
0003b0 00 00 80 3f e1 cd 84 3f 00 00 80 3f 1a 5f 83 3f
       1.0 1.0375329 1.0 1.0263398
0003c0 00 00 80 3f d9 4f 80 3f 00 00 80 3f b8 5a 81 3f
       1.0 1.0024368 1.0 1.010581
0003d0 00 00 80 3f 32 0c 80 3f 00 00 80 3f a4 d7 7f 3f
       1.0 1.0003722 1.0 0.99938416
0003e0 00 00 80 3f d2 b5 80 3f 00 00 80 3f ee 30 82 3f
       1.0 1.0055487 1.0 1.0171182
0003f0 00 00 80 3f b9 85 80 3f 00 00 80 3f 16 2e 80 3f
       1.0 1.0040809 1.0 1.0014064

bn1d1.bias f4 [512]
000000 b7 76 2a 3c 96 ec a8 3c e1 58 7e bc 80 a0 95 3c
       0.01040428 0.020620625 -0.01552412 0.018265009
000010 f4 ce 97 3c f4 96 17 bb 46 36 51 3c 61 94 0f 3d
       0.0185313 -0.0023130747 0.012769287 0.035053615
000020 6b 56 05 bc 32 bd 1d 3b a3 fc 0f bc 3f 6f ae 3c
       -0.008138279 0.0024069068 -0.008788261 0.02129328
000030 eb 46 37 3c 6b 5b 9f bc 5e 75 a2 3a 43 8f 99 bc
       0.011186342 -0.019452771 0.0012394597 -0.01874507
000040 c8 23 ac bc f5 71 8a bb 84 5f 0a 3c f8 a6 15 3c
       -0.021013156 -0.0042250105 0.008445624 0.009134047
000050 9e b6 bf 3b 1b df 1f bd 28 c8 96 bb 07 74 29 bc
       0.005850627 -0.03903113 -0.004601497 -0.0103426045
000060 3e c0 eb 3b 81 c5 da bb cf 3e 0d bd 02 b1 d6 3a
       0.007194548 -0.0066763763 -0.034483727 0.0016379657
000070 29 ee 97 bb 15 96 bd 3a ae ca 29 bc 74 dd 0f 3c
       -0.004636545 0.0014464284 -0.010363264 0.008780826
000080 bf c8 8a bc a4 34 18 3d 50 db 09 bc 1f 93 1a 3d
       -0.016941426 0.037159577 -0.008414105 0.03773796
000090 5c ec 30 ba 2d fd ef bb 61 d3 fb 3a 61 79 36 3c
       -0.00067490875 -0.007323882 0.0019212776 0.011137337
0000a0 ec aa bc bb 1d 62 10 3c 0b f2 21 3c 25 18 f8 bb
       -0.00575768 0.0088124545 0.009884368 -0.0075712376
0000b0 19 13 3c 3c b6 69 4c 3c e8 34 a9 3c d3 8c 88 bb
       0.011479163 0.012476375 0.02065511 -0.004167178
0000c0 bb 15 85 bb 2b 6b 0a 3b 86 aa ac 3b 3e 42 f9 bc
       -0.0040614284 0.0021121006 0.0052693514 -0.030427095
0000d0 a4 8a 93 3c 0d 45 c9 3c 6b 48 67 bc 3e c1 b8 3c
       0.018010445 0.024569059 -0.014116387 0.022553083
0000e0 98 d1 b8 3c 08 fe da 3b 84 07 96 3c ad ba e8 3a
       0.02256088 0.006683115 0.01831413 0.0017755829
0000f0 c8 1e ca bb d7 76 ee bc ca a0 8b bc d2 60 27 bd
       -0.00616822 -0.029109402 -0.017044444 -0.04086382
000100 a3 d4 ae 3c 5a cc a2 3c df 70 a7 3c 2e f4 00 3c
       0.021341627 0.019872833 0.020439563 0.007870717
000110 88 f0 d2 ba 31 90 4e 3c 79 c8 e8 3b ab 53 6e bb
       -0.0016093412 0.01260762 0.0071039763 -0.0036365788
000120 10 5e e2 3c b2 88 0a bd 2a 5b f3 bb d9 ac df bb
       0.027632743 -0.03382177 -0.007426639 -0.006826025
000130 9d 91 e4 3b 88 e6 89 bc 1a b8 6a ba 27 4d 4f bb
       0.0069753663 -0.016833559 -0.0008953825 -0.003163168
000140 6d c8 3e bc b5 7d f7 bc 64 aa d6 3b ae 83 c7 3c
       -0.011644465 -0.030211309 0.006551074 0.024354782
000150 d5 88 43 bb aa 0d 09 bd 75 42 4a 3c 79 e9 36 bc
       -0.0029836197 -0.033460297 0.012344946 -0.011164063
000160 fb ce 0e 3b 1d 11 15 3d a9 c8 7b 3c 7b c6 df 3c
       0.002179085 0.036393274 0.015367665 0.027316323
000170 89 0d 55 3c 40 d6 77 bb 45 55 9d bc c3 93 a0 3c
       0.013003715 -0.0037816912 -0.019205699 0.019601708
000180 22 1b 95 bc c0 b4 ef 3b 37 08 28 bc bf d5 99 3c
       -0.018201414 0.0073152483 -0.010255865 0.01877868
000190 bd 5f 80 3b 6c 27 45 bc c2 21 31 bc 76 4b 93 3c
       0.003917663 -0.012033325 -0.010811271 0.017980319
0001a0 64 76 8f 39 92 ca 9a 3b 6f 16 15 bc 3d eb 2b 3c
       0.00027363293 0.0047238553 -0.009099587 0.010493097
0001b0 c9 6d 35 bc 9f f7 fb 3b ac 70 8a 3c f7 62 24 b8
       -0.011073538 0.007689431 0.01689943 -3.9192815e-05
0001c0 a1 53 64 bc c6 66 bf 3a 9a 5a 89 bc bb 5e 4f 3c
       -0.013935954 0.0014602772 -0.016766835 0.012656863
0001d0 ac 53 a0 3c 4b 71 f6 bb 7b 13 ca 3c b4 69 a5 bc
       0.019571148 -0.00752083 0.024667492 -0.020192005
0001e0 e2 85 1f bc 74 03 02 bd 46 68 16 bc e3 ad fb bb
       -0.00973651 -0.031741574 -0.009180134 -0.007680641
0001f0 7e b5 cb 3c 9b 54 93 3a 9b 9b 46 3c be df 4d bc
       0.024866816 0.0011240424 0.01212206 -0.012565551
000200 41 80 75 3c 4d bc 1b bd 8b 0a 98 3c f9 e8 b6 bc
       0.014984191 -0.038021374 0.018559715 -0.022327887
000210 17 2e 25 3c f3 47 79 bc 7c 7d bd 3c 9e c2 19 bc
       0.010081789 -0.015214908 0.023131125 -0.009384779
000220 ea c5 c3 3c 78 3c 52 bb 8d 0b 1e 3c 6a 8a 70 bc
       0.023898084 -0.00320795 0.009646309 -0.014681438
000230 7d bc df bb 3b 7f 5f 3d fa d9 b6 3c 48 e0 6a 3d
       -0.0068278895 0.054564696 0.022320736 0.057342798
000240 a5 af 2e 3b 4e 66 25 bd 23 70 8b bb a4 d8 75 bd
       0.0026654985 -0.04038077 -0.004255311 -0.060021058
000250 51 3d 5a bc 6e ea 7e bc d4 70 8d 3b a7 a7 cf bb
       -0.013320283 -0.015558822 0.0043164287 -0.0063371244
000260 21 12 8e bc 2e b0 97 3c b7 ed 63 bc 97 65 67 bc
       -0.017342629 0.018516626 -0.013911656 -0.014123342
000270 37 2d 3a 3c 13 b2 31 3c 3d 3b ba 3c 5e 36 49 3c
       0.011363319 0.010845679 0.022733325 0.012281029
000280 cd 00 ad 37 3a 94 6c bc a9 b4 0d bd 5c c6 ad ba
       2.062358e-05 -0.014439637 -0.03459612 -0.0013257968
000290 8d 3d 52 3c 06 3f cd 3b 9b a2 46 bc 16 da 8c 3c
       0.012832058 0.0062636165 -0.012123729 0.017193835
0002a0 53 f7 b8 3b 64 57 26 bb 09 f4 00 bc 76 a2 43 bb
       0.0056447177 -0.0025381679 -0.0078706825 -0.0029851473
0002b0 4a 0d 84 bc 83 d1 0b bd 25 41 66 3b 37 1d 36 3c
       -0.016119618 -0.034135353 0.0035134044 0.011115364
0002c0 2a cd e1 bc 77 d7 5c 3a 47 bb 4d bc f1 40 8b bc
       -0.02756365 0.0008424441 -0.012556857 -0.01699874
0002d0 eb 8e 6d 3c 25 ce 5a 3a a8 f2 e8 3c 17 74 1b 3b
       0.014499406 0.0008346758 0.02843602 0.0023720318
0002e0 82 53 08 39 31 06 15 bd 48 22 b7 3a 88 34 f4 bc
       0.0001300108 -0.036382858 0.0013972009 -0.029810205
0002f0 58 5e 3a 3c 03 be 01 3c 5d ea b9 bb 37 20 88 bb
       0.011375032 0.0079188375 -0.0056736902 -0.004154231
000300 5e e7 e7 bb 11 1c 0a 3c 9a c1 19 3a 15 38 9b 3c
       -0.0070771417 0.008429543 0.00058653357 0.01894764
000310 b3 f5 b4 bc 38 40 64 3d bf 1d 8a 3c bd a0 71 3c
       -0.022089815 0.055725306 0.016859887 0.014747796
000320 59 99 64 bb 46 9f 05 3a 6d 48 ed 3b dc c3 4f bb
       -0.0034881441 0.0005097281 0.0072413 -0.0031702435
000330 3a f3 87 3c f7 72 55 3c 4e ec a9 bb f3 6e 16 bb
       0.016595472 0.013027898 -0.0051856404 -0.0022954314
000340 ec fb 3a 3c b2 89 70 bd dc e7 1a 3b b9 b0 8f bd
       0.011412602 -0.058725066 0.0023636734 -0.07016129
000350 29 ed 00 bc ec bf 52 3c 52 c8 d9 3b 33 d4 97 3c
       -0.007869043 0.012863141 0.0066461945 0.018533802
000360 17 de ae bc cf c2 14 bc cc 32 f8 bb 64 40 6b 3c
       -0.021346135 -0.009079649 -0.007574415 0.014358614
000370 b2 15 e8 3c 9d 36 46 bc 78 b2 10 3d 93 83 72 bc
       0.028330658 -0.012097982 0.03532645 -0.014801878
000380 bb f4 07 3c 69 06 ec bb cc 25 19 bc fa e6 b3 3c
       0.008298094 -0.0072029126 -0.00934739 0.021960724
000390 4d 59 77 bb d7 a7 98 bc b4 2a bc 3c 75 20 cf bc
       -0.0037742436 -0.01863472 0.022969581 -0.025284031
0003a0 57 53 75 3b 78 5e e3 3c fb ff f5 3b 3b dc 27 3d
       0.0037433708 0.027755007 0.007507322 0.040981513
0003b0 f0 af 8a bc c8 2f 5b bd 10 91 2f bc 1a e7 cf bc
       -0.016929597 -0.053512365 -0.010715738 -0.025378752
0003c0 3e eb 2b 3c 70 3e a7 bd b8 85 a9 3c b0 56 84 bd
       0.010493098 -0.08166206 0.020693645 -0.06461847
0003d0 3d 4f b7 3c 6b 1b bc 3a bb b0 c2 bc ea a4 58 3b
       0.022376651 0.0014351433 -0.023765912 0.003305728
0003e0 23 e4 01 3c 78 3d b7 bc 22 86 ae bc 03 e8 14 bd
       0.007927927 -0.022368178 -0.021304194 -0.036354076
0003f0 c1 ce 13 3c b9 be c0 3b 6f e2 99 3b 92 a6 20 bc
       0.009021462 0.005882111 0.0046961824 -0.009805338

bn1d1.running_mean f4 [512]
000000 00 00 00 00 c9 c5 9c 3e 00 00 00 00 ee 9b a9 3e
       0.0 0.30619648 0.0 0.33126777
000010 00 00 00 00 6c 71 39 3d 00 00 00 00 b0 9f 49 3d
       0.0 0.045274183 0.0 0.049224555
000020 00 00 00 00 c7 76 bb 3d 00 00 00 00 6f a8 cb 3d
       0.0 0.09153514 0.0 0.099442355
000030 00 00 00 00 30 1a 14 3d db c5 4f 28 53 8c 20 3d
       0.0 0.036157787 1.1533711e-14 0.039196324
000040 04 00 00 00 57 c2 d2 3c 04 00 00 00 e0 3f e5 3c
       6e-45 0.025727434 6e-45 0.02798456
000050 00 00 00 00 2b 71 4e 3e 00 00 00 00 5a fd 5e 3e
       0.0 0.20160358 0.0 0.21776333
000060 00 00 00 00 9b d8 57 3d 00 00 00 00 5a 9c 6a 3d
       0.0 0.052696805 0.0 0.057278015
000070 76 38 c1 2f 4c 57 16 3c aa d9 3a 33 79 90 23 3c
       3.5146613e-10 0.009176087 4.3504464e-08 0.009983175
000080 04 00 00 00 97 cf 34 3e 04 00 00 00 11 50 43 3e
       6e-45 0.17657314 6e-45 0.19073512
000090 04 00 00 00 72 22 ce 3c d5 64 40 02 48 1d e0 3c
       6e-45 0.02516291 1.413487e-37 0.027357712
0000a0 00 00 00 00 9f b2 7a 3d 00 00 00 00 a8 2a 88 3d
       0.0 0.061205503 0.0 0.06648761
0000b0 04 00 00 00 78 60 90 3c c9 07 10 26 48 f5 9c 3c
       6e-45 0.017624125 4.9970587e-16 0.019159928
0000c0 04 00 00 00 f2 5e 4f 3c db c5 4f 28 75 a0 61 3c
       6e-45 0.012656914 1.1533711e-14 0.013771166
0000d0 00 00 00 00 07 1a 11 3e 00 00 00 00 02 2a 1d 3e
       0.0 0.14170085 0.0 0.15348056
0000e0 04 00 00 00 0a e5 93 3c bf 28 aa 33 26 d8 a0 3c
       6e-45 0.01805355 7.9236536e-08 0.019634318
0000f0 27 54 24 2e 7c a0 25 3d bf 7a ab 33 43 09 33 3d
       3.7364025e-11 0.040436253 7.9851354e-08 0.043710005
000100 00 00 00 00 ec 39 79 3e 00 00 00 00 5f 53 86 3e
       0.0 0.24338502 0.0 0.26235482
000110 04 00 00 00 21 48 f5 3c 37 a7 c7 27 2b 2a 05 3d
       6e-45 0.02994162 5.541489e-15 0.032510918
000120 00 00 00 00 35 49 15 3d da 4d 1f 25 99 b3 21 3d
       0.0 0.03644677 1.3817429e-16 0.03947792
000130 04 00 00 00 16 9d c5 3c e4 a6 bc 08 5c cc d6 3c
       6e-45 0.024122756 1.1354074e-33 0.026220493
000140 00 00 00 00 7c 31 2c 3d 00 00 00 00 90 1d 3b 3d
       0.0 0.04203938 0.0 0.04568249
000150 00 00 00 00 6b ac 58 3e 00 00 00 00 bf fd 69 3e
       0.0 0.21159522 0.0 0.22850703
000160 00 00 00 00 3b 7e 0e 3e 62 b0 61 27 4d ac 19 3e
       0.0 0.1391534 3.132064e-15 0.15007134
000170 00 00 00 00 04 10 fb 3c 00 00 00 00 82 7c 08 3d
       0.0 0.030647285 0.0 0.033321865
000180 00 00 00 00 ac 26 9a 3d 00 00 00 00 f9 90 a7 3d
       0.0 0.07526907 0.0 0.08181948
000190 00 00 00 00 f5 db 93 3c 37 a7 c7 27 b2 c9 a0 3c
       0.0 0.01804922 5.541489e-15 0.019627426
0001a0 00 00 00 00 a4 56 01 3d 00 00 00 00 e3 a0 0c 3d
       0.0 0.031576768 0.0 0.03433312
0001b0 00 00 00 00 10 45 20 3d 00 00 00 00 48 50 2e 3d
       0.0 0.039128363 0.0 0.04255703
0001c0 04 00 00 00 8c 42 7f 3c 6c 2b cc 28 f5 ca 8a 3c
       6e-45 0.015579831 2.2667381e-14 0.01694248
0001d0 00 00 00 00 09 b2 d7 3d 00 00 00 00 8e 5b e9 3d
       0.0 0.105320044 0.0 0.11394416
0001e0 00 00 00 00 52 82 eb 3d 00 00 00 00 28 ea fe 3d
       0.0 0.11499466 0.0 0.124470055
0001f0 04 00 00 00 99 b2 d1 3c 04 00 00 00 24 fd e3 3c
       6e-45 0.025597857 6e-45 0.027830668
000200 04 00 00 00 6b 68 d2 3d 10 f4 4f 2b 2b ab e3 3d
       6e-45 0.102738224 7.387988e-13 0.11116632
000210 00 00 00 00 62 ea c0 3c 00 00 00 00 7f f6 d1 3c
       0.0 0.023549262 0.0 0.025630234
000220 00 00 00 00 0c 5d eb 3c 00 00 00 00 18 e0 ff 3c
       0.0 0.028730892 0.0 0.031234786
000230 00 00 00 00 61 f0 f9 3e 00 00 00 00 3b 74 06 3f
       0.0 0.48816207 0.0 0.52521104
000240 00 00 00 00 9c f2 38 3e 00 00 00 00 2f 16 47 3e
       0.0 0.18061298 0.0 0.19442056
000250 04 00 00 00 35 df 80 3c 3a d3 22 33 f9 17 8c 3c
       6e-45 0.015731433 3.7910674e-08 0.017101275
000260 00 00 00 00 e8 55 0e 3d 00 00 00 00 c9 ce 1a 3d
       0.0 0.034749895 0.0 0.037794862
000270 00 00 00 00 f0 01 e1 3d 00 00 00 00 32 4b f4 3d
       0.0 0.10986698 0.0 0.11928405
000280 04 00 00 00 a7 78 8f 3c c8 b6 40 33 6a d9 9b 3c
       6e-45 0.017513586 4.4869722e-08 0.01902457
000290 04 00 00 00 3c 2b 8b 3c 13 f1 aa 32 00 56 97 3c
       6e-45 0.01698839 1.9900233e-08 0.018473625
0002a0 00 00 00 00 27 7c 47 3d 00 00 00 00 89 e1 58 3d
       0.0 0.048702385 0.0 0.052949462
0002b0 04 00 00 00 76 62 cd 3d 04 00 00 00 e1 8f de 3d
       6e-45 0.100285456 6e-45 0.108672865
0002c0 04 00 00 00 dd 02 05 3d 04 00 00 00 db 8f 10 3d
       6e-45 0.032473434 6e-45 0.03529344
0002d0 00 00 00 00 95 86 2c 3d 00 00 00 00 78 a5 3b 3d
       0.0 0.042120535 0.0 0.0458121
0002e0 00 00 00 00 6f 98 24 3e 00 00 00 00 b1 72 31 3e
       0.0 0.16073774 0.0 0.17328908
0002f0 00 00 00 00 99 a9 6d 3d 8a 19 a2 2d 5b b3 80 3d
       0.0 0.05802307 1.842861e-11 0.06284209
000300 04 00 00 00 a5 b7 51 3c 25 df 94 2c 0e 04 64 3c
       6e-45 0.012800132 4.231187e-12 0.013916982
000310 04 00 00 00 df 71 d0 3d 7b 46 e0 26 88 2a df 3d
       6e-45 0.10177969 1.5562226e-15 0.10896784
000320 00 00 00 00 0b db 6f 3d 00 00 00 00 b4 78 82 3d
       0.0 0.058558505 0.0 0.063706785
000330 b3 18 39 2f be c1 71 3c fc ad 3a 31 73 5e 83 3c
       1.6834427e-10 0.014755664 2.716546e-09 0.016036248
000340 00 00 00 00 2c 7d 86 3e 00 00 00 00 69 e9 8f 3e
       0.0 0.26267374 0.0 0.28107765
000350 00 00 00 00 cc 57 02 3e 00 00 00 00 c1 42 0d 3e
       0.0 0.12728804 0.0 0.13794996
000360 00 00 00 00 b6 75 e4 3c 00 00 00 00 d7 64 f8 3c
       0.0 0.02788816 0.0 0.030321522
000370 00 00 00 00 c2 60 04 3e 00 00 00 00 b6 6d 0f 3e
       0.0 0.12927535 0.0 0.14006695
000380 00 00 00 00 c9 e2 a9 3d 00 00 00 00 38 26 b8 3d
       0.0 0.08295209 0.0 0.08991665
000390 04 00 00 00 24 35 4e 3c 38 d3 22 33 1b 38 60 3c
       6e-45 0.012585912 3.7910667e-08 0.013685252
0003a0 04 00 00 00 51 9b fc 3d 30 d2 78 10 9b 88 07 3e
       6e-45 0.12334312 4.90713e-29 0.13235705
0003b0 04 00 00 00 be 8a f0 3d 04 00 00 00 d4 f4 01 3e
       6e-45 0.11745213 6e-45 0.12691051
0003c0 00 00 00 00 f8 fc 8b 3e 00 00 00 00 c3 2e 96 3e
       0.0 0.27341437 0.0 0.2933255
0003d0 00 00 00 00 8f 23 d8 3c 00 00 00 00 a6 15 eb 3c
       0.0 0.026384143 0.0 0.028696846
0003e0 00 00 00 00 bd 8c 72 3e 00 00 00 00 29 be 82 3e
       0.0 0.236865 0.0 0.25535706
0003f0 00 00 00 00 a9 14 db 3d 00 00 00 00 f9 4d ed 3d
       0.0 0.106973 0.0 0.11587138
