images/models/other_models/Attention/best_models13.pth.tar (torch, 471237 bytes, 18 tensors)

bn1d0.weight f4 [739]
00000000: ad98 1c3f 3d7c 583f 3871 523f 1817 683f
00000010: b5d8 6e3f 8e22 843f 6d55 7a3f 1068 813f
00000020: a4b0 903f 3471 7d3f 347f 7a3f b864 5a3f
00000030: a6b3 9d3f 4dcd 723f b498 733f 13da 793f
00000040: 2fe9 843f 7c27 7d3f ce87 7a3f 29be 703f
00000050: 2f40 8d3f 4965 733f f117 803f 419c 733f
00000060: bb76 803f 228f 8a3f b95c 9a3f 7e99 7a3f
00000070: ab11 793f cb39 a03f 3fb3 893f 162e 8a3f
00000080: 51ab 823f 7772 863f 24cc 7d3f 8ad8 7d3f
00000090: b0f7 943f 9114 8b3f 41d8 853f 2949 8d3f
000000a0: f486 843f 8aa7 8c3f 42f8 7f3f 5017 7e3f
000000b0: 9501 813f 8cf1 933f a80a 953f 99dc 793f
000000c0: c709 7f3f e0ce 7c3f 9d4e 863f ef4e 813f
000000d0: e7ce 7b3f c549 813f 0667 7d3f 68e8 883f
000000e0: c5c6 a13f 4059 7d3f aafd 823f 5cb8 893f
000000f0: 33c0 a53f fece 8f3f 1703 8b3f cf4a 7c3f
00000100: cd1b 7d3f e91e 8d3f 8918 773f a1c1 813f
00000110: 5d0a 853f c816 893f a585 7c3f 226d 813f
00000120: af20 7f3f 59c5 833f af28 7c3f b47a 813f
00000130: e9f6 7b3f 1120 823f 2e61 813f 25ae 823f
00000140: b4a6 7c3f 3525 7e3f 02a5 803f 6a98 813f
00000150: b5e4 7f3f 4ad1 7c3f 4cbc 843f 55cd 823f
00000160: d91a 8e3f 3bf5 803f 5ca7 863f 41fd 823f
00000170: 6efe 823f aa7a 873f 9ace 923f 7aa8 803f
00000180: 6124 7d3f 22a7 803f c6ae 813f 574d 7e3f
00000190: b3e0 833f 5236 823f d110 7e3f f605 803f
000001a0: 3758 813f d4dd 853f 401a a33f 6ceb 7e3f
000001b0: c7bc 7d3f e3c9 7c3f 5502 813f 2690 843f
000001c0: 81f9 783f 4c42 8e3f 624e 7f3f 749a 8f3f
000001d0: 8843 773f fa72 7a3f e2eb 823f c256 823f
000001e0: 200f 873f a62e 7f3f bba8 7a3f 77b1 783f
000001f0: b8c0 813f bbf2 933f 365f 763f fb5c 643f
00000200: 5f80 633f 2823 633f 706d 613f d1d4 5a3f
00000210: 7fdf 5c3f 882a 5e3f 6753 673f 7b5d 7a3f
00000220: 37aa 843f 9cfe 7c3f feb0 7e3f 404f 8d3f
00000230: 0262 873f 72ba 843f 4596 913f ab7d 7c3f
00000240: c8e2 833f fa9a 7f3f 3119 823f 6070 823f
00000250: 080a 7f3f a4f2 803f eae4 7f3f 15ce 853f
00000260: 2c1c 833f b0ee 7e3f ea54 813f 447c 7f3f
00000270: 1280 7c3f 356a 843f 1eb5 843f 2ed5 843f
00000280: 251f 7f3f e589 7f3f 6de4 a33f 94db 7d3f
00000290: 0e67 813f c675 853f e7e0 813f 1598 7e3f
000002a0: f957 813f 7fa9 893f 0206 7d3f 7996 813f
000002b0: 8ec0 7e3f 1467 803f 3a60 913f 7b7f 813f
000002c0: 6454 843f e2f1 923f 4ef3 7e3f 1d4d 803f
000002d0: 3925 863f cd90 9f3f 246f 813f 1a65 7d3f
000002e0: 32b2 833f b309 8b3f c145 883f 1c64 a93f
000002f0: 1ec2 b13f 4659 8a3f 9e9b 843f 78e9 843f
00000300: 61cb 7a3f c1ac 8b3f d397 8d3f d2b7 a23f
00000310: 47f0 7f3f f88a 843f 7ca1 823f e715 843f
00000320: 62ef 7f3f fa6d 763f 6040 873f 1a31 793f
00000330: 9fd9 7e3f 034a 723f d2db 853f c671 863f
00000340: 44c6 783f ba13 7c3f d8db 883f 8a0c 7b3f
00000350: cda6 9c3f a619 863f 7520 513f fba9 653f
00000360: b1fc 323f e441 2a3f d121 f03e fd1d 273f
00000370: 7a15 653f 33b2 713f 7017 0f3f b2f0 153f
00000380: be3e 243f 2fca 093f f7db 033f 24f9 7f3f
00000390: 93f9 7f3f e302 803f 7d0e 803f 4f00 803f
000003a0: 78f5 7f3f 9cf6 7f3f 5603 803f 1c20 803f
000003b0: defb 7f3f 3d08 803f 62ea 7f3f 0cfe 7f3f
000003c0: f705 803f bb07 803f 6102 803f cb0b 803f
000003d0: 5b04 803f 10f8 7f3f de41 803f 2e1b 803f
000003e0: 1af6 7f3f 750d 803f 9e05 803f 2705 803f
000003f0: 3def 7f3f bfee 7f3f 82ea 7f3f 8504 803f
0.61170465 0.8456457 0.8220401 0.9066024 0.9329942 1.0323045 0.977866 1.0109882
1.1303906 0.9900086 0.97850347 0.85309935 1.2320449 0.94844514 0.9515488 0.9759838
1.0383662 0.98888373 0.9786347 0.9404016 1.1035212 0.95076424 1.0007306 0.951603
1.0036234 1.0824931 1.2059547 0.9789046 0.97292584 1.2517637 1.0757827 1.0795314
1.0208532 1.0503682 0.9913962 0.9915854 1.1638088 1.0865651 1.045662 1.1037952
1.0353684 1.0988629 0.99988186 0.9925432 1.0078608 1.1558089 1.1643877 0.9760223
0.99624294 0.98753166 1.0492741 1.0102214 0.9836258 1.0100638 0.98985326 1.0695925
1.2638785 0.9896431 1.0233662 1.0759387 1.294928 1.1235044 1.0860318 0.9855165
0.98870546 1.1025058 0.9652181 1.0137216 1.0393788 1.0710077 0.98641425 1.011143
0.99659246 1.0294601 0.9849958 1.0115571 0.9842363 1.0166036 1.0107782 1.0209395
0.9869187 0.99275523 1.0050356 1.0124638 0.99958354 0.9875685 1.0369964 1.0218912
1.1101943 1.0074838 1.0519824 1.0233537 1.0233896 1.0584309 1.14693 1.0051415
0.98883635 1.0051005 1.0131462 0.9933676 1.0302948 1.0172827 0.9924441 1.0001819
1.0105046 1.0458322 1.2742386 0.99577975 0.99116176 0.98745555 1.0078837 1.0356491
0.9725571 1.1113982 0.9972898 1.121901 0.9658742 0.9783169 1.0228236 1.0182726
1.0551491 0.99680555 0.9791371 0.9714579 1.0136938 1.155845 0.9623903 0.89204377
0.88867754 0.8872552 0.88057613 0.8548098 0.8627853 0.8678365 0.90361637 0.9779889
1.0364445 0.98826003 0.9948882 1.103981 1.0576785 1.0369399 1.1373984 0.98629254
1.0303583 0.9984585 1.0163938 1.0190544 0.9962468 1.0074048 0.9995867 1.0453516
1.0242972 0.9958296 1.0104039 0.9979899 0.9863292 1.0344912 1.0367773 1.0377557
0.996569 0.99819785 1.2804085 0.99163175 1.0109575 1.0426567 1.014676 0.9945081
1.0104972 1.0754851 0.9883729 1.0124046 0.99512565 1.0031457 1.1357491 1.0117029
1.0338254 1.1480067 0.99590003 1.0023533 1.048011 1.2466065 1.0112042 0.98982394
1.0288756 1.0862335 1.0646287 1.3233676 1.3887365 1.0808494 1.0359991 1.0383749
0.9796658 1.0912095 1.1061958 1.2712348 0.9997601 1.035491 1.0205531 1.0319184
0.99974644 0.9626156 1.0566521 0.9734055 0.99550813 0.9464418 1.0457709 1.0503471
0.9717753 0.984676 1.0692091 0.9806601 1.2238404 1.0476577 0.8169015 0.89712495
0.69916826 0.6650679 0.469008 0.65280133 0.89485896 0.94412535 0.5589514 0.58570397
0.64158237 0.5382413 0.51507515 0.99989533 0.99990195 1.0000881 1.0004421 1.0000094
0.9998393 0.9998567 1.0001018 1.0009799 0.99993694 1.0002514 0.99967015 0.9999702
1.000182 1.0002359 1.0000726 1.0003599 1.0001329 0.9998789 1.0020101 1.0008295
0.99984896 1.0004107 1.0001714 1.0001572 0.99974424 0.9997367 0.99967206 1.0001379

bn1d0.bias f4 [739]
00000000: 4f9d 9a3d 0818 5b3b a431 66bc 6d70 dd3d
00000010: babe bebb 2617 8f3d 05f2 fdbd 2f7f 7cbd
00000020: 0003 38bd 0c49 ab3a 17ab 8bbc 010a 5cbd
00000030: 817a bc3c 8d13 90bd 12ab 3fbd 38ab 31bd
00000040: d884 70bd c157 02bc 03e2 08bd 4dc9 323d
00000050: 632a bebc 60ff c73c 4d52 1fbd 1086 af3d
00000060: a928 f43c fccd a0bc bbab d33d 4bb7 f93c
00000070: 12ff 483d 53b8 8dba d8af 923d 5d88 6d3d
00000080: 6802 b4bc 25c5 1f3d 6f52 413c 9089 793d
00000090: a14e ac3d 9666 0dbd db4f 313d 2604 153c
000000a0: f7e7 5a3c 24a7 f639 35d3 083d 7d83 663c
000000b0: 7943 94bc 7403 b8bc 72da 883d cd4d cdbc
000000c0: f394 29bd b315 363b acfd dc3c f328 5fbd
000000d0: 3ac2 19bc 7170 803d 2a81 83bd d620 2a3c
000000e0: 9ce0 60bd 2cc1 73bc f4be ffbc e143 c8bd
000000f0: cc3d 08be 81b5 28bd 2ce4 48bd cf15 cabd
00000100: 984d f1bc 1aa3 5fbd 5fcd b33c 1666 f2bc
00000110: 8b1b 02bd a46d 153d c6cf 36bd 629c 973c
00000120: a22b 42bd 1d14 4ebc 4d3d 1e3d 5d72 3a3d
00000130: d442 1ebd 6454 fb3c ff32 64bc 0257 34bd
00000140: 235b 893d 47d3 e0bc 8bb6 163d f39a ebbb
00000150: e8fc 12bc d5e4 f5bb 4ee7 a83d d95d afbb
00000160: 1d59 1e3c 6f97 da3c 2dc3 9d3c c974 50bb
00000170: c4d3 1b3d 674d 95bb 7f21 37bd 67e2 a93d
00000180: 7437 29bd d328 803d 442a 963c 8998 003a
00000190: 7422 a2bc 5c65 893d 38ef 4dbd 497e 393c
000001a0: 1f88 7dbc 550b 80bc ce0b 4abd fb3c 283c
000001b0: 9e00 0a3c 7405 6ebb 6525 88bc 6037 1abd
000001c0: 59d5 d5bc 1151 78bd c1ee a8bc 564c 163d
000001d0: 1fac e0bc c147 f0bc bd5a 58bc 4391 61bc
000001e0: d03e d13c 98fc 3e3c ecef a93c efee b6bc
000001f0: ba73 3c3c 9f4d 2ebc 61d4 e1bc 0f53 90bc
00000200: 5ce3 b93b 66b2 2abc 5861 f8bc a943 093c
00000210: 4de5 85bc f12d 57bc 2b6a 1abd a967 9ebd
00000220: 8c8c 37bd 5fc5 073c cd06 9bbc d18e 0b3c
00000230: 23ee d3bc 3956 30bd d64d b5bb cb2e cb3b
00000240: 9818 e3bc 2ca4 e2bc 9c35 9fbc 298f 143d
00000250: 9363 2abd 95a7 0e3d 1c4f ba3c 7e37 053c
00000260: 1584 113c ca2c 33bd 5465 db3c b79d 833c
00000270: 82cd 07bd 67d0 de3a 3a20 053d 272b d43c
00000280: 02bc bf3b bdd4 0a3d 4f6e 5ebc 2db6 3e3d
00000290: 3086 3b3c b4c5 b83c e44b e13b 4bc1 fb3c
000002a0: 6b64 30bb e05c fcbc 030a 643c 7998 a43c
000002b0: 6006 273b 6cf3 623b 4b26 313d 6db3 55b9
000002c0: eb03 ec39 29af b7bd a73b f33c 6d6a 4f3c
000002d0: 32ca 08bd a978 69bc b34b 21bb 48d0 da3a
000002e0: 2b3e 2ebd ba33 8f3c 032b a339 d1b0 94bc
000002f0: be73 6d3d adac 23bd a254 0e3d 69ed dbbc
00000300: daf6 0cbd 9c41 1d3c 5d54 8b3c d68c 5bbd
00000310: 9b94 7ebd 7a44 10bd 1f4b ea3c c928 7b3a
00000320: 6749 2d3c ef9c 2dbd 34b5 9c3c 40c2 e53c
00000330: 4a24 5fbc 3f98 bf3c 8bf7 563b e7a8 403c
00000340: 8dc7 2dbd c725 5f3d acc5 aebd b417 04bd
00000350: 27ee 843b 8e63 d6bd 9fdd a9bc 457e 8e3c
00000360: ceeb 07be f43c 3bbb 146d bbbd c96d 1f3d
00000370: cb40 cbbd 537d 5cbe 09fb 08bd 55c9 073e
00000380: d78a 9dbd 88de eebd 6ee5 03bc 7a91 02bc
00000390: 275d 3ebc 6516 493c 6601 9b3c 9e5d 88bb
000003a0: e042 1dbd 71a9 233c 6dfa 66bc d306 023d
000003b0: 5152 1b3d e252 b9bc 3c93 a13b 9c57 54bc
000003c0: 36aa f63b db0e 8bbc c83e 783c db7c ea3c
000003d0: bb11 083c 6e33 073c 80ac 7cbc 3e19 37bc
000003e0: 897c eebc e8cd 37bc 6e81 0239 70eb 633c
000003f0: 68c7 57bc 82e5 523c 1b50 c7bb 5a14 d63c
0.075495355 0.0033431072 -0.014049921 0.10812459 -0.005821076 0.06986837 -0.12399677 -0.06164473
-0.044924736 0.0013068034 -0.017049355 -0.053720478 0.023007633 -0.07034979 -0.046794005 -0.043376178
-0.05872044 -0.0079554925 -0.033418667 0.043649007 -0.023213571 0.024413764 -0.038896848 0.08570492
0.029804545 -0.019629471 0.10335489 0.030482909 0.04907138 -0.0010812379 0.07162446 0.057991374
-0.021973804 0.03900637 0.011799439 0.060922205 0.08413435 -0.03452166 0.043289047 0.009095227
0.013360969 0.00047045306 0.033404548 0.014069435 -0.01809858 -0.022462584 0.0668229 -0.025061512
-0.041401815 0.002778393 0.026976429 -0.05448241 -0.009384686 0.062714465 -0.064211205 0.010383805
-0.054901704 -0.014877599 -0.031218983 -0.09778572 -0.13304824 -0.04118872 -0.049045727 -0.09867441
-0.029455945 -0.054598905 0.021948515 -0.029589694 -0.03176455 0.036481515 -0.044631742 0.018507186
-0.047404893 -0.012578038 0.03863268 0.04551922 -0.03863795 0.030679889 -0.013928174 -0.04402829
0.06706836 -0.027444495 0.03679518 -0.0071901022 -0.00897143 -0.0075040855 0.08247243 -0.0053517637
0.009664801 0.026683537 0.019258106 -0.003180789 0.038043752 -0.004556346 -0.04470968 0.08295136
-0.04131265 0.062577866 0.0183307 0.0004905542 -0.01979182 0.06708786 -0.050276965 0.011321613
-0.015474348 -0.015630404 -0.049327664 0.010268445 0.008422999 -0.0036319168 -0.016619394 -0.037650466
-0.026102709 -0.060624186 -0.02062166 0.036693893 -0.027425824 -0.02933109 -0.013205227 -0.013767543
0.025542647 0.011656903 0.020744286 -0.02233073 0.011502201 -0.0106386235 -0.02756709 -0.01761773
0.0056728553 -0.01041851 -0.030319855 0.008377948 -0.01634469 -0.013133512 -0.037698906 -0.07734615
-0.04481177 0.008286803 -0.018924141 0.008517937 -0.025870388 -0.04305098 -0.0055329604 0.0062006465
-0.027721688 -0.027666174 -0.019434743 0.03626934 -0.041598868 0.034827787 0.0227428 0.008130906
0.0088815885 -0.043743886 0.026781715 0.016066415 -0.033154972 0.0016999365 0.032501437 0.025899483
0.0058512697 0.03389429 -0.013576104 0.046560455 0.011445567 0.02255521 0.006875502 0.030731818
-0.0026915323 -0.030806005 0.013918403 0.020092236 0.0025485978 0.0034629954 0.04324941 -0.00020380104
0.00045016347 -0.08968956 0.02969153 0.012659651 -0.033395953 -0.014249959 -0.002461177 0.0016694153
-0.042539757 0.01748072 0.0003112183 -0.018150719 0.05797171 -0.0399596 0.03474868 -0.026846604
-0.034415103 0.009598162 0.017008001 -0.05360111 -0.06215344 -0.035221554 0.028600274 0.00095809676
0.0105765825 -0.04238599 0.019129373 0.028046727 -0.013619492 0.023388026 0.0032801356 0.011759019
-0.042426635 0.054479387 -0.08533797 -0.032249168 0.0040567103 -0.10468207 -0.02073556 0.017394194
-0.13273546 -0.0028570266 -0.091516644 0.03892306 -0.09924468 -0.21532182 -0.03344253 0.13260396
-0.07692497 -0.11663538 -0.008050306 -0.007969255 -0.011618889 0.012273406 0.018921565 -0.0041615507
-0.038393855 0.009989128 -0.014097792 0.03174479 0.0379203 -0.02262253 0.004930882 -0.012960341
0.007527615 -0.016974857 0.015151687 0.028623989 0.0083050085 0.008252008 -0.015421987 -0.011175452
-0.029112117 -0.0112185255 0.00012445982 0.013911113 -0.013170101 0.012872102 -0.0060825474 0.026132751

bn1d0.running_mean f4 [739]
00000000: 8f39 7abb 6b5f 21bb 90f3 e1ba 8865 b7bb
00000010: 3a8c b3bb 1d8c d7bb 57dc 8ebb e6d6 d3ba
00000020: 9864 c53a 933f 6f3a e021 b9b8 657a 06bb
00000030: c050 5bbb fad1 86bb f540 52bb 09cc 24bb
00000040: 040f cbba 35d6 67ba 8024 fe38 ee9d d2b8
00000050: 1f9c 7a3a ed9c 333a 5df1 833a d3ba ec3a
00000060: 7d13 f93a 507b 273b e032 063b 6849 0f3b
00000070: 3c83 113b 02ab 133b 6ab7 123b 4cc8 043b
00000080: 66cd 033b bc1a cc3a d4d0 f73a 9348 c43a
00000090: c8a4 7c3a 0cac 483a 6df2 013a 12ae f439
000000a0: 77fe 5139 50db 7eb9 fa8a 65b9 bb17 53b9
000000b0: a39e 2eba d35f 19ba 4ed2 87ba 77f8 a0ba
000000c0: 6fe7 76ba 6296 dbba 7c37 c3ba 55f2 bdba
000000d0: cb0b d7ba 0529 dcba 7203 22bb f3ae 1ebb
000000e0: dc19 69bb 4db4 94bb ad0a cbbb 494c fabb
000000f0: b153 14bc 2825 17bc d2de 0dbc 3fe0 22bc
00000100: 18f8 aebb fecd 7ebb fe3a 39bb 4e13 f4ba
00000110: b562 c7ba 4637 adba 4266 acba 3b02 8dba
00000120: 40a7 c6ba 39a4 83ba 982b 32ba 5c3a 07ba
00000130: 80d6 03ba dd57 46b9 3323 b839 c74c dc39
00000140: b539 203a 1e29 803a 7321 ab3a 4cbc 843a
00000150: 3614 7b3a 0fc5 703a 9cbc 633a c5c9 843a
00000160: f8b8 5d3a 5096 1e3a 2892 1d3a 8eb1 093a
00000170: 2482 d639 00dc ea39 54ec 9b36 81c3 fab8
00000180: 60c3 4838 eb6a 0eba e422 3bba a975 68ba
00000190: bd0e abba 12c4 12bb 5080 ecba 4106 14bb
000001a0: d463 2fbb 5b52 3cbb 96a8 5dbb d223 74bb
000001b0: 7a5a 87bb 0125 98bb b328 d6bb 5ae3 afbb
000001c0: 7349 b8bb 8372 b2bb 0dd4 b5bb 4f2d b2bb
000001d0: ca1f a6bb 2e89 9dbb f53d 91bb 96bc 89bb
000001e0: cc9b afbb ed23 85bb 99c0 97bb d22d a5bb
000001f0: 2ea6 c4bb 095f f7bb 59e9 15bc 4dcd 31bc
00000200: 67b2 4bbc d979 94bc d26a 64bc 02ee 5bbc
00000210: 0737 48bc dd54 2cbc 25ef 12bc a6cb f3bb
00000220: 7165 c2bb 7c5b 9abb d1c7 7dbb 7903 81bb
00000230: 83fa 1abb 8aec e8ba 4d2b c1ba cc5f 94ba
00000240: 6ca0 5fba 1031 0bba d7f1 bab9 28d6 9db9
00000250: a20a 05b9 f7be 4938 aaf2 5739 edf8 b439
00000260: 977b 4c3a 31dd 643a 4d1d a33a 1e8f ac3a
00000270: 84d3 c83a 3413 d53a 1442 1c3b fa51 fc3a
00000280: 352a 043b 6a1a 0a3b 498f 093b 8460 0d3b
00000290: 8b2d 0d3b bd67 153b 7ae7 123b a58d 453b
000002a0: 485a 123b 7dfc 123b 04bc 143b 9e20 0b3b
000002b0: 69f1 0c3b 14ed 083b c769 0a3b 8566 013b
000002c0: 9836 083b 6a3d 233b 20c1 043b 1445 f43a
000002d0: 1d7a f03a 6149 fb3a 24a6 e83a 2db5 e23a
000002e0: 90b8 ed3a 6db6 e73a fbb0 103b d4bb da3a
000002f0: 513b d53a ced6 d73a bc96 d33a 2099 d03a
00000300: 3ae7 d43a 3011 d53a 20b4 c53a 42fc 053b
00000310: b020 a43a 47b7 be3a f614 ba3a d48d ab3a
00000320: 193b c03a eae5 9f3a 1a90 9f3a b3a4 a73a
00000330: 9acc 823a 5dfe c33a 2eb7 603a 9057 853a
00000340: 6dd7 8c3a 17c3 9c3a a66f be3a 4c1c 183b
00000350: dd7b 553b 68b4 a83b 8459 373c 5a08 4e3c
00000360: f03b 8e3c 3c5d ac3c 3a50 b93c 545b bc3c
00000370: 50f1 8f3c f015 2f3c 1357 4c3b f83c d3b9
00000380: fdb6 72bb a510 b5bb 1464 d3bb 1528 fd3a
00000390: 3a8d fd3a a433 003b 068f fe3a 6945 fa3a
000003a0: ebdf fd3a 052b 003b 33cc fe3a 18fe ff3a
000003b0: 7798 ff3a 91e1 003b 4258 fe3a 0147 fa3a
000003c0: 6018 fe3a ae5a fb3a b8ba 003b 1a75 fd3a
000003d0: 11d3 043b 4f4c fe3a b3b1 023b 4105 083b
000003e0: c4fa 043b df00 003b 7aa2 fd3a bb7c fc3a
000003f0: 752b 003b f6f3 ff3a 7f0a fe3a 9d36 013b
-0.003818128 -0.0024623524 -0.0017238725 -0.0055968203 -0.005479363 -0.006577982 -0.0043597626 -0.0016162067
0.0015059887 0.00091266 -8.827797e-05 -0.002051973 -0.0033464879 -0.0041143866 -0.0032082174 -0.0025146028
-0.0015492146 -0.000884387 0.000121184625 -0.00010042997 0.0009560007 0.0006851692 0.0010066439 0.0018061049
0.0019003 0.0025555678 0.0020477101 0.0021863822 0.0022203466 0.0022532349 0.0022387155 0.0020260988
0.002011144 0.0015571932 0.001890684 0.0014975242 0.00096375914 0.00076550315 0.0004957084 0.00046669
0.00020026589 -0.00024305028 -0.00021890915 -0.00020131368 -0.0006661212 -0.0005850766 -0.0010362358 -0.001228108
-0.00094186416 -0.0016753192 -0.0014893855 -0.0014491776 -0.0016406713 -0.0016796893 -0.0024721292 -0.0024213165
-0.0035568392 -0.004538095 -0.006196341 -0.0076384884 -0.009053157 -0.009225167 -0.0086590815 -0.00994116
-0.0053396337 -0.0038880105 -0.0028263922 -0.0018621476 -0.0015211912 -0.0013215325 -0.0013153034 -0.0010758111
-0.0015156046 -0.0010043449 -0.0006796657 -0.00051585375 -0.00050292164 -0.00018915483 0.0003512144 0.00042018874
0.00061121146 0.0009777879 0.0013056233 0.0010126918 0.0009577902 0.00091846375 0.0008687468 0.0010130933
0.00084580434 0.000604962 0.00060108537 0.0005252593 0.00040914223 0.0004479587 4.646872e-06 -0.000119573444
4.7865673e-05 -0.0005432802 -0.0007138683 -0.00088676304 -0.0013050657 -0.00223947 -0.0018043611 -0.0022586735
-0.0026762383 -0.002873561 -0.003382241 -0.0037252796 -0.0041306587 -0.004643083 -0.0065356134 -0.0053676786
-0.00562399 -0.0054457798 -0.00554896 -0.00543753 -0.0050697075 -0.004807613 -0.0044324347 -0.0042033894
-0.0053591486 -0.0040631206 -0.0046311137 -0.0050408626 -0.0060012555 -0.007549171 -0.009149873 -0.01085217
-0.012432671 -0.018124508 -0.013941484 -0.013423445 -0.012220151 -0.01051828 -0.008968149 -0.0074400483
-0.005932503 -0.004710613 -0.0038723836 -0.0039371816 -0.0023647852 -0.001777069 -0.0014737636 -0.0011320054
-0.00085306796 -0.000530974 -0.0003565687 -0.00030104932 -0.0001268783 4.8099984e-05 0.00020594397 0.0003451774
0.0007800399 0.000873047 0.0012444645 0.0013165211 0.0015321826 0.0016256333 0.0023843097 0.0019250505
0.002016676 0.0021072873 0.0020989946 0.002157242 0.0021542038 0.0022797429 0.0022415803 0.0030144241
0.0022331644 0.0022428327 0.0022695074 0.0021229158 0.0021506196 0.0020893263 0.0021120177 0.0019744944
0.0020784494 0.0024908432 0.0020256713 0.001863631 0.001834694 0.0019171649 0.0017749709 0.0017296426
0.0018136669 0.0017678268 0.0022078145 0.0016688057 0.0016268288 0.0016467215 0.0016142945 0.0015914775
0.0016243227 0.0016255733 0.0015083589 0.0020444547 0.0012521949 0.001455047 0.0014196921 0.0013088533
0.001466605 0.0012199257 0.0012173683 0.0012790173 0.0009979189 0.0014953126 0.0008572218 0.001017319
0.0010745354 0.0011959997 0.0014529123 0.0023210226 0.003257505 0.005148459 0.011190776 0.012575233
0.017362565 0.021040551 0.022621263 0.022992767 0.017571121 0.010686383 0.003117983 -0.0004029048
-0.003703534 -0.005525666 -0.006451139 0.0019314314 0.0019344457 0.001956203 0.0019421286 0.0019094172
0.0019369101 0.0019556892 0.0019439518 0.0019530682 0.0019500394 0.0019665698 0.0019404965 0.0019094647
0.0019385926 0.0019176805 0.0019642543 0.0019337267 0.0020267407 0.0019401404 0.0019942343 0.0020755085
0.002029107 0.001953177 0.001935079 0.0019263247 0.0019557152 0.0019527662 0.001938179 0.001971639

bn1d0.running_var f4 [739]
00000000: fe89 8137 2f21 1e37 c8ba 0137 30ee d236
00000010: 8281 ef36 5150 9036 4c04 7836 20b1 0a36
00000020: 0605 0f36 f1a7 fa35 a8e1 0b36 1b8c 1436
00000030: e1e3 0036 a60e e535 f89b b835 ca64 9335
00000040: c86d 9c35 abaa 8e35 dff9 4935 0c59 8f35
00000050: 1905 3f35 780b 1435 9620 6335 e977 3635
00000060: dc1d 3035 47ec 1635 a7b8 3835 9f64 1635
00000070: b589 2b35 1731 0235 d433 db34 c0d0 0935
00000080: 712b cb34 4f4b de34 6393 ff34 7fb8 1235
00000090: 41cb fb34 752e 0335 1c0e e334 1429 0735
000000a0: aecc c534 97bf e334 cfa4 c934 70a4 e634
000000b0: bdce fd34 16be fe34 0f48 0735 95f2 0535
000000c0: 1eed bf34 259f a434 a360 db34 f500 0b35
000000d0: dda0 e634 9375 d434 2129 0535 4661 2e35
000000e0: 1e56 0735 c0ad 3e35 a4da 9235 79c6 ed35
000000f0: fe3e 0136 1f73 f435 6272 f135 a4ab 0b36
00000100: 8046 3c35 80d5 0c35 961e f134 22ad db34
00000110: e85c bb34 3cbe 9434 6970 b434 7526 c434
00000120: 770c b034 9bb1 ab34 568e aa34 236c c234
00000130: 3e99 8334 df29 5234 530b 9634 7015 7234
00000140: cb1f ad34 0d2e 7a34 bf08 a734 3a98 b034
00000150: eb7b 8134 de1e 6034 cd13 7834 3e30 4b34
00000160: 110f 3834 a91d 4e34 f388 4d34 c54c 4c34
00000170: ad7f 1f34 c80e 3334 84df 4734 d949 4634
00000180: b240 4534 d733 1734 62c6 2934 c78d 2a34
00000190: 6cdf 1b34 b3d7 6234 581f 2e34 5a43 3f34
000001a0: 8090 9534 e934 8534 b9e4 9634 64d1 d434
000001b0: 2963 bf34 0e2a fc34 e639 5935 51ba f134
000001c0: a133 2335 9bfe 2a35 557b 0635 848c d434
000001d0: 76f8 0b35 5382 c434 cf38 d334 34fc 9e34
000001e0: da85 0a35 5c50 9734 0e5d a134 da33 c034
000001f0: 58c7 0435 2f9d 5935 fc81 6e35 27be ac35
00000200: c564 e735 c77c 6636 56b1 0d36 a4b3 0936
00000210: 33c3 e735 aba7 bc35 3667 a335 5b1a 6735
00000220: f69b 1a35 67ed 0635 d4df 8f34 a955 dc34
00000230: 1448 1a34 79d0 9234 0f66 0534 e141 3634
00000240: 4a18 2234 6c48 3034 83b6 2d34 2a50 dd33
00000250: 4cf7 0034 4dde d833 2854 da33 741b fd33
00000260: 84d7 3134 4e55 0234 c8b5 3834 1b1e 3934
00000270: 5d1f 1634 49fb 3934 5a89 8c34 9b05 3b34
00000280: e03e 5134 4f6a 4234 ecb6 4734 51fa 6334
00000290: 27c7 6834 740d 4434 361f 7334 620d 9534
000002a0: 91da 4c34 77af 6a34 fd0b 7d34 7523 4d34
000002b0: 6830 8934 fecf 8d34 b450 7734 7ed7 8234
000002c0: da3f 7934 3ef6 8934 4112 7b34 16f4 8434
000002d0: f1d6 8434 24ff ac34 3f8b 6d34 8ecf 8334
000002e0: aa6c 8734 a272 ac34 b027 9834 bf26 8734
000002f0: 4e5b b534 1bdf b834 0af0 c334 c315 eb34
00000300: 63ba d134 3464 d834 3a3f d834 52f3 0535
00000310: bba2 f334 0352 f534 313c 0d35 a5a7 db34
00000320: 6231 2a35 ad5f 2535 c738 0635 5fec 0635
00000330: 91fd 2535 7921 3435 8474 6235 5a49 a335
00000340: 2504 8335 3f7a 7035 7ceb 8b35 854d 8235
00000350: adc5 9435 29eb 9a35 b815 4b36 0698 8a36
00000360: d57d cc36 05ba 2737 e958 3d37 cf0e 4d37
00000370: ba94 4537 a441 8037 97cf 8837 21b9 9937
00000380: 11a1 b437 e272 2038 aec2 7038 f8c8 112f
00000390: 6cd4 8d2e 69b1 802f 01b7 3c2f 9b66 972c
000003a0: e00e 852e 36c4 732f 0349 272f 5bc9 972f
000003b0: 8a88 bf2f db7d f62e d1a9 1b2f 9842 482d
000003c0: 5331 c42e f599 1a2e 30ee 152f 0663 172f
000003d0: 9e6b db2f f001 082f f77b c82f ac6a ff2f
000003e0: 4e88 0530 cfdf a32f 734e 9a2e e9b0 ef2e
000003f0: 8914 1a2f 076f 632e 048a e32e 2931 6e2f
1.5442256e-05 9.42526e-06 7.732488e-06 6.2862164e-06 7.1378317e-06 4.3008845e-06 3.695738e-06 2.0666703e-06
2.1311585e-06 1.8675329e-06 2.0843963e-06 2.213527e-06 1.920613e-06 1.7066093e-06 1.3754461e-06 1.0981687e-06
1.1654856e-06 1.0629495e-06 7.5241945e-07 1.0680246e-06 7.116046e-07 5.5150986e-07 8.461151e-07 6.7974776e-07
6.560856e-07 5.6223183e-07 6.8814046e-07 5.602578e-07 6.3902854e-07 4.850021e-07 4.082964e-07 5.134025e-07
3.7843304e-07 4.1405517e-07 4.760469e-07 5.4657716e-07 4.690028e-07 4.8868907e-07 4.229231e-07 5.0351196e-07
3.6843034e-07 4.2421445e-07 3.7559082e-07 4.2960482e-07 4.7275344e-07 4.7449493e-07 5.039628e-07 4.9899364e-07
3.5749048e-07 3.0663173e-07 4.086224e-07 5.178293e-07 4.2957882e-07 3.9573624e-07 4.960621e-07 6.49616e-07
5.0416736e-07 7.1033355e-07 1.094148e-06 1.7715639e-06 1.9259164e-06 1.8212921e-06 1.7989189e-06 2.0812522e-06
7.013805e-07 5.246475e-07 4.4912002e-07 4.09179e-07 3.4899062e-07 2.7705562e-07 3.3609402e-07 3.6535826e-07
3.2791624e-07 3.1980457e-07 3.176853e-07 3.6213996e-07 2.451215e-07 1.9573007e-07 2.7947917e-07 2.2545805e-07
3.2246894e-07 2.3299818e-07 3.1112538e-07 3.2893314e-07 2.4118285e-07 2.0872855e-07 2.3104003e-07 1.8923399e-07
1.7141816e-07 1.9196035e-07 1.9141935e-07 1.9026909e-07 1.4854477e-07 1.6676051e-07 1.8614634e-07 1.8467053e-07
1.8370591e-07 1.408183e-07 1.5811523e-07 1.5884062e-07 1.451678e-07 2.1126361e-07 1.6216416e-07 1.7812764e-07
2.785855e-07 2.4811678e-07 2.8106095e-07 3.964043e-07 3.564867e-07 4.6969257e-07 8.092305e-07 4.502531e-07
6.079736e-07 6.3700435e-07 5.009836e-07 3.9590316e-07 5.2143093e-07 3.6602668e-07 3.9343146e-07 2.9613295e-07
5.1603786e-07 2.818441e-07 3.0056293e-07 3.5800514e-07 4.9463915e-07 8.106753e-07 8.885106e-07 1.287034e-06
1.7240169e-06 3.43453e-06 2.111386e-06 2.0519155e-06 1.7267652e-06 1.4055889e-06 1.2174485e-06 8.609256e-07
5.7596424e-07 5.0264356e-07 2.6798682e-07 4.104052e-07 1.436859e-07 2.7346303e-07 1.2423719e-07 1.6974037e-07
1.5096262e-07 1.6417624e-07 1.6178278e-07 1.0305696e-07 1.2010895e-07 1.009872e-07 1.0166724e-07 1.1786224e-07
1.6562814e-07 1.2138227e-07 1.7202467e-07 1.724042e-07 1.3981249e-07 1.7320885e-07 2.6176969e-07 1.7417771e-07
1.9487516e-07 1.8106333e-07 1.8599866e-07 2.1232087e-07 2.1679135e-07 1.8258817e-07 2.2642493e-07 2.776315e-07
1.9078495e-07 2.1856782e-07 2.3566822e-07 1.9105012e-07 2.555346e-07 2.641463e-07 2.3033027e-07 2.4371178e-07
2.3213161e-07 2.5697403e-07 2.3382837e-07 2.4764512e-07 2.4743306e-07 3.2223136e-07 2.2123002e-07 2.4551667e-07
2.5224773e-07 3.2120903e-07 2.8341083e-07 2.51739e-07 3.378031e-07 3.4435e-07 3.6496232e-07 4.3787995e-07
3.9064898e-07 4.0306043e-07 4.027914e-07 4.990044e-07 4.538068e-07 4.5694478e-07 5.2614183e-07 4.0913906e-07
6.3401797e-07 6.1606517e-07 5.000151e-07 5.0262855e-07 6.183628e-07 6.7103934e-07 8.4361113e-07 1.2165794e-06
9.761467e-07 8.958486e-07 1.0424842e-06 9.708316e-07 1.108439e-06 1.1542335e-06 3.0262e-06 4.1304183e-06
6.0943225e-06 9.997287e-06 1.1285979e-05 1.22224e-05 1.1776743e-05 1.5289355e-05 1.630913e-05 1.8325229e-05
2.1532675e-05 3.8253966e-05 5.740177e-05 1.3259072e-10 6.4496714e-11 2.3409122e-10 1.7163516e-10 4.3030696e-12
6.050782e-11 2.217043e-10 1.52145e-10 2.7609812e-10 3.4839714e-10 1.1209141e-10 1.4157499e-10 1.13834706e-11
8.92181e-11 3.5152287e-11 1.3636092e-10 1.376855e-10 3.9912335e-10 1.2369816e-10 3.646787e-10 4.6460025e-10
4.857882e-10 2.9808553e-10 7.0170446e-11 1.0899887e-10 1.4013514e-10 5.1712436e-11 1.03472814e-10 2.1663439e-10

bn1d1.weight f4 [512]
00000000: 0000 803f 1e51 813f 0000 803f 0672 803f
00000010: 0000 803f 99e9 7f3f 0000 803f a818 803f
00000020: 0000 803f 0743 803f 0000 803f fa59 803f
00000030: 0000 803f 8464 803f 0000 803f d216 803f
00000040: 0000 803f b501 803f 0000 803f 59ee 7f3f
00000050: 0000 803f 046f 803f 0000 803f 2f37 803f
00000060: 0000 803f 9d98 7e3f 0000 803f 57f5 7e3f
00000070: 0000 803f ebd8 7f3f 0000 803f d9ed 7f3f
00000080: 0000 803f b257 7e3f 0000 803f 98f1 7e3f
00000090: 0000 803f 9a01 803f 0000 803f 6eff 7f3f
000000a0: 0000 803f bbc6 7f3f 0000 803f cd01 803f
000000b0: 0000 803f 58ed 7f3f 0000 803f 19e9 7f3f
000000c0: 0000 803f b1f0 7f3f 0000 803f 9301 803f
000000d0: 0000 803f 9428 833f 0000 803f c398 803f
000000e0: 0000 803f 8103 803f 0000 803f ccf7 7f3f
000000f0: 0000 803f 58b4 823f 0000 803f 02b6 813f
00000100: 0000 803f c1f2 8a3f 0000 803f 4c1e 893f
00000110: 0000 803f 5bb7 803f 0000 803f 0463 803f
00000120: 0000 803f 76cc 7e3f 0000 803f 3aa2 7c3f
00000130: 0000 803f 5907 803f 0000 803f 0cf7 7f3f
00000140: 0000 803f 668b 7f3f 0000 803f d125 803f
00000150: 0000 803f c514 793f 0000 803f 42c1 783f
00000160: 0000 803f 45db 8a3f 0000 803f cfd7 873f
00000170: 0000 803f e7d2 7f3f 0000 803f 5116 803f
00000180: 0000 803f ab63 813f 0000 803f 1646 803f
00000190: 0000 803f 97e9 7f3f 0000 803f 99de 7f3f
000001a0: 0000 803f 0c14 803f 0000 803f 0203 803f
000001b0: 0000 803f d312 803f 0000 803f 1afd 7f3f
000001c0: 0000 803f 8bf8 7f3f 0000 803f aa07 803f
000001d0: 0000 803f 92c2 813f 0000 803f 8824 813f
000001e0: 0000 803f dfba 803f 0000 803f 2a64 7f3f
000001f0: 0000 803f b4f9 7f3f 0000 803f f40a 803f
00000200: 0000 803f ce90 873f 0000 803f 0fd9 873f
00000210: 0000 803f 0fe9 7f3f 0000 803f 4deb 7f3f
00000220: 0000 803f ab29 803f 0000 803f 190f 803f
00000230: 0000 803f 67aa 7c3f 0000 803f 3469 7a3f
00000240: 0000 803f 3859 843f 0000 803f 1929 823f
00000250: 0000 803f 1df6 7f3f 0000 803f 67e3 7f3f
00000260: 0000 803f 7a00 803f 0000 803f 2b01 803f
00000270: 0000 803f d1ad 803f 0000 803f 1a74 803f
00000280: 0000 803f d09a 7f3f 0000 803f d72a 803f
00000290: 0000 803f 6f05 803f 0000 803f 46e8 7f3f
000002a0: 0000 803f b72a 803f 0000 803f bb22 803f
000002b0: 0000 803f e1f5 903f 0000 803f efc4 913f
000002c0: 0000 803f 8b15 803f 0000 803f dd12 803f
000002d0: 0000 803f 67dd 7f3f 0000 803f e005 803f
000002e0: 0000 803f a012 823f 0000 803f 64fa 7f3f
000002f0: 0000 803f 72aa 7f3f 0000 803f 1421 803f
00000300: 0000 803f 97fb 7f3f 0000 803f 2d00 803f
00000310: 0000 803f d80c 843f 0000 803f d80a 823f
00000320: 0000 803f b8e3 7f3f 0000 803f 6fe0 7f3f
00000330: 0000 803f 98f7 7f3f 0000 803f 7204 803f
00000340: 0000 803f b60c 773f 0000 803f dbbc 763f
00000350: 0000 803f e573 803f 0000 803f 3412 803f
00000360: 0000 803f 170d 803f 0000 803f 831f 803f
00000370: 0000 803f 3638 813f 0000 803f bbf6 823f
00000380: 0000 803f 8a5e 7e3f 0000 803f b462 803f
00000390: 0000 803f f6fc 7f3f 0000 803f ede7 7f3f
000003a0: 0000 803f 5eb7 843f 0000 803f 06df 853f
000003b0: 0000 803f 30cc 813f 0000 803f 93c2 813f
000003c0: 0000 803f 04e8 783f 0000 803f 1421 7c3f
000003d0: 0000 803f 2014 803f 0000 803f b5c9 7f3f
000003e0: 0000 803f c69c 7d3f 0000 803f f37c 7e3f
000003f0: 0000 803f bf7d 813f 0000 803f 6b75 813f
1.0 1.010288 1.0 1.0034797 1.0 0.99965817 1.0 1.0007524
1.0 1.0020455 1.0 1.0027459 1.0 1.0030675 1.0 1.0006964
1.0 1.0000521 1.0 0.99973065 1.0 1.0033879 1.0 1.0016841
1.0 0.9945162 1.0 0.9959311 1.0 0.99940366 1.0 0.999723
1.0 0.9935256 1.0 0.9958739 1.0 1.0000489 1.0 0.9999913
1.0 0.99912614 1.0 1.000055 1.0 0.9997153 1.0 0.99965054
1.0 0.9997664 1.0 1.000048 1.0 1.0246758 1.0 1.0046619
1.0 1.0001069 1.0 0.99987483 1.0 1.0211287 1.0 1.0133669
1.0 1.0855333 1.0 1.0712371 1.0 1.0055956 1.0 1.0030217
1.0 0.9953073 1.0 0.9868504 1.0 1.0002242 1.0 0.9998634
1.0 0.9982208 1.0 1.0011541 1.0 0.97297317 1.0 0.9716989
1.0 1.0848166 1.0 1.0612735 1.0 0.99931186 1.0 1.000681
1.0 1.0108541 1.0 1.0021389 1.0 0.99965805 1.0 0.9994903
1.0 1.0006118 1.0 1.0000918 1.0 1.0005745 1.0 0.9999558
1.0 0.9998862 1.0 1.0002339 1.0 1.0137503 1.0 1.0089273
1.0 1.0057029 1.0 0.99762213 1.0 0.9999039 1.0 1.0003343
1.0 1.0591066 1.0 1.0613116 1.0 0.99964994 1.0 0.99968415
1.0 1.0012716 1.0 1.0004607 1.0 0.98697513 1.0 0.9781678
1.0 1.0339727 1.0 1.0168792 1.0 0.99984914 1.0 0.99956363
1.0 1.0000145 1.0 1.0000356 1.0 1.0053045 1.0 1.0035431
1.0 0.998456 1.0 1.0013074 1.0 1.0001658 1.0 0.99963796
1.0 1.0013036 1.0 1.0010599 1.0 1.1325036 1.0 1.1388224
1.0 1.0006574 1.0 1.0005757 1.0 0.9994721 1.0 1.0001793
1.0 1.0161934 1.0 0.9999144 1.0 0.99869454 1.0 1.0010095
1.0 0.9999327 1.0 1.0000054 1.0 1.031642 1.0 1.0159559
1.0 0.99956846 1.0 0.99951833 1.0 0.99987173 1.0 1.0001357
1.0 0.9650377 1.0 0.9638192 1.0 1.0035368 1.0 1.0005555
1.0 1.0003995 1.0 1.0009617 1.0 1.0095279 1.0 1.0231546
1.0 0.99363005 1.0 1.0030122 1.0 0.9999536 1.0 0.99963266
1.0 1.0368459 1.0 1.0458686 1.0 1.0140438 1.0 1.0137504
1.0 0.9722903 1.0 0.98487973 1.0 1.0006142 1.0 0.99917156
1.0 0.9906734 1.0 0.9940941 1.0 1.01165 1.0 1.0113958

bn1d1.bias f4 [512]
00000000: ac4d d73b a190 373c e9b7 3bbb 450a 283c
00000010: 2183 cd3b 9960 693b 928c 9a3b fb95 8f3c
00000020: 6241 41bc be6d e33b 949e 693a 6034 483c
00000030: 7b3a cf3b 6cf1 b7bc 031d 1e3c d71b 46bc
00000040: 99db fdba beb5 d3bb 98ec e53b 7b45 6d3b
00000050: 4b08 4738 6456 49bd 05cf 00bb 90d5 12bd
00000060: e2fe 993c 3503 dbbc d0fa 04bd dffb 593c
00000070: bb60 23bb 3bba 813c ae34 c0bb ccc8 4a3c
00000080: 156f 44bc e61a 133d e726 8d3b b680 293d
00000090: 6d18 0c3a 591b 1fbb 5d5a 2ebc e7b3 a83b
000000a0: b713 943a 4493 2dbc d83e a33c 0a12 16bc
000000b0: c06c b0ba 3098 ebba 41b0 893a bdb9 1b3c
000000c0: ec84 2cbb 22e0 d3bb ec27 893c 5561 97bb
000000d0: 1c66 493c 774d 593c 98ac d8bb 574d d63b
000000e0: 2752 fd3c 474d a93b 186a d83b 25ea 06bc
000000f0: fb1c 21bc 68cb 57bd 506c 9639 28db 99bd
00000100: afb7 433c 6b05 9e3c 52dc 4e3c c36c 353c
00000110: 278c b0ba 7a0c 853c 6599 013a f840 c83b
00000120: e9f8 ae3c 5388 02bd 7d72 82bc 9534 30bb
00000130: 86b1 153a 78d7 27bb 0610 a7ba 5c22 58bb
00000140: 84e5 20bb 33c2 cabc 60eb b0bb f70d 9c3c
00000150: 9843 2d3b 3a7c 84bd c71c 183b d4cd 36bd
00000160: 552f 543a 9a04 60bc 0ceb 8a3b 6289 fbbb
00000170: d879 c33b 9672 49bc 17f3 81bc 9b14 783c
00000180: c27c 16bb d53b 74bc 9554 2dbc 8d3b 06bb
00000190: a8e4 c73b af7e 82bc 9f91 a8bb 76bd 0dbc
000001a0: ac7c dd3b 1228 b9bb 1c68 e139 4bcf 8d3b
000001b0: a74e 45bc 230d d1bb f930 743c f000 463c
000001c0: d698 16bc 6ff5 293b 9265 7bbc 0e4f 2d3b
000001d0: fcd9 7e3c 77b6 24bd d432 953c 30f2 e6bc
000001e0: cfa7 3dbc d1f8 17bd 6466 213b a3a0 c5bc
000001f0: e60c f13c 4048 723b 3f5f 823c e787 04bc
00000200: 567b 633c 713b 39bd 9fe9 023b af8a 17bd
00000210: c41a fcba 1287 15bc b53f 8d3c 5e72 a9bb
00000220: a38b 853c 835f 0ebc 4eef ca3b b50e 49bc
00000230: 311d 353c f7ac 5a3d 8245 6a3b 956b 6a3d
00000240: 7fc3 823c 70a9 86bd 9dbe 95ba 95a8 93bd
00000250: a77e ddbb 45fd 64bc c3bf 543b c9de 41bb
00000260: cdd9 66bc 1c00 373c 9df6 81bc 3f39 47bc
00000270: 8fce 2fba ab02 783c 7feb b63c 2b03 633b
00000280: ff79 5e3c a1aa cbbc eaf0 46bc d88e 2bbc
00000290: 7eed 443a 836e cb3b 0245 74bc cb3c 673c
000002a0: 1dd1 da39 3a32 973b 1976 f2bb 7315 94bc
000002b0: 2f05 84bc bbf7 80bd 63e5 debb 0320 20bd
000002c0: 29d7 62bc 1329 a1bb 837f 9cbc 0052 b0bc
000002d0: bbf8 8bbb 4883 14bc ffb1 4a3c 53b7 3a3b
000002e0: 47f3 50ba a7d3 86bd c8c4 23bb faed 1bbd
000002f0: 044b 3d3b 8e3d eebb 45a5 923b 2816 8cbc
00000300: 4c30 41bc a21b e13a fdd2 5a3a d0d0 d33b
00000310: c8cb 03bd 24e4 7c3d db99 243c 920a 163d
00000320: 1921 633b 1502 d03b a3c5 54bb 31ae 29ba
00000330: 1209 5f3c fd14 a1bb 97d4 18bc a24e 93bb
00000340: ea96 9b3b 0e9d 4bbd 98eb 8d3c 5b24 35bd
00000350: f9e3 98ba c58a 67bc 7a6a 003c d4ac 1bbc
00000360: efc6 b8bb 9593 2bbc a71b 84ba 2718 29bb
00000370: 5c10 403c b105 01bd 2b1a 6b3c 5fff 04bd
00000380: bfc6 03bb ee8a 21bd 5bb9 ddbb 8076 d1bc
00000390: 4ca7 f3bb 0573 0bbc b1c0 a53c 6b4f 41bc
000003a0: 67da b9ba 12e9 073d 2517 803b cc08 213d
000003b0: 6bec 333b 7c35 a9bd 6bff 153a f28e 67bd
000003c0: 1fef 563c b06e c7bd 9f39 ee3b 4fa2 bcbd
000003d0: fd21 8c3c 45d4 fa3b db60 14bc 12ad 8bba
000003e0: 8dbf 2a39 0224 75bd f6ab 42bc 910e 8abd
000003f0: 0d52 313b 432a 2bbb f080 563c 266c 80bc
0.0065705385 0.011203916 -0.0028643555 0.010256355 0.0062717353 0.0035610555 0.0047164643 0.017527571
-0.011795374 0.0069405725 0.00089118746 0.012219518 0.00632411 -0.022453986 0.009650472 -0.0120915985
-0.0019367813 -0.0064608743 0.0070167296 0.0036204744 4.745302e-05 -0.049154654 -0.0019654643 -0.0358482
0.018798295 -0.026734928 -0.032465756 0.01330468 -0.0024929482 0.015835872 -0.005865655 0.012376975
-0.011989375 0.035914324 0.004307616 0.041382514 0.0005344216 -0.0024277775 -0.0106416615 0.005148399
0.0011297379 -0.010594193 0.019927427 -0.009159574 -0.0013460144 -0.0017974433 0.0010504798 0.009504733
-0.0026324345 -0.0064659277 0.016742669 -0.004619757 0.012292411 0.013263098 -0.0066123717 0.0065399813
0.030922962 0.005166683 0.0066044442 -0.008234535 -0.00983357 -0.052684218 0.0002869093 -0.07512504
0.011945649 0.019289693 0.012625771 0.011073294 -0.0013469503 0.0162413 0.0004943817 0.0061112605
0.021358924 -0.03186829 -0.015923733 -0.002688681 0.0005710352 -0.0025610607 -0.0012745864 -0.0032979464
-0.0024550864 -0.024750805 -0.0053991526 0.019049628 0.0026437994 -0.06469007 0.0023210512 -0.044629887
0.0008094211 -0.013672972 0.0042394456 -0.0076762894 0.0059654526 -0.012295386 -0.015862985 0.0151416315
-0.0022962545 -0.014906843 -0.010579248 -0.0020482272 0.006100256 -0.015929548 -0.0051443125 -0.008651128
0.006759247 -0.0056505287 0.00042992912 0.0043276898 -0.012042678 -0.00637974 0.014904254 0.012085184
-0.009191712 0.0025933643 -0.0153440405 0.0026444825 0.015554901 -0.040213075 0.018212713 -0.028191656
-0.011575653 -0.037102524 0.002462768 -0.02412445 0.029425096 0.0036969334 0.015914558 -0.008089042
0.013884386 -0.045222703 0.0019975675 -0.036997493 -0.0019234051 -0.009126442 0.017242292 -0.0051711043
0.016301936 -0.008689764 0.006193078 -0.012271573 0.011054323 0.05338761 0.0035746996 0.057231504
0.01596236 -0.065752864 -0.0011424605 -0.07209889 -0.006759483 -0.0139764 0.0032462932 -0.0029582253
-0.014090014 0.01116946 -0.015864665 -0.012159645 -0.00067065 0.015137355 0.02232909 0.003463934
0.013578891 -0.024861636 -0.012142399 -0.010471068 0.0007512196 0.0062082424 -0.014909031 0.014113615
0.00041736002 0.004614142 -0.0073993322 -0.018076634 -0.016115753 -0.06297251 -0.0068022474 -0.03909303
-0.0138452435 -0.0049182265 -0.019103771 -0.021523476 -0.0042715943 -0.009064503 0.012371539 0.0028490617
-0.00079708215 -0.06583338 -0.0024989117 -0.03806875 0.0028883824 -0.0072705215 0.004475268 -0.017100409
-0.0117913 0.0017174373 0.000834748 0.0064641014 -0.032176763 0.06174101 0.010046448 0.036631174
0.003465718 0.0063479044 -0.0032466433 -0.0006472795 0.013613002 -0.004915832 -0.009328029 -0.0044954577
0.004748215 -0.049710326 0.017324254 -0.044224124 -0.0011664621 -0.014132206 0.007837886 -0.009501655
-0.005638949 -0.010472198 -0.0010079042 -0.002580175 0.01172265 -0.03149957 0.014349501 -0.032470103
-0.0020107476 -0.039439134 -0.006766481 -0.0255692 -0.007435715 -0.0085113095 0.020233484 -0.01179872
-0.0014179469 0.033181258 0.003909009 0.03931503 0.0027454149 -0.082621545 0.0005721959 -0.056532808
0.013118534 -0.09737909 0.0072700526 -0.092106454 0.01710605 0.007654699 -0.009056295 -0.0010656437
0.00016283822 -0.059848793 -0.011881819 -0.067410596 0.0027056963 -0.002611772 0.0130922645 -0.01567657

bn1d1.running_mean f4 [512]
00000000: 0000 0000 40a5 b63e 0000 0000 cedc c43e
00000010: 0000 0000 2082 773d 0000 0000 cf07 883d
00000020: 0000 0000 5c52 ba3d 0000 0000 343a cc3d
00000030: 0400 0000 317e 4d3d 0400 0000 f301 603d
00000040: 0400 0000 85fd ab3c 0400 0000 e046 bd3c
00000050: 0000 0000 48a9 903e 0000 0000 225e 9b3e
00000060: 0000 0000 5aaf 863e 0000 0000 93f5 923e
00000070: 25c8 980d 6b7f 023c 0400 0000 d2b3 0f3c
00000080: 0400 0000 a1a9 db3e 0400 0000 0b3e ea3e
00000090: 2a4b 9606 4ae8 9c3c 0400 0000 929b ac3c
000000a0: 0000 0000 184f 003e 0000 0000 f035 0c3e
000000b0: 2a4b 9606 ac89 b43c 0400 0000 199a c63c
000000c0: 37fb 1e0e 00c7 053c 0400 0000 1853 133c
000000d0: 0000 0000 f972 893e 0000 0000 08b1 933e
000000e0: e1d8 ff08 0693 943c 0400 0000 d67a a33c
000000f0: f9c1 c209 6b57 ee3d 0400 0000 2c99 013e
00000100: 0400 0000 cdc0 ce3e 0000 0000 4b90 dc3e
00000110: 0400 0000 209b 633d 0400 0000 1fed 783d
00000120: 0400 0000 2251 543e 0400 0000 fa01 673e
00000130: 0400 0000 3971 093d 0400 0000 6a1b 173d
00000140: 0000 0000 c1b7 073d 0000 0000 b945 153d
00000150: 0000 0000 9685 5a3e 0000 0000 a710 6d3e
00000160: 0400 0000 c46f 973e 0400 0000 b9f3 a13e
00000170: 0000 0000 89a4 ae3c 0000 0000 122a c03c
00000180: 0000 0000 2b15 163e 0000 0000 a168 233e
00000190: daaa 9e0b b124 903c 0400 0000 f09d 9e3c
000001a0: 0000 0000 6666 903d 0000 0000 31ac 9e3d
000001b0: 0000 0000 9ce3 533d 0000 0000 82eb 683d
000001c0: 2384 3a09 9b32 b03c 0400 0000 38ce c13c
000001d0: 0400 0000 3985 8a3d 0000 0000 a78c 973d
000001e0: 0400 0000 bbde 483e 0400 0000 7893 583e
000001f0: 0400 0000 d6ed b13c 0400 0000 ca8b c33c
00000200: 5ef1 240d 35c5 413c 0400 0000 017c 543c
00000210: 0000 0000 16ad f33c 0000 0000 901c 063d
00000220: 0000 0000 e036 ab3d 0000 0000 65a8 bb3d
00000230: 0000 0000 e364 1e3f 0000 0000 9ba3 263f
00000240: 0400 0000 5f22 b33e 0000 0000 2b30 be3e
00000250: 0400 0000 3d18 a93c 0400 0000 a8f1 b93c
00000260: 0000 0000 f812 3a3d 0000 0000 9aa5 4c3d
00000270: 0400 0000 4b49 133e 0000 0000 5cd9 203e
00000280: 0400 0000 a177 603d 0400 0000 8f0a 763d
00000290: 0400 0000 aa47 ae3c 0400 0000 11bf bf3c
000002a0: 0000 0000 4fd8 ce3d 0000 0000 dee7 e23d
000002b0: a1cd 9009 bc67 963d 0400 0000 bd95 a33d
000002c0: 0400 0000 594b d63c 0400 0000 211e eb3c
000002d0: 0000 0000 d559 733d 0000 0000 5adb 853d
000002e0: 0400 0000 37cf d33d 0000 0000 44ac e63d
000002f0: 0000 0000 10bf 1e3e 0400 0000 f04e 2c3e
00000300: 2384 3a09 e00a 4b3c 0400 0000 5c73 5f3c
00000310: 0400 0000 0c66 6e3e 0400 0000 1a68 803e
00000320: 0000 0000 0842 0e3d 0000 0000 5a8a 1c3d
00000330: 2a1a 760c a1cd 353c 0400 0000 0ff4 473c
00000340: 0000 0000 d701 883e 0000 0000 e69c 923e
00000350: 0730 4b0a c6e8 dd3d 0000 0000 3e16 f23d
00000360: 0000 0000 a1c4 103d 0000 0000 00f2 1e3d
00000370: 20d1 790a 2b13 6c3d 0000 0000 7a29 813d
00000380: 0000 0000 bbd5 0b3e 0000 0000 4bf0 173e
00000390: 0400 0000 a26a 483c 0400 0000 9d94 5c3c
000003a0: 6ee3 ab07 cb04 0a3e 0400 0000 3e49 153e
000003b0: 0400 0000 22bc 453e 0400 0000 514f 533e
000003c0: 0000 0000 bbe7 c83e 0000 0000 3431 d73e
000003d0: 0000 0000 1581 e63c 0000 0000 c4a2 fd3c
000003e0: 0000 0000 63c1 903e 0000 0000 94ed 9a3e
000003f0: 0400 0000 7ce1 433e 0000 0000 957d 553e
0.0 0.3567295 0.0 0.3844971 0.0 0.06042683 0.0 0.06642114
0.0 0.0909774 0.0 0.09972039 6e-45 0.050169174 6e-45 0.05468936
6e-45 0.020994911 6e-45 0.023105085 0.0 0.2825415 0.0 0.30345255
0.0 0.26305658 0.0 0.28702983 9.415906e-31 0.007964949 6e-45 0.0087709
6e-45 0.42902854 6e-45 0.4575046 5.653417e-35 0.019153733 6e-45 0.021070275
0.0 0.12530172 0.0 0.1369245 5.653417e-35 0.022038303 6e-45 0.024243401
1.959596e-30 0.008165121 6e-45 0.008991979 0.0 0.2684553 0.0 0.28846002
1.5398242e-33 0.018136512 6e-45 0.019956034 4.6886212e-33 0.116377674 6e-45 0.12656087
6e-45 0.4038147 0.0 0.43078837 6e-45 0.05556786 6e-45 0.06077301
6e-45 0.20734075 6e-45 0.22559348 6e-45 0.033555243 6e-45 0.03689138
0.0 0.033134226 0.0 0.036443446 0.0 0.21340021 0.0 0.23150884
6e-45 0.29577458 6e-45 0.31631258 0.0 0.02131869 0.0 0.02345756
0.0 0.14656512 0.0 0.15957882 6.1116455e-32 0.01759562 6e-45 0.01936242
0.0 0.07050781 0.0 0.07747687 0.0 0.051730737 0.0 0.056865223
2.2451066e-33 0.021508506 6e-45 0.023657903 6e-45 0.067636915 0.0 0.07399874
6e-45 0.19616215 6e-45 0.21150005 6e-45 0.021719854 6e-45 0.023870368
5.0826937e-31 0.011826803 6e-45 0.012969018 0.0 0.02974562 0.0 0.032742083
0.0 0.08360076 0.0 0.09162978 0.0 0.6187269 0.0 0.6509339
6e-45 0.3498716 0.0 0.37146124 6e-45 0.02064144 6e-45 0.022698238
0.0 0.045428246 0.0 0.049962617 6e-45 0.14383428 0.0 0.15707916
6e-45 0.054801587 6e-45 0.060068663 6e-45 0.021274406 6e-45 0.023406537
0.0 0.10099851 0.0 0.110793814 3.486011e-33 0.073440045 6e-45 0.07987545
6e-45 0.026158975 6e-45 0.02870089 0.0 0.059411842 0.0 0.065359786
6e-45 0.103422575 0.0 0.11263326 0.0 0.15502572 6e-45 0.16826987
2.2451066e-33 0.0123927295 6e-45 0.013638344 6e-45 0.23281115 6e-45 0.25079423
0.0 0.03473094 0.0 0.03821788 1.8959024e-31 0.011096389 6e-45 0.012204184
0.0 0.26563904 0.0 0.2863533 9.7831274e-33 0.10835414 0.0 0.118206486
0.0 0.03534377 0.0 0.038805008 1.2028246e-32 0.057635467 0.0 0.06306739
0.0 0.1365575 0.0 0.14837758 6e-45 0.0122324545 6e-45 0.013463167
2.5862892e-34 0.13478391 6e-45 0.14578721 6e-45 0.19310048 6e-45 0.20635726
0.0 0.39239296 0.0 0.42029727 0.0 0.028137723 0.0 0.030961402
0.0 0.28272542 0.0 0.30259383 6e-45 0.19128984 0.0 0.20848687

bn1d1.running_var f4 [512]
00000000: 0400 0000 de68 0139 0400 0000 a46d b939
00000010: 0400 0000 5653 1e32 0400 0000 7c62 fe32
00000020: 0400 0000 d0d6 4734 0400 0000 30e9 1e35
00000030: 0400 0000 e2e6 9435 0400 0000 8ccb 6036
00000040: 0400 0000 7d0a be2e 0400 0000 c557 992f
00000050: 0400 0000 aef4 1b39 0400 0000 46ad de39
00000060: 0400 0000 2f35 d236 0400 0000 7b47 a537
00000070: 0400 0000 ded2 172c 0400 0000 5de5 ee2c
00000080: 0400 0000 790b 073a 0400 0000 3b0e b33a
00000090: 0400 0000 e947 922f 0400 0000 c861 6f30
000000a0: 0400 0000 3715 df35 0400 0000 c9b4 b336
000000b0: 0400 0000 2d4c 872f 0400 0000 faed 5b30
000000c0: 0400 0000 8f79 7b2c 0400 0000 abc7 4b2d
000000d0: 0400 0000 a137 1739 0400 0000 263f d139
000000e0: 0400 0000 5344 172f 0400 0000 63a0 f72f
000000f0: 0400 0000 aec1 0537 0400 0000 c73b c937
00000100: 0400 0000 488a 0b3a 0400 0000 978e bd3a
00000110: 0400 0000 cce2 7e35 0400 0000 b126 4c36
00000120: 0400 0000 91ae 3537 0400 0000 a0da 0b38
00000130: 0400 0000 7e78 0b31 0400 0000 4e55 e731
00000140: 0400 0000 7fea bc30 0400 0000 64b1 9931
00000150: 0400 0000 4701 b637 0400 0000 a8b3 9038
00000160: 0400 0000 0c29 af39 0400 0000 268f 4c3a
00000170: 0400 0000 0a2e 1b2f 0400 0000 e13b ef2f
00000180: 0400 0000 8868 c236 0400 0000 a425 8737
00000190: 0400 0000 af5c 4d2f 0400 0000 10e4 2d30
000001a0: 0400 0000 27ce 8832 0400 0000 6a5f 6333
000001b0: 0400 0000 6d03 0832 0400 0000 7f85 e632
000001c0: 0400 0000 90c3 ab2f 0400 0000 b977 8130
000001d0: 0400 0000 842a c334 0400 0000 a8ee a035
000001e0: 0400 0000 fc2e 7138 0400 0000 fcdf 2639
000001f0: 0400 0000 6e79 1531 0400 0000 a6a9 ef31
00000200: 0400 0000 a844 b032 0400 0000 484a 9033
00000210: 0400 0000 aa0f b22e 0400 0000 5cd9 902f
00000220: 0400 0000 fa71 3734 0400 0000 cb93 1135
00000230: 0400 0000 6fef f73a 0400 0000 ef9e a03b
00000240: 0400 0000 58e5 3e3a 0400 0000 ae32 fc3a
00000250: 0400 0000 b643 3a30 0400 0000 0228 1c31
00000260: 0400 0000 1b45 b930 0400 0000 dba0 9231
00000270: 0400 0000 d2c4 ee35 0400 0000 9e34 b936
00000280: 0400 0000 b529 9d33 0400 0000 eb57 7f34
00000290: 0400 0000 4f95 8e2f 0400 0000 ccbd 6b30
000002a0: 0400 0000 76ec 1334 0400 0000 ba3d ec34
000002b0: 0400 0000 626c ab36 0400 0000 abaa 7037
000002c0: 0400 0000 c6a3 0233 0400 0000 7ea2 d933
000002d0: 0400 0000 4281 0731 0400 0000 201a e631
000002e0: 0400 0000 a899 a636 0400 0000 64ba 8337
000002f0: 0400 0000 0856 6237 0400 0000 6ce0 2a38
00000300: 0400 0000 dcea 112e 0400 0000 c101 e52e
00000310: 0400 0000 014b d838 0400 0000 410b 9339
00000320: 0400 0000 988d 972f 0400 0000 5eff 7730
00000330: 0400 0000 8fb7 992f 0400 0000 b42d 7730
00000340: 0400 0000 f9db ea38 0400 0000 5723 b339
00000350: 0400 0000 47c7 0836 0400 0000 b586 c536
00000360: 0400 0000 d4d4 3333 0400 0000 7023 1334
00000370: 0400 0000 2392 7e34 0400 0000 7b62 4035
00000380: 0400 0000 a775 6237 0400 0000 e623 2538
00000390: 0400 0000 756a 152e 0400 0000 1672 fa2e
000003a0: 0400 0000 8fe1 bc37 0400 0000 8174 8738
000003b0: 0400 0000 4904 7b39 0400 0000 3ec0 253a
000003c0: 0400 0000 eafb 8639 0400 0000 38f8 4c3a
000003d0: 0400 0000 1ac4 a92f 0400 0000 4a87 8a30
000003e0: 0400 0000 4f05 9039 0400 0000 babc 4b3a
000003f0: 0400 0000 7907 ef36 0400 0000 6359 bc37
6e-45 0.00012341465 6e-45 0.00035367638 6e-45 9.215759e-09 6e-45 2.9614277e-08
6e-45 1.8611468e-07 6e-45 5.919892e-07 6e-45 1.1094055e-06 6e-45 3.349708e-06
6e-45 8.642063e-11 6e-45 2.7892902e-10 6e-45 0.00014873102 6e-45 0.00042472238
6e-45 6.264679e-06 6e-45 1.9702818e-05 6e-45 2.1575445e-12 6e-45 6.7898313e-12
6e-45 0.0005151551 6e-45 0.0013660857 6e-45 2.660834e-10 6e-45 8.708665e-10
6e-45 1.6620969e-06 6e-45 5.355662e-06 6e-45 2.4610483e-10 6e-45 8.000992e-10
6e-45 3.5736724e-12 6e-45 1.1583549e-11 6e-45 0.00014421206 6e-45 0.00039910636
6e-45 1.3757644e-10 6e-45 4.5043e-10 6e-45 7.972512e-06 6e-45 2.3988903e-05
6e-45 0.0005323035 6e-45 0.0014462051 6e-45 9.4952406e-07 6e-45 3.042089e-06
6e-45 1.0829085e-05 6e-45 3.3343793e-05 6e-45 2.0295654e-09 6e-45 6.732683e-09
6e-45 1.3745448e-09 6e-45 4.473053e-09 6e-45 2.1696686e-05 6e-45 6.899919e-05
6e-45 0.00033409183 6e-45 0.0007803313 6e-45 1.4113524e-10 6e-45 4.3516393e-10
6e-45 5.7938196e-06 6e-45 1.6110782e-05 6e-45 1.8677569e-10 6e-45 6.326113e-10
6e-45 1.5926231e-08 6e-45 5.2939335e-08 6e-45 7.917021e-09 6e-45 2.6836231e-08
6e-45 3.1243674e-10 6e-45 9.420013e-10 6e-45 3.6352515e-07 6e-45 1.1990387e-06
6e-45 5.7502635e-05 6e-45 0.00015914434 6e-45 2.1751378e-09 6e-45 6.9751023e-09
6e-45 2.0520318e-08 6e-45 6.719034e-08 6e-45 8.097285e-11 6e-45 2.634789e-10
6e-45 1.7084668e-07 6e-45 5.4231776e-07 6e-45 0.0018915961 6e-45 0.004901759
6e-45 0.00072820997 6e-45 0.0019241178 6e-45 6.776263e-10 6e-45 2.272373e-09
6e-45 1.3480163e-09 6e-45 4.2674464e-09 6e-45 1.7789664e-06 6e-45 5.519555e-06
6e-45 7.318469e-08 6e-45 2.378071e-07 6e-45 2.593574e-10 6e-45 8.576222e-10
6e-45 1.3776466e-07 6e-45 4.4003338e-07 6e-45 5.1088145e-06 6e-45 1.43448515e-05
6e-45 3.0416935e-08 6e-45 1.0134407e-07 6e-45 1.971856e-09 6e-45 6.696851e-09
6e-45 4.9650735e-06 6e-45 1.5703212e-05 6e-45 1.349068e-05 6e-45 4.0740168e-05
6e-45 3.317778e-11 6e-45 1.0414026e-10 6e-45 0.00010313653 6e-45 0.0002804641
6e-45 2.7567348e-10 6e-45 9.0220975e-10 6e-45 2.7960964e-10 6e-45 8.9923025e-10
6e-45 0.000111989626 6e-45 0.0003416787 6e-45 2.0381574e-06 6e-45 5.8867395e-06
6e-45 4.187025e-08 6e-45 1.3703334e-07 6e-45 2.3708758e-07 6e-45 7.166888e-07
6e-45 1.3498043e-05 6e-45 3.93725e-05 6e-45 3.397323e-11 6e-45 1.13889495e-10
6e-45 2.251638e-05 6e-45 6.459002e-05 6e-45 0.00023938822 6e-45 0.0006322897
6e-45 0.00025746162 6e-45 0.000781897 6e-45 3.088026e-10 6e-45 1.0079273e-09
6e-45 0.00027469776 6e-45 0.0007771958 6e-45 7.123625e-06 6e-45 2.245297e-05

SA.in_proj_weight f4 [12, 4]
00000000: dde5 96be 0303 003f 4f3d 7bbd 19de dc3e
00000010: b5ee 8ebe 7d7c 973e b83e 8e3d f66f 8e3e
00000020: 4a38 11bf f81c 9d3d 867c e93e 2612 173f
00000030: 55de 3bbe 1aef 013f 232b 1dbf bd20 b8bd
00000040: de4f 15bf 58f5 b1be 1b8b 18bf 2e10 073f
00000050: 6a69 e8be 17e8 89bd 3d0a 943e f679 c6be
00000060: e31f 963e a5bf e1be 24d1 9f3e 8858 0abf
00000070: 24da 88be f10a 0b3f 5f94 853e 4a58 d0be
00000080: 9002 a5be 10ec 1fbf 71c2 8fbd 9d4b 4b3e
00000090: 1455 71be 27b5 f1be 14b2 44bf 9d25 5fbe
000000a0: 7279 9e3d f225 933e dbcd acbe ffe8 8d3d
000000b0: 4ac9 623e 5b22 e6bd a8eb a93d 0b53 1b3e
-0.29472247 0.50004596 -0.061337765 0.43138197 -0.27916494 0.29587165 0.069455564 0.27819794
-0.56726515 0.07671541 0.45602816 0.5901207 -0.18346532 0.50755465 -0.61393946 -0.08990619
-0.5832499 -0.34757495 -0.5958726 0.52759063 -0.45392925 -0.06733721 0.2891406 -0.38764924
0.29321203 -0.44091526 0.3121425 -0.5404134 -0.26728928 0.5431357 0.2608976 -0.4069236
-0.32228518 -0.6246958 -0.07019509 0.19853063 -0.23567611 -0.4720852 -0.76834226 -0.21791692
0.077380076 0.28739887 -0.33750805 0.06929206 0.22147098 -0.112370215 0.08296901 0.15168397

SA.in_proj_bias f4 [12]
00000000: 4b09 19bd 8941 15be 17ef a439 2947 2f39
00000010: d092 c732 ef77 92b4 beb9 b9af 8f75 a5b1
00000020: 5f29 7fb7 da09 acb7 68d0 3e36 4378 2e36
-0.037362378 -0.14575781 0.00031458653 0.0001671581 2.3233412e-08 -2.7281882e-07 -3.3783282e-10 -4.815497e-09
-1.5208817e-05 -2.0508585e-05 2.8433515e-06 2.5998022e-06

SA.out_proj.weight f4 [4, 4]
00000000: 907a aa3d a071 46bd 3cfe b33e 1ad2 efbe
00000010: 11dd 4ebc d0f4 2fbf 182a 5dbe 16c8 db3d
00000020: 80fd 043d 7853 be3e 9816 9a3d 7224 f4be
00000030: 7e8d 24bf 5b17 e1be 3b14 4a3e d4c9 8c3d
0.08324158 -0.048448205 0.35154903 -0.46839982 -0.0126259485 -0.6873293 -0.21598089 0.10731523
0.03246832 0.37173057 0.07523841 -0.47684056 -0.642784 -0.4396313 0.1973428 0.06874433

SA.out_proj.bias f4 [4]
00000000: 4356 a434 40fa b437 00d3 3834 1e2a db37
3.0610144e-07 2.1574204e-05 1.7213097e-07 2.6126447e-05
