images/models/other_models/Attention/best_models11.pth.tar (torch, 471237 bytes, 18 tensors)

bn1d0.weight f4 [739]
00000000: 96af 203f b680 7e3f 3437 523f 7347 653f
00000010: 1262 743f 91b6 903f 7455 7a3f d40f 833f
00000020: 3a86 923f 1244 783f 7fa7 813f 0645 623f
00000030: 44d7 983f 5442 833f 7ce9 743f af02 813f
00000040: e63e 803f 4cba 863f 931f 7b3f cec0 6d3f
00000050: 7f59 853f c82c 753f 3873 7e3f 1391 783f
00000060: 7382 773f cb09 8f3f ac3b 933f 93b0 743f
00000070: 09b5 7b3f 618d 9c3f 682f 883f 241a 883f
00000080: d3fa 803f 18a0 873f 590a 813f 7c29 813f
00000090: 6e5d 903f 0826 8a3f 00d9 823f f973 8a3f
000000a0: 159e 833f dd73 8a3f 2481 7f3f aa19 7e3f
000000b0: 0a3e 7f3f 9ac0 963f 7c3f 903f a719 773f
000000c0: 12f2 813f 77ba 7f3f f7da 863f 0719 7e3f
000000d0: 2ec4 803f 3176 7e3f a77b 7e3f 7072 873f
000000e0: f9ce a13f 7932 7d3f 2935 7e3f eeb1 8b3f
000000f0: d11d a43f 8715 8f3f 9ff3 883f ad80 773f
00000100: 246e 7c3f 4767 883f 0d76 783f c02d 833f
00000110: f909 873f 946b 863f ccd0 7d3f 1b61 813f
00000120: ee96 7f3f ae90 863f 9894 7e3f 8ac8 7f3f
00000130: 288a 7c3f def4 803f b9bc 803f 9b2b 823f
00000140: 28b7 803f 0424 803f b937 803f 7adb 813f
00000150: 6569 7e3f 62b7 7d3f 8dcc 843f e2b5 823f
00000160: 2d0b 8f3f 653a 803f 76b8 853f 84f6 813f
00000170: c44a 823f 2c3b 853f eb74 903f a4e1 813f
00000180: 45b4 7e3f fd39 813f 907c 803f f5bf 7d3f
00000190: 3b59 833f c5d5 823f f573 7f3f 11ba 7f3f
000001a0: 124d 803f 3041 843f 210f 9d3f 14b0 7f3f
000001b0: 8632 7f3f d377 7b3f 58a4 823f f5c6 843f
000001c0: 2730 793f f3f0 893f 4c29 803f 2e50 8e3f
000001d0: 3f6a 783f 34d4 7c3f 4c63 823f 10fe 823f
000001e0: 0651 883f 6703 803f a02b 7e3f 2e22 783f
000001f0: f239 823f a656 943f 0bf6 743f da50 6c3f
00000200: 69b6 653f 98e2 6e3f 8278 673f 5fea 5f3f
00000210: ba31 633f bdb7 603f 1d33 6e3f d6e9 7d3f
00000220: 488a 873f 8872 7f3f 8aa0 7d3f 2dd1 8d3f
00000230: e4c5 843f 4500 843f dcab 913f 8336 7c3f
00000240: 3259 843f ca66 7e3f 0546 813f 1fcf 813f
00000250: e09b 7e3f 5eb6 813f b27a 803f b508 853f
00000260: ab0f 843f 85b6 7e3f 4dd5 803f f585 803f
00000270: de18 7d3f f4b5 823f 0e34 863f 8938 833f
00000280: 6619 803f b8f0 7e3f 7ef2 a23f ed73 803f
00000290: d1dc 7f3f 2adc 853f ffd4 803f 2913 803f
000002a0: 0f4c 803f beae 8b3f 9689 7e3f 6112 823f
000002b0: 433c 7f3f dc1c 803f f138 8e3f 5c2b 803f
000002c0: c48e 813f 78c4 943f dfec 7d3f 4f44 803f
000002d0: 7ecc 843f 5045 983f d424 833f 6761 7f3f
000002e0: e6f1 823f f758 883f 8ea0 883f e4fa ab3f
000002f0: 473c aa3f 8dff 893f be0d 833f b447 853f
00000300: 7f02 7a3f 3b7d 8e3f 95a6 893f 01b6 9b3f
00000310: 44b7 783f 64b2 843f dc22 813f c589 833f
00000320: 33d1 793f aff3 793f e6a8 863f e813 7a3f
00000330: b4eb 7e3f 260f 713f 50fd 7d3f 62bc 7e3f
00000340: abd2 7c3f f353 803f c65b 853f 464c 783f
00000350: 43d6 923f 6320 7d3f e92d 4e3f 92ba 5e3f
00000360: 598e 403f 45a5 323f e779 013f 0fcc 383f
00000370: e0e5 5b3f 27fb 703f 7e81 263f 8359 2f3f
00000380: 0512 283f 3a81 123f 3d72 1f3f 4cfa 7f3f
00000390: bcfc 7f3f 6304 803f 930d 803f 5100 803f
000003a0: 73f9 7f3f 7401 803f a701 803f 981f 803f
000003b0: 3c01 803f db07 803f 69e3 7f3f 42ff 7f3f
000003c0: 8f04 803f f806 803f c201 803f 030d 803f
000003d0: 4103 803f 23f7 7f3f 4b35 803f 6c14 803f
000003e0: 0bf1 7f3f ae0c 803f 9304 803f a304 803f
000003f0: 70eb 7f3f e0f2 7f3f ace7 7f3f 3904 803f
0.6276792 0.9941515 0.82115483 0.8956215 0.95462143 1.1305715 0.9778664 1.0239205
1.1447213 0.9697887 1.0129241 0.8838657 1.1940694 1.0254617 0.9566877 1.0078944
1.0019195 1.0525603 0.98095053 0.9287232 1.0417937 0.95771456 0.9939456 0.97096366
0.96683425 1.1174864 1.1502585 0.9558193 0.9832311 1.2230645 1.0639467 1.0632977
1.0076545 1.0595732 1.0081283 1.0090785 1.1278512 1.0792856 1.0222473 1.0816642
1.0282618 1.0816609 0.9980643 0.9925791 0.9970404 1.1777527 1.1269374 0.9652352
1.0151999 0.998939 1.0535573 0.9925694 1.0059869 0.99399096 0.9940743 1.0581799
1.2641288 0.9890514 0.99299866 1.0913675 1.2821599 1.1178445 1.0699347 0.9668072
0.9860556 1.0656518 0.9705513 1.0248337 1.0549918 1.050158 0.99146724 1.0107759
0.99839675 1.0512903 0.99445486 0.99915373 0.9864831 1.0074728 1.0057594 1.0169557
1.0055895 1.0010991 1.0017005 1.0145104 0.9937957 0.99107945 1.0374924 1.0211756
1.1175286 1.0017821 1.0446918 1.0153356 1.0179067 1.0408683 1.128568 1.0146985
0.9949382 1.0095822 1.0038013 0.9912103 1.0261606 1.0221487 0.9978631 0.9989329
1.002352 1.0332394 1.2270242 0.9987805 0.9968647 0.9822971 1.0206404 1.0373217
0.973391 1.0776657 1.0012603 1.1118219 0.9703712 0.98761296 1.0186553 1.0233784
1.0649726 1.0001038 0.99285316 0.96927154 1.0173934 1.1588943 0.9568793 0.9231087
0.8973146 0.93314505 0.90418255 0.87466997 0.8874775 0.8778036 0.9304674 0.9918493
1.0589075 0.99784136 0.9907309 1.107946 1.0372891 1.0312582 1.1380572 0.9852068
1.033972 0.99375594 1.0099493 1.0141333 0.99456596 1.0133779 1.0037444 1.0393282
1.0317281 0.9949725 1.0065094 1.004088 0.9886607 1.0211778 1.0484636 1.0251628
1.0007751 0.9958606 1.2730253 1.0035378 0.99946314 1.0457814 1.0065001 1.0005847
1.0023211 1.0912702 0.9942869 1.0161859 0.9970133 1.0008807 1.1111127 1.0013232
1.0121694 1.1622458 0.9918956 1.0020846 1.0374906 1.1896152 1.0245614 0.99758
1.0230072 1.065215 1.0673997 1.3435941 1.3299645 1.0781113 1.0238569 1.0412507
0.9766006 1.1131967 1.0753962 1.2164918 0.9715464 1.036694 1.0088763 1.0276419
0.9758484 0.97637457 1.0520294 0.97686625 0.99578404 0.9416374 0.9921465 0.995062
0.98758954 1.0025619 1.0418632 0.96991384 1.1471637 0.98877543 0.80538803 0.87003434
0.75217205 0.6978343 0.50576633 0.7218637 0.85897636 0.9413323 0.6504134 0.6849596
0.65652496 0.57228434 0.6228369 0.999913 0.9999502 1.0001339 1.0004143 1.0000097
0.99990004 1.0000443 1.0000504 1.0009642 1.0000377 1.0002397 0.99956375 0.9999887
1.0001391 1.0002127 1.0000536 1.0003971 1.0000993 0.99986476 1.0016264 1.0006232
0.9997718 1.000387 1.0001396 1.0001415 0.99968624 0.9997997 0.9996288 1.0001289

bn1d0.bias f4 [739]
00000000: abd0 283d 1b41 42bc 87b7 9ebd 8030 a93d
00000010: 63dc b1bd 82a4 6a3d 05d6 92bd 7a9f 8ebd
00000020: 1517 8abc f709 2d3c 1505 cabc 02be 8b3b
00000030: 43f6 0a3d 444b 36bd 672d 0bbd 8732 13bc
00000040: 916d 41bd 42f4 c7bc dccf ddbc 23bb dc3c
00000050: f880 58bb e247 393c 5fc4 f1bc 92b5 5d3d
00000060: f37c bb3c a7fb 603b f2a3 803d c256 2c3d
00000070: ad79 1e3d bdfb 46bd 9ac7 9c3d 02f3 5c3c
00000080: 5ed8 b9bc 88b2 653c 3f70 c2bc bc2c 413d
00000090: 343b 833d 0498 19bd 2d8b 6f3c f1fd e43c
000000a0: cd63 8fbc ca07 f93c 9994 8a3c 8c26 893b
000000b0: 3561 37bc bcb6 87bd cff9 ac3c 32e6 5abc
000000c0: 3f0b e5bc cf91 e23c ae06 dcbb 246c c4bc
000000d0: 587e 063a 3dbd 113d 50e5 41bd b6ff a9bc
000000e0: 8184 59bc 910c 1abd d3f8 24bc 8e40 70bd
000000f0: 0e62 c4bd fb18 0cbd f8ee 2bbd 43e0 84bd
00000100: 8053 18bc 26de 16b9 2f42 08bd bf79 ccbc
00000110: ad5f 203b 0338 12bc 67c8 04bd 321f cc3c
00000120: cae8 c2bc 1564 a2bc 8870 0a3c 074d 533d
00000130: be74 2ebd 6c82 f73c 7f69 67bc f857 c5bc
00000140: 095a 413d 257b 47bc bf9d e73b 1d0a 1c3d
00000150: 7381 35bc ea51 3abc f36d 323d 0dca 3739
00000160: 7859 b8b9 ed8c 853c eedf 773c fbd0 143b
00000170: 7832 cb3c 0da4 70bb 2538 98bc fd0c 453d
00000180: 5ef7 79bc 4baf f13c d3ba a43c f7e9 0c3c
00000190: 3659 933b 418d 2e3d 5f90 38bd 255e 84bc
000001a0: ef62 d7bb 9cc2 a4bc 7078 483a 07f1 babc
000001b0: af23 3a3c 646d 133c def6 b33b 5c69 3dbd
000001c0: dfa9 c0bc b6fd ecbc 17d5 23bd fc32 86b9
000001d0: 399c c7bc 8da2 31bd 9dbc eabc 515b 8abc
000001e0: 775f de3b bf83 5f3c ce64 cabb b04f fabc
000001f0: 21a3 c6bc f600 62bd 1300 51bc 5369 c0bc
00000200: 57b8 35bd e686 86bd 5023 5bbd 4279 98bc
00000210: 0fc2 40bd fa7a f8bc 5ab2 d1bc 6383 6dbd
00000220: e176 5ebc e858 8a3b 29b9 f1bc 3739 d73c
00000230: e3c1 d1bc f5bf 1bbd e26b 9d3c 8037 11bc
00000240: 8a66 05bb 283a 25bc 4ebb ab3b ba58 723c
00000250: ad0e e6bc 6632 293c 56e3 243d 09fd 55bb
00000260: 7aa6 c03b f685 d7bc a6cd 993c 8b1b c13c
00000270: a161 75bc c4bc d9bb 5d7c d93c cbe9 203c
00000280: 0a4e c53b 3c34 1e3d b11a 03bd 8015 bb3c
00000290: 222d f73c e5bc d03c df47 cd3b cd9b 563c
000002a0: 19fc 8cbb ab0c 0fbd 0575 0d3d 52df 85bb
000002b0: 0cb0 4d3c b1eb 7fbc aa69 ad3c b1bb 783c
000002c0: 361d bcbc 2315 85bd 8247 913c ac95 4e3c
000002d0: 004c 22bd 613b 36bc fcde d9bb e0d6 af3c
000002e0: 5fcb f0bc 1bc0 2d3c 4789 b43b 9999 09bd
000002f0: e42d 593d 1228 25bd d904 1f3d bf1f 30bd
00000300: 493b febb 7123 013c 126d 26bc a80a 38bd
00000310: 6e27 13bd b613 6a3c 7223 d23c 0b70 a4bc
00000320: 11fa 703c aba8 c5bc 195a 723c 46d5 c93c
00000330: b3aa 8cbc fe5c e23c 19ce afbc 8c1d e53c
00000340: 9754 13bd bf17 093d 7224 0a3c abac 28bd
00000350: 9f94 2b3c 63dc a4bd a305 2b3d be4f 403c
00000360: 5081 81bc f8a0 253d d803 e1bc ea88 c53d
00000370: 765d 103d a33b 8abd 5eb8 5fbc 5527 bc3d
00000380: 65a4 a3bd 622a 07be f6bd bd3c 60bf 02bc
00000390: 11bd 8e3b c079 44bc 030d c03b abf1 08bc
000003a0: dd11 0ebd aef7 8c3b e280 f5ba 295b 4a3c
000003b0: 9c55 163d 9a85 acbc 7b1f b0bb 9105 53bc
000003c0: 6ce2 84ba 35d4 3cbb ca99 963c a5ee d63c
000003d0: a443 d33b b273 08bb 74e2 4dbc 7192 aebc
000003e0: e64e c2bc ea7d 95bc a58d f0bb e4f8 38bb
000003f0: 7145 c7bb 1a19 213c 3b13 e9ba daa9 1c3c
0.041214626 -0.011856343 -0.07749849 0.08261204 -0.086846136 0.057285793 -0.07169727 -0.069640115
-0.01685671 0.010561458 -0.024660626 0.004264594 0.03392626 -0.044505373 -0.033978846 -0.008984215
-0.04722363 -0.024408463 -0.027076654 0.026944702 -0.0033035856 0.011308642 -0.029512582 0.054128237
0.022886729 0.0034329684 0.0628127 0.042074926 0.038690258 -0.04857992 0.076552585 0.013485672
-0.02268618 0.014019616 -0.023735164 0.047161803 0.064077765 -0.03749849 0.014620584 0.02795312
-0.017503643 0.030399222 0.01691656 0.0041855033 -0.01119261 -0.06626651 0.021115212 -0.013360547
-0.027959464 0.027657418 -0.0067146635 -0.023977347 0.0005130521 0.035580862 -0.04733783 -0.020751815
-0.01327622 -0.03760964 -0.01006909 -0.058655314 -0.09589015 -0.03420351 -0.041975945 -0.06488087
-0.009297252 -0.00014387871 -0.033266243 -0.024960397 0.002447109 -0.008924487 -0.03241768 0.024917219
-0.023792643 -0.019823113 0.008449681 0.05158713 -0.042591803 0.030213557 -0.014124273 -0.024089798
0.047205005 -0.012175356 0.0070683653 0.038095582 -0.011078226 -0.011372069 0.043561887 0.0001752751
-0.00035161874 0.01630255 0.015129073 0.002270757 0.024804339 -0.0036718876 -0.01858146 0.04810809
-0.015256731 0.029502532 0.020108616 0.008600703 0.0044967188 0.04261518 -0.045059558 -0.016158173
-0.006573073 -0.020112328 0.0007647341 -0.022820009 0.011361047 0.008998249 0.0054920753 -0.046243057
-0.0235185 -0.028929573 -0.03999814 -0.00025596458 -0.024366485 -0.04336791 -0.028654391 -0.016889246
0.0067862826 0.013642251 -0.0061765676 -0.030555576 -0.024247708 -0.055176698 -0.012756365 -0.023487723
-0.044365253 -0.065686986 -0.053500473 -0.018612508 -0.04706007 -0.030332077 -0.02559774 -0.05798663
-0.013578148 0.004222024 -0.029507237 0.0262724 -0.025605148 -0.03802486 0.019216482 -0.00886333
-0.0020355307 -0.010084666 0.0052408343 0.014791662 -0.02808317 0.010326957 0.040255867 -0.0032652041
0.0058792206 -0.026308995 0.018774819 0.023572704 -0.01497689 -0.006644817 0.026548559 0.009821366
0.006021266 0.038624033 -0.032007877 0.0228374 0.030172888 0.025480697 0.006264671 0.013098669
-0.0043025133 -0.03492419 0.034535427 -0.0040854597 0.01255418 -0.015620158 0.021168549 0.015181468
-0.022963148 -0.06498172 0.017734293 0.012608927 -0.03962326 -0.0111225555 -0.0066488963 0.021464765
-0.02939385 0.010604884 0.005509529 -0.033593748 0.05302228 -0.040321417 0.038822982 -0.042999025
-0.007758532 0.007881985 -0.01015784 -0.044932038 -0.035926275 0.014286926 0.025651667 -0.020072958
0.014708058 -0.024128279 0.014791989 0.02463783 -0.01717124 0.027632233 -0.02146058 0.02796819
-0.035969343 0.03346991 0.008431541 -0.041180294 0.010472446 -0.08049848 0.041753422 0.011737762
-0.015808731 0.040436715 -0.027467653 0.09645255 0.03524538 -0.06749656 -0.013654796 0.091871895
-0.0799034 -0.13199762 0.02316187 -0.007980198 0.0043560346 -0.011991918 0.005860926 -0.008358399
-0.034685005 0.0043019867 -0.0018730427 0.012350836 0.036702737 -0.0210598 -0.0053748465 -0.012879745
-0.001013828 -0.0028813009 0.01838388 0.026236841 0.0064472724 -0.0020820913 -0.012566198 -0.021310063
-0.023719262 -0.018248517 -0.007341104 -0.0028224522 -0.006081276 0.009832645 -0.001778222 0.00956198

bn1d0.running_mean f4 [739]
00000000: e08a 6dbb 31d3 14bb 4b71 f6ba c009 b4bb
00000010: 318b acbb d281 d6bb b774 8dbb 4fce e2ba
00000020: 1e99 c43a e08b 843a 9708 06b9 12e5 07bb
00000030: e35f 51bb 12bb 87bb f698 57bb 29bf 21bb
00000040: 8035 caba 44ea 4eba eb13 5739 02c8 ccb8
00000050: d260 753a 1fed 423a 89da 863a 27ac f53a
00000060: 26e0 f83a ecef 283b a209 073b 3d08 133b
00000070: 110f 123b 3ad2 143b 4be9 153b 6183 003b
00000080: a8f8 033b e779 da3a 97b2 ed3a b2ce c53a
00000090: d502 733a 4c74 523a 9bf6 033a 94de e539
000000a0: 6e25 3839 8152 42b9 5476 69b9 563d 96b9
000000b0: a57a 32ba 14c9 23ba 8d43 89ba 9e34 9cba
000000c0: 4e88 84ba a700 daba 3566 c3ba 1d79 c3ba
000000d0: d5e9 d7ba a525 e0ba f217 20bb f8b8 20bb
000000e0: 2997 6dbb ebef 95bb 7cb3 c8bb 7ba5 fbbb
000000f0: 84c6 14bc 928c 17bc 6b9b 0dbc 6712 23bc
00000100: 5a18 aebb 3f8c 80bb 51de 39bb 44ee efba
00000110: 1dda caba 2feb adba f285 a7ba c7af 8bba
00000120: 4632 cfba 5a07 7fba 026b 2fba 9ba7 07ba
00000130: 6865 07ba e875 28b9 2c47 9f39 5182 dc39
00000140: 8834 233a 5400 783a 83ca a83a ae8d 8b3a
00000150: a75c 733a 9d6f 733a a4cd 5b3a b340 883a
00000160: c1f3 593a b690 203a 1dd8 1f3a 74e7 0b3a
00000170: 87ef d239 02a9 e039 b6a1 6938 f222 fdb8
00000180: 9ee6 6c38 eff8 09ba 69fd 38ba a65b 69ba
00000190: ff0e aaba 1cb6 11bb 9f9b efba 21c3 11bb
000001a0: d5ee 2ebb 74c7 3cbb dd66 5cbb 5f6f 73bb
000001b0: 7c2b 87bb bc74 97bb bca6 d6bb 95e7 aebb
000001c0: a97c b6bb 92dd b2bb e6dd b5bb 8052 b0bb
000001d0: 1beb a5bb b74b 9cbb 472a 91bb f456 89bb
000001e0: 19cd aebb 5799 84bb c192 97bb 41cf a3bb
000001f0: 1a0a c4bb 13a0 f6bb 95cf 14bc 880e 31bc
00000200: 2781 4bbc 39fd 93bc f4dc 63bc fd40 5bbc
00000210: 8e9f 47bc 7ab0 2cbc 0087 12bc dac2 f2bb
00000220: 122c c3bb bd42 9bbb 2835 7ebb a2ae 80bb
00000230: 7fe7 1bbb 8977 e8ba 93ee c2ba aebd 91ba
00000240: e74c 60ba 0e90 12ba 3ebe b9b9 062c 91b9
00000250: 8429 20b9 65b0 9038 45e5 3a39 5884 be39
00000260: adae 4e3a e6e5 663a 3b47 a13a 0665 aa3a
00000270: d39a cb3a 1d3f d33a e6f0 1d3b ac03 ff3a
00000280: 37bc 013b 0dea 0a3b 57ec 093b 5031 0e3b
00000290: 12ac 0a3b 8db8 173b 5044 123b 7217 453b
000002a0: 6afd 123b 2f1c 133b 412c 143b a96b 0b3b
000002b0: 1cfb 0c3b c205 093b ccc8 093b 4a21 013b
000002c0: a1c3 093b 9e23 233b d081 063b 0340 f53a
000002d0: 0f8c eb3a 5a05 fb3a 217a e93a 7352 e53a
000002e0: d6f2 f23a 496d e43a b273 143b b914 d63a
000002f0: 66d2 d73a e816 d83a a6f2 d03a 2d9d d43a
00000300: 556c d73a ddb0 d43a a590 c33a c4aa 073b
00000310: f6d5 a63a 6492 bc3a f375 c13a 92a8 ae3a
00000320: d8ff b93a 4b6c a73a 34a2 a23a d527 ad3a
00000330: 847b 843a 1218 c33a ec84 663a 2fa3 883a
00000340: d9a1 903a 3ad5 a13a 7a95 c33a 5fac 183b
00000350: aba9 553b f1d9 a93b 5775 383c 3a9f 4e3c
00000360: 86df 8c3c db34 ad3c e289 b93c 1506 bc3c
00000370: b381 8f3c 0ef1 2c3c 49a8 6e3b 568e 15ba
00000380: 2f91 77bb e5be bdbb 6855 d4bb 7256 fd3a
00000390: 0b97 fd3a cf29 003b 8c66 fe3a 6741 fa3a
000003a0: 78e6 fd3a d30b 003b 39dc fe3a d0d1 ff3a
000003b0: 4dd9 ff3a 4ee1 003b 9b5d fe3a 8952 fa3a
000003c0: 8b24 fe3a eb64 fb3a b6c5 003b 498d fd3a
000003d0: 09ef 043b 9d45 fe3a 40c6 023b ac14 083b
000003e0: 3203 053b e2ee ff3a d5a0 fd3a 6c6c fc3a
000003f0: 4839 003b 10dc ff3a 7805 fe3a 9c30 013b
-0.0036246106 -0.0022708888 -0.0018802074 -0.0054943264 -0.0052656163 -0.0065462375 -0.004316892 -0.0017303916
0.0014999246 0.0010112487 -0.00012782436 -0.0020735902 -0.0031948022 -0.0041421736 -0.0032897568 -0.002468059
-0.0015427321 -0.00078931847 0.00020511418 -9.7647324e-05 0.00093604357 0.00074358465 0.0010288517 0.0018743322
0.00189877 0.002577777 0.0020605107 0.002243533 0.0022286812 0.0022708313 0.002287465 0.0019609558
0.0020137224 0.001666841 0.0018134889 0.0015091507 0.00092701364 0.0008028194 0.00050340005 0.00043844117
0.00017561551 -0.00018532017 -0.00022264692 -0.00028655928 -0.00068084366 -0.00062479195 -0.0010472402 -0.0011917537
-0.0010111423 -0.0016632274 -0.0014907779 -0.0014913414 -0.0016472886 -0.0017101063 -0.0024428335 -0.0024524312
-0.0036253429 -0.0045757196 -0.006124912 -0.007679639 -0.009080533 -0.009249823 -0.008643012 -0.009953118
-0.0053129615 -0.0039229686 -0.002836127 -0.0018305262 -0.001547638 -0.0013268943 -0.0012781008 -0.0010657244
-0.0015807829 -0.00097285735 -0.00066916656 -0.00051748165 -0.0005164952 -0.00016065652 0.0003037987 0.00042058763
0.00062257843 0.0009460498 0.0012877736 0.0010647082 0.00092835206 0.0009286346 0.000838483 0.0010395258
0.0008314215 0.0006125079 0.0006097572 0.00053369184 0.00040232783 0.0004285053 5.5702134e-05 -0.00012070489
5.6481564e-05 -0.0005263229 -0.0007056804 -0.00089019013 -0.001297444 -0.002223379 -0.0018280632 -0.002224155
-0.0026692648 -0.0028805407 -0.0033630647 -0.003714524 -0.004125057 -0.00462207 -0.006550638 -0.0053376653
-0.00556906 -0.005458542 -0.005550134 -0.0053809285 -0.005063427 -0.004769768 -0.0044300887 -0.004191274
-0.005334508 -0.0040466 -0.0046256487 -0.004999072 -0.0059826495 -0.0075264066 -0.009082695 -0.010806687
-0.012420929 -0.018065082 -0.01390766 -0.013382194 -0.012184037 -0.010540122 -0.008943319 -0.007408482
-0.0059561813 -0.0047381804 -0.0038789008 -0.003927068 -0.0023789105 -0.001773582 -0.0014872126 -0.0011119151
-0.0008556381 -0.0005590924 -0.0003542769 -0.00027689355 -0.00015274255 6.899311e-05 0.00017823752 0.00036338228
0.0007884305 0.0008808061 0.0012304554 0.0013000078 0.0015533812 0.0016116832 0.0024099885 0.001945605
0.0019796023 0.0021196634 0.002104541 0.0021696873 0.002115969 0.0023150772 0.002231855 0.003007379
0.0022428879 0.0022447219 0.0022609385 0.0021273887 0.0021511978 0.0020907973 0.0021024225 0.001970368
0.0021021145 0.0024893056 0.0020524152 0.0018711094 0.0017970818 0.0019151375 0.0017812887 0.0017495885
0.0018535506 0.0017427589 0.0022651968 0.001633308 0.0016465902 0.0016486319 0.0015941455 0.0016221158
0.0016435484 0.0016227026 0.0014920427 0.002070115 0.001272856 0.001438689 0.0014759883 0.0013325384
0.0014190627 0.0012773363 0.001240796 0.0013210723 0.0010107611 0.0014884493 0.00087936106 0.0010424609
0.0011034562 0.0012346872 0.0014921867 0.00232961 0.003260235 0.0051834513 0.011258445 0.012611205
0.017196428 0.021143368 0.022648755 0.022952119 0.0175179 0.010555519 0.0036416224 -0.00057051086
-0.0037775745 -0.0057905787 -0.006479908 0.0019328131 0.0019347382 0.001955617 0.0019409223 0.0019092978
0.0019371053 0.0019538298 0.0019444294 0.0019517485 0.0019519717 0.0019665542 0.0019406559 0.0019098084
0.0019389553 0.0019179856 0.0019649095 0.0019344474 0.0020284078 0.0019399408 0.0019954592 0.0020764275
0.0020296094 0.0019526149 0.00193503 0.0019258386 0.0019565392 0.001952054 0.0019380292 0.0019712811

bn1d0.running_var f4 [739]
00000000: a044 8837 10dd 2237 3805 fb36 a10f cb36
00000010: a675 e336 aaf9 8436 59c9 7336 a5e7 e735
00000020: cac8 0336 3f3f c735 c8ea 1a36 0e2a 0536
00000030: 6c38 0936 ebe0 c435 1222 a835 546a a735
00000040: c949 9d35 c30e 7035 895d 7335 f478 8135
00000050: 5acb 5035 05b9 0d35 0459 9735 3ebb 3335
00000060: 6549 3335 f548 1f35 1bfc 3235 9a07 2435
00000070: 1074 1835 0b33 f634 b10f fd34 81d6 0f35
00000080: ee93 b034 72b8 bd34 6e24 e434 3e74 0a35
00000090: 1221 e334 dd7a ed34 1e77 dc34 6ed8 0c35
000000a0: 2259 e634 fafe e434 381f d934 b8dd e234
000000b0: 4080 ee34 c74a 0535 a0e6 f034 5c66 d534
000000c0: 27e5 cb34 236e bb34 3d66 e034 6c54 0635
000000d0: a913 e534 b6ca ca34 7a7e 0335 0fc3 0035
000000e0: a049 0c35 b189 3d35 0551 8c35 6292 c735
000000f0: 6971 e635 dab5 d735 54df de35 86c9 0536
00000100: b9ae 3735 724c 0335 d853 db34 1350 c434
00000110: 35e1 ca34 81ff 8d34 5265 b134 10f0 ba34
00000120: 1cf4 b234 7429 c434 344a af34 c69a a234
00000130: 66cf 8b34 5a58 6e34 c9f1 8f34 0f66 8434
00000140: 87a5 a734 76a6 8434 3633 a034 7949 b734
00000150: acd3 6134 51d9 7834 8bfc 7934 c00c 3e34
00000160: 96d4 3934 2d37 4634 e2bd 5134 5f87 4a34
00000170: fc24 0534 e25d 4334 1921 3a34 fbe2 5234
00000180: f591 3c34 280f 2234 3a74 4c34 ef4e 3a34
00000190: 101a 1334 ff21 4934 303e 2234 e3ea 4834
000001a0: f699 8634 d0a5 7b34 e9f4 7834 1b04 b434
000001b0: 7a8e a434 0179 e734 74ec 3a35 8c1d d034
000001c0: 9c02 1135 24d6 0f35 30f8 e134 1377 cb34
000001d0: 2b10 0335 c8e3 bb34 8d19 b634 be70 8a34
000001e0: 63c7 f234 25d1 8d34 2cc3 8434 18d6 a534
000001f0: ed98 e934 93ce 1f35 d7f3 4e35 6d7a 9935
00000200: e046 c035 5fc5 4c36 187a fe35 42c3 f335
00000210: 054e da35 13c0 b035 2e72 9835 38cc 5c35
00000220: a525 1b35 16e4 f934 e10f 9834 fcad d134
00000230: dc21 2934 a80c 7034 aac9 0b34 497b 2f34
00000240: bba7 2834 084e 0434 0798 1234 dd82 e333
00000250: 20ea e333 e000 de33 24f4 c433 007a 0e34
00000260: c8ef 4034 06c7 0234 f7a0 3834 46e6 3734
00000270: 022b 1434 893a 2834 878f 8934 f7ae 1a34
00000280: ee51 4134 0538 2434 2781 6434 51c5 6c34
00000290: 9339 6e34 4fa5 2534 ed86 8634 b567 8f34
000002a0: 8239 4334 0345 7634 0d75 4c34 045a 5434
000002b0: 9fee 8334 d9fb 6534 9d64 7234 cfbb 7534
000002c0: bc63 6834 6cb5 7f34 a179 6a34 daf3 9a34
000002d0: e251 7a34 edea a834 2181 8034 49c8 8a34
000002e0: acba 8e34 0122 ab34 077a 9934 1b38 8b34
000002f0: 60f7 b434 c3d7 b434 d721 df34 a7a0 ea34
00000300: 4c7b b134 0194 e634 4bb0 d834 3640 e534
00000310: 64e6 e434 46e0 d134 62dd fd34 2da8 d234
00000320: b99b 2535 bc17 1135 2b00 0635 f251 0835
00000330: 4ab1 1f35 2b1b 5a35 f5d1 4a35 ea95 8435
00000340: 3abb 5e35 978b 6735 98dd 6e35 5377 7935
00000350: e104 9335 4ab5 9e35 f54d 3836 2ec1 8436
00000360: 5b46 bb36 a96d 2237 57ca 3237 487e 6b37
00000370: dee4 2e37 8b32 8037 40c8 8537 f99a 9f37
00000380: b46b ca37 79ae 2938 df0c 5b38 f387 0f2f
00000390: 3fd5 8d2e 4d32 802f 3305 332f af51 972c
000003a0: 998a 872e 1ce0 592f 28f2 172f 7ca4 692f
000003b0: 2f99 e12f 2988 042f 1a9b 162f 67e0 642d
000003c0: 992a cd2e 37ef 222e 7ac7 342f 6b84 212f
000003d0: 675b d32f 9985 e12e b6b3 c22f ed6a 2930
000003e0: 64e6 0030 850b 872f 0a9e 902e b7f4 cc2e
000003f0: 799d 2c2f 8f4f 7e2e b4cf 032f 62c1 942f
1.624442e-05 9.707423e-06 7.4809905e-06 6.051691e-06 6.7788233e-06 3.9629713e-06 3.6327021e-06 1.7278259e-06
1.9637396e-06 1.4845062e-06 2.308445e-06 1.9843023e-06 2.0447433e-06 1.4668598e-06 1.2526891e-06 1.2473415e-06
1.1718886e-06 8.942845e-07 9.0660666e-07 9.646451e-07 7.7781954e-07 5.279583e-07 1.1276284e-06 6.695517e-07
6.67895e-07 5.933828e-07 6.667703e-07 6.110582e-07 5.6793306e-07 4.585821e-07 4.713634e-07 5.3583796e-07
3.2890188e-07 3.5338195e-07 4.2494815e-07 5.157816e-07 4.2306107e-07 4.4234085e-07 4.1064862e-07 5.246901e-07
4.290569e-07 4.265383e-07 4.0442114e-07 4.2257102e-07 4.442427e-07 4.9655176e-07 4.4871285e-07 3.9748818e-07
3.7978427e-07 3.49116e-07 4.179764e-07 5.004174e-07 4.2668879e-07 3.7772924e-07 4.898535e-07 4.7967563e-07
5.22612e-07 7.0608354e-07 1.0454393e-06 1.4869258e-06 1.7169342e-06 1.6071674e-06 1.6605286e-06 1.9935846e-06
6.842707e-07 4.8912545e-07 4.0852933e-07 3.6566107e-07 3.7789292e-07 2.64492e-07 3.304254e-07 3.4819868e-07
3.3332697e-07 3.6538006e-07 3.265028e-07 3.0287464e-07 2.604167e-07 2.219762e-07 2.6811747e-07 2.4661173e-07
3.122661e-07 2.4708032e-07 2.9839583e-07 3.4139865e-07 2.1031764e-07 2.3175859e-07 2.3281807e-07 1.7699767e-07
1.7306806e-07 1.846026e-07 1.9533721e-07 1.8861964e-07 1.2400045e-07 1.8194945e-07 1.7334641e-07 1.9640349e-07
1.7561963e-07 1.509294e-07 1.9041263e-07 1.7351316e-07 1.3699923e-07 1.8731951e-07 1.511005e-07 1.8711903e-07
2.5071466e-07 2.3436519e-07 2.3185898e-07 3.35306e-07 3.0651046e-07 4.3115145e-07 6.9634484e-07 3.8764517e-07
5.4020506e-07 5.3583267e-07 4.2090096e-07 3.7898334e-07 4.882483e-07 3.4997197e-07 3.3918732e-07 2.5786534e-07
4.5221086e-07 2.641547e-07 2.4728922e-07 3.088942e-07 4.35109e-07 5.953272e-07 7.7095814e-07 1.1435019e-06
1.4325742e-06 3.0513254e-06 1.8960009e-06 1.8161738e-06 1.6264972e-06 1.3168923e-06 1.1358113e-06 8.2253564e-07
5.779678e-07 4.6545819e-07 2.832376e-07 3.9055874e-07 1.575167e-07 2.2356346e-07 1.3018749e-07 1.6342996e-07
1.5707239e-07 1.2321846e-07 1.3652617e-07 1.0594315e-07 1.0613098e-07 1.033784e-07 9.17137e-08 1.3269164e-07
1.7968625e-07 1.2179598e-07 1.7194894e-07 1.7126976e-07 1.379922e-07 1.5667514e-07 2.5622668e-07 1.440602e-07
1.8004332e-07 1.529407e-07 2.128114e-07 2.2050996e-07 2.2186423e-07 1.5426961e-07 2.5057616e-07 2.6711282e-07
1.8181711e-07 2.2935642e-07 1.9041563e-07 1.9776786e-07 2.457427e-07 2.1418909e-07 2.2574609e-07 2.2885727e-07
2.1642967e-07 2.3814727e-07 2.1837197e-07 2.886216e-07 2.3312853e-07 3.146337e-07 2.3935812e-07 2.585023e-07
2.6585383e-07 3.1875973e-07 2.8587257e-07 2.593159e-07 3.3707602e-07 3.36846e-07 4.1561609e-07 4.3702786e-07
3.305853e-07 4.2948525e-07 4.0361405e-07 4.2701294e-07 4.263594e-07 3.9092464e-07 4.7286e-07 3.9237912e-07
6.1693896e-07 5.405125e-07 4.9919134e-07 5.0783194e-07 5.9490105e-07 8.1250863e-07 7.555639e-07 9.878397e-07
8.2973895e-07 8.6257336e-07 8.898437e-07 9.293337e-07 1.0953773e-06 1.1824679e-06 2.7463514e-06 3.9563956e-06
5.5812247e-06 9.681485e-06 1.0656738e-05 1.4036494e-05 1.04244955e-05 1.5282325e-05 1.5948084e-05 1.9026442e-05
2.413043e-05 4.045523e-05 5.2225656e-05 1.3054073e-10 6.449818e-11 2.3318805e-10 1.6281802e-10 4.300747e-12
6.163709e-11 1.9815655e-10 1.3819401e-10 2.1249663e-10 4.1036105e-10 1.2053704e-10 1.3697524e-10 1.3010127e-11
9.3298876e-11 3.7047e-11 1.6441773e-10 1.4689909e-10 3.8445622e-10 1.0255547e-10 3.5416087e-10 6.163379e-10
4.6893534e-10 2.4564542e-10 6.576435e-11 9.320316e-11 1.5699254e-10 5.7823576e-11 1.1988172e-10 2.705845e-10

bn1d1.weight f4 [512]
00000000: 0000 803f bb12 7f3f 0000 803f 6972 7d3f
00000010: 0000 803f feed 7f3f 0000 803f 4c14 803f
00000020: 0000 803f 492a 803f 0000 803f 837a 803f
00000030: 0000 803f 685b 803f 0000 803f 9b0f 803f
00000040: 0000 803f 9800 803f 0000 803f e7f1 7f3f
00000050: 0000 803f 108f 803f 0000 803f f951 803f
00000060: 0000 803f fbc1 803f 0000 803f d24e 813f
00000070: 0000 803f 2dd9 7f3f 0000 803f 2eee 7f3f
00000080: 0000 803f fdcb 803f 0000 803f 930a 813f
00000090: 0000 803f 5001 803f 0000 803f d3fe 7f3f
000000a0: 0000 803f b386 7f3f 0000 803f 52a5 7f3f
000000b0: 0000 803f 9ae6 7f3f 0000 803f 8aeb 7f3f
000000c0: 0000 803f 9df1 7f3f 0000 803f 5601 803f
000000d0: 0000 803f c00c 823f 0000 803f 2136 7f3f
000000e0: 0000 803f 5103 803f 0000 803f 56f9 7f3f
000000f0: 0000 803f 8c56 813f 0000 803f 5de1 7f3f
00000100: 0000 803f 8425 893f 0000 803f eba1 873f
00000110: 0000 803f 2625 803f 0000 803f 82b1 7f3f
00000120: 0000 803f 125d 7f3f 0000 803f 5b9c 7c3f
00000130: 0000 803f 4705 803f 0000 803f c8f7 7f3f
00000140: 0000 803f dd9a 7f3f 0000 803f cd1e 803f
00000150: 0000 803f e41d 793f 0000 803f c8d3 793f
00000160: 0000 803f 6d00 8c3f 0000 803f cc0d 893f
00000170: 0000 803f 06d2 7f3f 0000 803f 5d18 803f
00000180: 0000 803f 2b99 803f 0000 803f b704 803f
00000190: 0000 803f bbe6 7f3f 0000 803f e3e1 7f3f
000001a0: 0000 803f 8b0d 803f 0000 803f 0e01 803f
000001b0: 0000 803f 0a10 803f 0000 803f 63fd 7f3f
000001c0: 0000 803f 70fb 7f3f 0000 803f 5a0c 803f
000001d0: 0000 803f 09c1 803f 0000 803f 9b66 803f
000001e0: 0000 803f 6b20 813f 0000 803f d48a 803f
000001f0: 0000 803f 46f8 7f3f 0000 803f a707 803f
00000200: 0000 803f 94be 863f 0000 803f 6ef9 863f
00000210: 0000 803f 4be9 7f3f 0000 803f 7dec 7f3f
00000220: 0000 803f 4e27 803f 0000 803f 2412 803f
00000230: 0000 803f 0f0c 763f 0000 803f ed2e 753f
00000240: 0000 803f 526b 833f 0000 803f 08bd 813f
00000250: 0000 803f b8f0 7f3f 0000 803f b9e3 7f3f
00000260: 0000 803f 4702 803f 0000 803f 96ff 7f3f
00000270: 0000 803f 926d 803f 0000 803f 7015 803f
00000280: 0000 803f a47d 7f3f 0000 803f 950a 803f
00000290: 0000 803f f304 803f 0000 803f d6e5 7f3f
000002a0: 0000 803f cd0e 803f 0000 803f 3e10 803f
000002b0: 0000 803f e49a 8e3f 0000 803f 4a16 8f3f
000002c0: 0000 803f 2c20 803f 0000 803f 1024 803f
000002d0: 0000 803f 72e6 7f3f 0000 803f c404 803f
000002e0: 0000 803f eaea 803f 0000 803f 972f 7e3f
000002f0: 0000 803f 4d74 7e3f 0000 803f d651 7e3f
00000300: 0000 803f f0fb 7f3f 0000 803f 5200 803f
00000310: 0000 803f e9ed 843f 0000 803f 7bad 823f
00000320: 0000 803f dbe3 7f3f 0000 803f 92df 7f3f
00000330: 0000 803f 5bf8 7f3f 0000 803f f603 803f
00000340: 0000 803f 332c 793f 0000 803f fc5d 783f
00000350: 0000 803f f305 803f 0000 803f d841 7f3f
00000360: 0000 803f 8404 803f 0000 803f 7615 803f
00000370: 0000 803f b400 803f 0000 803f bf9b 813f
00000380: 0000 803f 90fe 7c3f 0000 803f f4fa 7e3f
00000390: 0000 803f 0bfe 7f3f 0000 803f b2e7 7f3f
000003a0: 0000 803f dc70 853f 0000 803f 19f5 863f
000003b0: 0000 803f b44f 823f 0000 803f 9287 813f
000003c0: 0000 803f 6e4a 7e3f 0000 803f a297 803f
000003d0: 0000 803f fa13 803f 0000 803f cfca 7f3f
000003e0: 0000 803f 04b0 7f3f 0000 803f f987 803f
000003f0: 0000 803f adcb 803f 0000 803f b486 803f
1.0 0.99637955 1.0 0.990027 1.0 0.9997252 1.0 1.0006194
1.0 1.0012904 1.0 1.0037388 1.0 1.0027895 1.0 1.0004762
1.0 1.0000181 1.0 0.9997849 1.0 1.0043659 1.0 1.0025016
1.0 1.0059198 1.0 1.0102179 1.0 0.9994076 1.0 0.9997281
1.0 1.0062252 1.0 1.0081352 1.0 1.00004 1.0 0.99998206
1.0 0.9981491 1.0 0.99861634 1.0 0.99961245 1.0 0.9996878
1.0 0.9997805 1.0 1.0000408 1.0 1.0160141 1.0 0.9969197
1.0 1.0001012 1.0 0.9998983 1.0 1.0104537 1.0 0.9995325
1.0 1.0714574 1.0 1.0596288 1.0 1.0011337 1.0 0.9988023
1.0 0.9975139 1.0 0.9867608 1.0 1.000161 1.0 0.9998746
1.0 0.9984568 1.0 1.00094 1.0 0.97311234 1.0 0.9758878
1.0 1.093763 1.0 1.0707335 1.0 0.99929845 1.0 1.0007435
1.0 1.0046743 1.0 1.0001439 1.0 0.9996144 1.0 0.9995405
1.0 1.0004133 1.0 1.0000322 1.0 1.0004895 1.0 0.9999601
1.0 0.9999304 1.0 1.0003769 1.0 1.005891 1.0 1.0031313
1.0 1.0088018 1.0 1.0042367 1.0 0.9998821 1.0 1.0002335
1.0 1.052691 1.0 1.054487 1.0 0.9996535 1.0 0.9997023
1.0 1.0011995 1.0 1.0005536 1.0 0.9611215 1.0 0.9577473
1.0 1.0267127 1.0 1.0135813 1.0 0.9997668 1.0 0.9995685
1.0 1.0000695 1.0 0.9999937 1.0 1.0033438 1.0 1.0006542
1.0 0.9980109 1.0 1.0003229 1.0 1.000151 1.0 0.99960077
1.0 1.0004517 1.0 1.0004957 1.0 1.1141019 1.0 1.1178677
1.0 1.0009818 1.0 1.0011005 1.0 0.99961007 1.0 1.0001454
1.0 1.007169 1.0 0.99291366 1.0 0.9939621 1.0 0.9934362
1.0 0.999938 1.0 1.0000098 1.0 1.0385104 1.0 1.0209192
1.0 0.99957055 1.0 0.99950516 1.0 0.99988335 1.0 1.0001209
1.0 0.9733307 1.0 0.9701841 1.0 1.0001816 1.0 0.99709845
1.0 1.0001378 1.0 1.0006549 1.0 1.0000215 1.0 1.0125655
1.0 0.9882593 1.0 0.99601674 1.0 0.99997014 1.0 0.99962914
1.0 1.0425067 1.0 1.0543548 1.0 1.0180573 1.0 1.0119498
1.0 0.9933232 1.0 1.0046275 1.0 1.0006096 1.0 0.99918836
1.0 0.99877954 1.0 1.0041496 1.0 1.0062157 1.0 1.0041108

bn1d1.bias f4 [512]
00000000: 995f 0d3c e25a 213c 48d9 bebb 2451 213c
00000010: 54dc d43b 6d94 153b 74b3 d33b 0ccd b13c
00000020: 8c10 59bc e5b9 353c d63f 44ba 8655 973c
00000030: 876f e33b fc74 efbc bee1 513c d32a 73bc
00000040: 1999 83bb c893 fdbb a079 b63b be3a 9e3b
00000050: 3054 8b39 5967 30bd 97a5 68bb e591 f8bc
00000060: 3f9c ac3c eafc 96bc c365 0fbd 895b bc3c
00000070: 5cf9 3d3a f9fc 8a3c 3548 91bb 16df 3a3c
00000080: 11d8 12bc d07c 2b3d 2f5a 303b ee63 4c3d
00000090: 7775 0aba f9b5 acbb ddb6 77bc ea23 bf3b
000000a0: fa9c a1b9 7c90 23bc 5453 a63c 281f 2ebc
000000b0: 10ae e9ba 4de2 4abb fb02 383b fc15 273c
000000c0: 1e76 f139 660d eebb e853 a23c 288a 07bc
000000d0: d2ed 5e3c 8ae8 563c 2a10 d7bb db9f af3b
000000e0: ac3e 073d 5f7d 9b3b ddb1 173c 538e 18bc
000000f0: d0e6 2bbc 6aee 36bd be24 b5b8 d50e 90bd
00000100: 6b67 7f3c 8ea0 cf3c 5b7d 953c 0ccb 7b3c
00000110: 894e 04bb a570 7c3c feee 203b aea1 d73b
00000120: 14be a63c 6d4f 2abd c5c3 84bc a4ce e2bb
00000130: c2b4 013b 7679 22bb 478c 3fba d637 65bb
00000140: b292 f6ba ea76 cbbc cae9 95bb c6c3 a13c
00000150: 34c6 cf3a 2626 7cbd a08b 933b e7ee 1abd
00000160: d379 7abb a0d8 77bb 8d08 843b ef9f 9d3a
00000170: f06a 2d3c 0796 50bc 4c57 73bc eb62 9a3c
00000180: 6b92 80bb e8d8 7abc d126 44bc fa59 cd39
00000190: 8b59 023c aef8 98bc dc5c 18bc eace e2bb
000001a0: c26a 813b 9737 28bb cb87 0f39 36a9 bd3b
000001b0: 5468 69bc 3f47 e0bb 9742 5d3c 5d3d 1e3c
000001c0: 9e58 1fbc 1c9e 7c3b 5c25 97bc 4dec 823b
000001d0: 31b9 653c 360c 2ebd bcec b23c 6284 d8bc
000001e0: fba7 78bc 3d3f 23bd af3e 173b 72db d4bc
000001f0: c9ea 023d b341 bc3b f63f aa3c c2ba 19bc
00000200: 3130 643c a89f 15bd 3128 a53b 43f4 f4bc
00000210: cc11 ffba 949c 2cbc 9b66 9b3c a069 d6bb
00000220: ebe7 843c b614 e3bb 3ed5 cf3b 2dcf 27bc
00000230: f595 1c3c aab5 7a3d ad3c cf3b 46e8 8a3d
00000240: 6b2d 8e3c 08ab adbd 2dc1 cdba 8dee b7bd
00000250: f0c4 c5bb 8a6b 6cbc c759 103a 17a6 a1bb
00000260: 5780 74bc b86d 403c b22e a1bc f3c2 8cbc
00000270: 713f 1bbb 0e7c 803c 1514 cd3c 6d89 773b
00000280: 07fa 703c ff0d cbbc f2eb 50bc 2c31 7dbc
00000290: 7a99 9838 165d ce3b 9068 71bc 6273 933c
000002a0: b4ae 8d3a 9a4d 783b 0f02 05bc 377e 75bc
000002b0: 7c08 84bc a8fe 64bd 7b25 3abc 123f 03bd
000002c0: a4f6 5ebc 97be c0bb 7c01 abbc ce6d d6bc
000002d0: bd40 70bb 6b67 23bc 75ce 453c 86a6 353b
000002e0: baef 90ba 5638 9fbd 4a17 09bb bc6b 4cbd
000002f0: 4a34 713b 6e21 93bb e1dd 683b c54d 92bc
00000300: 5bed 22bc b4bd ec38 5460 0b3b d6b2 fb3b
00000310: 2926 0fbd 55ec 993d 7c18 733c d15c 3f3d
00000320: 392a 003b a7b8 c93b dd24 41bb 2263 f1ba
00000330: c6b1 683c f394 78bb 317b 34bc 5864 a3bb
00000340: cc65 703b 19fe 52bd 8fe9 aa3c 428f 3cbd
00000350: 3f67 06bb fd30 08bc 5b69 443c df5e 20bb
00000360: 2fd7 14bc a8cb 5fbc f371 583a 4f08 a0bb
00000370: f6d0 853c 52ff ebbc 7613 9b3c cb83 d9bc
00000380: 26b2 d5ba c85d 0cbd 8b07 d8bb cc7d 82bc
00000390: f891 cfbb e4db 1bbc 5c92 af3c 4aba 4fbc
000003a0: ec53 edba 3d89 483d 1cbf a93b 7b22 593d
000003b0: f2d7 a038 3e5d babd fc03 8e3a 2510 81bd
000003c0: 6af5 563c 4856 f9bd b1bb e53b bcb6 efbd
000003d0: 2ba5 993c 677e 3d3c 4006 0abc f8b2 24bb
000003e0: a7ad 733a e8e4 96bd 9f9c 5bbc 0a00 a3bd
000003f0: fed1 763a 4f9d b33b fa64 4c3c 2fe3 15bc
0.008628749 0.009848328 -0.005824242 0.009846006 0.0064959917 0.0022824064 0.0064606015 0.02170422
-0.013248574 0.011091684 -0.0007486319 0.018473398 0.0069407853 -0.029230587 0.012810169 -0.014841753
-0.0040160534 -0.007738564 0.005568698 0.00482878 0.0002657487 -0.04306731 -0.003549909 -0.030343005
0.021070598 -0.018431146 -0.035009157 0.022992866 0.0007246935 0.01696633 -0.0044336566 0.011405727
-0.008962647 0.041867077 0.0026909222 0.049899988 -0.0005281786 -0.0052707163 -0.015119282 0.0058331387
-0.0003082527 -0.009983178 0.020303406 -0.010627545 -0.0017828364 -0.003095764 0.0028077948 0.010198113
0.00046055106 -0.007264781 0.0198154 -0.008272685 0.0136065055 0.013116965 -0.006563206 0.0053596324
0.033018753 0.00474517 0.0092587145 -0.0093112765 -0.010492042 -0.044660963 -8.637596e-05 -0.07034079
0.015588622 0.025345113 0.01824825 0.015368234 -0.0020188412 0.015407716 0.0024556513 0.006580553
0.020354308 -0.041579653 -0.016206631 -0.006921606 0.0019791578 -0.0024791635 -0.0007306975 -0.0034975908
-0.0018812029 -0.024836976 -0.004574989 0.019746672 0.0015851916 -0.06155982 0.0045027286 -0.03782549
-0.0038219586 -0.0037818328 0.0040293396 0.0012025813 0.010584578 -0.012731082 -0.014852356 0.018845996
-0.0039237044 -0.015310504 -0.011972145 0.00039167685 0.007955919 -0.018673267 -0.009299483 -0.0069216387
0.003949494 -0.00256679 0.0001368813 0.005787994 -0.014246065 -0.0068444307 0.013504646 0.009658185
-0.009725718 0.003854639 -0.018450432 0.0039954544 0.014021204 -0.042492114 0.0218414 -0.026430313
-0.015176768 -0.03985523 0.0023078134 -0.025983546 0.03196219 0.0057451366 0.020782452 -0.009382905
0.013927505 -0.036529213 0.0050401916 -0.02990163 -0.001946026 -0.010535378 0.018969825 -0.006543353
0.016223868 -0.006929959 0.006342559 -0.010242266 0.009557237 0.061208405 0.006324372 0.06782584
0.017355641 -0.08479887 -0.001569783 -0.08981047 -0.0060354397 -0.014429936 0.0005506542 -0.0049331295
-0.014923177 0.011744909 -0.019675586 -0.017182803 -0.0023688937 0.015684154 0.02503399 0.003777112
0.014708049 -0.024786947 -0.012751566 -0.015453618 7.276512e-05 0.006297718 -0.014734402 0.017999355
0.0010809512 0.003788805 -0.008118167 -0.014983705 -0.016117327 -0.05590692 -0.011361475 -0.03204257
-0.013608608 -0.005882095 -0.020874731 -0.026175406 -0.003665968 -0.009973387 0.012073149 0.0027717664
-0.0011057772 -0.07774417 -0.0020918422 -0.04990743 0.0036804848 -0.004490069 0.003553264 -0.017859349
-0.009944285 0.00011288692 0.0021267133 0.007681231 -0.0349485 0.0751578 0.0148373805 0.046719376
0.0019556417 0.0061560455 -0.0029471435 -0.0018416385 0.014202541 -0.0037930578 -0.011015699 -0.004986327
0.003668177 -0.051511858 0.020863323 -0.04603506 -0.0020508317 -0.008312461 0.011988009 -0.002447061
-0.009084507 -0.013659395 0.0008256726 -0.004883803 0.016334992 -0.02880827 0.018930178 -0.026552102
-0.0016303703 -0.034269124 -0.006592696 -0.015929125 -0.0063345395 -0.009512875 0.021432094 -0.012678692
-0.0018106676 0.048959006 0.0051802527 0.0530114 7.6696175e-05 -0.09099816 0.0010834928 -0.063019074
0.013120035 -0.1217466 0.0070109 -0.11704776 0.018755516 0.011565781 -0.008424342 -0.0025131088
0.00092955906 -0.07367879 -0.013404041 -0.07958992 0.00094154465 0.005481399 0.012475247 -0.009148403

bn1d1.running_mean f4 [512]
00000000: 0000 0000 1169 4c3e 0000 0000 6509 5b3e
00000010: 0000 0000 d77f 2e3d 0000 0000 526c 3d3d
00000020: 0000 0000 959d bd3d 0000 0000 f7a9 cc3d
00000030: e6ed 4533 e770 043d 0400 0000 9ebf 0e3d
00000040: 0400 0000 0fbd be3c 0400 0000 9742 cf3c
00000050: 0000 0000 e592 f83e 0000 0000 04d6 033f
00000060: 0000 0000 4071 753e 0000 0000 c173 843e
00000070: 2494 a930 2658 f23b 0400 0000 96de 033c
00000080: 0400 0000 6b4d e03e 0400 0000 590f ed3e
00000090: 0400 0000 fa2c 9b3c 0400 0000 bd83 a83c
000000a0: 0000 0000 a414 d63d 0000 0000 0a82 e73d
000000b0: 0400 0000 3815 c73c 0400 0000 8b2b d83c
000000c0: 69da 4433 15b1 1e3c 0400 0000 3b9f 2c3c
000000d0: 0000 0000 5ff2 5b3e 0000 0000 ca52 6b3e
000000e0: a5be 892f bbbf 723c 0400 0000 f8dc 833c
000000f0: 0400 0000 3eea 7e3e 0400 0000 4353 883e
00000100: 0400 0000 fda5 953e 0000 0000 0daf 9f3e
00000110: a5be 892f 3ef6 393d 0400 0000 37fc 483d
00000120: 0400 0000 32c7 473e 0400 0000 e7b4 563e
00000130: 0400 0000 5375 b43c 0400 0000 5eef c33c
00000140: 0000 0000 81d7 153d 0000 0000 939a 223d
00000150: 0000 0000 4f6c 8c3e 0000 0000 7929 963e
00000160: 0400 0000 1e6e dc3e 0400 0000 af9e e83e
00000170: 0000 0000 1835 f13c 0000 0000 f2f8 023d
00000180: 0000 0000 eba5 043e 0000 0000 b301 0f3e
00000190: 0400 0000 821b 963c 0400 0000 cd1a a33c
000001a0: 0000 0000 4993 9b3d 0000 0000 91c2 a83d
000001b0: 0000 0000 be50 753d 0000 0000 8228 853d
000001c0: 0400 0000 824d e83c 0400 0000 543b fc3c
000001d0: 0400 0000 c573 003e 0000 0000 18a0 0a3e
000001e0: 0400 0000 3a9b 733e 0400 0000 c815 823e
000001f0: 69a5 b931 d7e5 a73c 0400 0000 863a b63c
00000200: 0400 0000 585c 0c3e 0400 0000 9bab 163e
00000210: 0000 0000 754b fb3c 0000 0000 4a95 083d
00000220: 0000 0000 70e8 973d 0000 0000 9a8e a43d
00000230: 0000 0000 6aa1 ff3e 0000 0000 c18d 063f
00000240: 0400 0000 de1d f53e 0000 0000 410b 013f
00000250: 0400 0000 b85d bd3c 0400 0000 f294 cd3c
00000260: 0000 0000 67ed 213d 0000 0000 a4d7 2f3d
00000270: 0400 0000 aa78 c43d 0000 0000 ea68 d43d
00000280: a5be 892f a27b 543d 0400 0000 4a03 663d
00000290: 0400 0000 6757 943c 0400 0000 341f a13c
000002a0: 0000 0000 2711 ad3d 0000 0000 c9ce bb3d
000002b0: 0400 0000 4097 223e 0400 0000 bb70 2e3e
000002c0: 0400 0000 940a 463d 0400 0000 8cc7 563d
000002d0: 0000 0000 4173 7d3d 0000 0000 1ea7 893d
000002e0: 2494 a930 dd38 fc3d 0000 0000 74dc 073e
000002f0: 0000 0000 3307 303e 0400 0000 8cba 3c3e
00000300: 0400 0000 5492 6d3c 0400 0000 9417 813c
00000310: 0400 0000 e7ec ad3e 0400 0000 9665 b83e
00000320: 0000 0000 1928 053d 0000 0000 daa6 103d
00000330: 0400 0000 fac8 803c 0400 0000 8fda 8b3c
00000340: 0000 0000 3dad f43e 0000 0000 2099 013f
00000350: 0400 0000 2d4b 133e 0000 0000 c049 1e3e
00000360: 0000 0000 3215 593d 0000 0000 9c64 6b3d
00000370: 0000 0000 6165 df3d 0000 0000 964e f03d
00000380: 0000 0000 baed 583e 0000 0000 8cbd 683e
00000390: 9727 bd32 a089 593c 0400 0000 f470 6c3c
000003a0: 0400 0000 7fb7 4f3e 0400 0000 b646 5c3e
000003b0: 0400 0000 9be5 a23e 0400 0000 89b9 ab3e
000003c0: 0000 0000 e696 e13e 0000 0000 f7df ee3e
000003d0: 0000 0000 2965 203d 0000 0000 d11b 2e3d
000003e0: 0000 0000 66f0 923e 0000 0000 5a3d 9c3e
000003f0: 0400 0000 541f e33d 0000 0000 af3d f53d
0.0 0.19961955 0.0 0.21390302 0.0 0.042602386 0.0 0.04624588
0.0 0.09258572 0.0 0.09993356 4.6084004e-08 0.032334235 6e-45 0.03485071
6e-45 0.02328351 6e-45 0.025300307 0.0 0.48549572 0.0 0.51498437
0.0 0.23968983 0.0 0.25869563 1.2338472e-09 0.007395762 6e-45 0.008048674
6e-45 0.43809065 6e-45 0.46300772 6e-45 0.018942345 6e-45 0.02057063
0.0 0.10453156 0.0 0.113041 6e-45 0.02430211 6e-45 0.02638795
4.583345e-08 0.009685774 6e-45 0.01053601 0.0 0.21479176 0.0 0.229808
2.5055616e-10 0.01481622 6e-45 0.016096577 6e-45 0.24894044 6e-45 0.26626024
6e-45 0.29228202 0.0 0.3118824 2.5055616e-10 0.04540085 6e-45 0.049068656
6e-45 0.1950958 6e-45 0.20967446 6e-45 0.0220286 6e-45 0.02391785
0.0 0.036582474 0.0 0.039698195 0.0 0.27426383 0.0 0.29328516
6e-45 0.43052763 6e-45 0.45433566 0.0 0.029444262 0.0 0.031975694
0.0 0.12953918 0.0 0.13965492 6e-45 0.018323664 6e-45 0.01991024
0.0 0.07596452 0.0 0.082402356 0.0 0.059891455 0.0 0.06501867
6e-45 0.028357271 6e-45 0.030790009 6e-45 0.12544163 0.0 0.13537633
6e-45 0.23789683 6e-45 0.25407243 5.4030136e-09 0.020495338 6e-45 0.022244703
6e-45 0.13707101 6e-45 0.147139 0.0 0.03067563 0.0 0.0333455
0.0 0.07417381 0.0 0.080350116 0.0 0.49927837 0.0 0.5256005
6e-45 0.4787435 0.0 0.504078 6e-45 0.023115978 6e-45 0.025095437
0.0 0.039533045 0.0 0.04293026 6e-45 0.09593327 0.0 0.10371573
2.5055616e-10 0.051875718 6e-45 0.05615548 6e-45 0.018108083 6e-45 0.0196682
0.0 0.08450537 0.0 0.091703005 6e-45 0.1587801 6e-45 0.17035191
6e-45 0.04834993 6e-45 0.052436396 0.0 0.061877493 0.0 0.06721328
1.2338472e-09 0.12315533 0.0 0.1326769 0.0 0.17190246 6e-45 0.18430537
6e-45 0.014500219 6e-45 0.015758313 6e-45 0.33969805 6e-45 0.36015004
0.0 0.032508943 0.0 0.035315372 6e-45 0.015720833 6e-45 0.01707199
0.0 0.4778842 0.0 0.50624275 6e-45 0.14384146 0.0 0.15457821
0.0 0.05299873 0.0 0.057468995 0.0 0.10908008 0.0 0.11733739
0.0 0.21184435 0.0 0.22728556 2.20205e-08 0.013277441 6e-45 0.014431227
6e-45 0.20284842 6e-45 0.21511349 6e-45 0.318158 6e-45 0.3353999
0.0 0.4406044 0.0 0.46655247 0.0 0.039158974 0.0 0.042506997
0.0 0.28699034 0.0 0.30515558 6e-45 0.1108996 0.0 0.11974656

bn1d1.running_var f4 [512]
00000000: 0400 0000 760c ae38 0400 0000 ff73 0039
00000010: 0400 0000 8ce1 8932 0400 0000 9070 d332
00000020: 0400 0000 db0b 1d37 0400 0000 90ad 6a37
00000030: 0400 0000 51d5 c435 0400 0000 ba12 0d36
00000040: 0400 0000 fffa 0530 0400 0000 259f 5030
00000050: 0400 0000 c521 193b 0400 0000 46c2 5a3b
00000060: 0400 0000 4552 9037 0400 0000 479d dc37
00000070: 0400 0000 cc03 a42d 0400 0000 49d8 ff2d
00000080: 0400 0000 4c58 3e3b 0400 0000 634e 843b
00000090: 0400 0000 b82f be30 0400 0000 066a 1331
000000a0: 0400 0000 3fb6 c835 0400 0000 9430 1936
000000b0: 0400 0000 4576 db30 0400 0000 2a9f 2931
000000c0: 0400 0000 b28a f12d 0400 0000 0e6d 3b2e
000000d0: 0400 0000 5356 1c39 0400 0000 546f 6439
000000e0: 0400 0000 29ff fc2f 0400 0000 fd41 4230
000000f0: 0400 0000 321f 8c39 0400 0000 9528 c439
00000100: 0400 0000 f8b0 e039 0400 0000 4071 233a
00000110: 0400 0000 984b ee34 0400 0000 6192 3235
00000120: 0400 0000 4301 2538 0400 0000 5ec8 7538
00000130: 0400 0000 3c69 ce30 0400 0000 1cce 1f31
00000140: 0400 0000 ca31 3932 0400 0000 c684 8e32
00000150: 0400 0000 5486 9039 0400 0000 e7ff d039
00000160: 0400 0000 9178 563b 0400 0000 4850 943b
00000170: 0400 0000 96b8 0931 0400 0000 e055 5531
00000180: 0400 0000 6d2c 0b37 0400 0000 079e 5037
00000190: 0400 0000 4c16 6e30 0400 0000 a611 b830
000001a0: 0400 0000 5a76 a033 0400 0000 cffb f733
000001b0: 0400 0000 e5d3 8b32 0400 0000 0204 d832
000001c0: 0400 0000 64d4 1c31 0400 0000 0775 7231
000001d0: 0400 0000 0a06 c036 0400 0000 a5aa 1237
000001e0: 0400 0000 7010 6839 0400 0000 e705 a939
000001f0: 0400 0000 1580 7f31 0400 0000 42ec c331
00000200: 0400 0000 668d 0e38 0400 0000 ce33 4f38
00000210: 0400 0000 e4b4 0030 0400 0000 8564 4830
00000220: 0400 0000 aeed 5834 0400 0000 9442 a634
00000230: 0400 0000 602b c63b 0400 0000 11df 073c
00000240: 0400 0000 2649 9e3b 0400 0000 416c dc3b
00000250: 0400 0000 1d57 5d31 0400 0000 aaf5 aa31
00000260: 0400 0000 463a 9431 0400 0000 4f5f e631
00000270: 0400 0000 9cbf a535 0400 0000 34cc fd35
00000280: 0400 0000 7854 4d34 0400 0000 16c4 9c34
00000290: 0400 0000 d49e 3030 0400 0000 29fc 8830
000002a0: 0400 0000 24b7 6833 0400 0000 2f22 b433
000002b0: 0400 0000 3f34 a438 0400 0000 ea82 ed38
000002c0: 0400 0000 9b24 8933 0400 0000 cfd7 cf33
000002d0: 0400 0000 9fe6 f831 0400 0000 cb4e 4132
000002e0: 8d7d ab0d f0b5 2237 0400 0000 8773 7637
000002f0: 0400 0000 fd33 6b38 0400 0000 49fe ac38
00000300: 0400 0000 6d97 442f 0400 0000 1b12 982f
00000310: 0400 0000 a50b a13a 0400 0000 a337 e53a
00000320: 0400 0000 e9ea d930 0400 0000 d0e5 2831
00000330: 0400 0000 b399 aa30 0400 0000 9b24 0331
00000340: 0400 0000 ba93 353b 0400 0000 0ada 803b
00000350: 0400 0000 a243 3a38 0400 0000 82cb 8838
00000360: 0400 0000 c0cc 9833 0400 0000 3e58 e933
00000370: 0400 0000 08b1 3537 0400 0000 72aa 8537
00000380: 0400 0000 a135 0c39 0400 0000 2338 4539
00000390: 0400 0000 123a 3e2f 0400 0000 b3df 932f
000003a0: 0400 0000 989f 143a 0400 0000 c2cb 433a
000003b0: 0400 0000 c3dd 173b 0400 0000 b540 4c3b
000003c0: 0400 0000 8130 8c3b 0400 0000 69db b53b
000003d0: 0400 0000 8a3a af32 0400 0000 7498 0733
000003e0: 0400 0000 b954 323a 0400 0000 81a5 7d3a
000003f0: 0400 0000 4432 9236 0400 0000 4eff dc36
6e-45 8.2992876e-05 6e-45 0.00012250243 6e-45 1.6051466e-08 6e-45 2.461482e-08
6e-45 9.36069e-06 6e-45 1.3987898e-05 6e-45 1.4665221e-06 6e-45 2.1021538e-06
6e-45 4.8741805e-10 6e-45 7.5896117e-10 6e-45 0.0023366075 6e-45 0.0033379956
6e-45 1.7204447e-05 6e-45 2.6299282e-05 6e-45 1.8646328e-11 6e-45 2.9086194e-11
6e-45 0.0029044328 6e-45 0.0040376647 6e-45 1.3837882e-09 6e-45 2.1451583e-09
6e-45 1.4954202e-06 6e-45 2.2827053e-06 6e-45 1.5967961e-09 6e-45 2.468321e-09
6e-45 2.7460121e-11 6e-45 4.2615737e-11 6e-45 0.00014909478 6e-45 0.00021785247
6e-45 4.6019835e-10 6e-45 7.0670564e-10 6e-45 0.00026726123 6e-45 0.0003741427
6e-45 0.0004285646 6e-45 0.0006234832 6e-45 4.4385956e-07 6e-45 6.6523177e-07
6e-45 3.934024e-05 6e-45 5.859916e-05 6e-45 1.5018382e-09 6e-45 2.3254705e-09
6e-45 1.0779738e-08 6e-45 1.6591354e-08 6e-45 0.00027565903 6e-45 0.00039863514
6e-45 0.0032725672 6e-45 0.004526172 6e-45 2.0041049e-09 6e-45 3.1044394e-09
6e-45 8.295389e-06 6e-45 1.243456e-05 6e-45 8.661558e-10 6e-45 1.3392778e-09
6e-45 7.4721086e-08 6e-45 1.15476375e-07 6e-45 1.6278088e-08 6e-45 2.5147532e-08
6e-45 2.2821718e-09 6e-45 3.5282157e-09 6e-45 5.722749e-06 6e-45 8.742009e-06
6e-45 0.00022131368 6e-45 0.0003223859 6e-45 3.718019e-09 6e-45 5.7021063e-09
6e-45 3.3987126e-05 6e-45 4.9400893e-05 6e-45 4.682319e-10 6e-45 7.2902423e-10
6e-45 2.0203035e-07 6e-45 3.0968351e-07 6e-45 0.006047651 6e-45 0.008292929
6e-45 0.0048304973 6e-45 0.006726772 6e-45 3.220925e-09 6e-45 4.97558e-09
6e-45 4.313992e-09 6e-45 6.7047163e-09 6e-45 1.2349224e-06 6e-45 1.89094e-06
6e-45 1.9122842e-07 6e-45 2.9199936e-07 6e-45 6.4254135e-10 6e-45 9.966971e-10
6e-45 5.4183275e-08 6e-45 8.388121e-08 6e-45 7.829861e-05 6e-45 0.00011325425
6e-45 6.386218e-08 6e-45 9.678444e-08 6e-45 7.2439685e-09 6e-45 1.1251994e-08
1.0568914e-30 9.698313e-06 6e-45 1.4689641e-05 6e-45 5.6076784e-05 6e-45 8.2489634e-05
6e-45 1.7879893e-10 6e-45 2.7661504e-10 6e-45 0.0012286796 6e-45 0.0017487895
6e-45 1.5855594e-09 6e-45 2.457785e-09 6e-45 1.2412812e-09 6e-45 1.9083817e-09
6e-45 0.002770646 6e-45 0.0039322423 6e-45 4.4408844e-05 6e-45 6.5228916e-05
6e-45 7.1152954e-08 6e-45 1.0865959e-07 6e-45 1.0829659e-05 6e-45 1.5934205e-05
6e-45 0.00013371419 6e-45 0.00018808297 6e-45 1.730103e-10 6e-45 2.6898092e-10
6e-45 0.0005669533 6e-45 0.0007469022 6e-45 0.0023172952 6e-45 0.0031166498
6e-45 0.004278243 6e-45 0.0055498374 6e-45 2.0399302e-08 6e-45 3.1570792e-08
6e-45 0.0006802786 6e-45 0.0009675846 6e-45 4.3569908e-06 6e-45 6.5862323e-06

SA.in_proj_weight f4 [12, 4]
00000000: c8d6 90be 9c0a 033f c4c4 4abd 2eed e23e
00000010: 6fc3 69be 8a89 b13e b172 f63d 037d a83e
00000020: 803a 11bf 750c 9d3d 2b78 e93e f00f 173f
00000030: f8c7 3bbe 7df4 013f c025 1dbf c0f3 b7bd
00000040: c674 17bf 203f b6be 03b0 1abf 46eb 043f
00000050: bc32 00bf 30d8 e9bd 7d1c 783e 0576 debe
00000060: 2b26 963e 5db9 e1be 6cd7 9f3e 4455 0abf
00000070: 75fe 88be d1f8 0a3f 0e70 853e 9b7c d0be
00000080: 4eaa a6be ebbf 20bf 2161 96bd 38fc 473e
00000090: aeab 7cbe 8c60 f7be cb87 47bf 287c 6abe
000000a0: 735c 9e3d aa1e 933e 23d5 acbe 00cc 8d3d
000000b0: 20a5 623e c06a e6bd 43a3 a93d e12e 1b3e
-0.28288865 0.51188064 -0.049504057 0.4432158 -0.22828458 0.34675246 0.120335944 0.32907876
-0.5672989 0.076683916 0.45599493 0.59008694 -0.18338001 0.50763685 -0.61385727 -0.089820385
-0.5916256 -0.35595036 -0.6042482 0.519215 -0.50077415 -0.114181876 0.24229617 -0.43449417
0.29325995 -0.44086733 0.3121904 -0.54036355 -0.26756635 0.54285914 0.26062053 -0.40720066
-0.32551807 -0.62792844 -0.073427446 0.19529808 -0.24674866 -0.48315847 -0.7794158 -0.22898924
0.07732477 0.28734332 -0.3375636 0.069236755 0.22133303 -0.1125083 0.08283093 0.15154602

SA.in_proj_bias f4 [12]
00000000: 6894 1bbd 92b8 17be 18fd 9f39 9ec3 2239
00000010: 994e f331 6281 23b4 71fd e8af d7c2 40b1
00000020: fd23 58b7 c481 6bb7 5d67 6b36 ef0f a035
-0.037983328 -0.14816502 0.00030515413 0.00015522397 7.0811663e-09 -1.5227627e-07 -4.2380635e-10 -2.805043e-09
-1.2882982e-05 -1.4037305e-05 3.5077894e-06 1.1925566e-06

SA.out_proj.weight f4 [4, 4]
00000000: 907a aa3d a071 46bd 3cfe b33e 1ad2 efbe
00000010: bb58 a3bc 9989 34bf 9e55 5dbe 9539 db3d
00000020: 80fd 043d 7853 be3e 9816 9a3d 7224 f4be
00000030: 1197 25bf 424a e8be 0ade 493e f239 8c3d
0.08324158 -0.048448205 0.35154903 -0.46839982 -0.01993977 -0.7052246 -0.21614692 0.10704342
0.03246832 0.37173057 0.07523841 -0.47684056 -0.64683634 -0.45369154 0.19713607 0.0684699

SA.out_proj.bias f4 [4]
00000000: 232e 3434 1723 9537 00d3 3834 b608 db37
1.6780591e-07 1.7778524e-05 1.7213097e-07 2.611089e-05
