images/models/other_models/Attention/best_models7.pth.tar (torch, 471215 bytes, 18 tensors)

bn1d0.weight f4 [739]
000000 11 a9 38 3f cd 97 82 3f 9a 28 68 3f 87 36 5a 3f
       0.72132975 1.0202576 0.90686953 0.8523945
000010 55 98 84 3f 80 12 85 3f be 0f 82 3f 9d c2 81 3f
       1.0358988 1.0396271 1.0161054 1.0137516
000020 21 79 8e 3f d8 d0 70 3f c8 17 7e 3f 17 83 62 3f
       1.1130716 0.9406867 0.9925504 0.8848128
000030 c1 c0 9a 3f 1b 6a 86 3f c3 2e 78 3f d7 da 7e 3f
       1.2090074 1.0501131 0.9694635 0.99552673
000040 7a c0 75 3f 97 4c 84 3f 3f aa 75 3f 81 35 73 3f
       0.9599682 1.0335873 0.959629 0.95003515
000050 9f 50 85 3f f5 a8 78 3f bf 95 79 3f 5e 4e 74 3f
       1.0415229 0.9713281 0.9749412 0.9543208
000060 a0 d5 7b 3f d7 c8 87 3f 8a e7 93 3f f2 7b 77 3f
       0.9837284 1.0608166 1.1555035 0.966735
000070 8f 3b 7e 3f c3 e4 95 3f 58 85 83 3f c4 33 91 3f
       0.9930963 1.1710438 1.0275068 1.1343923
000080 90 f7 82 3f c0 f2 86 3f c9 4d 82 3f e9 36 81 3f
       1.02318 1.0542831 1.0179988 1.0094882
000090 ab c0 8f 3f 13 3a 84 3f a9 68 82 3f 63 f8 81 3f
       1.1230673 1.0330223 1.018819 1.0153927
0000a0 03 28 7e 3f 23 f5 87 3f 57 1e 7f 3f 18 e2 7c 3f
       0.99279803 1.0621685 0.9965567 0.9878249
0000b0 94 ed 7f 3f f5 83 91 3f 0b f4 8a 3f 9c 8f 7c 3f
       0.9997189 1.1368395 1.0855726 0.9865663
0000c0 79 40 80 3f 6b 75 80 3f 9e 85 83 3f 25 b9 7e 3f
       1.0019675 1.0035833 1.0275152 0.9950126
0000d0 e9 e4 7d 3f e1 00 7f 3f bb f5 7e 3f 4d cf 8a 3f
       0.99177414 0.99610716 0.99593705 1.0844513
0000e0 64 99 a2 3f 64 03 80 3f 75 91 7c 3f 02 95 90 3f
       1.2703061 1.0001035 0.9865945 1.1295474
0000f0 76 fd a1 3f 25 1b 91 3f 11 a9 85 3f 98 58 7d 3f
       1.2655475 1.1336409 1.044222 0.9896331
000100 35 78 7e 3f 05 25 8a 3f d3 38 79 3f 80 44 83 3f
       0.9940217 1.0792547 0.9735233 1.025528
000110 ac 2c 86 3f 42 28 86 3f c3 20 7d 3f 3a 08 7d 3f
       1.0482383 1.0481036 0.98878115 0.9884068
000120 18 b7 7d 3f 6e 1c 80 3f 49 03 7f 3f 69 58 81 3f
       0.99107504 1.0008676 0.9961439 1.0105106
000130 4c 4c 7d 3f d0 19 80 3f 95 c2 7f 3f ff 95 80 3f
       0.98944545 1.0007877 0.99906284 1.0045775
000140 c4 dc 7d 3f 71 b2 7f 3f d2 30 7f 3f 7c 64 81 3f
       0.99164987 0.99881655 0.9968387 1.010879
000150 31 17 7f 3f de 70 7f 3f a4 db 81 3f 25 5c 80 3f
       0.9964476 0.99781597 1.0145154 1.002812
000160 35 d2 8c 3f 1d 22 81 3f 0b 7c 84 3f 50 db 80 3f
       1.100165 1.0088536 1.0350355 1.0066929
000170 66 9f 81 3f b3 b5 82 3f 91 ce 8c 3f 73 45 81 3f
       1.012677 1.02117 1.1000539 1.0099319
000180 ac 11 7f 3f 14 da 80 3f 6f 17 80 3f af 26 7d 3f
       0.9963634 1.0066552 1.0007151 0.9888715
000190 eb fd 85 3f ef a5 83 3f 29 5e 7e 3f 44 d1 7e 3f
       1.0468115 1.0285014 0.99362427 0.99538064
0001a0 6a 8e 7f 3f 87 7d 83 3f 51 1d 9b 3f 41 c5 7f 3f
       0.9982668 1.0272683 1.2118322 0.9991036
0001b0 77 8c 7e 3f 28 de 7f 3f 41 22 82 3f 38 9f 82 3f
       0.9943308 0.9994836 1.0166703 1.020484
0001c0 4e 18 7b 3f 1f e2 84 3f dd ea 80 3f 22 00 89 3f
       0.9808396 1.0381507 1.0071675 1.0703166
0001d0 7b 7a 7a 3f f7 cf 7d 3f cb 0f 7f 3f 45 a8 83 3f
       0.9784314 0.99145454 0.99633473 1.0285727
0001e0 e0 03 8a 3f f1 71 7e 3f 4f 8a 7d 3f d9 b3 79 3f
       1.0782433 0.9939261 0.9903917 0.9754005
0001f0 9c 44 82 3f 8d 81 8f 3f 8a d7 76 3f cb 47 6e 3f
       1.0177188 1.1211411 0.96422637 0.930783
000200 0e 9e 6a 3f bd 3b 6a 3f af 67 6b 3f 06 56 61 3f
       0.9164742 0.91497403 0.91955084 0.88021886
000210 b8 a2 6a 3f 7f 9d 68 3f 6b 20 71 3f 52 2f 80 3f
       0.9165454 0.9086532 0.9419009 1.0014441
000220 1a ee 84 3f fd c1 80 3f 22 af 7c 3f 12 9e 8e 3f
       1.0385163 1.00592 0.9870473 1.1141989
000230 15 bb 83 3f 85 47 80 3f 5e 1f 8c 3f 11 9b 7d 3f
       1.0291468 1.0021826 1.0947073 0.9906474
000240 7d 33 81 3f d2 e0 7f 3f af 6b 81 3f c0 b5 81 3f
       1.0093838 0.99952424 1.0110987 1.0133591
000250 bb 01 7e 3f a9 aa 80 3f b0 1d 80 3f 91 3d 84 3f
       0.9922139 1.0052081 1.000906 1.0331289
000260 90 c4 82 3f 8f bf 7e 3f 2f 4c 80 3f 79 70 7e 3f
       1.0216236 0.99511045 1.0023249 0.9939037
000270 3c 17 7d 3f 4a cc 81 3f 10 ae 88 3f 7c 3b 81 3f
       0.9886358 1.0140469 1.067812 1.0096278
000280 01 b0 7f 3f 79 f3 7f 3f fc d1 9e 3f 4c d5 7d 3f
       0.99877936 0.99980885 1.2407832 0.9915359
000290 72 7c 7e 3f b5 85 85 3f a3 2e 82 3f 56 0a 80 3f
       0.9940864 1.0431429 1.0170482 1.0003154
0002a0 da b3 80 3f f9 1a 8c 3f 70 f2 7e 3f fc 76 82 3f
       1.0054886 1.0945731 0.9958868 1.0192561
0002b0 e8 a4 80 3f d4 80 7e 3f 25 54 89 3f aa 46 80 3f
       1.0050325 0.99415326 1.0728804 1.0021565
0002c0 29 c6 81 3f b2 f2 92 3f de 94 7e 3f d9 6a 81 3f
       1.0138599 1.1480315 0.99445903 1.0110732
0002d0 3f 89 84 3f b5 06 92 3f 89 9d 83 3f 21 97 80 3f
       1.0354384 1.1408297 1.0282451 1.0046121
0002e0 02 af 80 3f ad d5 88 3f 2d ed 86 3f 64 36 a5 3f
       1.0053408 1.0690209 1.054113 1.2907224
0002f0 99 41 a7 3f f6 70 8a 3f 65 d2 80 3f 69 d6 84 3f
       1.3066894 1.0815723 1.0064207 1.0377933
000300 3f 71 79 3f c7 ef 87 3f 37 f5 88 3f 4e c8 93 3f
       0.97438425 1.0620049 1.0699834 1.1545503
000310 89 24 79 3f 32 ce 88 3f 74 d9 86 3f 57 39 83 3f
       0.97321373 1.0687926 1.0535111 1.0251874
000320 70 68 7d 3f a2 eb 78 3f e3 3f 85 3f 26 38 7b 3f
       0.98987484 0.9723455 1.0410122 0.9813255
000330 6c ef 81 3f 81 2d 72 3f 6e f4 79 3f 77 ac 75 3f
       1.0151191 0.94600683 0.97638595 0.95966285
000340 a6 8e 7c 3f 7a e1 80 3f 4c 25 85 3f 44 70 80 3f
       0.98655164 1.006881 1.0402007 1.0034261
000350 fa 22 8a 3f d5 25 80 3f 47 7e 58 3f 09 21 57 3f
       1.0791924 1.0011545 0.84567684 0.8403478
000360 18 bf 57 3f d1 c2 41 3f af 79 13 3f 8d c0 48 3f
       0.8427596 0.7568789 0.5760755 0.7841881
000370 ab 7b 3a 3f 41 37 57 3f 90 63 47 3f 9e 10 59 3f
       0.7284495 0.84068686 0.77886295 0.8479098
000380 79 b1 18 3f 20 db 24 3f 79 65 3f 3f 6e f7 7f 3f
       0.596458 0.6439686 0.7476421 0.9998692
000390 46 fa 7f 3f 66 04 80 3f d5 0b 80 3f 3b ff 7f 3f
       0.9999126 1.0001342 1.0003611 0.99998826
0003a0 58 fc 7f 3f 8f 01 80 3f dd 03 80 3f 12 1d 80 3f
       0.9999442 1.0000476 1.0001179 1.0008872
0003b0 ea f2 7f 3f c8 07 80 3f a8 e0 7f 3f 57 ff 7f 3f
       0.9998003 1.0002375 0.99952173 0.9999899
0003c0 7b 02 80 3f 46 07 80 3f de 01 80 3f 3b 0d 80 3f
       1.0000757 1.000222 1.000057 1.0004038
0003d0 cf 01 80 3f 3c fd 7f 3f 0b 2d 80 3f 2e 0e 80 3f
       1.0000552 0.9999578 1.0013746 1.0004327
0003e0 5d e1 7f 3f 59 0a 80 3f 00 05 80 3f 13 03 80 3f
       0.9995325 1.0003158 1.0001526 1.0000938
0003f0 9b ec 7f 3f 04 f2 7f 3f 64 ec 7f 3f 17 02 80 3f
       0.99970406 0.9997866 0.9997008 1.0000638

bn1d0.bias f4 [739]
000000 f5 6f 93 3d 80 74 70 bc 80 2a dd bd 83 f7 b1 3d
       0.071990885 -0.014676213 -0.10799122 0.08689787
000010 4e bf 0f be 96 68 96 3d eb 54 97 bd 9f ce f8 bc
       -0.1403782 0.07344167 -0.07389244 -0.030371962
000020 8f 02 cf bc 6a 0e db bc b8 ae 08 bc 99 62 73 bc
       -0.025269775 -0.026740272 -0.008342437 -0.0148550505
000030 a9 e6 6c 3d c2 18 81 bd c7 ad 6f 3c 02 d5 b3 bc
       0.057837162 -0.0630355 0.014628834 -0.021952156
000040 51 b8 85 bb 55 22 8b bb e3 2c 43 3b 8f 5e b2 3d
       -0.00408081 -0.004246036 0.0029781393 0.08709442
000050 d2 96 75 3c 45 ba 13 3c 42 17 0c 3d 93 9c 67 3d
       0.014989572 0.009016578 0.034201868 0.056545805
000060 0c 54 13 bc 03 87 b8 3c a5 de d3 3d 22 5b ad 3c
       -0.008992206 0.022525316 0.103452004 0.02116162
000070 b0 87 26 3d 50 dd 92 bc 47 01 80 3d 20 01 c0 3c
       0.040656745 -0.017927796 0.06250244 0.023438036
000080 3a 61 27 bd d2 c8 f5 3c ce 83 4b bc af 5f 27 3d
       -0.040864207 0.030002985 -0.012421561 0.040862735
000090 42 66 84 3d 4a f6 a9 bb 35 0d d7 bc 30 84 66 3d
       0.06464817 -0.0051868306 -0.026251415 0.056278408
0000a0 12 73 64 bd 64 8f 3d 3d 10 f3 00 3c 90 69 a3 3a
       -0.055773802 0.046279326 0.007870451 0.0012467373
0000b0 8f 6f ed bb 25 2a e8 bc 01 77 09 bc 68 9d 06 bd
       -0.007245965 -0.028340409 -0.008390189 -0.032864958
0000c0 dd d7 00 bd de 06 09 3c 88 c5 c8 bc 65 e5 47 3b
       -0.031455863 0.008363454 -0.024508253 0.003050172
0000d0 2a 1f cf bc b5 a8 1b 3d 18 fb 9a bd 13 23 06 bc
       -0.025283415 0.03800269 -0.075674236 -0.008187073
0000e0 c7 56 86 3c 2c df aa bc d6 d6 f9 bc 5e 1a 40 bd
       0.0163988 -0.02085837 -0.03049795 -0.046900146
0000f0 d9 1c 8a bd 93 55 9a bd a0 23 8f bc ed 9c 8c bd
       -0.067437835 -0.07535853 -0.017473042 -0.06865869
000100 bb 0c 03 bc d4 b0 55 3c 7c b9 24 bd 37 91 37 bd
       -0.007998641 0.013042647 -0.040215954 -0.044816222
000110 dd b4 12 bc 87 15 b4 bb fe e4 b0 bc e5 8d 77 ba
       -0.008954254 -0.0054957303 -0.021593567 -0.0009443446
000120 b0 cc 87 bb ed 1e 63 bc 86 3c 4f bb dd 78 0b 3d
       -0.0041442737 -0.013862354 -0.0031621768 0.03405081
000130 45 0c 56 bc 85 43 09 3d 10 d7 5d bd 7f e9 f7 bc
       -0.013064449 0.033511657 -0.054160178 -0.030262707
000140 34 44 25 3d c2 f6 aa bc 1e a8 a6 3c bf 7f c5 3a
       0.040348247 -0.020869616 0.020343836 0.0015067979
000150 d0 0d 97 3c ae 63 1e 3c 36 3b ed 3c de c5 c1 3c
       0.018439204 0.00966732 0.028958898 0.02365392
000160 e6 ed d9 3b 5e 4f c6 3c 33 f2 0a 3d ea 1e c6 3b
       0.006650674 0.024207767 0.033922385 0.0060461657
000170 d3 26 28 3d c6 c0 0a bc b1 7b 96 bc 4e 18 8d 3d
       0.04105265 -0.008468812 -0.018369528 0.068894014
000180 b7 f6 ed bb fd 93 b7 3c 37 bb 17 3d e7 9d d1 3c
       -0.0072620767 0.022409433 0.037043776 0.025587989
000190 a5 65 48 3c a7 ea 4c 3d 4b 08 88 bc eb ea 50 bc
       0.012231265 0.05002847 -0.016605517 -0.012751321
0001a0 ac d4 81 3b 48 b8 db bc 1e 55 c2 ba 0c cc 1f bc
       0.00396212 -0.02682127 -0.0014826392 -0.009753238
0001b0 f4 40 05 3d 69 36 0b bb d2 aa 1b bc db 62 ad bc
       0.032532647 -0.0021242148 -0.009501176 -0.021165302
0001c0 53 24 fc bb 71 3c d7 bc ac 0f 00 bd 75 0f 00 3c
       -0.00769476 -0.026273938 -0.031264946 0.007816185
0001d0 9a c6 0d bd 6f a4 57 3c 6a f0 12 bd d8 50 4f bc
       -0.03461323 0.013161763 -0.035873808 -0.012653552
0001e0 1b f7 7c 3c bf a5 90 3c d0 7b 7e 3c 30 c9 e7 bc
       0.015439774 0.017657159 0.015532449 -0.028294176
0001f0 ac df 12 bd 37 7d 30 bd 70 3c c9 bc 21 6d 93 bb
       -0.03585784 -0.043088164 -0.024564952 -0.004499093
000200 f6 a9 10 bd 7a 0d 54 bd f8 d2 0b bd 57 ad db ba
       -0.035318337 -0.051770665 -0.034136742 -0.0016760033
000210 05 e7 38 bc 4e ef 40 bd f3 bb 0f bc 8e 7a 51 bd
       -0.011285548 -0.04710322 -0.008772838 -0.051142268
000220 bb c1 d2 bb 61 6a 08 3c b5 3f 52 bc 99 21 a1 3c
       -0.006431786 0.008326144 -0.012832572 0.01966934
000230 48 03 8e bc 20 9d 0f bd 89 7d 89 3c e6 8c a0 3b
       -0.017335549 -0.035061955 0.016783493 0.004899609
000240 86 4c a8 bb 5a f9 e9 bb 61 8f 1a bc 95 eb 4f 3c
       -0.0051360754 -0.0071403207 -0.009433598 0.0126904445
000250 82 fd e1 bc 9d 1e af 3c 4f bf d1 3c 20 40 3c bc
       -0.027586702 0.021376902 0.025603918 -0.011489898
000260 65 33 6c 3c 9d fb 2a bd 79 0a 0a 3d 9c f8 05 3d
       0.01441655 -0.041743863 0.033701394 0.032707796
000270 6b 51 ef bc 6d a7 95 3b 64 4a 1c 3d 18 ba 1b 3d
       -0.029213628 0.004567078 0.038156882 0.03801927
000280 ce 78 a1 3c 03 4e bd 3c 3c ab c3 bc 38 fd 79 3c
       0.019710924 0.023108488 -0.023885362 0.015258126
000290 a9 10 e8 3c ab 4d 03 3d 3a a3 80 3b a1 80 0f bc
       0.028328257 0.03205649 0.003925708 -0.008758695
0002a0 e2 ba 91 3c 42 c9 28 bd 8b ce 8b 3c 7f 13 a1 3c
       0.017789308 -0.04120756 0.01706626 0.019662617
0002b0 fe 8c eb 3c 6c f6 16 bb b5 68 15 3c e1 f0 d0 3c
       0.028753754 -0.0023035062 0.009119202 0.025505485
0002c0 6e fe ea bc c4 84 26 bd 85 d0 94 3c 6e d4 03 3b
       -0.028685775 -0.04065396 0.018165836 0.0020115632
0002d0 d3 0f e5 3b bf 22 1b bd c4 32 5a bc 12 ad e1 3c
       0.006990412 -0.037874933 -0.0133177675 0.027548347
0002e0 27 ad f8 bc 16 21 b6 3c 98 be ca 3b 2f fa 24 bd
       -0.030356003 0.022232573 0.0061872713 -0.040277656
0002f0 35 b5 3d 3d 61 ab ba bc 99 d1 00 3d b3 1f 70 bd
       0.04631539 -0.022786798 0.031449888 -0.05862398
000300 a0 ce 13 3c ea b2 78 bc cf ae fd 3c 69 8d 3f bd
       0.009021431 -0.015179375 0.030967144 -0.04676572
000310 2b 40 59 bd 4e 67 8a 3c 12 4d a7 3b 8a 3b 87 bc
       -0.05303971 0.016894963 0.005105623 -0.016507883
000320 e1 66 b1 3c b5 04 c6 bc 2c 75 19 3d 8b e5 ce bc
       0.021655502 -0.024172166 0.03746526 -0.025255939
000330 d8 f2 3b 3d aa b7 ab 3c 9b 6d 83 bc 36 b7 19 3d
       0.04588589 0.020961601 -0.016043475 0.03752824
000340 ab 79 e5 bc 1d f6 af 3c 10 7e 27 3d d0 59 04 bd
       -0.028012117 0.02147966 0.040891707 -0.032312214
000350 7d 57 0d 3d ea f4 85 bd 82 fe 0f bc 06 03 26 3d
       0.034507263 -0.06540854 -0.008788707 0.040530227
000360 5f 03 08 bd 83 a3 1b 3d 66 f5 b5 bc 6d 08 a9 3d
       -0.03320634 0.037997734 -0.022211742 0.0825356
000370 57 14 52 3d 19 e8 86 3c 4e 7e 44 bd 7b b1 0b 3e
       0.05128893 0.016468095 -0.047972016 0.13641922
000380 0f 66 14 be 67 a3 77 3c 20 19 ae bc ac d0 e0 ba
       -0.14492057 0.015114642 -0.021252215 -0.0017152033
000390 27 8f 89 bc a8 75 c7 3a 5b ac 68 3c 0c 46 41 3c
       -0.016791893 0.0015217559 0.014201249 0.011796486
0003a0 18 7a 32 bd ab f3 c4 b9 5b 0c 5e bc ea 3f 43 3c
       -0.04357347 -0.0003756558 -0.01355275 0.011917094
0003b0 72 ab ac 3c 7c ab 3e bc f2 60 b0 3b 12 66 73 bc
       0.021077845 -0.011637565 0.0053826505 -0.014855878
0003c0 f9 92 b4 3b 37 31 87 bc 5d 19 e2 3b a9 40 08 3d
       0.0055106846 -0.01650296 0.006899996 0.03326479
0003d0 d2 a7 4b 3b 5e 5a 89 3b 48 47 2a bc 52 9d 1e bc
       0.003107537 0.004191681 -0.010392971 -0.009681063
0003e0 96 c0 a9 bc 86 96 2b bc 39 12 55 bc 7e 16 96 3c
       -0.020721715 -0.010472899 -0.013004833 0.018321272
0003f0 e6 42 18 3b 28 31 3d bb a9 aa b3 bb c5 87 64 3c
       0.0023233234 -0.002886841 -0.0054829908 0.013948386

bn1d0.running_mean f4 [739]
000000 23 c4 6d bb 4f 60 21 bb 48 34 f1 ba 6d f0 b2 bb
       -0.0036280237 -0.0024624055 -0.0018402422 -0.00546079
000010 c2 86 b0 bb d4 a7 d9 bb 59 14 8d bb 76 80 d9 ba
       -0.005387158 -0.006642321 -0.004305404 -0.001659407
000020 14 51 c2 3a bf 89 83 3a 1d eb c4 b8 73 5b 08 bb
       0.0014825189 0.0010035558 -9.3898016e-05 -0.002080646
000030 ff d8 54 bb 32 cc 86 bb 13 c2 52 bb 3b e6 25 bb
       -0.0032477973 -0.0041136974 -0.0032159134 -0.002531423
000040 5d 41 c6 ba df 04 65 ba 41 11 37 39 96 cc af b8
       -0.0015125681 -0.00087363826 0.00017458668 -8.3827574e-05
000050 25 c7 70 3a 9d 84 3e 3a b9 10 8c 3a cb 61 e7 3a
       0.0009184948 0.0007267686 0.0010686136 0.0017653046
000060 cb 6a fb 3a fc 07 29 3b 5f e2 06 3b c4 ed 0e 3b
       0.0019181607 0.0025792113 0.0020581705 0.00218092
000070 d5 05 14 3b 41 56 12 3b ca c4 12 3b 2f d6 01 3b
       0.0022586484 0.0022329243 0.0022395127 0.0019811501
000080 3e 86 04 3b 8f 97 cf 3a ce 26 f4 3a 4e 6e bd 3a
       0.0020221616 0.0015838015 0.0018627287 0.0014452429
000090 24 d9 79 3a c8 84 55 3a 0e 7c 06 3a 2d e0 de 39
       0.00095309527 0.0008145091 0.000513018 0.00042510164
0000a0 c0 22 3f 39 82 1d 42 b9 7e 3b 78 b9 35 9d 6a b9
       0.00018228125 -0.00018512274 -0.00023673286 -0.00022374543
0000b0 51 06 30 ba 9a d0 23 ba e5 c3 8a ba 79 9a 9c ba
       -0.00067148084 -0.00062490406 -0.0010586946 -0.0011947892
0000c0 19 b5 7d ba 2e 77 d9 ba bd ce bf ba 0b 7c c1 ba
       -0.000967817 -0.0016591304 -0.0014633756 -0.0014761699
0000d0 ea 83 d3 ba a7 b4 e0 ba 78 42 21 bb aa df 1e bb
       -0.0016137336 -0.0017143682 -0.002460627 -0.00242422
0000e0 e1 45 6a bb 12 7e 92 bb e7 30 c9 bb 5e d7 fa bb
       -0.0035747217 -0.004470595 -0.006139863 -0.0076550683
0000f0 38 4e 13 bc 92 31 17 bc bb 5a 0d bc 88 ad 22 bc
       -0.008990817 -0.009228127 -0.008627589 -0.009929068
000100 5f eb ad bb f2 6e 7d bb 68 75 3a bb 2e c8 f4 ba
       -0.0053075994 -0.0038670865 -0.0028451327 -0.0018675381
000110 7a a4 c8 ba 46 95 ac ba a0 58 a9 ba ac 6b 8f ba
       -0.0015307807 -0.0013167046 -0.0012920089 -0.0010942123
000120 65 e3 ca ba dc b6 80 ba d9 b2 28 ba 9b 41 0c ba
       -0.0015479146 -0.0009820121 -0.0006435342 -0.0005350352
000130 fd ab 07 ba 15 65 44 b9 67 ff a2 39 d4 57 dc 39
       -0.00051754696 -0.00018729673 0.00031089337 0.00042027107
000140 ab a9 23 3a 94 05 79 3a a8 3f a4 3a 7a ba 8a 3a
       0.0006243239 0.00094994274 0.0012531178 0.0010584139
000150 de ba 77 3a 0d 0d 6d 3a d2 21 60 3a 20 b9 89 3a
       0.00094501476 0.0009042777 0.00085499615 0.0010507442
000160 0a e6 4f 3a 6f 1c 26 3a d9 37 14 3a 4c 59 0a 3a
       0.0007930702 0.00063366344 0.0005654074 0.00052775885
000170 f4 8a de 39 6f 8c de 39 0b e1 1e 38 6f 01 00 b9
       0.00042446668 0.0004244777 3.7879723e-05 -0.00012207565
000180 31 8e 71 38 a8 85 0a ba 57 71 40 ba 59 95 61 ba
       5.7591304e-05 -0.00052841986 -0.00073411077 -0.00086053234
000190 3f 97 a9 ba a7 09 13 bb c8 9a ee ba df 7c 13 bb
       -0.0012938752 -0.0022436173 -0.0018204087 -0.002250485
0001a0 75 35 2c bb b7 02 3c bb 25 35 5e bb 42 0a 73 bb
       -0.002627698 -0.0028688142 -0.0033906188 -0.0037084972
0001b0 eb 70 87 bb 82 c8 96 bb 42 ef d5 bb 6a 72 b0 bb
       -0.004133334 -0.004601539 -0.006528766 -0.005384733
0001c0 7d 7d b6 bb 7b c6 b2 bb 66 ef b5 bb 2c 43 b0 bb
       -0.0055691586 -0.0054557896 -0.00555222 -0.0053791013
0001d0 5e 67 a6 bb e4 75 9d bb 42 59 90 bb 54 af 89 bb
       -0.0050782403 -0.0048053134 -0.0044051716 -0.004201809
0001e0 3e d8 af bb 41 15 85 bb c8 f6 96 bb 64 7f a5 bb
       -0.0053663542 -0.0040613716 -0.0046070553 -0.0050505865
0001f0 53 25 c4 bb d2 76 f7 bb 51 60 15 bc f9 da 31 bc
       -0.0059858947 -0.0075520063 -0.009117202 -0.01085543
000200 2a fa 4b bc 3c 5c 94 bc 5b 0a 64 bc b2 db 5b bc
       -0.0124497805 -0.018110387 -0.013918485 -0.013419079
000210 1a 8a 47 bc b7 b6 2c bc a6 c6 12 bc 4c 06 f2 bb
       -0.012178922 -0.0105416095 -0.008958494 -0.0073860046
000220 50 25 c2 bb 01 fc 99 bb 70 4c 7c bb 5b a6 80 bb
       -0.005924858 -0.0046992307 -0.0038497709 -0.003926081
000230 7b a7 1b bb 37 1c e7 ba 3c e8 c2 ba 46 0c 8f ba
       -0.002375095 -0.001763231 -0.0014870237 -0.0010913692
000240 cc b5 5f ba 0d 56 11 ba 19 eb c3 b9 e6 c3 87 b9
       -0.0008533865 -0.00055441336 -0.0003736846 -0.00025895162
000250 88 c4 1b b9 ec b0 8f 38 31 1f 54 39 c6 f5 ac 39
       -0.00014855166 6.8517256e-05 0.00020229515 0.00032989512
000260 00 97 4d 3a 6e 1f 65 3a 23 05 a3 3a c2 2e a9 3a
       0.000784263 0.000874034 0.0012437444 0.0012907612
000270 50 e8 ca 3a de 5d d1 3a 0d 14 1c 3b 69 ab fd 3a
       0.0015480611 0.0015973409 0.0023815662 0.0019353452
000280 18 f0 02 3b b2 4c 09 3b 19 54 08 3b b0 10 0e 3b
       0.0019979533 0.0020950255 0.002080208 0.0021677427
000290 ca 4b 0d 3b b0 1a 15 3b b0 85 12 3b 44 62 45 3b
       0.0021560066 0.0022751503 0.0022357516 0.0030118385
0002a0 56 e9 12 3b a2 55 11 3b de c3 14 3b 3d 76 0c 3b
       0.002241691 0.0022176285 0.0022699754 0.002143278
0002b0 b2 2d 0b 3b ca 95 09 3b c4 ca 08 3b b3 03 03 3b
       0.0021236953 0.0020993822 0.002087281 0.0019991219
0002c0 ee 96 08 3b 6a 04 21 3b 37 f1 05 3b 03 d3 f9 3a
       0.0020841914 0.0024569281 0.0020437965 0.0019060079
0002d0 d2 21 e7 3a a1 5e f9 3a d5 c6 e9 3a 6b f9 e8 3a
       0.0017633981 0.0019025394 0.0017835746 0.0017774528
0002e0 ca 80 ed 3a 16 13 e3 3a 88 16 14 3b 9a e8 d3 3a
       0.0018120047 0.0017324414 0.0022596437 0.0016167343
0002f0 3c f5 d9 3a 8b d7 d6 3a 0b 6d d3 3a 01 21 d1 3a
       0.0016628872 0.0016391141 0.001613052 0.001595527
000300 f0 a3 d6 3a 8e 99 d3 3a 54 bb cb 3a c7 09 05 3b
       0.0016375761 0.0016143785 0.0015543499 0.0020300017
000310 e6 72 9b 3a 61 0e c7 3a 63 fa b8 3a 49 11 b3 3a
       0.0011859804 0.001518678 0.0014112707 0.0013661768
000320 50 dd b9 3a e3 09 a0 3a 9f ee 9f 3a a3 af af 3a
       0.0014180336 0.0012209978 0.0012201852 0.0013403784
000330 69 9a 82 3a 6b 7f c3 3a cd 16 5b 3a b0 d4 84 3a
       0.0009964231 0.0014915293 0.00083575846 0.0010134187
000340 e0 0f 91 3a d8 7a a2 3a d8 5a c5 3a 16 ce 13 3b
       0.0011067353 0.001239623 0.0015056981 0.0022553257
000350 65 45 59 3b 5b 85 a8 3b af 77 37 3c 57 ad 4d 3c
       0.0033152935 0.0051428503 0.011197968 0.0125535345
000360 46 60 8d 3c 7f 26 ad 3c 0d d1 b8 3c 1f ab bc 3c
       0.01725782 0.02113652 0.02256062 0.023030816
000370 de 87 8f 3c 1f 0b 2b 3c 1a 1c 67 3b 84 a4 2f ba
       0.017520841 0.010439663 0.0035264553 -0.0006700235
000380 3b ba 68 bb 20 ad c8 bb 19 9c bc bb 9f 36 fd 3a
       -0.0035511393 -0.0061241537 -0.005755913 0.0019318647
000390 63 83 fd 3a 86 27 00 3b 3c 98 fe 3a 93 45 fa 3a
       0.0019341524 0.0019554808 0.0019424031 0.0019094221
0003a0 2f e3 fd 3a 95 10 00 3b b4 cb fe 3a c9 03 00 3b
       0.0019370074 0.0019541134 0.001943937 0.0019533506
0003b0 be b0 ff 3a 59 de 00 3b a8 5b fe 3a c1 52 fa 3a
       0.0019507629 0.001966378 0.0019405978 0.0019098149
0003c0 b2 24 fe 3a 8c 6a fb 3a 48 bb 00 3b 55 8d fd 3a
       0.0019389598 0.0019181534 0.0019642878 0.0019344488
0003d0 6a e0 04 3b b4 43 fe 3a e2 b4 02 3b d5 14 08 3b
       0.0020275363 0.0019398839 0.001994424 0.002076437
0003e0 25 00 05 3b 5f f3 ff 3a 42 9b fd 3a 25 72 fc 3a
       0.0020294276 0.0019527486 0.0019348639 0.0019260092
0003f0 18 2f 00 3b 49 ec ff 3a 18 f0 fd 3a 2f 34 01 3b
       0.001955932 0.0019525375 0.0019373922 0.0019714942

bn1d0.running_var f4 [739]
000000 3b 11 97 37 60 a3 24 37 62 26 f5 36 61 48 d1 36
       1.8008626e-05 9.8132e-06 7.3060373e-06 6.2371114e-06
000010 ac e2 00 37 59 40 9b 36 af d2 81 36 43 31 eb 35
       7.682171e-06 4.626851e-06 3.8690264e-06 1.7523201e-06
000020 cd 54 05 36 cc 41 cc 35 c8 ad 2b 36 89 e6 fc 35
       1.9867905e-06 1.5218334e-06 2.558214e-06 1.8842558e-06
000030 8c 37 ef 35 e4 1b c0 35 e1 ea a6 35 66 03 a4 35
       1.7823054e-06 1.4313232e-06 1.2436323e-06 1.2219941e-06
000040 d5 71 8d 35 8c bd 81 35 70 f1 4d 35 a5 e5 70 35
       1.0538448e-06 9.666414e-07 7.671979e-07 8.9741144e-07
000050 b4 38 3e 35 36 6e 14 35 86 24 4f 35 10 34 31 35
       7.086303e-07 5.5294674e-07 7.716666e-07 6.60134e-07
000060 29 fd 31 35 31 5b 1a 35 d1 64 22 35 26 a8 22 35
       6.6306035e-07 5.750217e-07 6.049641e-07 6.059439e-07
000070 53 c5 02 35 31 9d f5 34 db 71 f1 34 57 dc 0c 35
       4.871592e-07 4.5749178e-07 4.497259e-07 5.24747e-07
000080 41 7f be 34 53 cf e1 34 43 01 fb 34 11 7c 16 35
       3.5482847e-07 4.2060364e-07 4.675331e-07 5.6059895e-07
000090 5f d7 d3 34 5d 2d e4 34 d6 7a d4 34 3a 4e 0a 35
       3.9458516e-07 4.2501316e-07 3.9577452e-07 5.152284e-07
0000a0 60 7b d0 34 13 10 da 34 94 87 e7 34 44 f1 f4 34
       3.8832786e-07 4.061736e-07 4.312575e-07 4.5624085e-07
0000b0 45 bc f0 34 17 0f e7 34 99 b4 f0 34 10 e2 f3 34
       4.4840468e-07 4.3038082e-07 4.4834886e-07 4.542676e-07
0000c0 e8 d3 b6 34 e6 4b b1 34 dd 2e df 34 d8 74 12 35
       3.4054324e-07 3.3024043e-07 4.1571084e-07 5.455927e-07
0000d0 d2 1c ff 34 40 9c e3 34 26 97 01 35 de c0 15 35
       4.751842e-07 4.2395732e-07 4.8276195e-07 5.5787484e-07
0000e0 e5 66 06 35 fc df 45 35 07 31 89 35 87 ec ba 35
       5.006862e-07 7.371416e-07 1.0221564e-06 1.3926918e-06
0000f0 84 06 ec 35 72 52 dc 35 1f 66 d3 35 dd bb 02 36
       1.7585267e-06 1.6415272e-06 1.5750446e-06 1.948086e-06
000100 38 6b 2c 35 1a ea 0f 35 53 b4 ec 34 a1 f9 b6 34
       6.4231017e-07 5.3612314e-07 4.408963e-07 3.408177e-07
000110 e1 1a b2 34 4d a2 9e 34 77 75 ae 34 f3 98 a9 34
       3.317464e-07 2.9547883e-07 3.2495493e-07 3.1589988e-07
000120 c1 78 a8 34 f9 19 a2 34 fa cf af 34 29 29 b4 34
       3.1380299e-07 3.019375e-07 3.2747613e-07 3.355756e-07
000130 b5 e3 85 34 2c ab 5e 34 cc 26 98 34 fc 8b 90 34
       2.493886e-07 2.0737633e-07 2.8340435e-07 2.6923942e-07
000140 a0 a5 a4 34 aa 5c 7a 34 64 01 a5 34 d9 b8 bd 34
       3.0667888e-07 2.3316775e-07 3.0734657e-07 3.5338488e-07
000150 a3 f2 5a 34 79 ae 6c 34 c0 ab 73 34 16 32 37 34
       2.0391103e-07 2.2042686e-07 2.2693621e-07 1.7061424e-07
000160 86 30 4c 34 27 28 50 34 4c 91 42 34 40 77 57 34
       1.9016633e-07 1.9386117e-07 1.8120517e-07 2.0066818e-07
000170 f0 1d 08 34 f8 0b 3e 34 8f 60 64 34 87 f4 4a 34
       1.2676878e-07 1.7699483e-07 2.1269283e-07 1.8901675e-07
000180 af 43 38 34 fe 3d 22 34 c5 f8 2b 34 62 e9 33 34
       1.7160959e-07 1.5109978e-07 1.6016118e-07 1.6755578e-07
000190 80 f6 19 34 f0 7c 44 34 fa e7 26 34 a8 12 54 34
       1.4338912e-07 1.8299374e-07 1.5544347e-07 1.9750826e-07
0001a0 f1 db 7f 34 53 cb 7a 34 af 27 6c 34 b5 e4 af 34
       2.382874e-07 2.3357033e-07 2.199365e-07 3.2762696e-07
0001b0 3b 87 a6 34 f5 67 d3 34 de 67 41 35 3f a8 d3 34
       3.1018303e-07 3.937745e-07 7.204925e-07 3.9424228e-07
0001c0 00 6e 0f 35 6d 7c 0c 35 b3 41 ea 34 ee 4d d1 34
       5.343172e-07 5.233513e-07 4.36337e-07 3.8985985e-07
0001d0 24 f3 eb 34 19 03 c5 34 7d b0 b2 34 f7 4f 85 34
       4.394907e-07 3.6696363e-07 3.3283496e-07 2.4831363e-07
0001e0 87 7d f3 34 a1 5d 87 34 2a 06 7e 34 10 36 a9 34
       4.535361e-07 2.5213834e-07 2.3657836e-07 3.151804e-07
0001f0 ce 08 e7 34 05 ba 30 35 19 c3 5b 35 e6 a0 90 35
       4.303351e-07 6.5835803e-07 8.186776e-07 1.0775664e-06
000200 45 1f ca 35 07 44 4e 36 88 28 02 36 c2 6e 05 36
       1.5059273e-06 3.073599e-06 1.9395102e-06 1.9883014e-06
000210 d6 6a dc 35 35 38 bd 35 b2 42 9e 35 c5 c8 65 35
       1.6422371e-06 1.4097956e-06 1.1791328e-06 8.5601306e-07
000220 dc 2e 27 35 92 de f9 34 09 e6 98 34 8e 83 dd 34
       6.228054e-07 4.6541805e-07 2.847958e-07 4.1260176e-07
000230 10 f8 26 34 73 38 8b 34 24 61 0d 34 e7 6a 21 34
       1.55502e-07 2.593184e-07 1.3166988e-07 1.5033184e-07
000240 4f 3c 34 34 74 9f 09 34 c9 16 30 34 1e 31 e2 33
       1.6785746e-07 1.2817128e-07 1.6399567e-07 1.05328795e-07
000250 bb 2f e3 33 13 33 d3 33 0b 3c c9 33 69 0f 14 34
       1.0579193e-07 9.8347435e-08 9.3707136e-08 1.378918e-07
000260 71 74 36 34 2f 29 00 34 18 c2 40 34 68 fa 34 34
       1.6992432e-07 1.1935911e-07 1.7952004e-07 1.6854904e-07
000270 3b 3c 1d 34 c4 d8 2e 34 d7 36 a3 34 2f ab 2e 34
       1.4643676e-07 1.6283872e-07 3.0401017e-07 1.6267289e-07
000280 26 9d 4b 34 ba 2b 3f 34 08 76 68 34 9b 75 67 34
       1.8963019e-07 1.7804169e-07 2.1649623e-07 2.1556336e-07
000290 17 e2 6e 34 48 96 37 34 2f a8 81 34 3a b7 90 34
       2.2247728e-07 1.7097875e-07 2.4150492e-07 2.6955405e-07
0002a0 2c 6a 60 34 30 79 8c 34 29 5b 3e 34 c4 61 49 34
       2.0900251e-07 2.6165208e-07 1.7728293e-07 1.875515e-07
0002b0 78 8d 89 34 d8 07 80 34 75 78 62 34 91 02 83 34
       2.562117e-07 2.3847565e-07 2.1091712e-07 2.440252e-07
0002c0 39 cd 6d 34 16 d0 6f 34 24 a6 6c 34 d1 cd 8c 34
       2.2147005e-07 2.2334311e-07 2.2039654e-07 2.6226783e-07
0002d0 2b d4 80 34 68 a6 a5 34 9b f0 88 34 d7 e5 86 34
       2.399623e-07 3.0854721e-07 2.5507038e-07 2.5126675e-07
0002e0 da 5e 88 34 ca 96 b5 34 c0 23 a4 34 c5 6a 88 34
       2.5400988e-07 3.382359e-07 3.0573392e-07 2.540966e-07
0002f0 0d 6c c5 34 53 d9 d7 34 26 8e bc 34 57 55 09 35
       3.6772727e-07 4.0204995e-07 3.5121155e-07 5.1160663e-07
000300 3f 85 ad 34 e9 ea d5 34 8a 0a bc 34 6c f9 e0 34
       3.232071e-07 3.984526e-07 3.5025397e-07 4.190473e-07
000310 a9 ed ec 34 1b fd dc 34 08 7b 06 35 04 d4 c5 34
       4.4131346e-07 4.1162352e-07 5.0097924e-07 3.684837e-07
000320 55 83 2b 35 21 78 31 35 06 4a 10 35 06 ed 19 35
       6.389358e-07 6.611245e-07 5.37519e-07 5.7341856e-07
000330 72 25 19 35 cc fa 34 35 f4 e0 3f 35 07 ad 85 35
       5.705143e-07 6.7420183e-07 7.1480395e-07 9.95963e-07
000340 5e 30 69 35 f9 14 4f 35 de f8 6e 35 c8 46 83 35
       8.686965e-07 7.714403e-07 8.902406e-07 9.780861e-07
000350 d8 cd 8e 35 aa 36 9e 35 00 0e 4d 36 dd 24 83 36
       1.0639733e-06 1.1787827e-06 3.055553e-06 3.9083957e-06
000360 a5 7f cd 36 53 17 30 37 ee 47 39 37 26 61 4d 37
       6.124336e-06 1.0495848e-05 1.1043607e-05 1.2241571e-05
000370 cd 78 44 37 c6 b5 84 37 c2 e0 7b 37 6c ed 9c 37
       1.17106365e-05 1.5820271e-05 1.5013096e-05 1.8707207e-05
000380 6b 84 c5 37 63 af 2b 38 a1 c5 75 38 0f 3d 28 2f
       2.3545892e-05 4.093292e-05 5.8596608e-05 1.5301203e-10
000390 8b a7 89 2e e6 4d 92 2f d3 d6 43 2f eb 59 98 2c
       6.2598e-11 2.6612595e-10 1.7811468e-10 4.3300827e-12
0003a0 bb c4 84 2e 91 6f 5a 2f 19 ec 14 2f c8 5a 74 2f
       6.0376114e-11 1.9866621e-10 1.35444e-10 2.2223923e-10
0003b0 12 cf be 2f 0d 12 e5 2e 93 af 23 2f 03 14 62 2d
       3.470793e-10 1.0416921e-10 1.488714e-10 1.2851056e-11
0003c0 a9 d8 d3 2e ac 78 26 2e f3 84 1d 2f 5e 9f 0d 2f
       9.633656e-11 3.785121e-11 1.43263e-10 1.2880494e-10
0003d0 9e 59 ce 2f 35 31 dc 2e e9 94 bf 2f 19 6f fa 2f
       3.7534859e-10 1.00131826e-10 3.4848505e-10 4.5553675e-10
0003e0 f4 07 03 30 ef cb 86 2f f9 88 a7 2e e2 f8 e7 2e
       4.7668824e-10 2.4519362e-10 7.618612e-11 1.0548874e-10
0003f0 4e a6 16 2f 45 17 7f 2e 1c b0 fa 2e bb 5f 78 2f
       1.3701504e-10 5.8000955e-11 1.1399967e-10 2.2589479e-10

bn1d1.weight f4 [512]
000000 00 00 80 3f 26 71 7e 3f 00 00 80 3f 58 9d 7c 3f
       1.0 0.993914 1.0 0.9867759
000010 00 00 80 3f 1c f3 7f 3f 00 00 80 3f 16 1d 80 3f
       1.0 0.9998033 1.0 1.0008876
000020 00 00 80 3f 39 b6 7f 3f 00 00 80 3f af fd 7f 3f
       1.0 0.99887425 1.0 0.99996465
000030 00 00 80 3f 0b 3a 80 3f 00 00 80 3f dc e5 7f 3f
       1.0 1.0017713 1.0 0.9996011
000040 00 00 80 3f 0a 01 80 3f 00 00 80 3f 12 f8 7f 3f
       1.0 1.0000317 1.0 0.999879
000050 00 00 80 3f d2 77 7e 3f 00 00 80 3f 0a eb 7d 3f
       1.0 0.9940158 1.0 0.99186766
000060 00 00 80 3f 47 57 80 3f 00 00 80 3f 59 51 80 3f
       1.0 1.0026635 1.0 1.0024825
000070 00 00 80 3f 79 d9 7f 3f 00 00 80 3f 8c ee 7f 3f
       1.0 0.9994121 1.0 0.9997337
000080 00 00 80 3f 15 9e 81 3f 00 00 80 3f 27 90 81 3f
       1.0 1.0126368 1.0 1.0122117
000090 00 00 80 3f 12 ff 7f 3f 00 00 80 3f cd 01 80 3f
       1.0 0.9999858 1.0 1.000055
0000a0 00 00 80 3f ec 4d 80 3f 00 00 80 3f 06 48 80 3f
       1.0 1.002378 1.0 1.002198
0000b0 00 00 80 3f 88 e6 7f 3f 00 00 80 3f 9b ec 7f 3f
       1.0 0.9996114 1.0 0.99970406
0000c0 00 00 80 3f 60 f2 7f 3f 00 00 80 3f 3c 01 80 3f
       1.0 0.9997921 1.0 1.0000377
0000d0 00 00 80 3f 12 9e 80 3f 00 00 80 3f a2 70 7e 3f
       1.0 1.0048239 1.0 0.99390614
0000e0 00 00 80 3f 40 ff 7f 3f 00 00 80 3f b6 fc 7f 3f
       1.0 0.99998856 1.0 0.9999498
0000f0 00 00 80 3f b8 97 82 3f 00 00 80 3f 1f 22 82 3f
       1.0 1.0202551 1.0 1.0166663
000100 00 00 80 3f c5 c3 82 3f 00 00 80 3f eb 62 82 3f
       1.0 1.0215994 1.0 1.0186437
000110 00 00 80 3f 20 2a 80 3f 00 00 80 3f ec e4 7f 3f
       1.0 1.0012856 1.0 0.9995868
000120 00 00 80 3f 1d 16 80 3f 00 00 80 3f 8d ab 7d 3f
       1.0 1.0006748 1.0 0.9908989
000130 00 00 80 3f 01 05 80 3f 00 00 80 3f 5c fa 7f 3f
       1.0 1.0001527 1.0 0.99991393
000140 00 00 80 3f 3f a5 7f 3f 00 00 80 3f 7a 1e 80 3f
       1.0 0.9986152 1.0 1.0009301
000150 00 00 80 3f 5d 7b 7c 3f 00 00 80 3f 38 0a 7d 3f
       1.0 0.9862574 1.0 0.9884372
000160 00 00 80 3f e9 8f 84 3f 00 00 80 3f b6 7e 82 3f
       1.0 1.0356418 1.0 1.0194919
000170 00 00 80 3f 2f d0 7f 3f 00 00 80 3f 6c 16 80 3f
       1.0 0.9992704 1.0 1.0006843
000180 00 00 80 3f ee 84 7f 3f 00 00 80 3f 42 3b 7f 3f
       1.0 0.9981221 1.0 0.99699795
000190 00 00 80 3f 1a e5 7f 3f 00 00 80 3f 3e e3 7f 3f
       1.0 0.99958956 1.0 0.9995612
0001a0 00 00 80 3f e4 04 80 3f 00 00 80 3f f4 ed 7f 3f
       1.0 1.0001493 1.0 0.9997246
0001b0 00 00 80 3f 1e 0d 80 3f 00 00 80 3f 7f f2 7f 3f
       1.0 1.0004003 1.0 0.99979395
0001c0 00 00 80 3f 25 f6 7f 3f 00 00 80 3f c5 09 80 3f
       1.0 0.9998496 1.0 1.0002981
0001d0 00 00 80 3f 1f 66 81 3f 00 00 80 3f df 79 80 3f
       1.0 1.010929 1.0 1.0037192
0001e0 00 00 80 3f 38 ad 82 3f 00 00 80 3f 43 13 82 3f
       1.0 1.0209112 1.0 1.0162128
0001f0 00 00 80 3f 71 01 80 3f 00 00 80 3f 07 03 80 3f
       1.0 1.000044 1.0 1.0000924
000200 00 00 80 3f c9 f2 85 3f 00 00 80 3f bf 3e 86 3f
       1.0 1.0464717 1.0 1.0487899
000210 00 00 80 3f 28 ea 7f 3f 00 00 80 3f 42 eb 7f 3f
       1.0 0.9996667 1.0 0.9996835
000220 00 00 80 3f b9 27 80 3f 00 00 80 3f 84 11 80 3f
       1.0 1.0012122 1.0 1.0005345
000230 00 00 80 3f df 93 7c 3f 00 00 80 3f 1d fa 79 3f
       1.0 0.98663133 1.0 0.9764727
000240 00 00 80 3f 05 56 84 3f 00 00 80 3f 2a 82 82 3f
       1.0 1.0338751 1.0 1.0195973
000250 00 00 80 3f 5a e8 7f 3f 00 00 80 3f ff de 7f 3f
       1.0 0.99963915 1.0 0.9994964
000260 00 00 80 3f 73 ff 7f 3f 00 00 80 3f ff fb 7f 3f
       1.0 0.9999916 1.0 0.9999389
000270 00 00 80 3f 26 00 80 3f 00 00 80 3f 94 da 7f 3f
       1.0 1.0000045 1.0 0.999429
000280 00 00 80 3f 3c 74 7f 3f 00 00 80 3f 85 15 80 3f
       1.0 0.99786735 1.0 1.0006567
000290 00 00 80 3f bb 04 80 3f 00 00 80 3f bf e2 7f 3f
       1.0 1.0001444 1.0 0.9995536
0002a0 00 00 80 3f 2c 04 80 3f 00 00 80 3f 8b 00 80 3f
       1.0 1.0001273 1.0 1.0000166
0002b0 00 00 80 3f c2 e1 88 3f 00 00 80 3f e1 76 89 3f
       1.0 1.0693896 1.0 1.0739404
0002c0 00 00 80 3f 34 07 80 3f 00 00 80 3f 8c 07 80 3f
       1.0 1.0002198 1.0 1.0002303
0002d0 00 00 80 3f d0 f5 7f 3f 00 00 80 3f 99 fc 7f 3f
       1.0 0.99984455 1.0 0.9999481
0002e0 00 00 80 3f 70 94 7e 3f 00 00 80 3f 8e 30 7c 3f
       1.0 0.9944525 1.0 0.9851159
0002f0 00 00 80 3f 9d 07 80 3f 00 00 80 3f 56 49 80 3f
       1.0 1.0002323 1.0 1.002238
000300 00 00 80 3f 55 fd 7f 3f 00 00 80 3f 47 ff 7f 3f
       1.0 0.9999593 1.0 0.999989
000310 00 00 80 3f 43 e5 84 3f 00 00 80 3f 1f c8 82 3f
       1.0 1.0382465 1.0 1.0217322
000320 00 00 80 3f 00 e5 7f 3f 00 00 80 3f 3d e1 7f 3f
       1.0 0.999588 1.0 0.9995306
000330 00 00 80 3f b2 fa 7f 3f 00 00 80 3f 29 03 80 3f
       1.0 0.99991906 1.0 1.0000964
000340 00 00 80 3f cc 73 7b 3f 00 00 80 3f 40 e8 79 3f
       1.0 0.98223567 1.0 0.9762001
000350 00 00 80 3f 00 c0 7f 3f 00 00 80 3f e7 f2 7e 3f
       1.0 0.99902344 1.0 0.9958939
000360 00 00 80 3f 19 01 80 3f 00 00 80 3f 62 0c 80 3f
       1.0 1.0000335 1.0 1.0003779
000370 00 00 80 3f c8 c6 7f 3f 00 00 80 3f c3 26 81 3f
       1.0 0.9991269 1.0 1.0089954
000380 00 00 80 3f 72 0c 80 3f 00 00 80 3f c5 e1 80 3f
       1.0 1.0003798 1.0 1.0068899
000390 00 00 80 3f cb fe 7f 3f 00 00 80 3f 73 e9 7f 3f
       1.0 0.9999816 1.0 0.9996559
0003a0 00 00 80 3f 48 cf 83 3f 00 00 80 3f ca fa 84 3f
       1.0 1.0297632 1.0 1.0389035
0003b0 00 00 80 3f 10 b4 84 3f 00 00 80 3f ca da 83 3f
       1.0 1.0367451 1.0 1.0301144
0003c0 00 00 80 3f a5 34 7d 3f 00 00 80 3f c5 42 7f 3f
       1.0 0.98908454 1.0 0.9971126
0003d0 00 00 80 3f 21 0e 80 3f 00 00 80 3f 25 d3 7f 3f
       1.0 1.0004312 1.0 0.99931556
0003e0 00 00 80 3f 1c a4 80 3f 00 00 80 3f 38 dd 81 3f
       1.0 1.0050082 1.0 1.0145636
0003f0 00 00 80 3f 8e 0b 80 3f 00 00 80 3f 6a 25 80 3f
       1.0 1.0003526 1.0 1.0011418

bn1d1.bias f4 [512]
000000 fc f5 0e 3c 06 71 f4 39 54 5f 46 bc 4d f8 af 3a
       0.008725639 0.00046623516 -0.012107689 0.001342544
000010 7e 9c 2d 3c d9 bb 37 3b d1 c5 01 3c 54 58 b4 3c
       0.010596393 0.002803555 0.007920698 0.022014774
000020 8a 43 00 bc 61 6e 15 3c 5b 47 d6 bb d1 4b 24 3c
       -0.007828603 0.009120555 -0.006539268 0.010027842
000030 90 0d 4e 3c 3d ef a7 bc 66 20 17 3c c0 ea 16 bc
       0.012576476 -0.02049982 0.009224033 -0.009211242
000040 c9 37 34 bc 30 78 cf bb 23 8a db 3b 8c bc e7 3b
       -0.010999628 -0.006331466 0.006699817 0.007072037
000050 a7 1a 71 3b 67 df be bc d6 d5 57 bb 60 48 3e bb
       0.0036789568 -0.023299886 -0.0032933853 -0.0029034838
000060 6b d5 48 3c af e0 68 bc 60 ed f9 bc 7f 7b 1a 3c
       0.012257914 -0.014213725 -0.030508697 0.009428858
000070 8a ea ad 3b 5e cf 40 3c fa 4d f3 bb e2 a1 f8 3b
       0.0053075003 0.01176819 -0.007425067 0.0075876573
000080 1e 75 12 bc c7 28 a9 3c 23 fb c1 3b 47 0b f1 3c
       -0.008939056 0.020649327 0.0059198304 0.029424323
000090 e3 85 a4 3a 6d 08 2b bc 0b 18 27 bc c4 22 a6 3b
       0.0012552108 -0.010439021 -0.010198603 0.0050700624
0000a0 7b 21 d9 3a 21 5c e9 bb 25 e2 85 3c 95 9c 39 bc
       0.0016565764 -0.0071215783 0.016343186 -0.011328836
0000b0 76 8c 3b 3b a8 f2 23 3b cb 41 5e 3c 52 2d d0 3b
       0.0028617657 0.002501646 0.013565491 0.006353059
0000c0 ab 97 ab bb 73 8e 01 bc 6b b5 73 3c 1d 92 57 bc
       -0.005236586 -0.007907498 0.014874796 -0.013157395
0000d0 e2 df 5a 3c 1c 29 a3 3c 65 76 c4 bb 83 71 53 3c
       0.013359042 0.019917063 -0.005995559 0.012905481
0000e0 ca f1 c1 3c ed 9b 9c 3b 55 43 60 3c f8 1f 5e bb
       0.023674864 0.00477933 0.013687928 -0.0033893567
0000f0 e9 38 2f bc 77 83 e5 bc b5 ab d2 39 68 1d 58 bd
       -0.010694721 -0.028016789 0.00040182253 -0.05276242
000100 03 c2 9a 3c 34 71 c8 ba 8c b5 86 3c 56 1d 3b bc
       0.01889134 -0.0015292526 0.01644399 -0.011420568
000110 94 40 a7 3a 37 d0 20 3c 3f 55 c5 3b df 67 a6 ba
       0.0012760335 0.009815267 0.006022125 -0.0012695751
000120 e1 00 8f 3c 52 44 e1 bc 26 e5 22 bc c0 23 34 bb
       0.017456474 -0.027498398 -0.009942329 -0.002748713
000130 78 9d f3 3a e3 ba 1f bc d9 1d eb 39 8d 9b db ba
       0.0018586358 -0.009749147 0.0004484493 -0.0016754732
000140 47 69 85 bb a7 13 dd bc c7 c6 2c bb d1 c9 b0 3c
       -0.004071388 -0.02698691 -0.0026363598 0.021580609
000150 35 5d 11 bb c5 2d 23 bd ae ae 05 3c 0b 5f a5 bc
       -0.00221808 -0.03983857 0.008159323 -0.020186922
000160 c9 55 87 bb 9b df af 3c d2 ec 3d 3c 09 28 99 3c
       -0.0041300994 0.021468928 0.011592107 0.018695848
000170 5c 92 6b 3c 5f 48 45 bc a9 4c 28 bc a9 d6 c2 3c
       0.0143781565 -0.01204118 -0.010272183 0.023783999
000180 4a 02 04 bc 8a bb 0d 3c 71 a3 4f bc 2f d5 89 3c
       -0.008057186 0.00865067 -0.012673245 0.016825287
000190 8a bb f2 3b e1 2c 92 bc 87 bc 0d bc 34 a6 0a 3b
       0.0074076103 -0.017843666 -0.008650905 0.0021156194
0001a0 15 9f 5b 3a 90 24 26 b7 a4 26 6f b5 0d 0f 1f 3c
       0.0008377892 -9.902884e-06 -8.909067e-07 0.009708178
0001b0 54 b3 20 bc d7 63 7f ba ac 94 0c 3c ff 69 a2 3b
       -0.00980838 -0.00097423553 0.008580368 0.0049564834
0001c0 03 d3 32 bc bb 80 db 3b 8b ed 58 bc bc 2f ce 3b
       -0.010914567 0.0066986955 -0.013240228 0.0062923115
0001d0 b9 47 63 3c 91 f9 53 bc 2c 9f ae 3c e6 3f 30 bc
       0.0138720805 -0.012937919 0.021316133 -0.010757422
0001e0 94 c9 2e bc 3c a7 8e bc e2 37 e3 ba 43 1c 66 3a
       -0.010668177 -0.017413728 -0.001733538 0.0008778015
0001f0 1b 06 e3 3c e5 8d da 3b 45 69 85 3c 2c d0 db bb
       0.027712872 0.006669747 0.016285548 -0.0067081656
000200 35 bb 17 3c 6f 14 4f bc 4a aa 2a 3c 4e 63 a1 ba
       0.009260942 -0.012639149 0.010416577 -0.001231292
000210 e0 a9 35 ba 6c c5 4b bc e2 c9 a4 3c cf 00 12 bc
       -0.00069299154 -0.012437206 0.020115796 -0.008911326
000220 b2 c7 8d 3c 83 98 3d bb 21 20 95 3b 99 bb 1a bc
       0.017307136 -0.0028930015 0.004550949 -0.009444141
000230 90 5a 81 3b c8 1b 23 3d ad 1e 60 3c 37 06 4f 3d
       0.0039475635 0.039821416 0.013679189 0.050543036
000240 d3 88 20 3c 3f c7 7b bd 7f 88 88 bb 40 dc 8e bd
       0.009798246 -0.061469313 -0.004166662 -0.06975603
000250 74 c6 24 bc 9d 69 3b bc 8e 9b b1 ba d9 7c a1 bb
       -0.010057081 -0.011438754 -0.0013550387 -0.004928213
000260 df 69 36 bc 58 a0 37 3c c5 b9 89 bc 5c 7c 8f bc
       -0.01113364 0.0112076625 -0.016812215 -0.017515354
000270 2d 5d 0b 3a 11 11 f2 3b 22 f8 ac 3c 70 92 a3 3b
       0.00053163135 0.0073872884 0.021114413 0.004991822
000280 10 00 35 3c 27 48 99 bc d0 14 96 bc 68 2f f8 bb
       0.011047378 -0.018711163 -0.018320471 -0.0075740106
000290 0b 32 a0 3b 26 3e e2 3b 51 09 46 bc a0 e7 75 3c
       0.004888778 0.0069043813 -0.012087182 0.015008837
0002a0 43 45 9f 39 80 ce 47 3b 53 74 01 bc d2 09 20 bc
       0.00030378447 0.0030488074 -0.007901269 -0.009767966
0002b0 48 e6 5a bc 20 9e d5 bc 1f a0 e1 bb 90 72 96 3b
       -0.013360567 -0.026076376 -0.006885543 0.0045912936
0002c0 ba ab 8c bc 31 ae 41 3b 14 fc 54 bc 4e 40 8e bc
       -0.01717173 0.002955329 -0.012999553 -0.017364647
0002d0 eb 32 87 3b 39 18 a9 bb 80 80 9b 3c 44 58 96 ba
       0.004125943 -0.0051603583 0.018982172 -0.0011470397
0002e0 3b a4 3e ba 5e d2 4e bd 88 d4 9a 3b 5b a8 0b bd
       -0.0007272397 -0.05049359 0.0047250427 -0.034096103
0002f0 c8 54 c3 3b aa 34 87 3b 26 49 c4 3a 57 52 b5 bb
       0.0059610344 0.004126151 0.0014975413 -0.0055334973
000300 47 7b b8 bb 42 09 39 3b 3f 2a 76 3b 8d a5 80 3c
       -0.00562993 0.0028234278 0.0037561802 0.01570394
000310 63 0d e3 bc 5d f7 74 3d c8 de 92 3c 0d 28 04 3d
       -0.027716344 0.059806217 0.017928496 0.032264758
000320 04 33 bf b7 d1 e3 ae 3b bf e7 3c bb 29 ff 74 bb
       -2.279273e-05 0.0053372164 -0.0028824655 -0.0037383533
000330 c9 37 35 3c 04 a0 75 3b b7 5a 5c bc 6e 09 08 bb
       0.0110606635 0.003747941 -0.0134493625 -0.0020757574
000340 ee a3 96 3b 86 4e 2c bd cc e5 4f 3c 61 57 25 bd
       0.0045971787 -0.042067073 0.012689065 -0.040366534
000350 9d 8a b4 bb 85 b2 10 3b 87 53 1e 3c f9 9a 1b 3c
       -0.005509688 0.0022079062 0.009663469 0.009497398
000360 68 b7 1d bc 96 54 74 bc 49 89 fb 3a d0 cd ab 39
       -0.009626247 -0.014912745 0.0019190694 0.00032769004
000370 02 81 99 3c 92 6e 79 bc 5b f8 b5 3c 6e 0e 50 bc
       0.018738274 -0.015224116 0.022213152 -0.012698753
000380 ea b0 37 bb c7 9e b6 bc 4d 02 0e bc 97 da 49 3b
       -0.0028029033 -0.022292508 -0.008667541 0.0030800456
000390 ef 25 b3 bb 7c 4b 3e bc 58 48 6c 3c 49 00 9f bc
       -0.0054671685 -0.011614677 0.014421545 -0.019409316
0003a0 41 e8 59 3b 2a 2f eb 3c 98 ad f5 3b 71 16 07 3d
       0.0033250006 0.028709013 0.0074975006 0.032980386
0003b0 eb f2 37 bb 00 b6 3d bd 47 8e 36 bb e4 80 b5 bc
       -0.0028068374 -0.046316147 -0.00278558 -0.022156186
0003c0 98 49 42 3c 22 36 c6 bd 75 98 45 3c 59 73 b0 bd
       0.011858366 -0.09678294 0.012060274 -0.08615751
0003d0 c4 ef ac 3c f9 d6 e1 3b ac 04 3e bc 34 51 61 ba
       0.021110423 0.006892082 -0.011597794 -0.0008595169
0003e0 c1 80 9e 3a 44 21 1b bd d0 1f 22 bc 77 2d 20 bd
       0.0012092815 -0.03787352 -0.00989528 -0.03910586
0003f0 d5 36 b7 3b 58 79 d7 3b 3e da 00 3c 88 26 b6 bb
       0.0055912533 0.0065757446 0.007864533 -0.0055587925

bn1d1.running_mean f4 [512]
000000 00 00 00 00 2c 12 1c 3e 00 00 00 00 09 a1 2a 3e
       0.0 0.15241307 0.0 0.16662993
000010 00 00 00 00 0a ca 7c 3d 00 00 00 00 da 30 8b 3d
       0.0 0.061716117 0.0 0.06796427
000020 00 00 00 00 1e 99 ae 3d 00 00 00 00 a5 e9 bf 3d
       0.0 0.085252985 0.0 0.09370736
000030 ff ae f9 1c cf 93 0c 3d 04 00 00 00 f6 4c 1a 3d
       1.6522673e-21 0.03432065 6e-45 0.037671052
000040 04 00 00 00 48 2f af 3c 04 00 00 00 d1 14 c1 3c
       6e-45 0.02138485 6e-45 0.023569496
000050 00 00 00 00 25 c2 95 3e 00 00 00 00 c1 0e a4 3e
       0.0 0.29249683 0.0 0.32042506
000060 00 00 00 00 0f 51 26 3e 00 00 00 00 7e e4 36 3e
       0.0 0.16241859 0.0 0.178606
000070 28 f8 90 1e 56 71 40 3c 04 00 00 00 bc 4b 54 3c
       1.5349228e-20 0.011745771 6e-45 0.01295751
000080 04 00 00 00 74 1f ab 3e 04 00 00 00 af b5 ba 3e
       6e-45 0.33422434 6e-45 0.3646674
000090 f7 37 01 00 7b 21 a7 3c 04 00 00 00 f4 38 b8 3c
       1.11912e-40 0.020401707 6e-45 0.022488095
0000a0 00 00 00 00 10 b6 29 3e 00 00 00 00 c1 53 3a 3e
       0.0 0.16573358 0.0 0.18196012
0000b0 20 18 80 26 68 37 91 3c 04 00 00 00 ad ff 9f 3c
       8.888323e-16 0.017726615 6e-45 0.019531095
0000c0 df e4 b1 1c 88 57 45 3c 04 00 00 00 49 b3 59 3c
       1.1772039e-21 0.012044795 6e-45 0.013287374
0000d0 00 00 00 00 11 b9 8c 3e 00 00 00 00 26 07 9a 3e
       0.0 0.27484944 0.0 0.3008358
0000e0 df 8f 84 25 ef c9 85 3c 04 00 00 00 33 6f 93 3c
       2.299584e-16 0.016331641 6e-45 0.01799736
0000f0 04 00 00 00 8e 27 23 3e 04 00 00 00 aa 92 31 3e
       6e-45 0.15933058 6e-45 0.17341104
000100 06 00 00 00 4d 55 13 3e 00 00 00 00 5b 8b 20 3e
       8e-45 0.14388008 0.0 0.1567816
000110 04 00 00 00 43 fd f1 3c 04 00 00 00 1c 06 05 3d
       6e-45 0.02953971 6e-45 0.03247653
000120 04 00 00 00 31 ba d0 3d 04 00 00 00 1c 1e e5 3d
       6e-45 0.10191763 6e-45 0.111873835
000130 04 00 00 00 0c bd d4 3c 04 00 00 00 b1 31 ea 3c
       6e-45 0.02596905 6e-45 0.028588148
000140 00 00 00 00 ef be 1f 3d 00 00 00 00 23 f3 2f 3d
       0.0 0.039000448 0.0 0.042956483
000150 00 00 00 00 23 6d 6f 3e 00 00 00 00 3a ce 82 3e
       0.0 0.23381476 0.0 0.25547963
000160 04 00 00 00 79 29 9b 3e 04 00 00 00 71 92 a8 3e
       6e-45 0.3030508 6e-45 0.32924226
000170 00 00 00 00 4a 40 f5 3c 00 00 00 00 ea 1a 07 3d
       0.0 0.029937882 0.0 0.03298465
000180 00 00 00 00 0a 15 48 3e 00 00 00 00 d8 7a 5b 3e
       0.0 0.19539276 0.0 0.2143358
000190 16 ed f4 25 f8 4c 6a 3c 04 00 00 00 a4 29 81 3c
       4.2487908e-16 0.014300577 6e-45 0.015766926
0001a0 00 00 00 00 4c 3f 56 3d 00 00 00 00 5d e7 6b 3d
       0.0 0.05230646 0.0 0.057593692
0001b0 00 00 00 00 22 c4 28 3d 00 00 00 00 74 ee 39 3d
       0.0 0.04120267 0.0 0.045393422
0001c0 6e 93 71 24 30 f3 ea 3c 04 00 00 00 21 5c 01 3d
       5.2383423e-17 0.028680414 6e-45 0.031582
0001d0 00 00 00 00 ac fe 42 3e 00 00 00 00 c1 cf 55 3e
       0.0 0.19042462 0.0 0.20880033
0001e0 79 19 80 26 b1 f1 30 3e 04 00 00 00 ab 56 41 3e
       8.888689e-16 0.17279698 6e-45 0.18880717
0001f0 fc 9a 94 1e 13 37 aa 3c 04 00 00 00 cf 68 bb 3c
       1.573421e-20 0.020778215 6e-45 0.022877125
000200 20 18 80 26 b8 e8 24 3e 04 00 00 00 2f a0 34 3e
       8.888323e-16 0.161044 6e-45 0.1763923
000210 00 00 00 00 f3 a3 d5 3c 00 00 00 00 ef 97 eb 3c
       0.0 0.026079154 0.0 0.028758971
000220 00 00 00 00 8c b8 81 3d 00 00 00 00 0e b5 8e 3d
       0.0 0.06334028 0.0 0.06968127
000230 00 00 00 00 8e aa 01 3f 00 00 00 00 5b 86 0d 3f
       0.0 0.5065087 0.0 0.55283135
000240 c9 ab f9 1c 91 3a 6f 3e 00 00 00 00 a2 5c 82 3e
       1.6521843e-21 0.23362185 0.0 0.25461298
000250 ff ae f9 1c 9a be af 3c 04 00 00 00 08 96 c1 3c
       1.6522673e-21 0.02145319 6e-45 0.02363111
000260 00 00 00 00 36 d3 24 3d 00 00 00 00 0f 99 35 3d
       0.0 0.04024049 0.0 0.04433542
000270 00 00 00 00 d7 ae 8b 3d 00 00 00 00 fa 84 99 3d
       0.0 0.068204574 0.0 0.074960664
000280 0e 2e 89 25 24 46 14 3d 04 00 00 00 ad 07 23 3d
       2.379692e-16 0.036199704 6e-45 0.039802242
000290 bb bb 69 22 7a fc 89 3c 04 00 00 00 01 18 98 3c
       3.1676772e-18 0.016844023 6e-45 0.018566133
0002a0 00 00 00 00 ac 81 73 3d 00 00 00 00 82 13 86 3d
       0.0 0.059449837 0.0 0.065466896
0002b0 31 18 80 26 ef 99 ff 3d 04 00 00 00 f0 e9 0b 3e
       8.888341e-16 0.124805324 6e-45 0.13663459
0002c0 04 00 00 00 a4 70 16 3d 04 00 00 00 b5 ad 25 3d
       6e-45 0.036728516 6e-45 0.040448863
0002d0 00 00 00 00 df a0 2a 3d 00 00 00 00 64 01 3c 3d
       0.0 0.041657325 0.0 0.045899764
0002e0 33 95 f7 25 8c cf a4 3d 00 00 00 00 a8 94 b4 3d
       4.294877e-16 0.08047399 0.0 0.088174164
0002f0 00 00 00 00 be c5 9d 3d 04 00 00 00 ae f1 ac 3d
       0.0 0.07703732 6e-45 0.08444534
000300 60 ea 60 1b a5 7a 59 3c 04 00 00 00 24 c5 6f 3c
       1.8604576e-22 0.01327387 6e-45 0.014634404
000310 87 37 1e 27 df 82 dd 3c 04 00 00 00 49 a7 f0 3c
       2.1957006e-15 0.027039943 6e-45 0.029376643
000320 00 00 00 00 56 d3 33 3d 00 00 00 00 a1 2d 46 3d
       0.0 0.043902718 0.0 0.04838336
000330 d3 d7 13 21 56 13 67 3c 04 00 00 00 ed 84 7e 3c
       5.009118e-19 0.014103731 6e-45 0.015534622
000340 00 00 00 00 cb ff d4 3e 00 00 00 00 8f e6 e8 3e
       0.0 0.41601405 0.0 0.45488402
000350 00 00 00 00 7d 27 f5 3d 00 00 00 00 b9 50 06 3e
       0.0 0.119704224 0.0 0.13116731
000360 00 00 00 00 c1 58 19 3d 00 00 00 00 1b e0 28 3d
       0.0 0.037438158 0.0 0.04122935
000370 00 00 00 00 42 2a 1c 3e 00 00 00 00 15 23 2b 3e
       0.0 0.15250495 0.0 0.16712601
000380 00 00 00 00 7c 10 5c 3e 00 00 00 00 b1 5a 71 3e
       0.0 0.21490663 0.0 0.23569752
000390 6d 6c 02 25 20 10 89 3c 04 00 00 00 06 0f 97 3c
       1.1312439e-16 0.016731322 6e-45 0.01843978
0003a0 82 0c 90 26 4d 26 32 3d 04 00 00 00 f4 8d 42 3d
       9.995397e-16 0.043493558 6e-45 0.04749866
0003b0 b9 bf c5 0c c3 c3 91 3e 04 00 00 00 a5 2b 9f 3e
       3.0468045e-31 0.28469667 6e-45 0.31087986
0003c0 00 00 00 00 36 dc fc 3e 00 00 00 00 c1 9b 0a 3f
       0.0 0.49386758 0.0 0.5414391
0003d0 00 00 00 00 c8 d4 2d 3d 00 00 00 00 26 87 3f 3d
       0.0 0.042439252 0.0 0.046759747
0003e0 00 00 00 00 11 a7 c7 3e 00 00 00 00 5c ba da 3e
       0.0 0.3899465 0.0 0.42720306
0003f0 04 00 00 00 1e ac eb 3d 00 00 00 00 e2 46 01 3e
       6e-45 0.11507438 0.0 0.12624696
