images/models/other_models/Attention/best_models0.pth.tar (torch, 471215 bytes, 18 tensors)

bn1d0.weight f4 [739]
0.95095825 0.9152296 1.0050389 1.0454954 1.0322013 1.0506485 0.9926513 0.9786353
1.0152636 0.9825267 0.9984263 0.9695116 1.043476 1.0399369 1.0055944 1.0049949
1.0056657 0.9950727 0.99435896 1.002661 1.0073413 0.99853647 0.97758025 0.99647576
0.9852693 1.0596732 1.0373203 0.9960998 0.99551135 1.0581266 0.9964625 1.0370361
1.0109522 1.0249246 1.0090234 1.0062075 1.0285859 0.99643934 1.0062108 0.99481404
0.99010515 0.998776 0.9903562 0.9977428 1.0031469 1.0315138 1.0037112 0.9916562
0.99916506 0.99958915 1.008235 0.99193805 0.9918496 0.99386895 0.99292845 1.0122725
1.0918715 0.98525435 0.98671603 1.0082321 1.1561272 1.0104641 1.0217936 1.0033184
0.9937926 1.016275 0.9953606 0.9967574 1.0284711 1.0125993 0.9951823 1.0009977
0.9940402 0.99942774 0.99440217 1.0088024 0.99611044 0.9983983 1.0013419 0.995825
1.0015265 0.99869883 0.99816126 0.9993596 1.0047206 0.9991257 1.0105095 1.0006949
1.016947 0.9975861 1.0061014 1.0131047 1.0022085 1.0016757 1.0359507 1.0068222
1.0005386 0.99699545 1.0033265 0.99811715 1.0176697 1.013871 0.99652433 0.9950746
0.9948651 1.009454 1.0714525 0.99271256 0.99518615 1.0008852 0.9946053 1.0013388
0.9869779 1.0145841 0.988928 1.0151256 0.9952687 0.99641687 0.9994957 1.0049145
1.0259358 0.9963085 0.99427253 0.9931993 1.0110079 1.0521147 0.98640895 0.9795128
0.98186773 1.0026569 0.9899564 0.97890747 0.9763366 0.9802677 1.0005575 1.0163013
1.0241698 0.9966843 0.9977124 1.0336887 1.0072887 1.0030941 1.0374098 1.0018705
1.0000051 0.99761057 1.0016286 0.9985444 0.99456906 0.9994505 0.99899876 1.0198653
1.0142715 0.9999277 1.0048113 0.9994603 1.0004463 1.003607 1.0146874 0.9962437
1.0017083 1.0013851 1.0524303 0.99428046 0.9948656 1.0134463 1.0120975 1.0018386
1.0031146 1.0069698 0.99578696 1.0045918 1.0056121 0.99370444 1.0205961 0.9969508
1.009118 1.0362474 1.0000862 0.99953574 1.0061429 1.0435424 1.0114294 1.0018505
0.9922274 1.0284824 1.0132625 1.046827 1.1018405 1.0380273 0.9967661 1.0032982
0.9986587 1.0276998 1.0141616 1.0335077 0.9900538 1.0205446 1.0232956 0.9964977
0.9906651 0.9932233 1.0238938 0.99507314 1.006686 0.98779947 0.99605 0.9870307
1.0083438 0.9891003 1.0020599 0.99074304 1.0327387 0.9913039 0.9474381 0.9931562
1.0142934 0.9574918 0.97403336 0.9779692 0.94593436 1.0816852 0.9175538 0.8971839
0.8550384 0.83916444 0.85485077 0.9999449 0.99997413 1.0000055 1.0001724 0.9999977
0.9999606 0.99993396 0.99999154 1.0002514 0.9997056 1.0000598 0.9996426 0.9999912
1.0000341 1.0001608 0.99988765 1.0001279 0.9999963 1.000001 1.0004042 1.0000781
0.9997511 1.0002894 1.0000403 0.9999984 0.99988264 0.99991983 0.9997591 1.0000124
00000000: 0072 733f 7d4c 6a3f 1da5 803f cbd2 853f
00000010: 2c1f 843f a67b 863f 651e 7e3f d887 7a3f
00000020: 28f4 813f df86 7b3f de98 7f3f ea31 783f
00000030: 9f90 853f a71c 853f 51b7 803f aca3 803f
00000040: a7b9 803f 16bd 7e3f 4f8e 7e3f 3257 803f
00000050: 8ff0 803f 16a0 7f3f b342 7a3f 0919 7f3f
00000060: 9c3a 7c3f 5fa3 873f e9c6 843f 6600 7f3f
00000070: d5d9 7e3f b170 873f 2b18 7f3f 99bd 843f
00000080: e266 813f bb30 833f ae27 813f 68cb 803f
00000090: b4a8 833f a616 7f3f 84cb 803f 22ac 7e3f
000000a0: 8877 7d3f c9af 7f3f fc87 7d3f 126c 7f3f
000000b0: 1e67 803f a508 843f 9c79 803f 2edd 7d3f
000000c0: 48c9 7f3f 13e5 7f3f d80d 813f a7ef 7d3f
000000d0: dbe9 7d3f 326e 7e3f 8f30 7e3f 2592 813f
000000e0: 72c2 8b3f a139 7c3f 6c99 7c3f c00d 813f
000000f0: fafb 933f e356 813f 22ca 823f bd6c 803f
00000100: 3169 7e3f 4d15 823f f4cf 7e3f 7e2b 7f3f
00000110: f1a4 833f db9c 813f 44c4 7e3f b120 803f
00000120: 6b79 7e3f 7fda 7f3f 2491 7e3f 7020 813f
00000130: 1801 7f3f 0897 7f3f f92b 803f 63ee 7e3f
00000140: 0532 803f baaa 7f3f 7f87 7f3f 08d6 7f3f
00000150: af9a 803f b4c6 7f3f 6058 813f c516 803f
00000160: 522b 823f cd61 7f3f eec7 803f 6aad 813f
00000170: 5e48 803f e936 803f 089a 843f 8ddf 803f
00000180: a611 803f 183b 7f3f 016d 803f 9b84 7f3f
00000190: 0043 823f 86c6 813f 381c 7f3f 36bd 7e3f
000001a0: 7baf 7e3f ca35 813f 5b25 893f 6922 7e3f
000001b0: 85c4 7e3f 021d 803f 749e 7e3f df2b 803f
000001c0: 95aa 7c3f e4dd 813f 632a 7d3f a3ef 813f
000001d0: eec9 7e3f 2d15 7f3f f3de 7f3f 0aa1 803f
000001e0: dd51 833f 130e 7f3f a588 7e3f 4f42 7e3f
000001f0: b568 813f b2ab 863f 4c85 7c3f 5ac1 7a3f
00000200: af5b 7b3f 1057 803f c86d 7d3f ae99 7a3f
00000210: 32f1 793f d3f2 7a3f 4512 803f 2916 823f
00000220: ff17 833f b426 7f3f 146a 7f3f e94f 843f
00000230: d6ee 803f 6365 803f d8c9 843f 4b3d 803f
00000240: 2b00 803f 6863 7f3f 5e35 803f 9ba0 7f3f
00000250: 149c 7e3f fddb 7f3f 62be 7f3f f28a 823f
00000260: a6d3 813f 43fb 7f3f a89d 803f a1dc 7f3f
00000270: a00e 803f 3276 803f 47e1 813f d409 7f3f
00000280: fa37 803f 632d 803f 09b6 863f 2a89 7e3f
00000290: 83af 7e3f 9cb8 813f 698c 813f 3f3c 803f
000002a0: 0f66 803f 63e4 803f e5eb 7e3f 7796 803f
000002b0: e6b7 803f 6a63 7e3f e5a2 823f 2b38 7f3f
000002c0: c72a 813f c1a3 843f d302 803f 93e1 7f3f
000002d0: 4ac9 803f cc92 853f 8576 813f a33c 803f
000002e0: 9d02 7e3f 50a5 833f 96b2 813f 6dfe 853f
000002f0: 1c09 8d3f 14de 843f 102c 7f3f 136c 803f
00000300: 19a8 7f3f ab8b 833f 0cd0 813f fb49 843f
00000310: 2a74 7d3f 35a1 823f 5afb 823f 791a 7f3f
00000320: 3a9c 7d3f e243 7e3f f40e 833f 1dbd 7e3f
00000330: 16db 803f 6de0 7c3f 22fd 7e3f 0bae 7c3f
00000340: 6911 813f ad35 7d3f 8043 803f 56a1 7d3f
00000350: c830 843f 18c6 7d3f 4e8b 723f 7c3f 7e3f
00000360: 5ed4 813f 2f1e 753f 405a 793f 315c 7a3f
00000370: c128 723f a974 8a3f cee4 6a3f d8ad 653f
00000380: cce3 5a3f 7bd3 563f 80d7 5a3f 64fc 7f3f
00000390: 4efe 7f3f 2e00 803f a605 803f d9ff 7f3f
000003a0: 6bfd 7f3f acfb 7f3f 72ff 7f3f 3d08 803f
000003b0: b5ec 7f3f f601 803f 94e8 7f3f 6cff 7f3f
000003c0: 1e01 803f 4505 803f a3f8 7f3f 3104 803f
000003d0: c2ff 7f3f 0800 803f 3f0d 803f 8f02 803f
000003e0: b0ef 7f3f 7c09 803f 5201 803f e5ff 7f3f
000003f0: 4ff8 7f3f bffa 7f3f 36f0 7f3f 6800 803f

bn1d0.bias f4 [739]
0.010692196 0.019496974 -0.013296587 -0.035606027 0.011634444 -0.0068493458 -0.012817635 -0.0029756275
-0.0010258688 -0.0015028021 0.0073637734 -0.021407826 0.036066692 -0.017221441 -0.016793964 -0.0015464303
-0.0065066577 -0.0012016338 -0.0037786334 0.023441385 -0.0037387246 0.0017304512 0.005625701 -0.00886066
0.007987237 -0.0063210325 0.0049985745 0.025504934 0.0033027916 0.0032682254 0.0010061989 -0.0035518822
-0.010367253 0.011703435 -0.006569612 -0.003223107 -8.53968e-05 0.02588937 0.0020724637 0.00025169266
-0.005664706 0.00021694237 -0.0073795286 -0.01870504 -0.01119503 0.007904601 -0.017162632 0.010967814
-0.025287924 -0.0011547015 -0.019641219 0.008698975 -0.0007179863 0.0053820647 0.0038100127 -0.019813724
0.0033454425 -0.011313736 -0.01687094 -0.02886369 -0.02101796 -0.024047237 0.006064359 -0.019888144
0.00017029076 -0.010399878 -0.010221043 0.00043998755 -0.0079110805 -0.015847232 0.009028546 0.0012838128
0.004254881 -0.000775196 0.01107503 0.017839782 -0.004445439 -0.0029143968 -0.0065927617 0.0007046533
-0.0068988153 -0.0027775026 0.009970229 0.014308093 0.0095357625 -0.014012012 0.0072496645 0.0046415688
-0.00599757 -0.007002352 0.015622132 -0.0025839503 0.017261583 0.00034156386 -0.008270159 0.016914017
-0.013948209 0.005588261 0.007607205 0.001860703 0.0080460105 0.0033611876 0.0035800033 0.003531351
-0.010446967 -0.020346124 -0.0024975738 -0.007403856 -0.023098 0.004552607 -0.017100088 -0.0025728983
-0.008850795 -0.015762476 -0.021631548 -0.004415336 -0.02145354 -0.0026170965 -0.012463622 -0.004076759
-0.023943016 0.011781962 -0.009026846 -0.0030829562 -0.015020721 -0.020336468 -0.015606567 -0.0060649887
-0.014765777 -0.03283095 -0.0048605115 0.0023318005 -0.01912956 -0.013324874 -0.014889831 -0.015783286
-0.015496335 0.007939818 0.0044718385 -0.0057986532 0.008178138 -0.030904463 0.0043631047 0.010174888
0.0014771121 -0.016136924 0.013393167 0.001382216 -0.0028656065 0.007075981 -0.0061825337 0.004962319
0.0071104863 0.0039693024 0.0033894766 -0.0071433582 0.0031621247 0.017082753 -0.008506242 0.006986268
0.010408001 0.0008876468 -0.011707668 -0.0061652623 0.0066806525 0.013898993 0.011388713 -0.0031042641
0.011062449 -0.008435336 -0.017504746 0.011863969 0.0029495293 -0.005617977 0.0040628095 -9.185588e-05
-0.0046257214 -0.005899739 0.0010376304 -0.00075353996 0.0076954374 -0.024394015 0.005748765 -0.008201186
0.012586745 -0.007526598 0.0034273607 -0.014441882 0.0038453985 0.008357465 -0.0054919976 0.00067121454
0.003746829 -0.005271853 -0.0026400755 -0.019140648 -0.015077378 0.008045013 -0.022608725 -0.0010605732
0.005714495 -0.023133337 0.013332618 0.011569508 -0.013184801 0.0066423453 0.008614886 -0.013379646
0.0025855252 0.0032259284 -6.1099534e-05 -0.016777044 0.003799518 -0.0224421 0.019049201 -0.0012911577
0.008094386 0.016589236 -0.00955978 0.021522434 0.026389755 0.031349167 0.01465629 0.0015412559
-0.026599452 -0.007583221 0.013303688 -0.004718906 -0.0018847861 -0.008800516 -0.0021165882 0.0018349224
-0.0127138365 -0.017619861 -0.007086434 0.003375942 0.00012937406 -0.012342827 0.011261842 -0.01049212
0.0027912238 -0.006841567 0.010254675 0.022153128 0.0013131243 0.0016939882 -0.0020767269 0.0005304859
0.00087015063 -0.012620323 -0.015336879 0.007178959 -0.0036025618 0.0055799563 -0.00042904052 0.013453271
00000000: 522e 2f3c 1eb8 9f3c eed9 59bc a0d7 11bd
00000010: 659e 3e3c 7a70 e0bb 0f01 52bc bf02 43bb
00000020: 7276 86ba acf9 c4ba cf4b f13b 775f afbc
00000030: abba 133d fb13 8dbc 7f93 89bc 97b1 caba
00000040: cd35 d5bb 2480 9dba f3a2 77bb 2608 c03c
00000050: 6405 75bb 4fd0 e23a cd57 b83b 4d2c 11bc
00000060: e6dc 023c aa20 cfbb 15cb a33b b9ef d03c
00000070: a673 583b b92f 563b 6fe2 833a b2c6 68bb
00000080: 69db 29bc c4bf 3f3c e645 d7bb c33a 53bb
00000090: 0f17 b3b8 f215 d43c 2cd2 073b 9ef5 8339
000000a0: 009f b9bb 067b 6339 f9cf f1bb 503b 99bc
000000b0: 5c6b 37bc 4d82 013c a698 8cbc 59b2 333c
000000c0: 9f28 cfbc 5a59 97ba 9fe6 a0bc 2586 0e3c
000000d0: 3f37 3cba 085c b03b 68b1 793b 6450 a2bc
000000e0: 363f 5b3b 405d 39bc ed34 8abc 8c73 ecbc
000000f0: db2d acbc b6fe c4bc 88b7 c63b 76ec a2bc
00000100: 1490 3239 4064 2abc 2976 27bc 21ae e639
00000110: 7a9d 01bc 0ed2 81bc 77ec 133c 9c45 a83a
00000120: 876c 8b3b 8636 4bba 0b74 353c bc24 923c
00000130: 0cab 91bb 77ff 3ebb 1808 d8bb 7cb8 383a
00000140: 750f e2bb c306 36bb 2c5a 233c 7e6c 6a3c
00000150: e33b 1c3c a392 65bc 988e ed3b 4d18 983b
00000160: 4487 c4bb fc73 e5bb f9f3 7f3c 7e57 29bb
00000170: 2a68 8d3c ed13 b339 907f 07bc 448f 8a3c
00000180: 0787 64bc bb1d b73b dc45 f93b d5e2 f33a
00000190: 6ad3 033c 5f47 5c3b 7d9e 6a3b 3d6e 673b
000001a0: c129 2bbc eaac a6bc 56ae 23bb 0c9c f2bb
000001b0: 0438 bdbc 092e 953b 7c15 8cbc 129e 28bb
000001c0: ed02 11bc 4f20 81bc a534 b1bc 86ae 90bb
000001d0: 56bf afbc 9883 2bbb 3834 4cbc 5596 85bb
000001e0: 2524 c4bc 2109 413c 56e5 13bc 6c0b 4abb
000001f0: 7819 76bc aa98 a6bc b0b2 7fbc d0bc c6bb
00000200: 28ec 71bc bf79 06bd ed44 9fbb 1fd1 183b
00000210: 98b5 9cbc 9350 5abc 7af4 73bc f34b 81bc
00000220: 57e4 7dbc 0316 023c 8088 923b a102 bebb
00000230: 99fd 053c 5b2b fdbc 60f8 8e3b 93b4 263c
00000240: a89b c13a 9531 84bc 046f 5b3c 792b b53a
00000250: e6cc 3bbb a1dd e73b da96 cabb f39a a23b
00000260: 15ff e83b ec10 823b fb21 5e3b d512 eabb
00000270: a63b 4f3b 21f1 8b3c c45d 0bbc 10ed e43b
00000280: 5286 2a3c f8b0 683a 85d1 3fbc f805 cabb
00000290: 60e9 da3b 9ab8 633c b997 3a3c e970 4bbb
000002a0: 463f 353c 5d34 0abc 1d66 8fbc 1861 423c
000002b0: e44c 413b 0217 b8bb 5121 853b c0a2 c0b8
000002c0: 5d93 97bb 9952 c1bb 1901 883a 3689 45ba
000002d0: 022a fc3b f5d5 c7bc 2360 bc3b 445e 06bc
000002e0: a338 4e3c aea1 f6bb 929d 603b a59d 6cbc
000002f0: 1503 7c3b c0ed 083c 37f6 b3bb 72f4 2f3a
00000300: 5c8d 753b 82bf acbb 1e05 2dbb d9cc 9cbc
00000310: 1b07 77bc 3bcf 033c ef35 b9bc ee02 8bba
00000320: a940 bb3b 2082 bdbc 0e71 5a3c 098e 3d3c
00000330: 1005 58bc 08a8 d93b 7325 0d3c 4e36 5bbc
00000340: ea71 293b 196a 533b 9022 80b8 0370 89bc
00000350: 5601 793b 7fd8 b7bc 120d 9c3c 103c a9ba
00000360: 519e 043c 26e6 873c a0a0 1cbc d14f b03c
00000370: 542f d83c fc67 003d f020 703c f703 ca3a
00000380: 18e7 d9bc ab7c f8bb b6f7 593c 0da1 9abb
00000390: ed0a f7ba 0a30 10bc 75b6 0abb c781 f03a
000003a0: b24d 50bc 8757 90bc 5135 e8bb e83e 5d3b
000003b0: 96a8 0739 9239 4abc 9783 383c 24e7 2bbc
000003c0: f7ec 363b 392f e0bb 3903 283c 7a7a b53c
000003d0: 241d ac3a d008 de3a b219 08bb 4e10 0b3a
000003e0: d21a 643a 79c5 4ebc 8847 7bbc 793d eb3b
000003f0: f518 6cbb 11d8 b63b d8f0 e0b9 1c6b 5c3c

bn1d0.running_mean f4 [739]
-0.003612839 -0.0025860935 -0.0017163928 -0.005525825 -0.005193349 -0.006631612 -0.0044550933 -0.0015033142
0.0014700774 0.0009167582 -0.00010793648 -0.0020664167 -0.003255126 -0.004168651 -0.0032563198 -0.0025146785
-0.0015705362 -0.00083522726 0.00020978044 -0.00015775209 0.00090845535 0.00072857947 0.0010385546 0.001786776
0.0019399609 0.0025780154 0.0020395631 0.0022238893 0.0022247166 0.0022768625 0.0022473163 0.002023653
0.0019876477 0.0016076482 0.0018700114 0.001462134 0.00095671904 0.00082117744 0.0005020313 0.00042838688
0.00020885066 -0.00021238675 -0.00024636698 -0.0002205386 -0.0007173944 -0.0005649423 -0.001129499 -0.0011232614
-0.0010081894 -0.0016618163 -0.0014759398 -0.001459878 -0.0016635965 -0.0017396687 -0.0023970087 -0.0024398118
-0.0035841726 -0.0045448453 -0.0061460817 -0.0077355863 -0.009051186 -0.009266192 -0.00865883 -0.009909878
-0.005350148 -0.0038762933 -0.0028291931 -0.0018438165 -0.0015633301 -0.0013194141 -0.0012354767 -0.0010846745
-0.0015294562 -0.0010056038 -0.0006366584 -0.0005601834 -0.0005040119 -0.00015761783 0.00031130176 0.00042996314
0.00057242747 0.0009952727 0.001284157 0.0010490939 0.00093284226 0.00089883537 0.0008364308 0.001048176
0.00080317544 0.0006188671 0.0006344999 0.00051002373 0.00041435173 0.00042966063 1.5475674e-05 -0.000121423094
4.7749098e-05 -0.00052814663 -0.00074740266 -0.0008596725 -0.0012994951 -0.0022638964 -0.0018003302 -0.0022433135
-0.0026887252 -0.0028761688 -0.0033712029 -0.0037245553 -0.004139296 -0.004642247 -0.006552426 -0.005354025
-0.0055799433 -0.0054581338 -0.0055512893 -0.005390728 -0.0050685997 -0.004782372 -0.004418439 -0.0042225216
-0.00532175 -0.0040448355 -0.004628216 -0.005024677 -0.0059633055 -0.007549441 -0.009090711 -0.010821616
-0.0124230925 -0.018081587 -0.01390051 -0.013381039 -0.012189188 -0.010534033 -0.008931936 -0.0074173673
-0.005917718 -0.004723079 -0.0038522584 -0.0039439523 -0.0023754188 -0.0017612799 -0.0014821376 -0.0011297582
-0.00084112654 -0.0005434229 -0.00037989384 -0.000281691 -0.00014308575 7.210985e-05 0.00018372254 0.00033617648
0.0008140985 0.0008536058 0.001237939 0.0012914747 0.0015429655 0.0016229706 0.0023703107 0.0019623742
0.0019649463 0.002093283 0.0021024584 0.0021695236 0.0021333226 0.0023091412 0.0022416762 0.0029769058
0.0022616498 0.0022329025 0.0022458476 0.0021605575 0.0021182226 0.002131929 0.0020487648 0.002009743
0.002079322 0.0025436734 0.002013313 0.0018579074 0.0018231176 0.0019575155 0.0017536669 0.001755665
0.0018532678 0.0017586406 0.0022654382 0.0016444968 0.0016380039 0.0016826302 0.0015782588 0.0016186441
0.0016781079 0.0016036635 0.0014932356 0.0020999557 0.0012429886 0.0014703819 0.0014480134 0.0013252161
0.0014613856 0.0012493122 0.0012586523 0.0013079131 0.0010192682 0.001514973 0.00088230433 0.001002383
0.001109793 0.0012404588 0.0014873983 0.002302421 0.0032728028 0.005210165 0.011243074 0.012550216
0.017245382 0.021037662 0.022630382 0.022702718 0.017593613 0.010266655 0.0037303967 -0.00075116876
-0.0036691222 -0.005927455 -0.0060038473 0.0019316241 0.0019346831 0.0019559956 0.001941282 0.0019093131
0.0019374378 0.0019540722 0.0019436446 0.0019513686 0.0019524702 0.0019666348 0.0019405053 0.0019097418
0.0019390262 0.0019179613 0.0019647325 0.0019340551 0.002029445 0.0019398482 0.0019945917 0.0020758586
0.0020300206 0.0019527049 0.0019353734 0.0019262127 0.0019561036 0.0019523606 0.0019378883 0.0019718446
00000000: 61c5 6cbb 737b 29bb 96f8 e0ba fb11 b5bb
00000010: f82c aabb fe4d d9bb 08fc 91bb db0a c5ba
00000020: 9daf c03a 9a52 703a f55b e2b8 b86c 07bb
00000030: f453 55bb 2e99 88bb fb67 55bb 4ecd 24bb
00000040: 73da cdba 27f3 5aba 82f8 5b39 416a 25b9
00000050: 6825 6e3a 24fe 3e3a 1c20 883a 4132 ea3a
00000060: 4946 fe3a ecf3 283b 31aa 053b acbe 113b
00000070: 8dcc 113b 6a37 153b b647 133b 439f 043b
00000080: 3243 023b b9b7 d23a 2c1b f53a 13a5 bf3a
00000090: 54cc 7a3a 4944 573a c09a 033a 1d99 e039
000000a0: ecfe 5a39 22b4 5eb9 d12a 81b9 6140 67b9
000000b0: 860f 3cba a318 14ba b30b 94ba 663a 93ba
000000c0: 3925 84ba 4dd1 d9ba 5274 c1ba 6159 bfba
000000d0: 090d daba 9805 e4ba 2217 1dbb 40e5 1fbb
000000e0: 70e4 6abb edec 94bb 1265 c9bb cd7a fdbb
000000f0: 6d4b 14bc 3ad1 17bc c4dd 0dbc 0a5d 22bc
00000100: 4b50 afbb 6909 7ebb fc69 39bb 37ac f1ba
00000110: a7e8 ccba 31f0 acba b8ef a1ba a32b 8eba
00000120: 0978 c8ba 77ce 83ba 6ce5 26ba 46d9 12ba
00000130: ab1f 04ba 3746 25b9 3736 a339 ad6c e139
00000140: f50e 163a cf73 823a 2951 a83a c081 893a
00000150: fc89 743a d29f 6b3a ec43 5b3a f362 893a
00000160: 318c 523a 783b 223a 9154 263a 1db3 053a
00000170: 593d d939 1344 e139 c2d1 8137 87a4 feb8
00000180: 3446 4838 5273 0aba 58ed 43ba a55b 61ba
00000190: d253 aaba e15d 14bb 0ff9 ebba 8e04 13bb
000001a0: 5335 30bb 1b7e 3cbb 66ef 5cbb ab17 74bb
000001b0: eea2 87bb fe1d 98bb bcb5 d6bb d170 afbb
000001c0: f5d7 b6bb 25da b2bb 97e7 b5bb b4a4 b0bb
000001d0: 7f16 a6bb 72b5 9cbb 8ec8 90bb 145d 8abb
000001e0: 1362 aebb 8a8a 84bb 4aa8 97bb 0ca6 a4bb
000001f0: d567 c3bb 4d61 f7bb 35f1 14bc 264d 31bc
00000200: 3a8a 4bbc d61f 94bc f7be 63bc 253c 5bbc
00000210: 29b5 47bc f096 2cbc 4157 12bc 630d f3bb
00000220: 6be9 c1bb 0fc4 9abb 2c76 7cbb 453c 81bb
00000230: eaac 1bbb bfda e6ba 4944 c2ba 6514 94ba
00000240: 0c7f 5cba 7e74 0eba 7d2c c7b9 edaf 93b9
00000250: 4a09 16b9 ae39 9738 a5a5 4039 d840 b039
00000260: 3a69 553a 84c4 5f3a 5742 a23a b346 a93a
00000270: 553d ca3a dbb9 d43a 3757 1b3b 2d9b 003b
00000280: 54c6 003b 762f 093b 66c9 093b 912e 0e3b
00000290: 37cf 0b3b f654 173b 16e9 123b 3118 433b
000002a0: 3038 143b e355 123b 122f 133b 2498 0d3b
000002b0: e1d1 0a3b d5b7 0b3b 9244 063b e4b5 033b
000002c0: 3c45 083b c2b3 263b c9f1 033b 0785 f33a
000002d0: adf5 ee3a a949 003b 4cdb e53a 581e e63a
000002e0: 59e9 f23a 3082 e63a bf77 143b 288c d73a
000002f0: 4ab2 d63a b38b dc3a 94dd ce3a af28 d43a
00000300: f5f3 db3a 0532 d23a acb8 c33a 699f 093b
00000310: c7eb a23a d4b9 c03a 44cb bd3a e0b2 ad3a
00000320: f78b bf3a f6bf a33a 5df9 a43a 486e ab3a
00000330: f798 853a 0f92 c63a 714a 673a 6462 833a
00000340: 7976 913a e496 a23a cef4 c23a 37e4 163b
00000350: 857c 563b 08ba aa3b df34 383c 6c9f 4d3c
00000360: 3046 8d3c 2d57 ac3c 5a63 b93c 0dfb b93c
00000370: 7b20 903c 7935 283c ac79 743b 15ea 44ba
00000380: a875 70bb 193b c2bb ecbb c4bb 8d2e fd3a
00000390: 3195 fd3a 2930 003b 9d72 fe3a eb41 fa3a
000003a0: a0f1 fd3a e40f 003b e4c1 fe3a 11c5 ff3a
000003b0: 07ea ff3a a8e2 003b 8e58 fe3a 4d50 fa3a
000003c0: ec26 fe3a 1a64 fb3a bec2 003b 1f80 fd3a
000003d0: 7000 053b 8142 fe3a b2b7 023b 210b 083b
000003e0: 180a 053b e7f1 ff3a 5bac fd3a f978 fc3a
000003f0: f931 003b 5ae6 ff3a be00 fe3a 103a 013b

bn1d0.running_var f4 [739]
1.638717e-05 1.0144757e-05 7.8238845e-06 5.6439594e-06 7.507052e-06 4.3354053e-06 3.235632e-06 1.6956941e-06
2.0698958e-06 1.6671362e-06 1.9482695e-06 1.9001112e-06 2.03796e-06 1.5042319e-06 1.4281771e-06 1.1447491e-06
1.2179955e-06 8.195503e-07 7.0989773e-07 8.878522e-07 8.418204e-07 4.8848864e-07 8.893759e-07 7.085996e-07
6.985863e-07 5.786663e-07 6.473958e-07 6.3836995e-07 5.6235933e-07 4.7210187e-07 4.453717e-07 5.9066167e-07
3.5669146e-07 4.3168387e-07 4.645362e-07 5.5441797e-07 4.4473052e-07 4.4602282e-07 3.9020387e-07 4.2954042e-07
4.0453565e-07 3.9392717e-07 3.860508e-07 4.3013767e-07 4.6156913e-07 4.8149576e-07 4.2001855e-07 3.9208768e-07
4.0146412e-07 3.8190316e-07 4.3688627e-07 5.886345e-07 4.120206e-07 4.1521275e-07 4.8940666e-07 6.132033e-07
5.4120386e-07 7.8903423e-07 1.0178046e-06 1.48037e-06 1.8026118e-06 1.5422341e-06 1.6385461e-06 2.0673258e-06
6.313617e-07 4.6313167e-07 4.4005938e-07 3.452389e-07 3.7868168e-07 2.892338e-07 3.075436e-07 3.6898732e-07
3.8642378e-07 3.38372e-07 3.197024e-07 3.1078227e-07 2.6546078e-07 2.14223e-07 2.8806224e-07 2.4055984e-07
2.844543e-07 2.3402143e-07 2.9144442e-07 3.6985267e-07 2.2162413e-07 2.4128317e-07 2.3069278e-07 1.8023769e-07
1.9590634e-07 1.8122932e-07 1.9356932e-07 2.0163984e-07 1.4417267e-07 1.8253742e-07 1.9934483e-07 1.7281705e-07
1.4990013e-07 1.5032586e-07 1.6407256e-07 1.6791594e-07 1.3913616e-07 1.7594208e-07 1.5579398e-07 1.7729161e-07
2.3433677e-07 2.28397e-07 2.2241784e-07 3.2809785e-07 3.0250422e-07 3.813684e-07 6.62563e-07 4.0525907e-07
4.945454e-07 5.2671976e-07 4.1117823e-07 3.4592713e-07 4.1442766e-07 3.5454005e-07 3.2848402e-07 2.704131e-07
4.0792528e-07 2.6358012e-07 2.5135097e-07 2.7489963e-07 4.4921288e-07 6.325438e-07 7.449466e-07 1.008425e-06
1.4506793e-06 2.8610696e-06 1.8995457e-06 1.8548687e-06 1.648577e-06 1.3995434e-06 1.1864548e-06 8.449904e-07
6.0626655e-07 4.6741835e-07 2.9924817e-07 3.8219966e-07 1.9987779e-07 2.509576e-07 1.2933884e-07 1.672095e-07
1.5251891e-07 1.313497e-07 1.4152636e-07 9.755398e-08 9.7652354e-08 9.98421e-08 9.660898e-08 1.1418942e-07
1.8733556e-07 1.1360474e-07 2.0575675e-07 2.1172185e-07 1.620827e-07 1.8660697e-07 2.9617937e-07 1.5041388e-07
1.8196388e-07 1.6745544e-07 2.2162303e-07 2.2543632e-07 2.3349935e-07 1.7996281e-07 2.3163938e-07 2.8274354e-07
2.0130301e-07 2.6517807e-07 1.8097249e-07 2.0807028e-07 2.5026085e-07 2.0917368e-07 1.8856827e-07 2.181314e-07
2.452085e-07 2.679434e-07 2.3845848e-07 2.4371047e-07 2.4467255e-07 2.6228486e-07 2.4587487e-07 2.6569631e-07
2.6887133e-07 3.5594672e-07 3.1095493e-07 2.6170605e-07 3.099439e-07 3.7267807e-07 3.993584e-07 4.049349e-07
3.4088765e-07 4.006186e-07 4.3039333e-07 4.752767e-07 4.5441595e-07 4.5264215e-07 4.8258835e-07 4.2423963e-07
6.033349e-07 6.047413e-07 5.2011245e-07 5.444775e-07 6.190724e-07 7.0635247e-07 8.74172e-07 1.2400111e-06
8.5641403e-07 8.5465797e-07 1.0915968e-06 9.547546e-07 1.1228279e-06 1.2410742e-06 3.035456e-06 3.832962e-06
6.4465785e-06 9.99293e-06 1.2404068e-05 1.2927993e-05 1.2755911e-05 1.5518242e-05 1.5409094e-05 1.8564615e-05
2.3660254e-05 4.4419347e-05 5.104117e-05 1.66589e-10 6.675113e-11 2.6699307e-10 1.7104562e-10 4.2949706e-12
6.402005e-11 2.0440943e-10 1.3897375e-10 2.3789032e-10 3.949909e-10 1.1461296e-10 1.5442482e-10 1.2866358e-11
1.0898782e-10 3.6253493e-11 1.4904203e-10 1.5708673e-10 4.4139906e-10 1.1721184e-10 3.9379672e-10 4.7982646e-10
4.3872317e-10 2.4941002e-10 7.11935e-11 1.00956195e-10 1.4142744e-10 5.975691e-11 1.00978885e-10 2.3528185e-10
00000000: 2e77 8937 6633 2a37 5443 0337 3e61 bd36
00000010: 16e5 fb36 d978 9136 bc23 5936 9b97 e335
00000020: 8ae8 0a36 5dc2 df35 04bf 0236 5307 ff35
00000030: e3c3 0836 04e5 c935 cbaf bf35 48a5 9935
00000040: 027a a335 11ff 5b35 cd8f 3e35 bd54 6e35
00000050: 75f9 6135 af20 0335 72bd 6e35 9836 3e35
00000060: 7c86 3b35 a555 1b35 b3c8 2d35 735c 2b35
00000070: 0af5 1635 3075 fd34 6c1b ef34 f68d 1e35
00000080: 4d7f bf34 2ec2 e734 5f65 f934 50d3 1435
00000090: 4cc3 ee34 e974 ef34 367d d134 969b e634
000000a0: f52e d934 f07c d334 6b42 cf34 aced e634
000000b0: 94cd f734 2340 0135 e97e e134 1f80 d234
000000c0: cf88 d734 5f08 cd34 318d ea34 a802 1e35
000000d0: ae33 dd34 68ea de34 c55f 0335 039b 2435
000000e0: 3f47 1135 05ce 5335 809b 8835 20b1 c635
000000f0: 45f1 f135 c3fe ce35 04ec db35 63bc 0a36
00000100: d87a 2935 55a4 f834 4d41 ec34 4659 b934
00000110: 9d4d cb34 fe47 9b34 781c a534 3b19 c634
00000120: ae75 cf34 7ea9 b534 90a3 ab34 97d9 a634
00000130: a784 8e34 2b05 6634 f9a6 9a34 4b26 8134
00000140: 1ab7 9834 5247 7b34 d177 9c34 2a90 c634
00000150: 94f7 6d34 b589 8134 59b4 7734 5c87 4134
00000160: 535a 5234 f097 4234 eed7 4f34 5682 5834
00000170: e2cd 1a34 81ff 4334 7d0b 5634 978f 3934
00000180: 3cf4 2034 4269 2134 ec2b 3034 624c 3434
00000190: 7565 1534 97ea 3c34 5348 2734 8c5d 3e34
000001a0: 009e 7b34 4a3d 7534 c0d1 6e34 6d25 b034
000001b0: dd67 a234 e0be cc34 fcda 3135 6292 d934
000001c0: e7c0 0435 e863 0d35 e8bf dc34 ddb7 b934
000001d0: 817e de34 9d57 be34 805a b034 4b2d 9134
000001e0: d300 db34 2d82 8d34 6af1 8634 eb95 9334
000001f0: 592b f134 14cc 2935 57f8 4735 3859 8735
00000200: f6b4 c235 cd00 4036 e5f3 fe35 cef4 f835
00000210: ad44 dd35 f2d7 bb35 473e 9f35 4cd3 6235
00000220: 52be 2235 7df1 fa34 5ba8 a034 1f31 cd34
00000230: fd9d 5634 5abb 8634 64e0 0a34 338a 3334
00000240: 14c4 2334 2109 0d34 78f6 1734 de7e d133
00000250: f3b4 d133 c668 d633 5977 cf33 4c38 f533
00000260: 6826 4934 def6 f333 fced 5c34 a955 6334
00000270: f408 2e34 225e 4834 9502 9f34 7481 2134
00000280: da61 4334 cdcd 3334 46f7 6d34 770f 7234
00000290: d0b7 7a34 cd3b 4134 8cb8 7834 facb 9734
000002a0: c025 5834 cc5d 8e34 5751 4234 ec69 5f34
000002b0: 975b 8634 3999 6034 4079 4a34 8137 6a34
000002c0: 33a5 8334 dcd9 8f34 7c05 8034 50d7 8234
000002d0: 8a5b 8334 28d0 8c34 c900 8434 06a5 8e34
000002e0: 6559 9034 f218 bf34 52f1 a634 9b80 8c34
000002f0: 5e66 a634 7c14 c834 6767 d634 d465 d934
00000300: 3e03 b734 9a14 d734 cf10 e734 8829 ff34
00000310: 74f6 f334 aa02 f334 388b 0135 0dc3 e334
00000320: dcf4 2135 8155 2235 db9d 0b35 3528 1235
00000330: 552e 2635 2c9c 3d35 a4a8 6a35 756e a635
00000340: 53e4 6535 a66b 6535 fb82 9235 1e25 8035
00000350: 13b4 9635 fc92 a635 bdb4 4b36 e59c 8036
00000360: b04f d836 4fa7 2737 111b 5037 4fe5 5837
00000370: 3802 5637 2c2d 8237 c742 8137 35bb 9b37
00000380: 027a c637 e94e 3a38 0a15 5638 a32a 372f
00000390: 8cc9 922e efc7 922f 1011 3c2f a81d 972c
000003a0: 16c8 8c2e 24c0 602f a2cd 182f 16c8 822f
000003b0: 0726 d92f 5c09 fc2e b9ca 292f ed58 622d
000003c0: b0aa ef2e ce71 1f2e 9adf 232f fcb7 2c2f
000003d0: 65a9 f22f 33e0 002f f67d d82f c9e4 0330
000003e0: cc30 f12f 571d 892f 618e 9c2e 4901 de2e
000003f0: 4980 1b2f 2668 832e 0f0e de2e fa58 812f

bn1d1.weight f4 [512]
1.0 1.0016384 1.0 1.0007316 1.0 0.999988 1.0 1.0000701
1.0 0.9997192 1.0 1.0006471 1.0 1.0004939 1.0 0.9998268
1.0 0.99999887 1.0 0.99994653 1.0 1.0006472 1.0 0.99992996
1.0 1.0006014 1.0 0.99896586 1.0 0.99955004 1.0 0.99978095
1.0 1.0034723 1.0 1.0025948 1.0 1.0000666 1.0 1.0000122
1.0 0.9999019 1.0 0.9997735 1.0 0.9996837 1.0 0.99977094
1.0 0.9998368 1.0 1.000116 1.0 1.000862 1.0 1.0004835
1.0 0.9999965 1.0 0.99992806 1.0 1.0008196 1.0 1.0015552
1.0 1.0027139 1.0 1.0007554 1.0 1.0000087 1.0 0.99985516
1.0 1.001389 1.0 0.9997259 1.0 1.0000669 1.0 0.9999589
1.0 0.99928516 1.0 1.0001308 1.0 1.0007926 1.0 0.99953216
1.0 1.0035459 1.0 1.0039743 1.0 1.000024 1.0 1.0000308
1.0 0.9991413 1.0 0.99974656 1.0 0.9999066 1.0 0.9998941
1.0 0.99975556 1.0 0.99990535 1.0 1.000206 1.0 0.9996862
1.0 0.9998696 1.0 0.99993926 1.0 1.0006746 1.0 1.000424
1.0 0.99686986 1.0 0.9978557 1.0 1.0000495 1.0 1.0001181
1.0 1.0111152 1.0 1.0079056 1.0 0.9997831 1.0 0.9998081
1.0 1.000024 1.0 0.9999282 1.0 1.0067648 1.0 1.0037706
1.0 1.0115092 1.0 1.010464 1.0 0.9998667 1.0 0.99981624
1.0 0.9999276 1.0 1.0000597 1.0 1.0000107 1.0 0.9998801
1.0 1.0001388 1.0 1.000277 1.0 1.0000159 1.0 0.99972206
1.0 1.0001296 1.0 0.99974835 1.0 1.0006918 1.0 1.0009884
1.0 1.0000128 1.0 0.9999522 1.0 0.99993616 1.0 1.0000484
1.0 1.0023274 1.0 0.9978502 1.0 1.0003573 1.0 1.0017123
1.0 1.0000377 1.0 1.0000151 1.0 1.0038697 1.0 0.99935037
1.0 0.99965197 1.0 0.99939865 1.0 1.0000944 1.0 1.0000188
1.0 1.0135813 1.0 1.0125579 1.0 1.0007266 1.0 0.99988985
1.0 0.9999908 1.0 1.0000145 1.0 0.99978477 1.0 0.9999989
1.0 0.9997359 1.0 1.0002794 1.0 1.0000511 1.0 0.99976987
1.0 1.0018128 1.0 1.0003674 1.0 1.0033437 1.0 0.9988283
1.0 1.00178 1.0 1.0108215 1.0 1.0002377 1.0 0.9994742
1.0 1.0007116 1.0 1.0078973 1.0 1.0000842 1.0 1.0005751
00000000: 0000 803f b035 803f 0000 803f f917 803f
00000010: 0000 803f 37ff 7f3f 0000 803f 4c02 803f
00000020: 0000 803f 99ed 7f3f 0000 803f 3415 803f
00000030: 0000 803f 2f10 803f 0000 803f a6f4 7f3f
00000040: 0000 803f edff 7f3f 0000 803f 7ffc 7f3f
00000050: 0000 803f 3515 803f 0000 803f 69fb 7f3f
00000060: 0000 803f b513 803f 0000 803f 3abc 7f3f
00000070: 0000 803f 83e2 7f3f 0000 803f a5f1 7f3f
00000080: 0000 803f c871 803f 0000 803f 0755 803f
00000090: 0000 803f 2f02 803f 0000 803f 6600 803f
000000a0: 0000 803f 92f9 7f3f 0000 803f 28f1 7f3f
000000b0: 0000 803f 45eb 7f3f 0000 803f fdf0 7f3f
000000c0: 0000 803f 4ef5 7f3f 0000 803f cd03 803f
000000d0: 0000 803f 3f1c 803f 0000 803f d80f 803f
000000e0: 0000 803f c5ff 7f3f 0000 803f 49fb 7f3f
000000f0: 0000 803f db1a 803f 0000 803f f632 803f
00000100: 0000 803f ee58 803f 0000 803f c118 803f
00000110: 0000 803f 4900 803f 0000 803f 82f6 7f3f
00000120: 0000 803f 842d 803f 0000 803f 09ee 7f3f
00000130: 0000 803f 3102 803f 0000 803f 4efd 7f3f
00000140: 0000 803f 27d1 7f3f 0000 803f 4904 803f
00000150: 0000 803f f919 803f 0000 803f 57e1 7f3f
00000160: 0000 803f 3174 803f 0000 803f 3b82 803f
00000170: 0000 803f c900 803f 0000 803f 0201 803f
00000180: 0000 803f b9c7 7f3f 0000 803f 64ef 7f3f
00000190: 0000 803f e1f9 7f3f 0000 803f 0ff9 7f3f
000001a0: 0000 803f fbef 7f3f 0000 803f ccf9 7f3f
000001b0: 0000 803f c006 803f 0000 803f 6feb 7f3f
000001c0: 0000 803f 74f7 7f3f 0000 803f 05fc 7f3f
000001d0: 0000 803f 1b16 803f 0000 803f e50d 803f
000001e0: 0000 803f dd32 7f3f 0000 803f 7973 7f3f
000001f0: 0000 803f 9f01 803f 0000 803f df03 803f
00000200: 0000 803f 396c 813f 0000 803f 0d03 813f
00000210: 0000 803f c9f1 7f3f 0000 803f 6cf3 7f3f
00000220: 0000 803f c900 803f 0000 803f 4bfb 7f3f
00000230: 0000 803f abdd 803f 0000 803f 8e7b 803f
00000240: 0000 803f 2279 813f 0000 803f e256 813f
00000250: 0000 803f 44f7 7f3f 0000 803f f5f3 7f3f
00000260: 0000 803f 41fb 7f3f 0000 803f f501 803f
00000270: 0000 803f 5a00 803f 0000 803f 24f8 7f3f
00000280: 0000 803f 8c04 803f 0000 803f 1409 803f
00000290: 0000 803f 8500 803f 0000 803f c9ed 7f3f
000002a0: 0000 803f 3f04 803f 0000 803f 82ef 7f3f
000002b0: 0000 803f ab16 803f 0000 803f 6320 803f
000002c0: 0000 803f 6b00 803f 0000 803f defc 7f3f
000002d0: 0000 803f d1fb 7f3f 0000 803f 9601 803f
000002e0: 0000 803f 444c 803f 0000 803f 1c73 7f3f
000002f0: 0000 803f b50b 803f 0000 803f 1c38 803f
00000300: 0000 803f 3c01 803f 0000 803f 7f00 803f
00000310: 0000 803f cd7e 803f 0000 803f 6dd5 7f3f
00000320: 0000 803f 31e9 7f3f 0000 803f 97d8 7f3f
00000330: 0000 803f 1803 803f 0000 803f 9e00 803f
00000340: 0000 803f 08bd 813f 0000 803f 7f9b 813f
00000350: 0000 803f cf17 803f 0000 803f c8f8 7f3f
00000360: 0000 803f 66ff 7f3f 0000 803f 7a00 803f
00000370: 0000 803f e5f1 7f3f 0000 803f eeff 7f3f
00000380: 0000 803f b1ee 7f3f 0000 803f 2809 803f
00000390: 0000 803f ad01 803f 0000 803f ebf0 7f3f
000003a0: 0000 803f 673b 803f 0000 803f 0a0c 803f
000003b0: 0000 803f 916d 803f 0000 803f 36b3 7f3f
000003c0: 0000 803f 543a 803f 0000 803f 9962 813f
000003d0: 0000 803f ca07 803f 0000 803f 8bdd 7f3f
000003e0: 0000 803f 5117 803f 0000 803f c702 813f
000003f0: 0000 803f c202 803f 0000 803f d812 803f

bn1d1.bias f4 [512]
0.0023023332 0.004815137 -0.014237092 -0.0035653543 0.025609262 -0.006454648 0.012296131 0.0310929
0.005500721 0.00033861236 -0.017647129 0.016866604 0.010150595 -0.0050767804 -0.016240478 -0.017831855
-0.032040287 0.0015698163 0.010018842 0.015100306 0.009858003 -0.029028406 -0.001997609 0.014081463
-0.00292549 0.014311517 -0.022468029 -0.021030946 0.0019397067 -0.0034550524 -0.012898793 0.006569497
-0.02634779 0.019777376 -0.008658857 0.015818551 0.0031565428 -0.01041404 0.017586326 0.013967618
-0.012224789 0.021155769 -0.0006140681 -0.007813675 0.01744617 0.016630968 0.037079077 -0.011937415
-0.0071031023 0.007508691 -0.00642026 -0.043465044 0.016100489 -0.0013556196 -0.009407216 0.010851915
-0.0009826457 0.0036130804 0.016934158 0.011551348 0.0027568012 -0.013613881 -0.02420109 -0.007534477
0.032576583 0.015226502 0.023964532 -0.004798149 0.004467016 -0.0010146829 0.012434088 -0.020869136
0.016908932 -0.0059510246 0.009702826 0.009997228 0.009178242 -0.024919294 0.008013356 -0.0031178424
-0.010464746 -0.02054247 0.0076663913 0.019849632 -0.015162735 -0.0003745699 0.013945201 0.007637491
0.0045544673 -0.0021107744 0.01685978 -0.01212873 0.019152177 0.0033580447 -0.009838526 0.021340646
-0.024705699 0.011373583 -0.0061152256 0.010109478 0.004879056 -0.007288954 -0.007955725 0.030716889
-0.003550936 0.015675552 -0.011556682 0.017371204 -0.007953265 0.010958588 0.0059650424 -0.012576482
-0.0062713567 -0.00858294 -0.009165328 0.015788157 0.010708053 0.009988356 0.019009577 -0.025108052
2.6567022e-05 -0.0084100915 -0.0142216245 0.00994558 0.010854228 -0.0077805473 0.009485846 -0.002109558
0.0035202343 -0.030373957 0.029965812 -0.007526229 0.02203677 -0.013475782 0.015378314 -0.014186447
0.01532311 0.0027730968 0.005978844 -0.0120469825 -0.016434556 0.0032887012 0.03688983 0.0060145273
-0.009669827 0.017558705 -0.005065932 -0.014101016 -0.019506967 -0.015306139 0.0070514963 -0.0034519164
-0.008609162 0.013831006 -0.0015823044 -0.0125755295 0.012272691 0.0048622703 0.012000659 0.009522848
-0.005570884 -0.008879194 -0.038004726 0.0031906222 0.014220898 0.0062126173 -0.015291805 0.009211681
0.014311948 -0.0027950697 -0.0017470245 0.009471869 -0.009155597 -0.013205304 0.007590536 0.030855754
-0.027655976 0.0075340164 0.0006502918 -0.0041119363 0.02636582 0.0045164926 0.038841877 0.0015044839
-0.00016870855 0.013106373 0.005619321 -0.010256645 0.009713925 0.019534467 -0.013665669 0.016078353
0.005499676 0.010423148 0.007911016 0.022056658 -0.00833408 0.037781455 0.016348194 -0.0063295295
-0.011042777 0.00014013819 0.017413871 -0.00920022 0.009963068 0.02437229 -0.0007170505 -6.770942e-05
0.014772285 -0.0016796796 -0.008846807 -0.022395039 -0.0060215467 -0.0018551389 0.0017060642 0.009640389
-0.02148599 -0.0030411067 -0.007421519 0.026419481 0.027318103 -0.0078921905 0.042195067 -0.021048384
0.013158012 -0.0013114144 -0.018060312 0.028206185 0.006923846 -0.017492281 0.013965677 -0.030331919
0.0060737836 -0.0033088627 0.0019804672 0.0060188035 -0.025664449 -0.006911199 -0.022062307 0.0055051767
-0.0019555313 -0.03140317 0.027117614 -0.0011898861 0.018014804 -0.006137942 -0.025120968 0.0071015423
0.0099614905 0.019384312 -0.020917477 0.01046684 0.015611483 0.0104875965 -0.0038740707 5.009206e-05
00000000: bee2 163b 4cc8 9d3b b142 69bc b8a8 69bb
00000010: 84ca d13c 8381 d3bb b675 493c 8ab6 fe3c
00000020: 643f b43b c887 b139 b690 90bc d52b 8a3c
00000030: ae4e 263c 1f5b a6bb c00a 85bc 1c14 92bc
00000040: ad3c 03bd 4bc2 cd3a 1226 243c 4667 773c
00000050: 7683 213c fbcc edbc 51ea 02bb f0b5 663c
00000060: 94b9 3fbb da7a 6a3c df0e b8bc 1749 acbc
00000070: c23d fe3a 296e 62bb 7655 53bc ef44 d73b
00000080: 52d7 d7bc 2a04 a23c e1dd 0dbc e895 813c
00000090: 00de 4e3b a69f 2abc 3311 903c 70d8 643c
000000a0: 7b4a 48bc dd4e ad3c 6af9 20ba ee04 00bc
000000b0: 45eb 8e3c ab3d 883c 3be0 173d 2695 43bc
000000c0: 24c1 e8bb 770b f63b 0b61 d2bb 6708 32bd
000000d0: 2ce5 833c 0caf b1ba b920 1abc 3bcc 313c
000000e0: 1ecc 80ba 6ec9 6c3b 81b9 8a3c dd41 3d3c
000000f0: 73ab 343b c10c 5fbc 5d41 c6bc c6e3 f6bb
00000100: 066f 053d 9478 793c 4451 c43c cb39 9dbb
00000110: 0c60 923b 1cff 84ba 58b8 4b3c c0f5 aabc
00000120: 9a84 8a3c d000 c3bb 9af8 1e3c 6acb 233c
00000130: 5660 163c 8c23 ccbc 734a 033c b754 4cbb
00000140: 5374 2bbc af48 a8bc 5a36 fb3b b29b a23c
00000150: 1f6d 78bc ec61 c4b9 6a7a 643c eb43 fa3b
00000160: a43d 953b eb54 0abb 851d 8a3c 95b7 46bc
00000170: 07e5 9c3c a412 5c3b c531 21bc 94d2 ae3c
00000180: 9b63 cabc 4458 3a3c 3b62 c8bb 39a2 253c
00000190: 7de0 9f3b 2ed8 eebb bb58 02bc fca1 fb3c
000001a0: d2b6 68bb 046a 803c 3d58 3dbc 0e4e 8e3c
000001b0: 694e 02bc a68b 333c 6776 c33b 970d 4ebc
000001c0: f47f cdbb 769f 0cbc 2c2a 16bc 2a56 813c
000001d0: d470 2f3c 34a6 233c f9b9 9b3c 67af cdbc
000001e0: 3fdc de37 7bca 09bc d101 69bc c9f2 223c
000001f0: efd5 313c f6f3 febb 866a 1b3c 8340 0abb
00000200: bbb3 663b ced2 f8bc dd7a f53c 969e f6bb
00000210: 7586 b43c 87c9 5cbc 53f5 7b3c 456e 68bc
00000220: c80d 7b3c d8bc 353b 2eea c33b b560 45bc
00000230: c3a1 86bc 4087 573b ca19 173d 8315 c53b
00000240: 326e 1ebc 46d7 8f3c 1e00 a6bb f307 67bc
00000250: 13cd 9fbc 9ac6 7abc 3d10 e73b 8c39 62bb
00000260: 710d 0dbc 729b 623c 5365 cfba 9809 4ebc
00000270: 6613 493c ae53 9f3b 699e 443c b805 1c3c
00000280: f68b b6bb 0a7a 11bc d8aa 1bbd c219 513b
00000290: c5fe 683c 3693 cb3b 7b8a 7abc 97ec 163c
000002a0: a97c 6a3c 7d2d 37bb 6afc e4ba e62f 1b3c
000002b0: 5b01 16bc 0f5b 58bc 08ba f83b 35c5 fc3c
000002c0: c98e e2bc e9df f63b 5878 2a3a 6cbd 86bb
000002d0: 22fd d73c 16ff 933b a918 1f3d 1a32 c53a
000002e0: 5be7 30b9 1dbc 563c 4822 b83b 7d0b 28bc
000002f0: 2827 1f3c bf06 a03c f8e5 5fbc c0b6 833c
00000300: a036 b43b dac5 2a3c 359d 013c 2ab0 b43c
00000310: aa8b 08bc bac0 1a3d a6ec 853c f167 cfbb
00000320: c4ec 34bc 0ff2 1239 89a7 8e3c 85bc 16bc
00000330: 233c 233c 66a8 c73c 72f8 3bba 38ff 8db8
00000340: 7407 723c b228 dcba 33f2 10bc cd75 b7bc
00000350: 6550 c5bb 2228 f3ba 049e df3a b9f2 1d3c
00000360: 6303 b0bc 4e4d 47bb 3730 f3bb ab6d d83c
00000370: 37ca df3c 3f4e 01bc bcd4 2c3d a96d acbc
00000380: b494 573c c4e3 abba 38f3 93bc a810 e73c
00000390: 6ee1 e23b f94b 8fbc 4bd0 643c a57a f8bc
000003a0: 9706 c73b 81d9 58bb baca 013b 6239 c53b
000003b0: 403e d2bc 5777 e2bb 03bc b4bc c564 b43b
000003c0: 5f28 00bb 9ca0 00bd c225 de3c f4f5 9bba
000003d0: c893 933c ca20 c9bb 7dca cdbc 0eb4 e83b
000003e0: 8535 233c d9cb 9e3c 215b abbc 1c7d 2b3c
000003f0: 4ec7 7f3c 2bd4 2b3c 1fe4 7dbb f119 5238

bn1d1.running_mean f4 [512]
0.0 0.11749659 0.0 0.1462405 0.0 0.023873242 0.0 0.02954771
0.0 0.040001217 0.0 0.049514063 0.0 0.03523776 0.0 0.043605566
0.0 0.022532279 0.0 0.027891284 0.0 0.060219266 0.0 0.0745647
0.0 0.030284075 0.0 0.03748428 1.3539491e-21 0.011083799 5.240812e-21 0.013715167
0.0 0.08471956 0.0 0.10506387 1.6930948e-29 0.012882878 7.362641e-14 0.015938027
0.0 0.03993251 0.0 0.049434662 0.0 0.019477619 0.0 0.02409741
3.2394888e-28 0.009216696 9.964141e-28 0.01140503 0.0 0.046931848 0.0 0.05810747
0.0 0.013593689 0.0 0.01682105 0.0 0.02722946 0.0 0.033660296
0.0 0.07931319 0.0 0.09834835 6.150024e-24 0.017733073 1.6453256e-23 0.021928089
0.0 0.03912763 0.0 0.04843004 6.150024e-24 0.016872337 1.6453256e-23 0.020870304
0.0 0.028095068 0.0 0.03476761 0.0 0.07139024 0.0 0.08844909
0.0 0.12013477 0.0 0.14960213 0.0 0.01789333 0.0 0.0221361
0.0 0.031003108 0.0 0.038370907 0.0 0.014631271 0.0 0.018104048
0.0 0.029101605 0.0 0.036018167 0.0 0.02903816 0.0 0.03594571
2.8339796e-12 0.012947785 7.902128e-12 0.016018208 0.0 0.045180924 0.0 0.055929337
0.0 0.08702788 0.0 0.10795399 0.0 0.02057182 0.0 0.025452243
0.0 0.126039 0.0 0.1570479 0.0 0.022646131 0.0 0.028034866
0.0 0.019460047 0.0 0.024077542 0.0 0.19577725 0.0 0.2471623
0.0 0.15418476 0.0 0.1932806 1.3782215e-26 0.024102235 3.3388572e-26 0.02981907
0.0 0.018988583 0.0 0.023498109 0.0 0.035692435 0.0 0.044176072
7.290003e-32 0.03048332 8.384063e-32 0.037714593 0.0 0.013282966 0.0 0.016437618
0.0 0.040982563 0.0 0.050737973 0.0 0.06829143 0.0 0.084610716
1.571466e-18 0.0131728975 6.6244664e-18 0.016299337 0.0 0.031435557 0.0 0.03890915
0.0 0.090114206 0.0 0.11183776 0.0 0.0421182 0.0 0.05212115
1.795825e-30 0.013503749 3.8348752e-30 0.016707499 0.0 0.10270847 0.0 0.12756026
0.0 0.029891923 0.0 0.03700394 1.2911938e-24 0.0134837935 1.507423e-13 0.01667313
0.0 0.13510835 0.0 0.16851647 0.0 0.046357512 0.0 0.05739711
0.0 0.020760177 0.0 0.025685152 0.0 0.03641608 0.0 0.045075882
0.0 0.046864018 0.0 0.058021538 7.870889e-19 0.012534256 3.2982474e-18 0.015504117
0.0 0.1073108 0.0 0.13355714 0.0 0.10871084 0.0 0.1351589
0.0 0.18112937 0.0 0.22769794 0.0 0.023429755 0.0 0.028998956
0.0 0.076977775 0.0 0.095432475 0.0 0.038504135 0.0 0.047658008
00000000: 0000 0000 0da2 f03d 0000 0000 12c0 153e
00000010: 0000 0000 d191 c33c 0000 0000 0a0e f23c
00000020: 0000 0000 51d8 233d 0000 0000 42cf 4a3d
00000030: 0000 0000 7855 103d 0000 0000 c09b 323d
00000040: 0000 0000 9d95 b83c 0000 0000 437c e43c
00000050: 0000 0000 7aa8 763d 0000 0000 61b5 983d
00000060: 0000 0000 4f16 f83c 0000 0000 1e89 193d
00000070: 5e9a cc1c d398 353c 06fe c51d 94b5 603c
00000080: 0000 0000 7381 ad3d 0000 0000 ba2b d73d
00000090: 41b3 ab0f b512 533c bcca a529 7790 823c
000000a0: 0000 0000 4690 233d 0000 0000 007c 4a3d
000000b0: 0000 0000 878f 9f3c 0000 0000 ee67 c53c
000000c0: b653 cd11 a001 173c 5ce3 9d12 2adc 3a3c
000000d0: 0000 0000 9c3b 403d 0000 0000 1902 6e3d
000000e0: 0000 0000 10b8 5e3c 0000 0000 4ccc 893c
000000f0: 0000 0000 5110 df3c 0000 0000 61df 093d
00000100: 0000 0000 f46e a23d 0000 0000 dc6a c93d
00000110: e3ea ed18 f344 913c 4a20 9f19 89a2 b33c
00000120: 0000 0000 4b44 203d 0000 0000 945e 463d
00000130: e3ea ed18 db37 8a3c 4a20 9f19 33f8 aa3c
00000140: 0000 0000 a127 e63c 0000 0000 7b68 0e3d
00000150: 0000 0000 0c35 923d 0000 0000 cc24 b53d
00000160: 0000 0000 3809 f63d 0000 0000 4d31 193e
00000170: 0000 0000 0895 923c 0000 0000 c456 b53c
00000180: 0000 0000 3bfa fd3c 0000 0000 d02a 1d3d
00000190: 0000 0000 00b8 6f3c 0000 0000 f14e 943c
000001a0: 0000 0000 7d66 ee3c 0000 0000 c987 133d
000001b0: 0000 0000 6fe1 ed3c 0000 0000 cf3b 133d
000001c0: 706c 472c f222 543c 0504 0b2d 9e38 833c
000001d0: 0000 0000 a20f 393d 0000 0000 2916 653d
000001e0: 0000 0000 ac3b b23d 0000 0000 fb16 dd3d
000001f0: 0000 0000 3c86 a83c 0000 0000 3981 d03c
00000200: 0000 0000 5e10 013e 0000 0000 2ad1 203e
00000210: 0000 0000 6184 b93c 0000 0000 60a9 e53c
00000220: 0000 0000 ad6a 9f3c 0000 0000 443e c53c
00000230: 0000 0000 d579 483e 0000 0000 1d18 7d3e
00000240: 0000 0000 9ce2 1d3e 0000 0000 59eb 453e
00000250: 117e 8814 0d72 c53c 0b55 2515 1f47 f43c
00000260: 0000 0000 f28d 9b3c 0000 0000 1b7f c03c
00000270: 0000 0000 3b32 123d 0000 0000 f8f1 343d
00000280: 6142 bd0b 28b8 f93c a8a9 d90b 9e7a 1a3d
00000290: 0000 0000 cca0 593c 0000 0000 2fa8 863c
000002a0: 0000 0000 55dd 273d 0000 0000 9fd2 4f3d
000002b0: 0000 0000 61dc 8b3d 0000 0000 6248 ad3d
000002c0: 4fe8 e721 23d3 573c 5166 f422 3086 853c
000002d0: 0000 0000 92c2 003d 0000 0000 335f 1f3d
000002e0: 0000 0000 cc8d b83d 0000 0000 320b e53d
000002f0: 0000 0000 2284 2c3d 0000 0000 fd7c 553d
00000300: d3b1 110e d43e 5d3c 9f8f 9b0e 2ade 883c
00000310: 0000 0000 d158 d23d 0000 0000 289f 023e
00000320: 0000 0000 e8df f43c 0000 0000 7291 173d
00000330: 75cd c717 21eb 5c3c 83b8 292a 1796 883c
00000340: 0000 0000 d859 0a3e 0000 0000 958f 2c3e
00000350: 0000 0000 60e1 3d3d 0000 0000 3b19 6b3d
00000360: 0000 0000 3f11 aa3c 0000 0000 ab69 d23c
00000370: 0000 0000 0729 153d 0000 0000 7da1 383d
00000380: 0000 0000 7cf4 3f3d 0000 0000 fea7 6d3d
00000390: c14e 6821 7b5c 4d3c 225e 7322 fb04 7e3c
000003a0: 0000 0000 c4c5 db3d 0000 0000 34c3 083e
000003b0: 0000 0000 caa3 de3d 0000 0000 1867 0a3e
000003c0: 0000 0000 fa79 393e 0000 0000 a629 693e
000003d0: 0000 0000 c2ef bf3c 0000 0000 388f ed3c
000003e0: 0000 0000 86a6 9d3d 0000 0000 1a72 c33d
000003f0: 0000 0000 83b6 1d3d 0000 0000 0b35 433d

bn1d1.running_var f4 [512]
9.327138e-33 0.000110224995 9.327138e-33 0.00010846212 9.327138e-33 3.0018217e-08 9.327138e-33 2.8657036e-08
9.327138e-33 1.2994616e-07 9.327138e-33 1.2397159e-07 9.327138e-33 6.521057e-07 9.327138e-33 6.2772807e-07
9.327138e-33 4.580864e-09 9.327138e-33 4.365943e-09 9.327138e-33 4.393246e-06 9.327138e-33 4.2177153e-06
9.327138e-33 4.971659e-08 9.327138e-33 4.7358327e-08 9.327138e-33 7.4968337e-10 9.327138e-33 7.1413286e-10
9.327138e-33 0.00015802699 9.327138e-33 0.00016288891 9.327138e-33 4.818591e-09 9.327138e-33 4.590802e-09
9.327138e-33 1.3710583e-07 9.327138e-33 1.3092324e-07 9.327138e-33 1.1483262e-08 9.327138e-33 1.0937031e-08
9.327138e-33 5.6504684e-10 9.327138e-33 5.3820687e-10 9.327138e-33 3.2007276e-07 9.327138e-33 3.048006e-07
9.327138e-33 3.2365541e-09 9.327138e-33 3.080633e-09 9.327138e-33 1.917505e-06 9.327138e-33 1.8786429e-06
9.327138e-33 2.5040938e-05 9.327138e-33 2.4277204e-05 9.327138e-33 3.7924167e-08 9.327138e-33 3.614514e-08
9.327138e-33 3.4415882e-07 9.327138e-33 3.312802e-07 9.327138e-33 1.4838375e-08 9.327138e-33 1.414347e-08
9.327138e-33 2.982328e-08 9.327138e-33 2.8326035e-08 9.327138e-33 4.109867e-06 9.327138e-33 3.9493207e-06
9.327138e-33 0.00013506542 9.327138e-33 0.00013295225 9.327138e-33 1.5616328e-08 9.327138e-33 1.4884339e-08
9.327138e-33 3.4077654e-08 9.327138e-33 3.2474517e-08 9.327138e-33 7.948896e-09 9.327138e-33 7.594555e-09
9.327138e-33 2.4693769e-08 9.327138e-33 2.3544748e-08 9.327138e-33 1.4183769e-08 9.327138e-33 1.3505895e-08
9.327138e-33 3.0975595e-09 9.327138e-33 2.9486682e-09 9.327138e-33 3.74995e-07 9.327138e-33 3.586032e-07
9.327138e-33 1.3917321e-05 9.327138e-33 1.3369138e-05 9.327138e-33 2.3724608e-08 9.327138e-33 2.2620595e-08
9.327138e-33 0.00014991252 9.327138e-33 0.00014747579 9.327138e-33 3.3860839e-09 9.327138e-33 3.2282583e-09
9.327138e-33 1.1312135e-08 9.327138e-33 1.0773711e-08 9.327138e-33 0.002830871 9.327138e-33 0.0029770113
9.327138e-33 0.0010279756 9.327138e-33 0.0010508021 9.327138e-33 3.323175e-08 9.327138e-33 3.166895e-08
9.327138e-33 5.393482e-09 9.327138e-33 5.1396323e-09 9.327138e-33 5.7529775e-08 9.327138e-33 5.4760203e-08
9.327138e-33 1.097231e-07 9.327138e-33 1.0474184e-07 9.327138e-33 1.2736003e-09 9.327138e-33 1.2105962e-09
9.327138e-33 6.606151e-08 9.327138e-33 6.302716e-08 9.327138e-33 7.1431344e-07 9.327138e-33 6.822569e-07
9.327138e-33 2.0609894e-09 9.327138e-33 1.9629491e-09 9.327138e-33 2.3748886e-08 9.327138e-33 2.2596758e-08
9.327138e-33 3.196935e-05 9.327138e-33 3.102356e-05 9.327138e-33 1.3343125e-06 9.327138e-33 1.2824768e-06
9.327138e-33 3.0970955e-09 9.327138e-33 2.9512162e-09 9.327138e-33 0.00036112373 9.327138e-33 0.00038194365
9.327138e-33 1.5092434e-08 9.327138e-33 1.4373049e-08 9.327138e-33 2.3113904e-08 9.327138e-33 2.2076605e-08
9.327138e-33 0.00016888557 9.327138e-33 0.00016524046 9.327138e-33 1.3606468e-07 9.327138e-33 1.2959472e-07
9.327138e-33 1.6729958e-08 9.327138e-33 1.5957944e-08 9.327138e-33 6.874009e-08 9.327138e-33 6.566963e-08
9.327138e-33 3.0533147e-07 9.327138e-33 2.9182493e-07 9.327138e-33 6.2824768e-09 9.327138e-33 5.9862493e-09
9.327138e-33 0.0003030573 9.327138e-33 0.00030777662 9.327138e-33 5.939531e-05 9.327138e-33 5.754023e-05
9.327138e-33 0.00073150254 9.327138e-33 0.000718559 9.327138e-33 9.799494e-09 9.327138e-33 9.335321e-09
9.327138e-33 2.5115329e-05 9.327138e-33 2.4558069e-05 9.327138e-33 1.3038932e-07 9.327138e-33 1.2414858e-07
00000000: 92b7 410a 9828 e738 92b7 410a 2876 e338
00000010: 92b7 410a 61ed 0033 92b7 410a 7d29 f632
00000020: 92b7 410a 5487 0b34 92b7 410a 0d1d 0534
00000030: 92b7 410a 5d0c 2f35 92b7 410a 2581 2835
00000040: 92b7 410a b565 9d31 92b7 410a 3e03 9631
00000050: 92b7 410a b269 9336 92b7 410a e685 8d36
00000060: 92b7 410a f887 5533 92b7 410a 0867 4b33
00000070: 92b7 410a 4712 4e30 92b7 410a a24c 4430
00000080: 92b7 410a 0cb4 2539 92b7 410a 29cd 2a39
00000090: 92b7 410a c690 a531 92b7 410a 1fbd 9d31
000000a0: 92b7 410a 5d37 1334 92b7 410a e893 0c34
000000b0: 92b7 410a ec47 4532 92b7 410a 92e5 3b32
000000c0: 92b7 410a a351 1b30 92b7 410a f1f0 1330
000000d0: 92b7 410a 77d6 ab34 92b7 410a 7aa3 a334
000000e0: 92b7 410a 106a 5e31 92b7 410a 12b3 5331
000000f0: 92b7 410a 7cae 0036 92b7 410a ae25 fc35
00000100: 92b7 410a 010f d237 92b7 410a e6a6 cb37
00000110: 92b7 410a 10e2 2233 92b7 410a 003e 1b33
00000120: 92b7 410a d4c4 b834 92b7 410a ceda b134
00000130: 92b7 410a ddeb 7e32 92b7 410a a4fb 7232
00000140: 92b7 410a 0b17 0033 92b7 410a 9c51 f332
00000150: 92b7 410a 7de7 8936 92b7 410a 6884 8436
00000160: 92b7 410a 59a0 0d39 92b7 410a 1969 0b39
00000170: 92b7 410a ab24 8632 92b7 410a 04b6 7f32
00000180: 92b7 410a c75c 1233 92b7 410a 1c7a 0b33
00000190: 92b7 410a 9d8f 0832 92b7 410a 3579 0232
000001a0: 92b7 410a 2c1e d432 92b7 410a 733f ca32
000001b0: 92b7 410a e0ac 7332 92b7 410a 8e07 6832
000001c0: 92b7 410a d8dc 5431 92b7 410a 85a1 4a31
000001d0: 92b7 410a ec52 c934 92b7 410a 0c86 c034
000001e0: 92b7 410a 707e 6937 92b7 410a 034c 6037
000001f0: 92b7 410a f7ca cb32 92b7 410a 374f c232
00000200: 92b7 410a d631 1d39 92b7 410a bba3 1a39
00000210: 92b7 410a 9eb0 6831 92b7 410a 1fd8 5d31
00000220: 92b7 410a 4c57 4232 92b7 410a 4817 3932
00000230: 92b7 410a 2286 393b 92b7 410a f619 433b
00000240: 92b7 410a 23bd 863a 92b7 410a 11bb 893a
00000250: 92b7 410a b2ba 0e33 92b7 410a 6104 0833
00000260: 92b7 410a 9251 b931 92b7 410a af98 b031
00000270: 92b7 410a a816 7733 92b7 410a 7b31 6b33
00000280: 92b7 410a eaa0 eb33 92b7 410a 6fee e033
00000290: 92b7 410a d40a af30 92b7 410a 1162 a630
000002a0: 92b7 410a b3dd 8d33 92b7 410a 8c59 8733
000002b0: 92b7 410a 3fbf 3f35 92b7 410a 5624 3735
000002c0: 92b7 410a 4fa1 0d31 92b7 410a 91e4 0631
000002d0: 92b7 410a 5a00 cc32 92b7 410a cc1a c232
000002e0: 92b7 410a d416 0638 92b7 410a 4b1f 0238
000002f0: 92b7 410a a116 b335 92b7 410a 9121 ac35
00000300: 92b7 410a aed4 5431 92b7 410a 58ce 4a31
00000310: 92b7 410a 3555 bd39 92b7 410a 9c3f c839
00000320: 92b7 410a 9da4 8132 92b7 410a 57ed 7632
00000330: 92b7 410a 038c c632 92b7 410a f8a2 bd32
00000340: 92b7 410a e016 3139 92b7 410a 6644 2d39
00000350: 92b7 410a 2d19 1234 92b7 410a ba26 0b34
00000360: 92b7 410a 91b5 8f32 92b7 410a e413 8932
00000370: 92b7 410a 449e 9333 92b7 410a 4306 8d33
00000380: 92b7 410a 70ec a334 92b7 410a 1dac 9c34
00000390: 92b7 410a 40dd d731 92b7 410a 9baf cd31
000003a0: 92b7 410a aae3 9e39 92b7 410a 145d a139
000003b0: 92b7 410a 3a1f 7938 92b7 410a 5a57 7138
000003c0: 92b7 410a 4ec2 3f3a 92b7 410a ae5d 3c3a
000003d0: 92b7 410a a15a 2832 92b7 410a 2d61 2032
000003e0: 92b7 410a c2ae d237 92b7 410a 0d02 ce37
000003f0: 92b7 410a 2501 0c34 92b7 410a b44d 0534
