images/models/other_models/Attention/best_models17.pth.tar (torch, 471237 bytes, 18 tensors)

bn1d0.weight f4 [739]
000000 80 dd 09 3f 64 b4 54 3f 84 49 3f 3f 6d 91 6c 3f
       0.5385361 0.83087754 0.7472155 0.924094
000010 e4 4a 7c 3f d7 7c 92 3f 7c 53 74 3f 00 a3 77 3f
       0.98551774 1.1444348 0.9543989 0.96733093
000020 c6 7f 8f 3f 3f bf 78 3f 76 1e 89 3f fd 9d 58 3f
       1.1210868 0.9716682 1.0712421 0.8461607
000030 cc 70 a2 3f 15 e7 81 3f cb f2 72 3f f1 9a 7d 3f
       1.2690673 1.0148646 0.9490172 0.99064547
000040 3e 1c 7b 3f 08 2e 7a 3f 12 5d 77 3f fb f7 6e 3f
       0.9808997 0.9772649 0.9662639 0.9334714
000050 17 b9 89 3f 7b 76 6f 3f 7e 29 83 3f 87 ea 79 3f
       1.075961 0.9354016 1.0247037 0.97623485
000060 6a e4 79 3f 10 f6 8a 3f aa d4 99 3f f5 04 74 3f
       0.9761416 1.0856342 1.2018025 0.95320064
000070 55 79 76 3f 6b f5 9e 3f bd d7 8a 3f 21 6e 8a 3f
       0.9627889 1.2418646 1.0847088 1.0814859
000080 fb 8d 83 3f 49 d9 8d 3f b1 17 81 3f 77 5d 7c 3f
       1.0277704 1.1081935 1.0085355 0.98580116
000090 67 3a 94 3f 3c fe 8c 3f f8 de 84 3f ce d0 89 3f
       1.1580323 1.1015086 1.0380545 1.0766847
0000a0 e5 16 83 3f 68 d7 8b 3f a1 7b 7f 3f de 7a 7f 3f
       1.0241362 1.0925112 0.9979802 0.99796855
0000b0 62 ad 80 3f 3a 63 9a 3f aa 4a 96 3f 9e 65 7a 3f
       1.0052912 1.2061532 1.1741536 0.97811306
0000c0 9e 13 7d 3f 04 2e 7d 3f 02 3f 88 3f 7b 12 80 3f
       0.9885806 0.9889834 1.0644228 1.000564
0000d0 f7 d0 7d 3f e6 a3 7e 3f 71 e3 7c 3f d4 44 86 3f
       0.9914698 0.9946884 0.9878455 1.0489755
0000e0 af 4f 9e 3f 7b c9 84 3f 33 07 81 3f 12 c6 88 3f
       1.2368068 1.0373987 1.0080322 1.0685446
0000f0 f0 1f b3 3f 34 16 8d 3f dd bf 88 3f 35 f7 7a 3f
       1.3994122 1.1022401 1.0683552 0.9803346
000100 f6 09 7f 3f 2b f6 8c 3f 80 14 79 3f ea c3 84 3f
       0.99624574 1.1012625 0.97296906 1.0372288
000110 96 6d 8b 3f 2f bb 87 3f a6 5a 7c 3f 16 e5 7f 3f
       1.0892818 1.0603999 0.9857582 0.9995893
000120 2b a3 7d 3f a5 7b 85 3f 2f 34 7b 3f c6 15 81 3f
       0.990771 1.0428358 0.981265 1.008477
000130 4a e7 7d 3f 96 bb 82 3f 8e bd 80 3f 7d e5 7e 3f
       0.99181044 1.0213497 1.0057847 0.9956892
000140 49 f5 7d 3f 21 da 7d 3f 0b b5 7f 3f 18 22 7f 3f
       0.992024 0.99160963 0.99885625 0.996614
000150 9b c6 7f 3f c4 a3 7c 3f c4 b8 85 3f e2 c7 83 3f
       0.9991242 0.98687387 1.0447011 1.0295374
000160 40 d9 8b 3f 15 01 80 3f bf c8 85 3f 2f 87 83 3f
       1.0925674 1.000033 1.0451888 1.027563
000170 87 95 83 3f e2 8d 87 3f 45 72 95 3f 08 e7 81 3f
       1.0280007 1.0590174 1.1675497 1.014863
000180 61 df 7d 3f 30 c8 80 3f 4f 24 82 3f 4e 47 7e 3f
       0.99168974 1.0061092 1.016733 0.9932755
000190 f7 b5 85 3f 7b f8 82 3f 10 ca 7e 3f 02 b9 7f 3f
       1.0446156 1.023208 0.9952707 0.99891675
0001a0 cc 14 7e 3f 3b 74 85 3f 8a aa a5 3f 3d 95 7f 3f
       0.99250484 1.0426096 1.2942669 0.99837095
0001b0 7b 61 7e 3f 52 63 7b 3f f9 19 81 3f 8d 35 86 3f
       0.99367493 0.98198426 1.0086051 1.0485092
0001c0 48 29 78 3f 89 3c 8a 3f 29 f2 7e 3f b3 e4 90 3f
       0.9693799 1.0799724 0.9958826 1.1319793
0001d0 a0 b0 76 3f 5c 92 79 3f bc 68 84 3f 7a 95 83 3f
       0.9636326 0.9748895 1.0344462 1.0279992
0001e0 e6 85 88 3f 7e 59 7e 3f 25 11 7d 3f 4b c0 78 3f
       1.0665863 0.99355304 0.98854285 0.97168416
0001f0 8c 1a 84 3f ae a6 95 3f ab f3 72 3f 00 9f 64 3f
       1.0320601 1.1691492 0.9490306 0.89305115
000200 6d de 5f 3f 07 c8 65 3f 9c c4 5c 3f bb 08 59 3f
       0.8744877 0.8975834 0.862375 0.84778947
000210 b2 df 59 3f 3c 85 5a 3f d1 6b 68 3f a8 c1 78 3f
       0.85106957 0.8535955 0.90789515 0.97170496
000220 ca 6b 86 3f 73 41 7e 3f 41 05 80 3f 80 31 90 3f
       1.0501645 0.9931862 1.0001603 1.1265106
000230 31 47 87 3f 9e e0 83 3f d9 76 93 3f d0 ef 7d 3f
       1.0568601 1.0302923 1.1520644 0.9919405
000240 87 22 83 3f 1b 1c 80 3f 99 6e 82 3f 7c 6b 82 3f
       1.0244912 1.0008577 1.0190002 1.0189052
000250 ec 4c 7e 3f 62 dc 80 3f 9c 19 81 3f 4a 4f 86 3f
       0.99336123 1.0067255 1.008594 1.0492947
000260 ae d9 83 3f be 85 7f 3f b6 19 83 3f 94 67 80 3f
       1.0300806 0.9981345 1.0242221 1.003161
000270 65 0e 7c 3f df ab 84 3f 45 77 85 3f 27 01 85 3f
       0.98459464 1.0364951 1.0427023 1.0390977
000280 d9 d6 7d 3f 94 0a 81 3f 0d 0f a8 3f a7 65 7f 3f
       0.99155957 1.0081353 1.3129593 0.99764484
000290 b5 8b 82 3f d1 e4 86 3f 69 5c 81 3f 3d 48 7e 3f
       1.0198885 1.0538579 1.0106326 0.99328977
0002a0 e3 17 81 3f c6 04 88 3f 3d 5b 7d 3f 5f ad 82 3f
       1.0085415 1.0626457 0.98967344 1.0209159
0002b0 93 13 7e 3f ee 1d 82 3f 94 2e 8f 3f cd f0 80 3f
       0.9924862 1.0165384 1.118609 1.0073487
0002c0 94 67 85 3f 1f d2 91 3f a8 4f 7d 3f fd 6c 7e 3f
       1.0422235 1.1392249 0.9894967 0.9938505
0002d0 68 92 85 3f 79 a8 9f 3f 16 8b 82 3f 06 f6 7f 3f
       1.0435305 1.2473289 1.0198696 0.99984777
0002e0 07 e6 82 3f 41 c5 8c 3f fb 74 88 3f fe 5f a6 3f
       1.0226449 1.0997697 1.06607 1.2998044
0002f0 97 5e b2 3f ac 5e 8c 3f e4 d4 83 3f c6 19 86 3f
       1.3935117 1.0966392 1.0299344 1.0476615
000300 2f 4a 79 3f 2e b7 87 3f bd 40 8d 3f c2 7e 9d 3f
       0.9737882 1.0602777 1.1035382 1.2304308
000310 1b 6a 7a 3f c2 0c 88 3f 73 32 7f 3f f9 75 87 3f
       0.97818154 1.0628893 0.99686354 1.0582877
000320 7b e6 7d 3f 2b 7f 7a 3f e8 9e 8a 3f 2f 04 7c 3f
       0.9917981 0.9785029 1.0829744 0.98443884
000330 07 f1 7d 3f 85 50 71 3f 0b 96 86 3f df c6 84 3f
       0.99195904 0.9426349 1.051454 1.0373191
000340 d3 eb 7a 3f 81 fc 7f 3f 6b e2 88 3f 35 7e 73 3f
       0.9801609 0.99994665 1.0694097 0.9511445
000350 16 c4 95 3f f2 9f 89 3f 6f c9 54 3f 43 e5 6f 3f
       1.1700466 1.0751936 0.83119863 0.937092
000360 69 3a 39 3f fd 02 18 3f 07 df e9 3e 32 e0 3d 3f
       0.7235475 0.5937956 0.4567797 0.7417022
000370 71 d2 48 3f f4 f8 7f 3f 85 67 1d 3f 64 69 25 3f
       0.7844611 0.9998925 0.61486083 0.6461394
000380 82 05 03 3f d3 ad c0 3e eb 2b 16 3f 7c f7 7f 3f
       0.5118028 0.37632617 0.58660764 0.99987006
000390 b5 f8 7f 3f 22 04 80 3f 3a 0e 80 3f 45 00 80 3f
       0.9998887 1.0001261 1.0004342 1.0000082
0003a0 96 f0 7f 3f c7 ef 7f 3f c1 01 80 3f 0c 1d 80 3f
       0.9997648 0.99975246 1.0000535 1.0008864
0003b0 8d 03 80 3f d0 08 80 3f fc ed 7f 3f 20 fc 7f 3f
       1.0001084 1.0002689 0.9997251 0.9999409
0003c0 78 06 80 3f bc 06 80 3f dd 02 80 3f 21 0b 80 3f
       1.0001974 1.0002055 1.0000874 1.0003396
0003d0 31 00 80 3f fe f3 7f 3f 6d 3f 80 3f ac 17 80 3f
       1.0000058 0.9998168 1.0019356 1.0007224
0003e0 22 f1 7f 3f 8f 0f 80 3f d9 05 80 3f a8 04 80 3f
       0.99977314 1.0004748 1.0001785 1.0001421
0003f0 f9 f1 7f 3f 83 f0 7f 3f 89 ec 7f 3f 5e 04 80 3f
       0.99978596 0.99976367 0.999703 1.0001333

bn1d0.bias f4 [739]
000000 22 a6 16 3d 07 b7 ef 3d 2c 68 8f bd a3 a5 43 bd
       0.03677953 0.117048316 -0.07002291 -0.047765385
000010 f3 41 d3 bd d5 4b 95 3c a0 89 f0 bc 25 21 b1 bd
       -0.10315313 0.018224636 -0.0293625 -0.086489
000020 87 75 25 bd d5 19 4d 3d 55 df a6 3c 18 9d e6 bc
       -0.040395286 0.050073463 0.020370165 -0.02815108
000030 be 34 5e 3d 36 a9 4e bd 98 9d c8 3c 89 2f 5d bd
       0.054249518 -0.05045434 0.024489209 -0.05400041
000040 cd 48 12 bd 0d 2c 84 3c f0 4e a6 3b f6 7b 61 3d
       -0.03571396 0.016134286 0.005075328 0.05504986
000050 19 7f 77 bb 0e 4a 63 3c 4b d6 78 bc 27 dc c1 3d
       -0.0037764965 0.0138726365 -0.01518781 0.09465819
000060 6e 64 1b 3d 78 d2 0c bd fa 0b 0e 3e 61 a3 14 3d
       0.037937574 -0.034380406 0.13871756 0.036288623
000070 91 c3 a6 3d c0 ad ae bd c9 68 c6 3d c7 08 45 3d
       0.0814277 -0.08529234 0.09687955 0.048104074
000080 f1 30 75 bc a0 36 5a 3d df 25 9f 3c d8 b1 9c 3d
       -0.014965282 0.05327475 0.019427238 0.076511085
000090 0d ea c7 3c 22 d1 3c 3b b5 c4 dd 3a a3 b9 76 3d
       0.024403596 0.0028811176 0.0016919585 0.06023563
0000a0 ff d0 19 3c 78 8c 86 3c 9f df a6 bc 0f ed 2c ba
       0.009388207 0.016424403 -0.020370303 -0.0006596604
0000b0 43 c0 5f bd 8d 0b 82 bc fc 4d 0b 3d 91 4b 4d bd
       -0.054626714 -0.015874648 0.03400992 -0.050120894
0000c0 32 af 3f bd cf ee 1c bd e9 b4 19 3d 49 d0 88 bd
       -0.04679794 -0.038313683 0.037526045 -0.06680352
0000d0 14 50 53 bc 83 ad 10 3d a4 c7 91 bd f9 7c 46 bd
       -0.01289751 0.035321724 -0.071181566 -0.048459027
0000e0 1d 8e 39 bd a2 96 96 bd a8 43 97 bd 5b 1a 9a bd
       -0.045301545 -0.0735295 -0.07385951 -0.07524558
0000f0 df 14 36 be d0 5e 3c bd 49 ea 90 bd 3b 92 12 be
       -0.17781399 -0.045988858 -0.07075936 -0.14313595
000100 7f a2 7d bd 8b 2e 19 bc ff 1a 93 3b ad f1 94 bd
       -0.061922546 -0.009349476 0.004489302 -0.072726585
000110 dd 41 c5 bc df 0f d2 3b 9a 25 61 bd cb 87 ea 3c
       -0.024079258 0.0064105834 -0.0549675 0.028629204
000120 dd f3 87 bd eb 80 22 ba 04 7e 3a 3d ec 7e ef 3b
       -0.0663831 -0.000619902 0.045530334 0.0073088314
000130 ab 26 e5 bc cc d1 22 3d 3e 8a 5e bd 06 bd ba bb
       -0.02797254 0.03975086 -0.054331057 -0.005698803
000140 ee c9 bc 3d 30 cc 44 bd 5d 4e a4 3c 2c 54 58 3c
       0.092182025 -0.04804629 0.020056898 0.013203662
000150 79 1d 92 bb db 00 dd bc b3 34 b9 3d 65 46 04 3d
       -0.00445908 -0.026977947 0.09043255 0.032293696
000160 e2 33 64 bc 95 09 2f 3d 99 88 1a 3c 60 7a 9a bb
       -0.013928385 0.042733748 0.0094319815 -0.0047142953
000170 2d d9 4c 3d 1a 84 20 bd 48 7a ea 3c 37 79 9c 3d
       0.050011802 -0.039188482 0.028622761 0.076403074
000180 e8 d9 28 bd 3f 63 42 3d 56 6f a1 3c e6 72 e5 ba
       -0.041223437 0.04745793 0.01970641 -0.0017505556
000190 76 a5 de 39 ba 10 a1 3d 92 6e 7c bd 26 ca 43 bc
       0.00042466418 0.078645185 -0.061628886 -0.011950051
0001a0 cc 78 9b ba 03 45 63 bd ae 51 3f bc be 49 1a bb
       -0.0011861562 -0.055485737 -0.011677189 -0.002354249
0001b0 26 8a 88 bc 84 54 e9 3c 07 73 e9 bc ac d4 ae bd
       -0.016667437 0.028482683 -0.028497232 -0.08536658
0001c0 55 2a 87 bd 4b 3c 9a bc c1 6b 30 bd 1a ba 55 bc
       -0.06599871 -0.018827578 -0.043071512 -0.013044858
0001d0 a3 72 4b bd f9 ee 94 3b 28 5c 73 bd 47 18 80 3b
       -0.049669873 0.0045450893 -0.05941406 0.003909144
0001e0 5a 94 51 bc 28 63 9d 3c 9b 5a 99 3b 7f 4e 27 bd
       -0.012791717 0.01921232 0.0046799905 -0.040846344
0001f0 3d 1d 21 bd f8 e9 94 bd cb 82 41 bc 8f ae b7 bc
       -0.039334524 -0.072711885 -0.011810969 -0.022422103
000200 ac 79 d4 bc d7 62 21 bd 08 e2 01 3c 29 6c 3b 3c
       -0.025936924 -0.0394009 0.007927425 0.011439362
000210 cf ff 09 bc 2b 9a c2 bc 50 25 47 3c 2c aa 71 bc
       -0.008422806 -0.023755154 0.012154892 -0.014750045
000220 1e cf 9b bc db 6e 21 3d fd 05 53 bc 41 51 76 3d
       -0.01901966 0.03941236 -0.012879846 0.060136084
000230 49 20 ae bc 6f f1 5a bd 16 60 44 3d e5 16 5e 3c
       -0.02125563 -0.053452905 0.047943197 0.013555263
000240 56 7a ac bb 75 3e e6 bc 57 a9 36 3c 1f e6 df 3c
       -0.005263607 -0.028105954 0.011148772 0.02733141
000250 d9 ef 6f bb 12 2b 27 3c 50 4c 13 bb 8e c5 81 bc
       -0.0036611466 0.01020314 -0.0022475906 -0.015841272
000260 e2 55 db 3c 11 6f 81 bd 3c 33 30 3d 8c 67 04 3d
       0.02677435 -0.06320012 0.04301761 0.032325312
000270 63 28 03 bd 13 9d 2d bd 3c 1f 62 3b aa 22 0f 3d
       -0.032020938 -0.042386126 0.003450348 0.034945168
000280 71 70 6f 3c 66 59 4d 3d 1d 3d a3 bd 4e 6d e4 3c
       0.01461421 0.050134085 -0.07970641 0.027884152
000290 c4 f3 08 bc 16 34 4f 3d a1 8f da bc 9a 8f b8 bb
       -0.0083588995 0.050586782 -0.026679816 -0.005632353
0002a0 0d 15 84 3c 08 bc 79 bd 2f 62 f5 3b fc 8d ec 3c
       0.016123319 -0.060970336 0.007488511 0.028876297
0002b0 05 1b 36 3c 02 6c 3f bd 14 7c e2 3c 36 55 2f bc
       0.01111484 -0.046733864 0.027647056 -0.010701468
0002c0 a0 34 ad bc d1 45 a0 bd 85 9e 8b 3c fd 1e b0 bb
       -0.021143258 -0.078258164 0.017043361 -0.005374788
0002d0 b2 90 ec bc b0 70 da bd a5 62 23 bc ea b3 0b 3d
       -0.02887759 -0.10666025 -0.009972249 0.034107126
0002e0 28 2b 30 bd de 23 36 bd 3e 85 56 3d 6c 95 6d bd
       -0.043009907 -0.0444678 0.052373163 -0.058003828
0002f0 50 1b 97 bc 24 4c e9 3c a8 4c 10 bb e0 87 4b bd
       -0.01844564 0.02847869 -0.0022018347 -0.049690127
000300 ff 4c d2 bc 4d 65 50 3a 57 77 4a 3d 9f 78 f3 bd
       -0.02567148 0.00079496653 0.049430218 -0.11888241
000310 06 70 ef bb 22 b1 f8 bc a4 67 bc bb 6b 56 29 bd
       -0.0073070554 -0.030357901 -0.0057496596 -0.04134218
000320 98 04 8e 3d 81 4d 47 bd 7a b5 93 3c cd 1d 1d bc
       0.0693447 -0.048657898 0.01803087 -0.009589625
000330 ba 0e ad 3b 54 7c 33 3d 96 e6 52 bc cd 4b 05 3d
       0.0052812966 0.04381974 -0.012872359 0.032542992
000340 c3 95 ef bc 44 45 16 bb 1b 03 22 3d 05 56 8e bd
       -0.029246217 -0.002292947 0.039553743 -0.06950001
000350 f8 4f 3f bb 76 f0 c5 bd bc 9e 50 bc 05 3e 2e bc
       -0.0029191952 -0.09665005 -0.012733158 -0.010634904
000360 0d ad 70 bd 35 09 51 bc a4 79 ac bd ac f4 f7 3d
       -0.058758784 -0.012758543 -0.084216386 0.12107214
000370 c9 4b 71 bc e8 5e 1b bd 49 f3 7f 3a 0b 7d 2d 3e
       -0.014727541 -0.037932307 0.00097637303 0.16942231
000380 a8 27 eb 3b e7 ce f8 bd 28 b8 3e be 0d 5d fb bb
       0.0071763583 -0.121488385 -0.18624938 -0.0076710046
000390 14 1b cc bc 7b e5 99 ba e6 2a dd 3c 76 a5 29 3b
       -0.024915256 -0.0011741364 0.026997995 0.0025885976
0003a0 8a 44 0f bd 12 88 c3 3b ec 79 73 bb 3f 3b b5 3c
       -0.034977473 0.0059671486 -0.0037151529 0.022122977
0003b0 a5 b7 f5 3c 5c e9 06 bd 9c 53 31 3c de 47 c0 bc
       0.029994795 -0.032937393 0.010823157 -0.023471769
0003c0 1a 19 2e 3c 07 ec 73 bc ce e6 90 3c 02 36 26 3d
       0.010626102 -0.014887816 0.017688181 0.04057885
0003d0 1e eb cf 3a bd 0b 98 3b ed a1 3b bc 50 6f 0e bc
       0.0015862917 0.004640071 -0.01145218 -0.008693531
0003e0 70 1f 0f bd 12 c1 15 bb b0 73 7d 3b e4 53 89 3c
       -0.03494209 -0.0022850675 0.0038673691 0.016763635
0003f0 2e c9 09 bc 83 e6 21 3c 98 e3 a8 3b a8 3b 44 3c
       -0.008409781 0.009881618 0.0051540844 0.011977114

bn1d0.running_mean f4 [739]
000000 0a 8c 77 bb f4 b5 1d bb 53 ba f2 ba 44 37 af bb
       -0.0037772679 -0.0024064751 -0.0018518664 -0.0053471643
000010 d8 95 b1 bb 14 43 d9 bb 05 ee 8b bb bc 0a d9 ba
       -0.005419474 -0.006630311 -0.0042703175 -0.0016558985
000020 12 df cd 3a a9 5f 87 3a 86 d0 4a b8 55 23 03 bb
       0.0015706739 0.0010328192 -4.8354756e-05 -0.0020010073
000030 b1 d7 4c bb 49 5e 85 bb ab c6 50 bb 8d be 1f bb
       -0.0031256492 -0.0040700776 -0.0031856697 -0.0024375052
000040 c2 8c ca ba d0 51 5a ba d4 5d 84 39 fc b4 a4 b8
       -0.0015453326 -0.0008328231 0.0002524691 -7.85384e-05
000050 78 e6 78 3a 99 dd 39 3a 55 9b 87 3a 5e 0b ee 3a
       0.0009494792 0.00070902106 0.0010345975 0.0018161347
000060 ff e4 fa 3a e2 f5 28 3b 4b e4 04 3b 70 79 0f 3b
       0.0019141732 0.0025781323 0.0020277675 0.002189245
000070 34 3e 13 3b c2 94 11 3b af cb 12 3b 7e 72 01 3b
       0.0022467496 0.002221391 0.0022399237 0.001975208
000080 dd 2c 03 3b ee e2 cf 3a 35 e8 f4 3a ab da bd 3a
       0.0020015754 0.0015860477 0.0018684926 0.0014484724
000090 ef 9f 70 3a 42 39 59 3a c6 f0 eb 39 2a cd da 39
       0.00091791054 0.0008286425 0.00045002083 0.0004173306
0000a0 7e 07 58 39 e8 56 3b b9 c6 81 9e b9 67 5b 59 b9
       0.00020602156 -0.00017866085 -0.00030232797 -0.00020728783
0000b0 0a ce 48 ba 0c 04 0e ba 36 ed 8e ba 72 9d 99 ba
       -0.0007660097 -0.0005417473 -0.0010904435 -0.0011719896
0000c0 7a cb 84 ba e1 5b d7 ba 8b 9f c2 ba ea f9 c2 ba
       -0.0010131442 -0.001643058 -0.0014848573 -0.0014875506
0000d0 30 63 d5 ba eb 73 e0 ba 57 9e 20 bb 55 81 21 bb
       -0.001628017 -0.001712439 -0.002450844 -0.0024643738
0000e0 e2 4b 6a bb ea 83 93 bb fa 02 c9 bb b1 4a f9 bb
       -0.0035750796 -0.0045018094 -0.006134388 -0.007607781
0000f0 d1 39 14 bc 48 15 16 bc a0 90 0d bc b8 e6 21 bc
       -0.009046988 -0.009160347 -0.008640438 -0.009881668
000100 72 a9 ae bb 67 4f 7f bb dd 2f 39 bb 09 c7 ed ba
       -0.005330258 -0.003895724 -0.0028257289 -0.0018140982
000110 0e 9d ca ba 41 19 ab ba 33 05 a9 ba f4 a3 8b ba
       -0.0015458183 -0.0013053791 -0.0012895226 -0.001065372
000120 c1 fa c7 ba 85 d3 85 ba 6a 81 1d ba bd 42 0a ba
       -0.0015257226 -0.0010210132 -0.0006008359 -0.0005274227
000130 01 7f 08 ba c0 6b 39 b9 d8 77 bb 39 98 19 e8 39
       -0.00052069133 -0.00017683115 0.0003575671 0.00044269557
000140 ef 81 1d 3a fa 00 84 3a 73 a0 a4 3a 5c 59 88 3a
       0.00060084363 0.0010071092 0.0012560025 0.0010402608
000150 17 b9 79 3a b9 94 65 3a 22 01 6e 3a 0d 33 87 3a
       0.0009526177 0.0008757818 0.00090791483 0.0010314897
000160 d8 0e 54 3a 08 49 21 3a 08 aa 20 3a 5e c7 08 3a
       0.000808937 0.0006152545 0.0006128852 0.00052176963
000170 19 23 d8 39 f4 33 e2 39 a1 44 37 38 66 0d e9 b8
       0.0004122488 0.00043144787 4.3694516e-05 -0.000111128014
000180 77 83 06 38 9a 72 08 ba b8 b8 43 ba 50 6f 5f ba
       3.2070526e-05 -0.0005205065 -0.0007466185 -0.0008523362
000190 09 6f a9 ba ac ab 11 bb 8a 97 ee ba 0e 2a 13 bb
       -0.0012926768 -0.0022227569 -0.0018203121 -0.0022455486
0001a0 0f 4e 2f bb f8 a4 3a bb 44 d0 5c bb 06 fa 72 bb
       -0.0026749407 -0.0028479677 -0.0033693472 -0.0037075295
0001b0 87 88 87 bb 20 5d 96 bb 1b 33 d6 bb 87 df af bb
       -0.0041361484 -0.004588738 -0.006536854 -0.0053672227
0001c0 37 ec b6 bb ec 6b b2 bb fb 9f b5 bb 7c 79 b1 bb
       -0.005582358 -0.005444994 -0.005542753 -0.0054160934
0001d0 25 93 a5 bb 95 23 9d bb ee 98 90 bb 11 19 8a bb
       -0.0050529414 -0.0047955015 -0.004412762 -0.004214414
0001e0 e3 6b af bb 5c d0 84 bb 96 e1 97 bb 1a 20 a5 bb
       -0.0053534373 -0.0040531587 -0.0046350462 -0.005039227
0001f0 b3 ea c3 bb 06 f1 f7 bb 8a 87 15 bc 7f a7 31 bc
       -0.005978906 -0.007566574 -0.009126553 -0.010843157
000200 82 00 4c bc c9 98 94 bc 16 39 64 bc 01 f6 5b bc
       -0.012451293 -0.01813926 -0.013929626 -0.013425351
000210 5e 43 48 bc 64 76 2d bc 6e 70 12 bc 55 c4 f2 bb
       -0.012223093 -0.010587309 -0.008937938 -0.0074086585
000220 34 92 c3 bb cb 38 9a bb a4 90 7c bb 41 d6 81 bb
       -0.0059683565 -0.0047064773 -0.003853836 -0.0039623086
000230 f9 ff 19 bb e6 b2 e7 ba cd 39 c1 ba 65 87 94 ba
       -0.002349852 -0.0017677217 -0.0014741957 -0.0011331855
000240 05 b5 57 ba 3d e1 10 ba 1b 16 c9 b9 ed e8 86 b9
       -0.0008228573 -0.0005526727 -0.00038354177 -0.00025732015
000250 c8 b1 0e b9 d4 bc 9a 38 36 f2 20 39 a0 08 ba 39
       -0.00013608404 7.378464e-05 0.0001534902 0.0003548311
000260 15 52 51 3a 71 27 66 3a 1a c3 a2 3a cc 89 ad 3a
       0.00079849485 0.0008779681 0.0012417764 0.0013239919
000270 87 85 cb 3a a5 23 cf 3a 4a e6 1d 3b 45 5b 00 3b
       0.0015527465 0.001580347 0.0024093562 0.001958565
000280 f1 6c 02 3b fc b2 09 3b 7f 9a 0a 3b 53 99 0f 3b
       0.001990136 0.0021011224 0.0021149216 0.0021911457
000290 ec e0 0b 3b 7d 73 16 3b 0c 22 12 3b a3 0b 45 3b
       0.002134378 0.002295702 0.0022298126 0.003006675
0002a0 68 c3 13 3b 72 5b 13 3b f9 10 13 3b 9e f8 0d 3b
       0.002254689 0.0022484926 0.0022440536 0.002166308
0002b0 4d cc 0a 3b 1a d0 09 3b 6d 35 0a 3b c3 8d 03 3b
       0.0021178902 0.002102858 0.0021088973 0.002007351
0002c0 e6 bd 06 3b f6 8a 26 3b f3 44 05 3b 3d 2f f4 3a
       0.0020559966 0.0025412417 0.0020335286 0.0018629801
0002d0 b0 88 ee 3a 20 7a fe 3a 55 99 e9 3a c6 65 e6 3a
       0.0018198695 0.0019415058 0.0017822186 0.0017577938
0002e0 5a e2 f2 3a 56 92 e2 3a f2 68 14 3b e0 8b d5 3a
       0.0018530593 0.0017286043 0.002264556 0.0016292296
0002f0 1a d6 d3 3a 55 a8 da 3a 48 54 d2 3a 31 54 d6 3a
       0.001616183 0.0016682247 0.0016046846 0.0016351995
000300 9c 9d d6 3a d4 56 db 3a 1f 14 c4 3a 21 d0 08 3b
       0.0016373876 0.0016734251 0.001495961 0.0020876008
000310 84 c0 9d 3a c4 25 c6 3a f9 3a ba 3a 4f 9c b0 3a
       0.0012035524 0.0015117456 0.0014208249 0.0013474318
000320 8e 4a bf 3a 2b ba a4 3a 99 94 a4 3a 94 ef ae 3a
       0.0014594363 0.0012567689 0.0012556493 0.0013346546
000330 c8 16 81 3a cc 32 c6 3a 00 92 76 3a b6 fe 76 3a
       0.0009848708 0.001512134 0.0009405911 0.000942211
000340 99 20 8f 3a f6 ed a6 3a d5 7c c5 3a 86 28 16 3b
       0.0010919749 0.0012735713 0.001506711 0.0022912337
000350 c9 06 58 3b 7f ed aa 3b 8e 0f 39 3c f7 76 4f 3c
       0.0032963029 0.0052163 0.011295212 0.012662641
000360 f5 e4 8e 3c 0d 89 ac 3c 60 3a ba 3c 2a 56 be 3c
       0.01744316 0.021061445 0.022732913 0.023234446
000370 ad 3c 90 3c a9 71 2d 3c de 8c 60 3b 8a 9a 8a b9
       0.017607057 0.010586181 0.003426365 -0.00026436552
000380 5c aa 70 bb 00 ce ca bb 3c 08 cf bb 40 33 fd 3a
       -0.0036722636 -0.006189108 -0.0063181203 0.0019317642
000390 01 74 fd 3a af 23 00 3b 2b 69 fe 3a 1e 42 fa 3a
       0.001933694 0.001955252 0.0019410005 0.0019093191
0003a0 03 ea fd 3a 72 04 00 3b 3a dc fe 3a 41 ca ff 3a
       0.0019372109 0.00195339 0.0019444295 0.0019515232
0003b0 6a c2 ff 3a c2 dc 00 3b bf 82 fe 3a 29 52 fa 3a
       0.0019512896 0.0019662832 0.0019417627 0.0019097972
0003c0 9c 36 fe 3a 57 71 fb 3a 1f be 00 3b 8e b3 fd 3a
       0.0019394937 0.0019183558 0.001964457 0.001935588
0003d0 eb d6 04 3b 06 29 fe 3a 7d a3 02 3b 8e 09 08 3b
       0.0020269703 0.0019390888 0.0019933872 0.0020757648
0003e0 3e fe 04 3b 81 e8 ff 3a 1d a4 fd 3a c4 68 fc 3a
       0.0020293142 0.0019524248 0.0019351278 0.0019257297
0003f0 fc 2f 00 3b 04 ef ff 3a d0 02 fe 3a c2 32 01 3b
       0.001955985 0.0019526188 0.00193795 0.0019714092

bn1d0.running_var f4 [739]
000000 d2 ca 78 37 98 40 1e 37 e2 bd fe 36 39 50 db 36
       1.4829175e-05 9.432573e-06 7.591895e-06 6.5360477e-06
000010 73 75 00 37 4d 78 a5 36 af 2e 76 36 ab d2 fa 35
       7.65674e-06 4.931388e-06 3.668403e-06 1.8687764e-06
000020 b2 22 07 36 73 32 c7 35 d0 47 18 36 43 6b 06 36
       2.0136763e-06 1.4841338e-06 2.2691565e-06 2.002999e-06
000030 71 03 f8 35 24 18 c3 35 c2 78 b0 35 3a fc 8f 35
       1.8478441e-06 1.4535658e-06 1.3148167e-06 1.0727738e-06
000040 73 a7 95 35 8e 50 67 35 c6 19 53 35 05 d6 81 35
       1.1150099e-06 8.617143e-07 7.864113e-07 9.673537e-07
000050 7d 96 48 35 0c 83 0a 35 29 7e 5d 35 d7 28 4c 35
       7.4724795e-07 5.1599704e-07 8.25125e-07 7.605535e-07
000060 e5 56 30 35 54 57 10 35 1d be 36 35 8e c6 2d 35
       6.569156e-07 5.377126e-07 6.8076935e-07 6.473646e-07
000070 bc 44 0f 35 9d bd f0 34 6b e8 01 35 9b 31 16 35
       5.3371673e-07 4.4841445e-07 4.839446e-07 5.595154e-07
000080 79 78 be 34 2d b2 d3 34 11 28 ef 34 ca 88 0a 35
       3.5477913e-07 3.9431453e-07 4.454637e-07 5.160806e-07
000090 b6 49 c6 34 c9 0f e6 34 29 0b d6 34 35 40 ff 34
       3.6934006e-07 4.2852324e-07 3.9868726e-07 4.7544168e-07
0000a0 be 9b d5 34 2a 40 ee 34 3d 90 d3 34 c0 06 d5 34
       3.978766e-07 4.437764e-07 3.940676e-07 3.9679253e-07
0000b0 c3 ae dd 34 e7 de 0b 35 1e a7 de 34 65 1e e0 34
       4.1291614e-07 5.21059e-07 4.1472316e-07 4.1745366e-07
0000c0 7c 3f c2 34 08 08 ab 34 23 65 e8 34 3b bf 07 35
       3.6181507e-07 3.1857076e-07 4.3286954e-07 5.0569696e-07
0000d0 b2 e6 07 35 93 a1 db 34 08 75 05 35 59 55 16 35
       5.0627125e-07 4.090949e-07 4.9716664e-07 5.600355e-07
0000e0 b6 de 04 35 2b 89 3c 35 b7 0a 86 35 18 dd c7 35
       4.949792e-07 7.0235063e-07 9.986896e-07 1.4891002e-06
0000f0 bf fb 02 36 43 c4 d9 35 7e d0 e5 35 c1 64 fe 35
       1.9518045e-06 1.622488e-06 1.7122509e-06 1.8953798e-06
000100 45 de 2b 35 0a 95 00 35 9f 15 eb 34 31 24 bd 34
       6.402591e-07 4.7900596e-07 4.3787892e-07 3.5230326e-07
000110 ba 4d b7 34 a5 2f 85 34 a0 ba a0 34 75 dd ad 34
       3.414296e-07 2.4807846e-07 2.993811e-07 3.2384892e-07
000120 4c 01 b3 34 fd 20 9e 34 38 67 ad 34 50 b0 aa 34
       3.3342292e-07 2.9453795e-07 3.2298863e-07 3.1793252e-07
000130 c5 b3 87 34 5a 21 62 34 29 cf 93 34 97 7b 8e 34
       2.527651e-07 2.1060023e-07 2.7531613e-07 2.6539485e-07
000140 c9 25 a2 34 8b a4 87 34 00 a4 9c 34 ad 5c a9 34
       3.0202344e-07 2.526543e-07 2.917659e-07 3.1546134e-07
000150 6a 6e 64 34 a5 f8 87 34 0a 07 7b 34 2d 02 3a 34
       2.1274323e-07 2.5326622e-07 2.3378757e-07 1.7323391e-07
000160 a6 b7 3a 34 65 05 40 34 2f c9 48 34 e7 08 4f 34
       1.7389411e-07 1.7883356e-07 1.8699642e-07 1.9281616e-07
000170 2f fb 08 34 fb 90 33 34 86 a3 51 34 81 14 3e 34
       1.2757367e-07 1.6723418e-07 1.9524131e-07 1.7702588e-07
000180 b7 27 1d 34 3b 11 23 34 dd f2 23 34 02 3d 21 34
       1.4636213e-07 1.5186826e-07 1.5268911e-07 1.5016488e-07
000190 0d 19 1e 34 69 9d 3f 34 40 60 20 34 e7 80 36 34
       1.472401e-07 1.7845527e-07 1.4936177e-07 1.6996965e-07
0001a0 17 a1 87 34 9e 47 82 34 ab 08 74 34 47 28 b4 34
       2.5262918e-07 2.4266495e-07 2.2727424e-07 3.3556918e-07
0001b0 86 73 ac 34 79 5c dd 34 88 ae 45 35 a4 f1 c7 34
       3.212155e-07 4.123174e-07 7.3642195e-07 3.7242455e-07
0001c0 2f 43 13 35 04 e7 0b 35 3d da e6 34 02 e8 c5 34
       5.485953e-07 5.2117707e-07 4.2999628e-07 3.6862917e-07
0001d0 da 2f e5 34 58 d2 b6 34 90 3a a2 34 8f 90 93 34
       4.268939e-07 3.4053187e-07 3.021746e-07 2.7486064e-07
0001e0 ee 2d e2 34 7d 54 7e 34 af 35 79 34 a6 52 aa 34
       4.21292e-07 2.368633e-07 2.3209462e-07 3.1725102e-07
0001f0 80 2e e8 34 3f 7c 21 35 a5 00 43 35 4b 8b 8b 35
       4.32472e-07 6.0157976e-07 7.26441e-07 1.0396847e-06
000200 f4 ff bc 35 86 ea 3d 36 7e 5c f1 35 a5 91 ec 35
       1.4081584e-06 2.8299705e-06 1.7982818e-06 1.7625758e-06
000210 b6 81 d2 35 01 b6 a8 35 1d d7 93 35 4f 35 57 35
       1.568397e-06 1.2569946e-06 1.101496e-06 8.0171316e-07
000220 cd f3 24 35 47 4b fa 34 b1 ba 9a 34 07 06 d6 34
       6.144954e-07 4.66209e-07 2.882057e-07 3.9864992e-07
000230 bc 6e 2d 34 ad 6b 84 34 c5 ec 15 34 b1 2a 2f 34
       1.6152165e-07 2.466526e-07 1.3962843e-07 1.6313676e-07
000240 0d 99 14 34 29 43 f1 33 3a 50 0e 34 19 9a d1 33
       1.3839254e-07 1.12346534e-07 1.3253967e-07 9.760351e-08
000250 87 1f f0 33 d9 d0 01 34 2f 89 c0 33 04 28 f0 33
       1.1181606e-07 1.209004e-07 8.96565e-08 1.118315e-07
000260 93 1d 35 34 a5 d4 f0 33 78 ea 3d 34 3c 1f 3a 34
       1.6867698e-07 1.1214551e-07 1.7687296e-07 1.7333963e-07
000270 39 01 10 34 a6 a7 37 34 a1 35 9b 34 f5 3e 2d 34
       1.341149e-07 1.7104193e-07 2.891002e-07 1.6134784e-07
000280 97 21 4a 34 c9 c9 26 34 b2 b6 56 34 36 e4 77 34
       1.8824936e-07 1.5533364e-07 1.9996767e-07 2.308669e-07
000290 23 6b 6a 34 4f fd 49 34 96 0c 89 34 b5 58 90 34
       2.1831924e-07 1.8811737e-07 2.5527396e-07 2.6886633e-07
0002a0 24 c2 3e 34 07 a5 88 34 16 5a 3d 34 da ed 5b 34
       1.7765757e-07 2.5452047e-07 1.763477e-07 2.0482494e-07
0002b0 b6 8e 84 34 4a 93 7e 34 68 48 55 34 88 a7 87 34
       2.4690752e-07 2.3709177e-07 1.9863512e-07 2.5267605e-07
0002c0 b6 74 81 34 0a 88 81 34 77 0a 68 34 40 1e 80 34
       2.411304e-07 2.4127104e-07 2.1610491e-07 2.3863868e-07
0002d0 ad 89 75 34 57 16 ac 34 1a 5f 8c 34 e2 c8 74 34
       2.2867489e-07 3.205375e-07 2.6146228e-07 2.2797352e-07
0002e0 26 de 8f 34 7f 7e cc 34 68 01 b3 34 07 b1 a1 34
       2.679746e-07 3.809e-07 3.334237e-07 3.011739e-07
0002f0 d6 e1 ae 34 4b 05 bd 34 94 0e d6 34 44 69 fa 34
       3.2574343e-07 3.5207844e-07 3.9871213e-07 4.664272e-07
000300 d1 43 a7 34 ee 6b d1 34 e0 54 d8 34 01 ea 00 35
       3.1155517e-07 3.9007813e-07 4.029489e-07 4.8024236e-07
000310 c7 21 fc 34 42 22 d8 34 62 2e 02 35 cf a7 cc 34
       4.6963234e-07 4.025806e-07 4.849627e-07 3.8120058e-07
000320 95 a3 1f 35 45 a5 24 35 77 c4 0f 35 e6 0e 10 35
       5.947016e-07 6.133526e-07 5.3557545e-07 5.366586e-07
000330 f6 06 15 35 9b b9 3d 35 3e 5c 44 35 cd 35 84 35
       5.5516955e-07 7.067808e-07 7.314992e-07 9.850424e-07
000340 fd 73 61 35 a5 0a 5d 35 77 03 66 35 22 f1 77 35
       8.3987817e-07 8.2344405e-07 8.568672e-07 9.2365565e-07
000350 6b 83 97 35 6f 29 a0 35 a5 c4 34 36 8a 05 87 36
       1.1288624e-06 1.1932988e-06 2.6936552e-06 4.0239584e-06
000360 d2 a3 c3 36 75 81 22 37 63 75 3b 37 c0 fd 48 37
       5.830524e-06 9.686094e-06 1.11734e-05 1.198001e-05
000370 0a a9 3c 37 98 c0 87 37 a7 5b 78 37 e0 85 8c 37
       1.1245031e-05 1.6182938e-05 1.4803291e-05 1.6751641e-05
000380 fb e3 cc 37 8a e5 1e 38 43 ce 69 38 a4 b7 1d 2f
       2.4424857e-05 3.788391e-05 5.5743625e-05 1.4344309e-10
000390 4e 9d 82 2e 82 d4 89 2f 68 d6 3d 2f 1d 99 89 2c
       5.9396585e-11 2.507115e-10 1.7265622e-10 3.910773e-12
0003a0 1c ee a0 2e 89 4c 54 2f 06 e5 18 2f ff 77 76 2f
       7.318254e-11 1.9308478e-10 1.3905685e-10 2.2416201e-10
0003b0 fd 34 be 2f e8 35 02 2f 89 61 22 2f a8 d8 72 2d
       3.459845e-10 1.1842582e-10 1.4768466e-10 1.3804215e-11
0003c0 90 19 ea 2e d4 c3 1b 2e 53 a7 2b 2f 86 2f 23 2f
       1.0645629e-10 3.541685e-11 1.5611805e-10 1.4841647e-10
0003d0 60 3d d4 2f ab e3 01 2f e0 c7 b5 2f 0c ef e5 2f
       3.8606185e-10 1.1813366e-10 3.3065728e-10 4.182471e-10
0003e0 71 09 04 30 34 1b 9f 2f 4a 7d 93 2e 02 b9 c7 2e
       4.803474e-10 2.894126e-10 6.707042e-11 9.082336e-11
0003f0 60 c1 14 2f cc b5 8d 2e 98 f9 db 2e 47 d6 7c 2f
       1.3529222e-10 6.444231e-11 1.0003304e-10 2.2995393e-10

bn1d1.weight f4 [512]
000000 00 00 80 3f da 56 84 3f 00 00 80 3f b4 75 83 3f
       1.0 1.0339005 1.0 1.0270295
000010 00 00 80 3f 47 f2 7f 3f 00 00 80 3f a8 1f 80 3f
       1.0 0.9997906 1.0 1.0009661
000020 00 00 80 3f a2 67 80 3f 00 00 80 3f 17 b5 80 3f
       1.0 1.0031626 1.0 1.0055264
000030 00 00 80 3f c7 11 81 3f 00 00 80 3f 94 e3 80 3f
       1.0 1.008355 1.0 1.0069451
000040 00 00 80 3f 9b 01 80 3f 00 00 80 3f 70 ec 7f 3f
       1.0 1.000049 1.0 0.9997015
000050 00 00 80 3f c8 05 7f 3f 00 00 80 3f 73 82 7e 3f
       1.0 0.99618196 1.0 0.994178
000060 00 00 80 3f 07 90 7f 3f 00 00 80 3f e3 41 80 3f
       1.0 0.99829143 1.0 1.0020107
000070 00 00 80 3f 4e d9 7f 3f 00 00 80 3f b7 ed 7f 3f
       1.0 0.99940956 1.0 0.999721
000080 00 00 80 3f c4 01 7f 3f 00 00 80 3f 82 ef 7e 3f
       1.0 0.9961207 1.0 0.9958421
000090 00 00 80 3f 64 fe 7f 3f 00 00 80 3f 0c fe 7f 3f
       1.0 0.99997544 1.0 0.9999702
0000a0 00 00 80 3f 12 c7 7f 3f 00 00 80 3f f7 12 80 3f
       1.0 0.9991313 1.0 1.0005788
0000b0 00 00 80 3f d5 ea 7f 3f 00 00 80 3f 07 ea 7f 3f
       1.0 0.999677 1.0 0.9996647
0000c0 00 00 80 3f 4b f0 7f 3f 00 00 80 3f 66 01 80 3f
       1.0 0.9997603 1.0 1.0000427
0000d0 00 00 80 3f f4 8b 82 3f 00 00 80 3f 78 66 80 3f
       1.0 1.019896 1.0 1.0031271
0000e0 00 00 80 3f ee 03 80 3f 00 00 80 3f 3b f6 7f 3f
       1.0 1.0001199 1.0 0.9998509
0000f0 00 00 80 3f a2 de 82 3f 00 00 80 3f 47 34 82 3f
       1.0 1.0224192 1.0 1.0172204
000100 00 00 80 3f 9d bc 87 3f 00 00 80 3f 3d ed 84 3f
       1.0 1.0604435 1.0 1.0384899
000110 00 00 80 3f cf e7 80 3f 00 00 80 3f 6d ab 80 3f
       1.0 1.0070742 1.0 1.0052315
000120 00 00 80 3f 44 42 7d 3f 00 00 80 3f 0d 49 7b 3f
       1.0 0.9892924 1.0 0.9815834
000130 00 00 80 3f 2f 03 80 3f 00 00 80 3f c1 fa 7f 3f
       1.0 1.0000972 1.0 0.99991995
000140 00 00 80 3f 87 89 7f 3f 00 00 80 3f 35 24 80 3f
       1.0 0.99819225 1.0 1.001105
000150 00 00 80 3f bf c2 7a 3f 00 00 80 3f 01 e7 79 3f
       1.0 0.9795341 1.0 0.9761811
000160 00 00 80 3f 59 11 8b 3f 00 00 80 3f 26 e9 87 3f
       1.0 1.0864669 1.0 1.0618026
000170 00 00 80 3f b7 d2 7f 3f 00 00 80 3f 26 15 80 3f
       1.0 0.999309 1.0 1.0006454
000180 00 00 80 3f 8a 9e 80 3f 00 00 80 3f 98 38 80 3f
       1.0 1.0048382 1.0 1.0017271
000190 00 00 80 3f 83 e9 7f 3f 00 00 80 3f c4 df 7f 3f
       1.0 0.99965686 1.0 0.99950814
0001a0 00 00 80 3f 1c 23 80 3f 00 00 80 3f 39 14 80 3f
       1.0 1.0010715 1.0 1.0006171
0001b0 00 00 80 3f 09 14 80 3f 00 00 80 3f c6 ed 7f 3f
       1.0 1.0006114 1.0 0.9997219
0001c0 00 00 80 3f fe f7 7f 3f 00 00 80 3f aa 0a 80 3f
       1.0 0.9998778 1.0 1.0003254
0001d0 00 00 80 3f c8 9e 82 3f 00 00 80 3f 04 ec 81 3f
       1.0 1.0204706 1.0 1.0150151
0001e0 00 00 80 3f f4 df 82 3f 00 00 80 3f 32 6b 81 3f
       1.0 1.0224595 1.0 1.0110838
0001f0 00 00 80 3f 78 f9 7f 3f 00 00 80 3f 8b 0b 80 3f
       1.0 0.99990034 1.0 1.0003523
000200 00 00 80 3f 18 8f 88 3f 00 00 80 3f 24 11 89 3f
       1.0 1.0668669 1.0 1.0708356
000210 00 00 80 3f 0f e9 7f 3f 00 00 80 3f b9 ee 7f 3f
       1.0 0.99964994 1.0 0.99973637
000220 00 00 80 3f 2a 1c 80 3f 00 00 80 3f 64 f6 7f 3f
       1.0 1.0008595 1.0 0.9998534
000230 00 00 80 3f f8 2a 7d 3f 00 00 80 3f cf b1 7b 3f
       1.0 0.9889369 1.0 0.9831819
000240 00 00 80 3f d5 c1 83 3f 00 00 80 3f a8 d3 80 3f
       1.0 1.0293528 1.0 1.0064592
000250 00 00 80 3f 51 f9 7f 3f 00 00 80 3f a9 e4 7f 3f
       1.0 0.999898 1.0 0.9995828
000260 00 00 80 3f f9 03 80 3f 00 00 80 3f b0 04 80 3f
       1.0 1.0001212 1.0 1.000143
000270 00 00 80 3f 15 12 81 3f 00 00 80 3f 4d d1 80 3f
       1.0 1.0083643 1.0 1.0063874
000280 00 00 80 3f d8 1d 80 3f 00 00 80 3f e0 63 80 3f
       1.0 1.0009108 1.0 1.003048
000290 00 00 80 3f 49 05 80 3f 00 00 80 3f a8 e7 7f 3f
       1.0 1.0001613 1.0 0.99962854
0002a0 00 00 80 3f 5f 25 80 3f 00 00 80 3f d5 1c 80 3f
       1.0 1.0011405 1.0 1.0008799
0002b0 00 00 80 3f a3 ee 92 3f 00 00 80 3f ca ae 93 3f
       1.0 1.1479076 1.0 1.1537716
0002c0 00 00 80 3f 99 23 80 3f 00 00 80 3f ef 1d 80 3f
       1.0 1.0010864 1.0 1.0009135
0002d0 00 00 80 3f 91 db 7f 3f 00 00 80 3f 69 05 80 3f
       1.0 0.99944407 1.0 1.0001651
0002e0 00 00 80 3f b4 08 84 3f 00 00 80 3f d9 6b 81 3f
       1.0 1.0315156 1.0 1.0111037
0002f0 00 00 80 3f e0 fc 80 3f 00 00 80 3f 98 8b 81 3f
       1.0 1.0077171 1.0 1.0120726
000300 00 00 80 3f 6a fb 7f 3f 00 00 80 3f 15 ff 7f 3f
       1.0 0.99993 1.0 0.999986
000310 00 00 80 3f 43 f7 82 3f 00 00 80 3f 4d ce 80 3f
       1.0 1.0231708 1.0 1.0062958
000320 00 00 80 3f 81 e3 7f 3f 00 00 80 3f 79 df 7f 3f
       1.0 0.9995652 1.0 0.9995037
000330 00 00 80 3f e2 f7 7f 3f 00 00 80 3f 77 04 80 3f
       1.0 0.99987614 1.0 1.0001363
000340 00 00 80 3f a0 62 79 3f 00 00 80 3f 38 72 79 3f
       1.0 0.97416115 1.0 0.9743991
000350 00 00 80 3f e8 e3 7f 3f 00 00 80 3f 5b 34 7f 3f
       1.0 0.9995713 1.0 0.99689263
000360 00 00 80 3f 18 0c 80 3f 00 00 80 3f 9c 1f 80 3f
       1.0 1.0003691 1.0 1.0009646
000370 00 00 80 3f 02 87 81 3f 00 00 80 3f e5 92 83 3f
       1.0 1.0119326 1.0 1.0279204
000380 00 00 80 3f 42 37 7c 3f 00 00 80 3f 3c bb 7e 3f
       1.0 0.98521817 1.0 0.99504447
000390 00 00 80 3f fb fc 7f 3f 00 00 80 3f 9f e7 7f 3f
       1.0 0.9999539 1.0 0.999628
0003a0 00 00 80 3f 32 68 85 3f 00 00 80 3f 14 b4 86 3f
       1.0 1.0422423 1.0 1.0523705
0003b0 00 00 80 3f e8 eb 80 3f 00 00 80 3f f3 22 81 3f
       1.0 1.0071993 1.0 1.0088791
0003c0 00 00 80 3f f7 d4 79 3f 00 00 80 3f 67 7c 7e 3f
       1.0 0.97590584 1.0 0.9940857
0003d0 00 00 80 3f 3c 14 80 3f 00 00 80 3f c1 c8 7f 3f
       1.0 1.0006175 1.0 0.999157
0003e0 00 00 80 3f 72 d6 7f 3f 00 00 80 3f 96 a6 80 3f
       1.0 0.9993659 1.0 1.0050838
0003f0 00 00 80 3f 4f 6f 82 3f 00 00 80 3f 66 96 82 3f
       1.0 1.0190219 1.0 1.0202148

bn1d1.bias f4 [512]
000000 f5 72 eb 3b c6 c3 b4 3c 09 69 a0 ba 01 b1 d4 3c
       0.007185335 0.022066008 -0.0012238334 0.025963308
000010 ac c9 9a 3b 29 56 ae 3b a2 68 76 3b 7a e6 93 3c
       0.004723748 0.0053203297 0.0037598987 0.018054236
000020 26 f7 74 bc cf 28 55 3c 6b 04 48 3b 54 61 92 3c
       -0.014951503 0.013010218 0.0030520211 0.017868675
000030 41 53 29 3b c3 d4 f7 bc 28 19 69 3c 30 e5 92 bc
       0.0025836977 -0.03025282 0.014227189 -0.01793155
000040 dc 4f 84 3a 5e a9 d3 bb 81 4d d1 3b 68 1e ed 3a
       0.0010094601 -0.006459399 0.006387413 0.0018090727
000050 6a 03 03 bb 7b 33 87 bd 62 d5 76 bb 14 bc 67 bd
       -0.0019991049 -0.06601616 -0.0037663807 -0.05657585
000060 81 18 b3 3c ff 6f ba bc 2d 44 09 bd 55 1c f2 3c
       0.02186227 -0.022758482 -0.033512283 0.029554525
000070 a1 e5 5f bb a7 24 a6 3c 5c 0d 55 bb 49 f2 66 3c
       -0.003416397 0.02028115 -0.0032509184 0.014095851
000080 e1 3c 39 bc af 3b 22 3d ae 8a 23 3b f6 de 3d 3d
       -0.011306019 0.0396077 0.0024954486 0.04635521
000090 c8 e5 3e 3a fc 26 4e 3a e4 8d 6f bc 9b 43 aa 3b
       0.0007282165 0.00078640855 -0.014621232 0.0051960475
0000a0 9d 33 84 3b 34 e1 7f bc 75 c4 a8 3c 2c 68 5b bc
       0.004034473 -0.015617657 0.02060149 -0.013391536
0000b0 aa f1 a8 bb aa cc b6 bb e1 2a cb bb fd 48 26 3c
       -0.0051557617 -0.005578597 -0.00620018 0.010149238
0000c0 55 49 93 ba f4 59 15 bc 87 c0 ad 3c d7 a4 2c ba
       -0.0011237065 -0.009115685 0.021209968 -0.00065858423
0000d0 6b 23 2a 3c 02 f2 38 3b f9 5c b0 bb 12 0d 2e bb
       0.010384421 0.002822042 -0.005382177 -0.0026558083
0000e0 f4 7c f8 3c 41 53 01 3c ad 38 1e 3b 1e 42 47 bc
       0.03033302 0.007893384 0.0024142668 -0.01216176
0000f0 09 4f 47 bc 6e 20 92 bd e0 50 44 3b 2b f1 c2 bd
       -0.01216484 -0.07135092 0.0029955432 -0.095186554
000100 c5 1a 14 3c f7 f4 da 3c c9 c8 2c 3c ac 62 8e 3c
       0.0090395855 0.026728136 0.010545918 0.017381035
000110 23 99 16 bb a9 61 bc 3c 44 52 54 bb 93 12 8c 3c
       -0.002297946 0.022995787 -0.0032397667 0.0170987
000120 8f e3 b6 3c d0 69 19 bd 6c 25 a0 bc e9 3f d5 bb
       0.022325305 -0.037454426 -0.019549094 -0.006507863
000130 56 c6 88 b9 00 ab ab b8 03 36 78 ba ea ee 6e bb
       -0.00026087713 -8.185767e-05 -0.00094684976 -0.0036458322
000140 25 16 d7 b9 d9 55 d5 bc a6 80 1e bc da bb a0 3c
       -0.00041024495 -0.026041912 -0.009674227 0.019620825
000150 1a 8a 5f 3b 2c 0b bb bd 83 46 74 b9 f1 cc 8d bd
       0.0034109415 -0.0913299 -0.00023295921 -0.06923855
000160 14 ca 63 3b 37 37 2f bd c8 00 85 ba 10 b3 0c bd
       0.00347579 -0.042777266 -0.0010147328 -0.034350455
000170 7e 34 28 3b 90 8f 86 bc 12 8d 88 bc c2 af 54 3c
       0.0025666053 -0.016425878 -0.01666883 0.012981357
000180 e8 13 20 ba 6c 7d 30 bd ba a1 10 bc b4 b9 e3 bc
       -0.0006106482 -0.04308836 -0.008827621 -0.027798511
000190 61 3f cf 3b 6c e4 88 bc 7f 83 b7 bb e9 c8 5b bc
       0.006324694 -0.016710483 -0.0056003924 -0.0134146
0001a0 35 3b 22 3c fc 78 01 bc 51 b0 84 39 21 e4 13 3b
       0.009901811 -0.00790238 0.00025308368 0.0022566395
0001b0 b8 9d 79 bc a6 d9 1f bc 6f 17 85 3c d8 38 4c 3c
       -0.015235357 -0.009756481 0.016246526 0.0124647245
0001c0 38 42 f8 bb 69 fc be 3b 6b 2f 6e bc 4b 12 84 3b
       -0.0075762533 0.0058284295 -0.0145376725 0.004030501
0001d0 ea e4 6a 3c a8 78 6b bd 00 c2 8e 3c 1f d4 15 bd
       0.014336804 -0.057488114 0.01742649 -0.036579248
0001e0 f3 59 77 bc bc ff 51 bd 93 f2 a5 3b 3b f1 2a bd
       -0.015097129 -0.051269278 0.0050643175 -0.04173396
0001f0 2b c8 06 3d e1 99 da 3b 6d 59 90 3c 91 b7 37 bc
       0.03290574 0.006671176 0.017620767 -0.011213199
000200 a2 a3 8f 3c 98 69 4e bd f6 95 69 38 b8 f4 30 bd
       0.01753408 -0.05039367 5.569119e-05 -0.043202132
000210 fb 7b 0a bb 84 3b 32 bc 64 0f 89 3c f7 0f 7d b9
       -0.0021131027 -0.010878447 0.016730972 -0.00024133908
000220 82 87 8b 3c f4 8d 1d bc 4e fb fe 3b 76 50 58 bc
       0.017032389 -0.009616364 0.0077814227 -0.013202777
000230 40 66 51 3c 05 a1 90 3d b8 90 d2 3a be ed 91 3d
       0.012780726 0.07061962 0.0016064858 0.07125424
000240 a5 77 b1 3c d2 02 98 bd f1 bc fc b9 4e 09 a0 bd
       0.021663496 -0.07422413 -0.00048205958 -0.07814275
000250 b7 62 95 bb 5a 16 5d bc 91 bb ac 3b 70 0e 46 bb
       -0.004558887 -0.013494099 0.005271383 -0.0030221008
000260 ff 3b 98 bc 6f 09 33 3c f5 ed 8f bc 5c 04 49 bc
       -0.018583296 0.010927542 -0.017569521 -0.012269106
000270 bc 4f ad bb 1f ba ac 3c 63 13 b3 3c 8d 69 e3 3b
       -0.005289046 0.021084843 0.02185983 0.006940073
000280 d6 2d 6b 3c 70 bd 10 bd 72 ce 4c bc 4a d2 98 bc
       0.01435419 -0.03533691 -0.012500392 -0.018654961
000290 7e 18 34 ba e2 0e 78 3b 47 5c 81 bc f5 ba 54 3c
       -0.00068701047 0.0037850668 -0.015791072 0.012984027
0002a0 42 f9 a1 b9 61 2e 8f 3b e3 99 fa bb ca 43 91 bc
       -0.00030894025 0.0043695425 -0.0076477393 -0.01773252
0002b0 bd bb 8c bc 79 c7 87 bd 81 25 21 bc 2c 04 41 bd
       -0.017179364 -0.06629843 -0.009835602 -0.04712312
0002c0 a2 ed 55 bc 2b 3e 3b bc 8e 65 b5 bc 25 12 e2 bc
       -0.013057144 -0.011428396 -0.022143152 -0.027596543
0002d0 a2 10 f1 bb 9e 6e 49 bc 34 40 13 3c bc d0 1b 3b
       -0.007356719 -0.01229444 0.008987475 0.0023775538
0002e0 cc 10 ff b9 ee 26 c3 bd 12 ec 5a bb cc 0e 74 bd
       -0.00048649905 -0.095289096 -0.003340487 -0.059584424
0002f0 8d 09 45 3b 8b 71 aa bc 0c 09 c5 3b 1a 6c 00 bd
       0.0030065507 -0.020806095 0.0060130414 -0.031353094
000300 bb ac 61 bc 46 98 a8 3a 4a 40 ef 3a 3b 2e 99 3b
       -0.013774092 0.0012862764 0.0018253413 0.0046747006
000310 0f 52 0c bd fd f7 a0 3d e8 ce 3c 3c a1 a7 55 3d
       -0.034257945 0.078598 0.01152394 0.052161817
000320 e2 85 ce 3b 9d 6a d5 3b 92 b5 ad bb c1 2e dd 3a
       0.006302581 0.0065129534 -0.005301186 0.0016874896
000330 7c 78 49 3c 81 33 1a bc 84 07 11 bc 30 d5 c6 bb
       0.012296792 -0.009411694 -0.0088518895 -0.0060678944
000340 34 0b d2 3b 64 f0 72 bd 16 20 9e 3c fc 39 41 bd
       0.006410027 -0.059311286 0.01930241 -0.04717444
000350 31 08 19 3a 69 0e 0c bd 09 c7 17 3c 83 3a fe bc
       0.00058377074 -0.03419343 0.009263762 -0.03103376
000360 9a db c2 bb eb be 44 bc cd e9 20 3a 19 4f f1 bb
       -0.0059465887 -0.012008409 0.00061383547 -0.0073641655
000370 65 2c 4a 3c 8d d0 4d bd 76 c4 69 3c fe 5e 55 bd
       0.012339686 -0.050247718 0.014268031 -0.052092545
000380 40 82 0f bb ad 97 48 bd 90 0e e9 bb c7 49 11 bd
       -0.0021897703 -0.048972774 -0.0071123317 -0.03547075
000390 47 22 1e bc 9c 9c 99 bb a4 b8 a8 3c 10 47 1b bc
       -0.009651727 -0.0046878587 0.020595856 -0.009477392
0003a0 d8 bf 88 bb 58 a6 5d 3d f2 06 9d 3b ea 60 80 3d
       -0.00417326 0.054113716 0.0047920877 0.06268485
0003b0 63 22 92 3b cb bd cb bd 66 2c a4 3a cd 73 87 bd
       0.0044596656 -0.099483095 0.0012525439 -0.06613884
0003c0 26 a8 58 3c 82 c4 cf bd c2 2f 41 3b 56 47 cf bd
       0.013223683 -0.10144903 0.0029477929 -0.10121028
0003d0 0a 68 71 3c 30 05 00 3c 68 ac 0d bc ca 5a ba ba
       0.0147342775 0.007813737 -0.008647062 -0.0014217731
0003e0 8c 20 2e ba 03 ed a3 bd aa bd 28 bc d2 f1 b9 bd
       -0.0006642423 -0.08004191 -0.010299126 -0.09079327
0003f0 f8 4e 24 3b 8c c5 f2 bb 95 0d 53 3c 42 47 c1 bc
       0.0025071483 -0.0074088033 0.012881656 -0.023593549

bn1d1.running_mean f4 [512]
000000 00 00 00 00 e9 de 9c 3d 00 00 00 00 81 54 b5 3d
       0.0 0.07659704 0.0 0.088540085
000010 00 00 00 00 32 91 51 3d 00 00 00 00 bc b1 74 3d
       0.0 0.05116386 0.0 0.059739813
000020 00 00 00 00 9f 43 87 3d 00 00 00 00 91 4b 9d 3d
       0.0 0.066046946 0.0 0.07680429
000030 04 00 00 00 d8 c4 23 3e 04 00 00 00 a4 f1 3c 3e
       6e-45 0.15993059 6e-45 0.18451554
000040 04 00 00 00 07 77 af 3c 04 00 00 00 b8 00 cd 3c
       6e-45 0.021419061 6e-45 0.025024757
000050 00 00 00 00 9a f8 07 3f 00 00 00 00 be c0 18 3f
       0.0 0.5311371 0.0 0.596691
000060 00 00 00 00 e8 94 73 3e 00 00 00 00 10 08 8d 3e
       0.0 0.23787272 0.0 0.27545214
000070 04 00 00 00 3a 71 54 3c 04 00 00 00 92 1b 78 3c
       6e-45 0.012966448 6e-45 0.015143292
000080 04 00 00 00 08 1f c7 3d 04 00 00 00 c2 14 e5 3d
       6e-45 0.097227156 6e-45 0.111856
000090 04 00 00 00 a0 09 e8 3c 04 00 00 00 3e 8d 07 3d
       6e-45 0.028324902 6e-45 0.033093683
0000a0 00 00 00 00 33 df 09 3e 00 00 00 00 3b fc 1f 3e
       0.0 0.1346405 0.0 0.15623562
0000b0 04 00 00 00 e0 5e 9e 3c 04 00 00 00 8c eb b8 3c
       6e-45 0.01933235 6e-45 0.022573255
0000c0 04 00 00 00 78 9f b9 3b 04 00 00 00 fb 76 d8 3b
       6e-45 0.005664762 6e-45 0.0066059805
0000d0 00 00 00 00 c9 58 0b 3f 00 00 00 00 b2 4d 1a 3f
       0.0 0.5443235 0.0 0.60274804
0000e0 04 00 00 00 c6 f3 3b 3c 04 00 00 00 9a 61 5b 3c
       6e-45 0.011471694 6e-45 0.013389969
0000f0 04 00 00 00 a4 67 c8 3e 04 00 00 00 1a fb e3 3e
       6e-45 0.39141572 6e-45 0.44527513
000100 04 00 00 00 b2 56 aa 3d 00 00 00 00 33 4d c3 3d
       6e-45 0.08317317 0.0 0.09536209
000110 04 00 00 00 a5 df 0c 3d 04 00 00 00 f5 dc 23 3d
       6e-45 0.03439297 6e-45 0.040005643
000120 04 00 00 00 ac 37 85 3e 04 00 00 00 62 ce 99 3e
       6e-45 0.26019037 6e-45 0.3004027
000130 04 00 00 00 9d e9 cf 3c 04 00 00 00 82 cf f2 3c
       6e-45 0.02537995 6e-45 0.029639963
000140 00 00 00 00 d5 82 01 3d 00 00 00 00 2f 44 17 3d
       0.0 0.03161891 0.0 0.03693026
000150 00 00 00 00 77 89 2d 3e 00 00 00 00 01 1a 48 3e
       0.0 0.1694697 0.0 0.1954117
000160 04 00 00 00 97 3c d9 3e 04 00 00 00 c4 76 f2 3e
       6e-45 0.4242904 6e-45 0.47356236
000170 00 00 00 00 3c 1c f3 3c 00 00 00 00 98 fc 0d 3d
       0.0 0.02967655 0.0 0.03466472
000180 00 00 00 00 8b da d0 3e 00 00 00 00 d0 1b ed 3e
       0.0 0.40791735 0.0 0.46310282
000190 04 00 00 00 c3 37 92 3c 04 00 00 00 66 cc aa 3c
       6e-45 0.017848855 6e-45 0.020849418
0001a0 00 00 00 00 2e 09 94 3d 00 00 00 00 e2 b2 ac 3d
       0.0 0.072283134 0.0 0.08432557
0001b0 00 00 00 00 3a 1f 3e 3d 00 00 00 00 ad 14 5e 3d
       0.0 0.0464165 0.0 0.054218937
0001c0 04 00 00 00 14 fa 06 3d 04 00 00 00 96 a5 1d 3d
       6e-45 0.032953337 6e-45 0.038487993
0001d0 04 00 00 00 b4 10 eb 3d 00 00 00 00 58 41 08 3e
       6e-45 0.11477795 0.0 0.13306177
0001e0 04 00 00 00 7b a4 0f 3e 04 00 00 00 17 54 25 3e
       6e-45 0.14027588 6e-45 0.16145359
0001f0 04 00 00 00 3c 4e d5 3c 04 00 00 00 6e f7 f8 3c
       6e-45 0.026038282 6e-45 0.030391421
000200 04 00 00 00 26 fc e7 3d 04 00 00 00 2c fc 05 3e
       6e-45 0.113273904 6e-45 0.13084477
000210 00 00 00 00 ea 0d 05 3d 00 00 00 00 ce 8b 1b 3d
       0.0 0.032483973 0.0 0.037975125
000220 00 00 00 00 4f 65 82 3d 00 00 00 00 bc f7 97 3d
       0.0 0.06366979 0.0 0.074202985
000230 00 00 00 00 ad 83 ad 3e 00 00 00 00 32 34 c3 3e
       0.0 0.33889523 0.0 0.3812576
000240 04 00 00 00 3e 3c db 3e 00 00 00 00 54 c3 f4 3e
       6e-45 0.428194 0.0 0.47805274
000250 04 00 00 00 bd ef e2 3c 04 00 00 00 f0 7a 04 3d
       6e-45 0.027702207 6e-45 0.032343805
000260 00 00 00 00 bb 80 56 3d 00 00 00 00 36 85 7a 3d
       0.0 0.05236886 0.0 0.061162196
000270 04 00 00 00 ea 3e 8d 3d 00 00 00 00 4e 4f a4 3d
       6e-45 0.068967655 0.0 0.08022939
000280 04 00 00 00 b0 0e 02 3e 04 00 00 00 76 05 17 3e
       6e-45 0.12700915 6e-45 0.14748177
000290 04 00 00 00 a4 33 ad 3c 04 00 00 00 e0 4b ca 3c
       6e-45 0.021142788 6e-45 0.024694383
0002a0 00 00 00 00 34 bb d0 3d 00 00 00 00 d4 53 f3 3d
       0.0 0.10191956 0.0 0.11881223
0002b0 04 00 00 00 23 d3 88 3d 04 00 00 00 5f d4 9d 3d
       6e-45 0.06680896 6e-45 0.07706522
0002c0 04 00 00 00 fc 9d ff 3c 04 00 00 00 b5 03 15 3d
       6e-45 0.031203263 6e-45 0.03638049
0002d0 00 00 00 00 0d 50 2a 3d 00 00 00 00 84 02 47 3d
       0.0 0.04158025 0.0 0.048586383
0002e0 04 00 00 00 da b1 7a 3e 00 00 00 00 e2 58 8f 3e
       6e-45 0.24481907 0.0 0.279975
0002f0 00 00 00 00 46 53 b0 3e 04 00 00 00 6d 46 c8 3e
       0.0 0.34438533 6e-45 0.3911623
000300 04 00 00 00 dc 5e 56 3c 04 00 00 00 e8 4b 7a 3c
       6e-45 0.01308414 6e-45 0.0152768865
000310 04 00 00 00 29 01 a2 3d 04 00 00 00 86 b7 ba 3d
       6e-45 0.079103775 6e-45 0.091170356
000320 00 00 00 00 3b af b7 3c 00 00 00 00 a8 a2 d6 3c
       0.0 0.022422424 0.0 0.026200607
000330 04 00 00 00 06 68 4e 3c 04 00 00 00 d5 d6 70 3c
       6e-45 0.012598043 6e-45 0.014699657
000340 00 00 00 00 cd 8f 9b 3e 00 00 00 00 f6 60 b1 3e
       0.0 0.3038315 0.0 0.34644288
000350 04 00 00 00 c5 56 df 3d 00 00 00 00 54 7e 01 3e
       6e-45 0.10905222 0.0 0.12645847
000360 00 00 00 00 3e 08 02 3d 00 00 00 00 eb ba 17 3d
       0.0 0.03174614 0.0 0.037043493
000370 04 00 00 00 57 73 82 3e 00 00 00 00 74 b9 94 3e
       6e-45 0.25478622 0.0 0.2904774
000380 00 00 00 00 0f c9 20 3e 00 00 00 00 fc 21 39 3e
       0.0 0.15701698 0.0 0.1807937
000390 04 00 00 00 60 9d 16 3c 04 00 00 00 df c2 2f 3c
       6e-45 0.009192795 6e-45 0.010727613
0003a0 04 00 00 00 5a 11 21 3e 04 00 00 00 d4 40 38 3e
       6e-45 0.15729275 6e-45 0.1799348
0003b0 04 00 00 00 8a e2 83 3e 04 00 00 00 7d 66 95 3e
       6e-45 0.25758773 6e-45 0.29179755
0003c0 00 00 00 00 fc 70 1b 3f 00 00 00 00 48 2e 2c 3f
       0.0 0.60719275 0.0 0.6725812
0003d0 00 00 00 00 e1 8d 0f 3d 00 00 00 00 90 b8 27 3d
       0.0 0.035047416 0.0 0.040947497
0003e0 00 00 00 00 95 60 c9 3e 00 00 00 00 d3 f2 e1 3e
       0.0 0.393315 0.0 0.44130573
0003f0 04 00 00 00 2d e1 09 3e 00 00 00 00 c6 99 1f 3e
       6e-45 0.13464804 0.0 0.15586004
