images/models/other_models/Attention/best_models10.pth.tar (torch, 471237 bytes, 18 tensors)

bn1d0.weight f4 [739]
0	0x3f1904d2	0.5977298
1	0x3f6b67f4	0.91955495
2	0x3f522389	0.8208547
3	0x3f69ee41	0.9137917
4	0x3f70e842	0.941044
5	0x3f902e65	1.1264158
6	0x3f82bae8	1.0213289
7	0x3f8380c4	1.0273671
8	0x3f8f9235	1.1216494
9	0x3f7b7c86	0.9823688
10	0x3f844a24	1.0335126
11	0x3f6232ae	0.8835858
12	0x3f9c3132	1.2202513
13	0x3f844140	1.0332413
14	0x3f75d943	0.9603464
15	0x3f805f41	1.0029069
16	0x3f7c3999	0.9852539
17	0x3f843a85	1.0330359
18	0x3f775784	0.96617913
19	0x3f708658	0.9395499
20	0x3f83f716	1.030978
21	0x3f7468f8	0.9547267
22	0x3f80849e	1.0040472
23	0x3f78e40e	0.97222984
24	0x3f7588a3	0.95911616
25	0x3f8c7436	1.0972965
26	0x3f93e94c	1.1555572
27	0x3f742ed0	0.9538393
28	0x3f7bfeb9	0.9843555
29	0x3f9a9ced	1.207914
30	0x3f86239e	1.047962
31	0x3f8c3d48	1.0956202
32	0x3f818051	1.0117284
33	0x3f8758f1	1.0574018
34	0x3f812622	1.0089762
35	0x3f806db7	1.0033482
36	0x3f8f8543	1.1212543
37	0x3f886109	1.0654613
38	0x3f81e59d	1.0148197
39	0x3f8789d2	1.0588934
40	0x3f82fa98	1.0232725
41	0x3f8a0b46	1.078469
42	0x3f8046c6	1.0021598
43	0x3f7e5511	0.9934855
44	0x3f7b73d6	0.98223627
45	0x3f981073	1.188002
46	0x3f8efaa9	1.1170245
47	0x3f78ddef	0.97213644
48	0x3f806ca5	1.0033156
49	0x3f7fd20e	0.99929893
50	0x3f858f19	1.0434295
51	0x3f803e7f	1.0019072
52	0x3f805311	1.002535
53	0x3f811a7a	1.0086205
54	0x3f7cfea1	0.9882603
55	0x3f877745	1.0583273
56	0x3f9e2a95	1.2356745
57	0x3f7ccbd6	0.9874853
58	0x3f7d01ac	0.98830676
59	0x3f8f25ff	1.118347
60	0x3fa65438	1.2994452
61	0x3f90919b	1.1294435
62	0x3f867874	1.0505509
63	0x3f7a99d2	0.9789096
64	0x3f7d3a17	0.98916763
65	0x3f89b47d	1.0758206
66	0x3f7858fb	0.97010773
67	0x3f840af3	1.0315841
68	0x3f856741	1.0422136
69	0x3f867bda	1.0506546
70	0x3f7d4464	0.9893248
71	0x3f8062f6	1.00302
72	0x3f7f5dd3	0.9975254
73	0x3f84741c	1.0347934
74	0x3f7e6a67	0.9938111
75	0x3f7faced	0.9987324
76	0x3f7ccbc1	0.98748404
77	0x3f811649	1.0084926
78	0x3f808da4	1.0043225
79	0x3f81a55b	1.0128587
80	0x3f7ee2bc	0.9956472
81	0x3f804a23	1.0022625
82	0x3f7f5553	0.9973957
83	0x3f818032	1.0117247
84	0x3f7e7f9a	0.99413455
85	0x3f7cedb1	0.9880019
86	0x3f83e1d1	1.0303289
87	0x3f82954e	1.0201814
88	0x3f8f2e8f	1.1186084
89	0x3f8141a5	1.0098158
90	0x3f86c5c8	1.0529108
91	0x3f8197b0	1.0124416
92	0x3f81e2ee	1.0147378
93	0x3f8487c5	1.0353934
94	0x3f8f1b6f	1.1180247
95	0x3f8115c8	1.0084772
96	0x3f7f83c6	0.99810445
97	0x3f80bb9f	1.0057257
98	0x3f8044ba	1.0020974
99	0x3f7d5c67	0.9896912
100	0x3f83611a	1.0264008
101	0x3f81db51	1.0145055
102	0x3f7ee03d	0.9956091
103	0x3f7f64b2	0.99763024
104	0x3f80006e	1.0000131
105	0x3f847cf5	1.0350634
106	0x3f9cd54d	1.2252594
107	0x3f7eaefa	0.99485743
108	0x3f7fbffb	0.99902314
109	0x3f7b6c87	0.98212475
110	0x3f83b8fa	1.0290825
111	0x3f852682	1.0402377
112	0x3f7901be	0.97268283
113	0x3f88c4a6	1.0685012
114	0x3f808371	1.0040113
115	0x3f8bf76a	1.093488
116	0x3f78a1d2	0.9712192
117	0x3f7d6874	0.9898751
118	0x3f81c14a	1.0137112
119	0x3f825a38	1.0183783
120	0x3f882a4a	1.0637906
121	0x3f7f9d8f	0.9984979
122	0x3f7d2d09	0.98896843
123	0x3f786bc3	0.9703943
124	0x3f8307b8	1.023673
125	0x3f932816	1.1496608
126	0x3f7666e7	0.96250767
127	0x3f6c5bab	0.92327374
128	0x3f662b68	0.8990998
129	0x3f6805f7	0.906341
130	0x3f6648b0	0.8995466
131	0x3f62c148	0.88576174
132	0x3f65392b	0.89540356
133	0x3f6375dc	0.88851714
134	0x3f6ede6a	0.93308127
135	0x3f7c851c	0.9864061
136	0x3f888e2a	1.0668385
137	0x3f7f04fb	0.99616975
138	0x3f7dfca4	0.99213624
139	0x3f8e4d72	1.1117384
140	0x3f83dcfa	1.0301812
141	0x3f831672	1.0241225
142	0x3f91199c	1.133594
143	0x3f7c3cc2	0.9853021
144	0x3f837f91	1.0273305
145	0x3f7eab35	0.9947999
146	0x3f814ad3	1.010096
147	0x3f81894d	1.0120026
148	0x3f7e4a32	0.99331963
149	0x3f814112	1.0097983
150	0x3f805ef7	1.0028981
151	0x3f852359	1.0401412
152	0x3f836ad9	1.0266982
153	0x3f7e9caf	0.9945783
154	0x3f80f52d	1.0074822
155	0x3f80aad5	1.0052134
156	0x3f7db43a	0.9910313
157	0x3f81af66	1.0131652
158	0x3f8865c9	1.0656062
159	0x3f8298ad	1.0202843
160	0x3f7f999f	0.9984378
161	0x3f7f8d86	0.9982532
162	0x3fa1a918	1.2629728
163	0x3f803d95	1.0018793
164	0x3f80119a	1.0005372
165	0x3f856469	1.0421268
166	0x3f80ba92	1.0056937
167	0x3f80772c	1.0036368
168	0x3f804734	1.002173
169	0x3f8bcf96	1.0922725
170	0x3f7e91cc	0.9944122
171	0x3f82e9f2	1.0227644
172	0x3f801111	1.0005208
173	0x3f7f8837	0.9981722
174	0x3f8d4212	1.1035788
175	0x3f802255	1.0010477
176	0x3f823cc6	1.0174797
177	0x3f93c010	1.1542988
178	0x3f7ddb60	0.99162865
179	0x3f7f3aaa	0.9969889
180	0x3f866795	1.0500361
181	0x3f96bac2	1.1775744
182	0x3f8321ae	1.0244653
183	0x3f801fb9	1.0009681
184	0x3f80d170	1.0063915
185	0x3f8b0883	1.0861973
186	0x3f898aab	1.0745443
187	0x3faa585c	1.3308215
188	0x3fa97e70	1.3241711
189	0x3f885eda	1.0653946
190	0x3f810d38	1.0082159
191	0x3f856c3f	1.0423659
192	0x3f7a998c	0.97890544
193	0x3f8edcef	1.1161174
194	0x3f8a7b27	1.0818833
195	0x3f98da3b	1.1941599
196	0x3f79511d	0.97389394
197	0x3f852280	1.0401154
198	0x3f8469bc	1.0344768
199	0x3f81d452	1.014292
200	0x3f78af3f	0.97142404
201	0x3f7b019b	0.98049325
202	0x3f85caba	1.0452492
203	0x3f79b20d	0.9753731
204	0x3f7dce2b	0.9914271
205	0x3f72830e	0.94731224
206	0x3f7c44c3	0.9854242
207	0x3f7ddf3d	0.9916876
208	0x3f7fcbe1	0.9992047
209	0x3f804596	1.0021236
210	0x3f854b1d	1.0413548
211	0x3f7dc7eb	0.99133176
212	0x3f9139b7	1.1345738
213	0x3f7be27e	0.98392475
214	0x3f52a93f	0.822895
215	0x3f55aa6f	0.83463186
216	0x3f4be29d	0.7964266
217	0x3f36d099	0.71412045
218	0x3f070ca9	0.5275369
219	0x3f4f564d	0.8099106
220	0x3f574751	0.84093195
221	0x3f7000b4	0.9375107
222	0x3f52ece4	0.82392716
223	0x3f4270ba	0.7595326
224	0x3f1f507f	0.622322
225	0x3f136e96	0.57590616
226	0x3f31b9ec	0.6942432
227	0x3f7ff997	0.9999022
228	0x3f7ffd0a	0.9999548
229	0x3f8005ce	1.0001771
230	0x3f800d69	1.0004092
231	0x3f800038	1.0000067
232	0x3f7ffb00	0.9999237
233	0x3f80017e	1.0000455
234	0x3f80010a	1.0000317
235	0x3f8020be	1.0009992
236	0x3f800021	1.0000039
237	0x3f800851	1.0002538
238	0x3f7fe333	0.99956053
239	0x3f7ffec4	0.99998116
240	0x3f8003f2	1.0001204
241	0x3f800640	1.0001907
242	0x3f800276	1.0000751
243	0x3f800baf	1.0003566
244	0x3f8003f3	1.0001205
245	0x3f7ff9a5	0.999903
246	0x3f803244	1.001534
247	0x3f801482	1.0006258
248	0x3f7fe99b	0.9996583
249	0x3f800bae	1.0003564
250	0x3f800504	1.0001531
251	0x3f8004c6	1.0001457
252	0x3f7fec16	0.99969614
253	0x3f7ff3a9	0.9998117
254	0x3f7fe8d7	0.9996466
255	0x3f8002f3	1.00009

bn1d0.bias f4 [739]
0	0x3cc8f4d0	0.024530798
1	0x3cb421e6	0.02198882
2	0xbdd62b72	-0.10457505
3	0x3dca31b5	0.09872762
4	0xbdee055e	-0.116221175
5	0x3d8c5c44	0.06853536
6	0xbd80740d	-0.06272135
7	0xbd8374f2	-0.0641879
8	0xbd212bd4	-0.03934844
9	0x3aa90c0d	0.0012897268
10	0xbd3ec36e	-0.046573095
11	0x3b9e28e2	0.004826651
12	0x3c1cf184	0.009579066
13	0xbd4260bc	-0.047455534
14	0xbcefb4fe	-0.029261108
15	0xbca8eae7	-0.020619823
16	0xbc73c518	-0.014878534
17	0xbcf413c5	-0.029794583
18	0xbd0c3e6b	-0.034239214
19	0x3cb00970	0.021488875
20	0xbb2eb98b	-0.0026660885
21	0x3c974b6f	0.018468587
22	0xbcbe7f72	-0.02325413
23	0x3d38dcb1	0.045132343
24	0x3bdfe8ed	0.006833187
25	0x3cca7bc0	0.024717212
26	0x3d824625	0.06361035
27	0x3cddaccf	0.02705994
28	0x3cb66537	0.02226506
29	0xbd0247ea	-0.031806864
30	0x3d7b40e5	0.061341185
31	0x3b3c27cc	0.0028710244
32	0xbcaba580	-0.02095294
33	0x3cba7612	0.022761378
34	0xbcc86c37	-0.024465663
35	0x3d3b8b7f	0.04578733
36	0x3d95f8eb	0.07322868
37	0xbd28d1a5	-0.041215558
38	0x3ce77975	0.028256157
39	0x3c8ecb1c	0.017430834
40	0xbb3b7629	-0.0028604364
41	0x3cc5c9d4	0.02414409
42	0x3c6c4d3f	0.014422714
43	0x3c5f6c00	0.013636589
44	0xbc268dc1	-0.010165633
45	0xbd3dd2cc	-0.04634361
46	0x3ce0362b	0.02736958
47	0xbc93d572	-0.018046115
48	0xbcc7b863	-0.024379915
49	0x3cf92af7	0.030415995
50	0x3ad77de8	0.0016440721
51	0xbc9926a5	-0.018695185
52	0x3c008778	0.007844798
53	0x3cfec2e2	0.031098787
54	0xbd5310a2	-0.051529534
55	0x3b0cf35b	0.0021507356
56	0x3a84080d	0.00100732
57	0xbcdc303a	-0.026878465
58	0x3bba8f17	0.005693327
59	0xbd53358c	-0.05156474
60	0xbdbc13eb	-0.091834866
61	0xbd3f9622	-0.046774037
62	0xbd21eac6	-0.039530538
63	0xbd6c4925	-0.057686944
64	0x3be32f0d	0.006933099
65	0x3bf69eab	0.007526239
66	0xbd101c42	-0.0351832
67	0xbca2a5dc	-0.019854479
68	0x3b86a4e6	0.004109013
69	0xbaea89ef	-0.0017893891
70	0xbcd7aa6d	-0.026326383
71	0x3c8d8415	0.017274896
72	0xbb69617b	-0.0035611081
73	0xbc24e931	-0.010065363
74	0xbbeb50f1	-0.00718128
75	0x3d3f31ae	0.046678238
76	0xbcf1cea5	-0.029517481
77	0x3c6b45c9	0.0143599
78	0xbc96995c	-0.018383674
79	0xbccf5586	-0.025309335
80	0x3d254ad2	0.040354557
81	0xbc8b089d	-0.01697188
82	0x3bd7f3ec	0.006590357
83	0x3c863465	0.016382406
84	0xbc15b6bd	-0.0091378065
85	0xbc620c79	-0.013796919
86	0x3d3d31cc	0.046190068
87	0xba0c87d9	-0.0005360819
88	0x3c9d9919	0.019238042
89	0x3c259fd6	0.010108909
90	0x3cab9368	0.020944312
91	0x3c4fb42d	0.012677235
92	0x3c915c35	0.017744163
93	0x3c19b9f4	0.009382714
94	0xbd275563	-0.040852915
95	0x3d46b310	0.04851061
96	0x3a91ac41	0.0011113958
97	0x3c824c5c	0.015905552
98	0x3cdcf36e	0.026971545
99	0x3b9d0405	0.004791739
100	0xb911f9f5	-0.00013921394
101	0x3d5db08a	0.05412344
102	0xbd42703a	-0.04747031
103	0xbc856de5	-0.016287753
104	0xbbf488c0	-0.007462591
105	0xbc493742	-0.012281241
106	0xbc824f0d	-0.015906835
107	0xbcaf968f	-0.021434097
108	0x3c8c2906	0.017109405
109	0x39455476	0.00018818848
110	0x3b932437	0.004490401
111	0xbd1d2565	-0.03836574
112	0xbcb83027	-0.022483898
113	0xbcb2c472	-0.021822188
114	0xbd28fef2	-0.04125876
115	0x3b78b0fd	0.003794729
116	0xbcd4d824	-0.02598197
117	0xbce868f2	-0.028370354
118	0xbcce3fda	-0.025176931
119	0xbcaaa8c0	-0.02083242
120	0x3c88cd0c	0.016699336
121	0x3ca10d58	0.019659683
122	0xbbdfb633	-0.0068271398
123	0xbd10ddc6	-0.03536775
124	0xbc8dd65e	-0.017314132
125	0xbd310b46	-0.04322364
126	0xbca09903	-0.019604212
127	0xbd006950	-0.031350434
128	0xbd584c25	-0.052806992
129	0xbd696ff8	-0.056991547
130	0xbd93f2c3	-0.072240375
131	0xbcb7e7b4	-0.022449352
132	0xbd54523f	-0.05183625
133	0xbd29a9be	-0.041421644
134	0xbcf38b6a	-0.029729564
135	0xbd838744	-0.06422284
136	0xbc447c19	-0.011992478
137	0xbc11b570	-0.008893356
138	0xbceb1ebc	-0.028701179
139	0x3c9e7879	0.019344555
140	0xbd136704	-0.035986915
141	0xbcc2d1f6	-0.023781758
142	0xbbc24013	-0.0059280484
143	0xbbc15a75	-0.005900676
144	0xbc2c5d21	-0.010520251
145	0xbbfd2abe	-0.0077260425
146	0xbb5ea709	-0.0033974072
147	0x3bc4cb4e	0.006005681
148	0xbcca9193	-0.024727618
149	0x3c902b68	0.017598823
150	0x3d1ea31c	0.038729772
151	0xbb34bf37	-0.0027579793
152	0xbae056bf	-0.0017115696
153	0xbcf72d22	-0.030172888
154	0x3cd79643	0.026316768
155	0x3cbc15b5	0.02295957
156	0xbc4098c0	-0.011755168
157	0xbbe537bf	-0.006995171
158	0x3d224b23	0.039622437
159	0x3c7abbec	0.015303593
160	0x3c867e34	0.0164176
161	0x3d068020	0.032837033
162	0xbb5595fe	-0.0032590623
163	0x3caede58	0.021346256
164	0x3cdfff4d	0.027343417
165	0x3d03b0e2	0.03215111
166	0x3c77a1f9	0.015114301
167	0x3bfc3f21	0.0076979552
168	0x3be93ffc	0.0071182232
169	0xbd00cbe1	-0.031444434
170	0x3cfc0551	0.030764254
171	0x3afce6c8	0.0019294852
172	0x3cf6e656	0.03013913
173	0xbbc7a628	-0.0060928054
174	0x3d0379d6	0.032098614
175	0x3c113341	0.008862318
176	0xbc496ea3	-0.012294444
177	0xbd4ea045	-0.050445814
178	0x3c228241	0.00991875
179	0x3c57ad60	0.013163894
180	0xbcc146ed	-0.02359339
181	0xbb8f347f	-0.0043702717
182	0xbc057fcb	-0.008148144
183	0x3ce332aa	0.02773412
184	0xbcf7ea2c	-0.030263029
185	0x3c51fc98	0.012816571
186	0xbb50108e	-0.0031748149
187	0xbc376af3	-0.011194932
188	0x3d990645	0.07471899
189	0xbd471fc9	-0.048614297
190	0x3cfbf907	0.030758394
191	0xbcf94163	-0.030426687
192	0xbbe8f272	-0.00710898
193	0x3c5f2af3	0.01362108
194	0xbca6eb2a	-0.020375807
195	0xbcdc6807	-0.026905073
196	0xbd044f73	-0.03230233
197	0x3c69725b	0.014248456
198	0x3bebd22a	0.0071966844
199	0xbc0f2104	-0.008735899
200	0x3c06802e	0.008209271
201	0xbc852257	-0.016251726
202	0x3bcb39dd	0.006201966
203	0x3c8431f2	0.016137097
204	0xbc930fde	-0.017951902
205	0x3ced6384	0.028978117
206	0xbccfbe4d	-0.025359297
207	0x3cdbf638	0.026850805
208	0xbcaec88d	-0.021335864
209	0x3ba22e85	0.004949393
210	0x3c07dc0e	0.008292211
211	0xbd130f0b	-0.035903018
212	0x3cee1f2f	0.029067604
213	0xbd927b2c	-0.071523994
214	0x3d0c8976	0.03431078
215	0xbb03de22	-0.0020121415
216	0xbc4365bb	-0.01192611
217	0x3d3c0b99	0.045909498
218	0xbd1375c9	-0.036001
219	0x3dac0794	0.08399883
220	0x3c805e89	0.015670078
221	0xbd8b953c	-0.068155736
222	0xbc2a662c	-0.010400336
223	0x3da28737	0.079359464
224	0xbd9aeb96	-0.07564466
225	0xbdfaf693	-0.122540615
226	0x3c999e28	0.018752173
227	0xbbf8e4e7	-0.0075956467
228	0x3b3f81a5	0.0029221561
229	0xbc5c4fc1	-0.013446749
230	0x3bdfed17	0.0068336832
231	0xbb7c9b01	-0.0038544538
232	0xbd2243ae	-0.039615326
233	0x3b7bc4f4	0.0038416954
234	0xbb9c02ff	-0.0047610993
235	0x3bd22678	0.0064132772
236	0x3cf9664d	0.030444289
237	0xbc8afd0d	-0.016966367
238	0xbb1fe6d5	-0.0024399061
239	0xbb892751	-0.004185595
240	0xb9b1322c	-0.00033797452
241	0xba5057bc	-0.0007947644
242	0x3c52d973	0.012869227
243	0x3cbd29b8	0.023091182
244	0x3c3be051	0.011467055
245	0xbba07918	-0.004897248
246	0xbc63eba9	-0.013911166
247	0xbc61613e	-0.0137560945
248	0xbca9e812	-0.020740543
249	0xbc9f9c7e	-0.019483801
250	0xbc0b9793	-0.008520025
251	0xbb62dba6	-0.0034615784
252	0x39d67ece	0.00040911738
253	0x3c10c706	0.008836513
254	0xbb3c9027	-0.0028772445
255	0x3c577c79	0.013152235

bn1d0.running_mean f4 [739]
0	0xbb5dc7ec	-0.0033841087
1	0xbb332052	-0.0027332497
2	0xbadde685	-0.0016929662
3	0xbbb64565	-0.0055624717
4	0xbbb15bbd	-0.0054125474
5	0xbbd7d1bf	-0.006586283
6	0xbb8f13fb	-0.0043663955
7	0xbadb903b	-0.0016751358
8	0x3ac2cf92	0.0014862886
9	0x3a80d22d	0.0009828262
10	0xb88ef9a6	-6.817588e-05
11	0xbb0b04f6	-0.0021212674
12	0xbb577679	-0.0032877012
13	0xbb88ccee	-0.00417482
14	0xbb57f3ff	-0.003295183
15	0xbb21e210	-0.0024701394
16	0xbad2fdc8	-0.0016097361
17	0xba58b1b1	-0.0008266224
18	0x396dcfc1	0.00022679476
19	0xb926c63e	-0.00015904845
20	0x3a735436	0.0009282263
21	0x3a37d20e	0.00070121966
22	0x3a8a08ca	0.0010531184
23	0x3aee27f6	0.0018169868
24	0x3afa614f	0.0019102487
25	0x3b29004c	0.002578753
26	0x3b060591	0.0020450095
27	0x3b145452	0.0022633267
28	0x3b0f517c	0.0021868637
29	0x3b1479fa	0.0022655712
30	0x3b13f5e4	0.0022576982
31	0x3b03b34e	0.0020095888
32	0x3b04b7bd	0.0020251118
33	0x3ad3d2cc	0.0016160845
34	0x3af3c67e	0.0018598584
35	0x3ac4c12e	0.0015011185
36	0x3a82fe55	0.000999401
37	0x3a513917	0.00079812243
38	0x39efecc2	0.0004576203
39	0x39f06a17	0.0004585541
40	0x39700de2	0.00022893355
41	0xb9494d67	-0.00019197688
42	0xb97896dd	-0.00023707324
43	0xb97db0ad	-0.00024193777
44	0xba36ddcf	-0.0006975801
45	0xba1430df	-0.00056530343
46	0xba8e0078	-0.001083388
47	0xba965768	-0.0011470141
48	0xba864288	-0.0010243217
49	0xbad54142	-0.0016270059
50	0xbac278f1	-0.0014837069
51	0xbac1dc28	-0.0014790343
52	0xbad64312	-0.0016346893
53	0xbae16321	-0.001719568
54	0xbb20848a	-0.0024493062
55	0xbb219f2f	-0.0024661531
56	0xbb6bf81b	-0.0036006037
57	0xbb95282f	-0.0045519094
58	0xbbcb4973	-0.006203824
59	0xbbfbd939	-0.007685807
60	0xbc14edee	-0.00908993
61	0xbc178462	-0.009247871
62	0xbc0e3ffa	-0.008682245
63	0xbc23d726	-0.010000026
64	0xbbaed0af	-0.0053349356
65	0xbb814bb3	-0.0039457916
66	0xbb384463	-0.0028116934
67	0xbaf29e3e	-0.0018510295
68	0xbacd9ee3	-0.0015687611
69	0xbaaa9fdb	-0.0013017611
70	0xbaa944ad	-0.0012914144
71	0xba889daf	-0.001042297
72	0xbad18422	-0.0015984813
73	0xba82124a	-0.0009923663
74	0xba276315	-0.0006385309
75	0xba0422ab	-0.00050405663
76	0xba0f7f5f	-0.0005473997
77	0xb9271bba	-0.0001593669
78	0x39ac347c	0.000328455
79	0x39ded195	0.0004249929
80	0x3a21b85f	0.0006169136
81	0x3a78a08b	0.0009484372
82	0x3aaa3ae2	0.0012987519
83	0x3a8ebed0	0.0010890607
84	0x3a6f4e92	0.00091288344
85	0x3a6dd3a6	0.00090723706
86	0x3a643278	0.000870503
87	0x3a89a5fe	0.001050174
88	0x3a585592	0.0008252497
89	0x3a1e31dd	0.0006034652
90	0x3a23db0c	0.0006250597
91	0x3a08a868	0.0005213083
92	0x39cffce2	0.0003967053
93	0x39e42f43	0.00043522762
94	0x385aafc5	5.213895e-05
95	0xb8c81b64	-9.541845e-05
96	0x374337c0	1.1635886e-05
97	0xba0b06bc	-0.00053034327
98	0xba3c8439	-0.00071913336
99	0xba689f39	-0.00088738237
100	0xbaa9573f	-0.0012919678
101	0xbb133b01	-0.002246559
102	0xbaef3eda	-0.0018252984
103	0xbb12ef82	-0.002242059
104	0xbb306876	-0.0026917732
105	0xbb3c0e75	-0.002869514
106	0xbb5de1f6	-0.0033856607
107	0xbb74885e	-0.0037312726
108	0xbb873cac	-0.0041271057
109	0xbb979a0a	-0.004626517
110	0xbbd72e0f	-0.00656677
111	0xbbb07529	-0.0053850603
112	0xbbb78c7a	-0.005601463
113	0xbbb31c2d	-0.0054660053
114	0xbbb61f06	-0.0055578975
115	0xbbb1b0cf	-0.0054226886
116	0xbba5bc90	-0.005057879
117	0xbb9d9604	-0.004809143
118	0xbb90ae6d	-0.0044153244
119	0xbb8a5838	-0.0042219423
120	0xbbafd3cd	-0.005365825
121	0xbb8505e4	-0.00405954
122	0xbb974fc0	-0.0046176612
123	0xbba494b6	-0.0050226105
124	0xbbc469a5	-0.005994039
125	0xbbf79328	-0.007555384
126	0xbc1579c9	-0.009123274
127	0xbc31b766	-0.010846948
128	0xbc4ba731	-0.012429998
129	0xbc948ef3	-0.01813457
130	0xbc642e22	-0.013927015
131	0xbc5c37cb	-0.013441036
132	0xbc48420f	-0.012222781
133	0xbc2d7b42	-0.010588469
134	0xbc136703	-0.008996728
135	0xbbf36402	-0.0074276933
136	0xbbc45e9f	-0.005992725
137	0xbb9a1765	-0.004702496
138	0xbb7e7d08	-0.0038831849
139	0xbb82a168	-0.0039865263
140	0xbb1c9255	-0.0023890932
141	0xbae676f8	-0.0017583063
142	0xbac46c31	-0.0014985857
143	0xba936039	-0.0011243887
144	0xba60447c	-0.0008555127
145	0xba1308c8	-0.00056089135
146	0xb9bc205e	-0.0003588227
147	0xb99a3c36	-0.0002941803
148	0xb9013c3b	-0.00012324836
149	0x38962189	7.158804e-05
150	0x393bf728	0.00017925783
151	0x39c1496a	0.00036866526
152	0x3a496bf4	0.0007683628
153	0x3a685251	0.0008862364
154	0x3aa3b131	0.001248872
155	0x3aac31b6	0.0013137374
156	0x3acc576b	0.0015590017
157	0x3ad3bc6c	0.0016154177
158	0x3b1e630f	0.002416793
159	0x3affa160	0.001950305
160	0x3b0315fc	0.0020002117
161	0x3b09c836	0.0021023876
162	0x3b09a9dc	0.0021005785
163	0x3b0f28c7	0.0021844374
164	0x3b0c2948	0.002138691
165	0x3b179332	0.0023128507
166	0x3b12ad24	0.0022381032
167	0x3b44daa7	0.0030037554
168	0x3b1453d7	0.002263298
169	0x3b11cc7f	0.0022247133
170	0x3b12e5c8	0.0022414792
171	0x3b102af0	0.002199825
172	0x3b0a4704	0.0021099458
173	0x3b0a8de0	0.0021141693
174	0x3b09159c	0.0020917421
175	0x3b0196f5	0.0019773815
176	0x3b084af0	0.002079662
177	0x3b24fca8	0.002517501
178	0x3b056136	0.0020352132
179	0x3af7aa55	0.0018895367
180	0x3aeeff0f	0.0018233972
181	0x3af62c16	0.0018781449
182	0x3ae9acc1	0.0017827974
183	0x3ae18b2d	0.0017207615
184	0x3af3592b	0.0018566003
185	0x3ae3c0a5	0.0017376138
186	0x3b1315d5	0.0022443433
187	0x3ad616c6	0.0016333691
188	0x3ad4b6f5	0.0016228842
189	0x3ad86e89	0.0016512434
190	0x3ace6aa3	0.0015748333
191	0x3ad45723	0.0016200285
192	0x3ad73849	0.0016419973
193	0x3ad3a572	0.0016147329
194	0x3ac26307	0.0014830538
195	0x3b075674	0.0020650895
196	0x3a9d09a2	0.001198102
197	0x3ac40f82	0.0014958235
198	0x3ab6b201	0.0013938547
199	0x3aacb7f3	0.001317738
200	0x3abda22d	0.0014467888
201	0x3aa3580f	0.0012462157
202	0x3a9f3c8e	0.0012148784
203	0x3aacde0f	0.0013188737
204	0x3a83b3ae	0.0010048056
205	0x3abb01c7	0.0014267497
206	0x3a650f98	0.00087379804
207	0x3a83a8d7	0.0010044825
208	0x3a92057a	0.0011140548
209	0x3a9ab7f4	0.001180409
210	0x3abbb9d1	0.0014322345
211	0x3b18efcf	0.0023336296
212	0x3b56da62	0.0032783975
213	0x3ba96feb	0.0051708124
214	0x3c37c442	0.011216225
215	0x3c4df014	0.012569446
216	0x3c8dfaf1	0.017331572
217	0x3cace696	0.021106046
218	0x3cb9c151	0.022675188
219	0x3cbc1d56	0.022963207
220	0x3c8f4b4a	0.017491955
221	0x3c2d0a23	0.010561499
222	0x3b66ff2c	0.003524731
223	0xba3f76bf	-0.00073037663
224	0xbb73e649	-0.0037216118
225	0xbbc71a1e	-0.0060761115
226	0xbbc9dc8b	-0.006160324
227	0x3afd331a	0.0019317598
228	0x3afd905d	0.0019345392
229	0x3b0027be	0.0019554938
230	0x3afe6116	0.0019407596
231	0x3afa4434	0.0019093812
232	0x3afde831	0.0019371567
233	0x3b0011e2	0.001954191
234	0x3afec432	0.0019437133
235	0x3affe7d8	0.0019524051
236	0x3affcf36	0.001951671
237	0x3b00e127	0.0019665451
238	0x3afe6c80	0.0019410998
239	0x3afa4fa7	0.0019097225
240	0x3afe2e06	0.0019392378
241	0x3afb6043	0.0019178469
242	0x3b00b726	0.0019640415
243	0x3afda2f4	0.0019350932
244	0x3b04e75b	0.00202795
245	0x3afe2c39	0.0019391841
246	0x3b02b68d	0.0019945235
247	0x3b080730	0.0020756237
248	0x3b04e158	0.0020275917
249	0x3affc4eb	0.0019513642
250	0x3afd9ef3	0.0019349739
251	0x3afc7dd5	0.0019263575
252	0x3b00272e	0.0019554603
253	0x3afff1b6	0.0019526992
254	0x3afe0900	0.0019381344
255	0x3b013c3b	0.0019719738

bn1d0.running_var f4 [739]
0	0x376f8f00	1.4278805e-05
1	0x3715fe1b	8.940256e-06
2	0x36f728d4	7.3659266e-06
3	0x36cdbd3e	6.131507e-06
4	0x37022734	7.7577315e-06
5	0x3691acf2	4.3414702e-06
6	0x3666055d	3.4275793e-06
7	0x35f70f03	1.8407303e-06
8	0x3600895e	1.9153445e-06
9	0x35d7f043	1.6088674e-06
10	0x3614e833	2.2188876e-06
11	0x360d6dcd	2.107455e-06
12	0x36024c0f	1.9415781e-06
13	0x35f88ef4	1.8519045e-06
14	0x35b216da	1.3268684e-06
15	0x35a6c104	1.2424139e-06
16	0x35b268c8	1.3292529e-06
17	0x358416fb	9.841455e-07
18	0x3544d317	7.3322866e-07
19	0x3584173d	9.84153e-07
20	0x355286c5	7.842721e-07
21	0x3501fe7c	4.842657e-07
22	0x3567500d	8.6170695e-07
23	0x3549c9e7	7.517214e-07
24	0x353d3c1d	7.0495463e-07
25	0x350d7803	5.2701233e-07
26	0x3534fb6b	6.7421087e-07
27	0x3534ac7e	6.7306235e-07
28	0x350dc554	5.2813743e-07
29	0x35032514	4.885526e-07
30	0x34f4a341	4.5567324e-07
31	0x3514b992	5.5404337e-07
32	0x34cd84c6	3.828083e-07
33	0x34d40a06	3.949537e-07
34	0x34e2e249	4.2260424e-07
35	0x351da556	5.8727653e-07
36	0x34e5ef63	4.282875e-07
37	0x34edf77a	4.4324753e-07
38	0x34cc2b09	3.8029273e-07
39	0x34fac3c9	4.670858e-07
40	0x34d7fa36	4.0228923e-07
41	0x34c09c92	3.5876707e-07
42	0x34d19579	3.903804e-07
43	0x34e1ee59	4.2082937e-07
44	0x34e5867a	4.2752418e-07
45	0x3509b673	5.1301976e-07
46	0x34df6185	4.1607942e-07
47	0x34dec552	4.1494292e-07
48	0x34d19941	3.904079e-07
49	0x34c80ffb	3.726453e-07
50	0x34dd39a0	4.1206386e-07
51	0x3515ad45	5.5758966e-07
52	0x350a8f9d	5.161799e-07
53	0x34f1747f	4.497451e-07
54	0x350830a8	5.073475e-07
55	0x352745bd	6.231383e-07
56	0x350fccf0	5.3569875e-07
57	0x355a9d6e	8.144042e-07
58	0x3595b97b	1.1155347e-06
59	0x35da7fe0	1.6279482e-06
60	0x3608bb0c	2.0374455e-06
61	0x35f29b82	1.8075664e-06
62	0x35ee4403	1.7752176e-06
63	0x360e8e6f	2.1242556e-06
64	0x3532da5b	6.6627916e-07
65	0x34fd2356	4.7150633e-07
66	0x34fa336e	4.660355e-07
67	0x34b7ccc2	3.4235387e-07
68	0x34b39a0a	3.3453426e-07
69	0x34898830	2.5617328e-07
70	0x349d616e	2.9314418e-07
71	0x34bbdca3	3.4992e-07
72	0x34b45472	3.3589055e-07
73	0x34b5d49b	3.3868568e-07
74	0x34bc6d6f	3.5097352e-07
75	0x34a27509	3.0260006e-07
76	0x348a55b3	2.5766857e-07
77	0x346c41d4	2.2003161e-07
78	0x349c2b3e	2.9088727e-07
79	0x348f75f7	2.6721656e-07
80	0x349f817e	2.9710276e-07
81	0x347f934a	2.3802309e-07
82	0x34a63455	3.0957986e-07
83	0x34c8d78b	3.740973e-07
84	0x34811f45	2.4050874e-07
85	0x3483ca2d	2.4547754e-07
86	0x347a57eb	2.3315049e-07
87	0x343aca92	1.7396295e-07
88	0x34418a16	1.8024761e-07
89	0x344a70c9	1.8853747e-07
90	0x34602d51	2.0878112e-07
91	0x3449ae47	1.8782985e-07
92	0x33f75a0a	1.1518212e-07
93	0x342d0c99	1.6116464e-07
94	0x3441fd0d	1.8066585e-07
95	0x3441ff86	1.8067485e-07
96	0x34230f82	1.51862e-07
97	0x34214f29	1.5023092e-07
98	0x344283ff	1.8115678e-07
99	0x34356e1f	1.6897e-07
100	0x34142713	1.3797789e-07
101	0x344a3987	1.8833644e-07
102	0x34320925	1.6580869e-07
103	0x34407e64	1.7927374e-07
104	0x3495cdff	2.7903295e-07
105	0x348e1598	2.6465273e-07
106	0x34787932	2.314089e-07
107	0x34b38faf	3.3445892e-07
108	0x34ab39f5	3.18934e-07
109	0x34e1ccf9	4.2058653e-07
110	0x35447830	7.3190586e-07
111	0x34d3c8bb	3.9447863e-07
112	0x3512c6df	5.4678634e-07
113	0x350f7974	5.344839e-07
114	0x34e09cab	4.1837242e-07
115	0x34c5ce0c	3.6844028e-07
116	0x34e29b26	4.2208666e-07
117	0x34baee05	3.4818382e-07
118	0x34a3737a	3.0445136e-07
119	0x34902661	2.6850014e-07
120	0x34dec99f	4.149742e-07
121	0x34849aca	2.469954e-07
122	0x347387a2	2.2680481e-07
123	0x34981432	2.83269e-07
124	0x34e6554f	4.290291e-07
125	0x3521269d	6.0033364e-07
126	0x354bc4cd	7.5909776e-07
127	0x3586b764	1.0037152e-06
128	0x35ba348b	1.3873372e-06
129	0x36432553	2.907899e-06
130	0x35f99001	1.8593856e-06
131	0x35fd8d30	1.889106e-06
132	0x35ddb9b4	1.651983e-06
133	0x35b5f5e0	1.355711e-06
134	0x359f2391	1.1856774e-06
135	0x3562225d	8.4241566e-07
136	0x35257ead	6.165163e-07
137	0x34fbb89f	4.6886723e-07
138	0x349d8fbd	2.9348112e-07
139	0x34d4c6e8	3.96328e-07
140	0x342381b5	1.5227745e-07
141	0x3479bd87	2.3258882e-07
142	0x342963a4	1.57756e-07
143	0x342a4af6	1.5859754e-07
144	0x34340236	1.676461e-07
145	0x33f62f4d	1.14638716e-07
146	0x340f6f21	1.3358341e-07
147	0x33f6adf7	1.1486912e-07
148	0x33e6a330	1.0739893e-07
149	0x3400f03e	1.2008329e-07
150	0x33d7e8ff	1.00540994e-07
151	0x34172a6f	1.4078408e-07
152	0x343f7117	1.7829403e-07
153	0x340e0551	1.3226715e-07
154	0x3436b579	1.701609e-07
155	0x3440dead	1.7962402e-07
156	0x3424639a	1.5309925e-07
157	0x342d56fc	1.6143525e-07
158	0x349a6c5b	2.8763574e-07
159	0x34284fcb	1.5675248e-07
160	0x34523152	1.9575717e-07
161	0x342f4016	1.632146e-07
162	0x345bb8d9	2.0463212e-07
163	0x3454a26b	1.9803126e-07
164	0x347dfa28	2.3653467e-07
165	0x3439cae2	1.7303276e-07
166	0x348b1369	2.590489e-07
167	0x348dec93	2.6435427e-07
168	0x344b6a43	1.8944506e-07
169	0x3476551f	2.2941502e-07
170	0x343d6975	1.7640362e-07
171	0x345cc392	2.0560245e-07
172	0x34832f0b	2.443488e-07
173	0x3478e643	2.3180569e-07
174	0x345c5309	2.0519305e-07
175	0x348d653a	2.633695e-07
176	0x347e8f68	2.3707764e-07
177	0x34828f07	2.4318453e-07
178	0x346c3321	2.1997813e-07
179	0x348c554f	2.6139102e-07
180	0x3473d8d4	2.271002e-07
181	0x3493288a	2.741038e-07
182	0x3484b541	2.4718796e-07
183	0x347fcb5a	2.3822705e-07
184	0x348ceda3	2.6249936e-07
185	0x34b92d3d	3.449185e-07
186	0x34a69e12	3.103492e-07
187	0x34970e17	2.8136193e-07
188	0x34a16eea	3.0069288e-07
189	0x34bb1af9	3.485109e-07
190	0x34e32df1	4.2315472e-07
191	0x34e45329	4.2528816e-07
192	0x34b8a3ee	3.4391945e-07
193	0x34c541e9	3.6742065e-07
194	0x34d62154	3.9884856e-07
195	0x34eb5a87	4.3838028e-07
196	0x35046339	4.931822e-07
197	0x34e0860b	4.182078e-07
198	0x3509e5fe	5.137116e-07
199	0x34cf831e	3.8652155e-07
200	0x352d27e1	6.4505554e-07
201	0x3521bbd8	6.025052e-07
202	0x35071a54	5.032973e-07
203	0x3512a1ce	5.4624695e-07
204	0x3524b296	6.135464e-07
205	0x354865d0	7.465396e-07
206	0x354b0302	7.562777e-07
207	0x358df4c1	1.0576551e-06
208	0x3557022a	8.009689e-07
209	0x356f4510	8.913494e-07
210	0x357e3307	9.469663e-07
211	0x3567afc9	8.6310007e-07
212	0x35971de9	1.1259082e-06
213	0x35a04535	1.1941071e-06
214	0x3641e0cf	2.8890097e-06
215	0x367530bf	3.653622e-06
216	0x36dc88dd	6.572444e-06
217	0x37228fcb	9.689432e-06
218	0x3747a3d8	1.1899472e-05
219	0x375a1514	1.299872e-05
220	0x374d0e5c	1.22222955e-05
221	0x3783bd81	1.5704662e-05
222	0x3770c523	1.4351014e-05
223	0x379d4c7a	1.875147e-05
224	0x37d10266	2.4915858e-05
225	0x381eabab	3.7830014e-05
226	0x38630d32	5.4133307e-05
227	0x2f26fdc6	1.518777e-10
228	0x2e858912	6.072488e-11
229	0x2f87c23e	2.4694374e-10
230	0x2f33d1f7	1.635455e-10
231	0x2c88b5df	3.8855442e-12
232	0x2e7d8d14	5.7650842e-11
233	0x2f58ef84	1.9730179e-10
234	0x2f112dac	1.3203899e-10
235	0x2f835939	2.3892158e-10
236	0x2fcaa77c	3.686259e-10
237	0x2eece4f6	1.0772709e-10
238	0x2f2dd3d4	1.5809515e-10
239	0x2d45f190	1.1251791e-11
240	0x2ee5648c	1.0431575e-10
241	0x2e1ee6a1	3.612988e-11
242	0x2f2406d3	1.4918138e-10
243	0x2f1ef545	1.4457154e-10
244	0x2fe94a8d	4.2435425e-10
245	0x2ee81f50	1.0555701e-10
246	0x2fd7c023	3.9244794e-10
247	0x3005b9fc	4.864942e-10
248	0x3000167c	4.659808e-10
249	0x2f89ac5a	2.5042618e-10
250	0x2e93bc39	6.718221e-11
251	0x2eeb93aa	1.0712793e-10
252	0x2f156b25	1.3589536e-10
253	0x2e79d883	5.6808346e-11
254	0x2ee491f9	1.03941696e-10
255	0x2f70ea12	2.1911031e-10

bn1d1.weight f4 [512]
0	0x3f800000	1.0
1	0x3f7fbe17	0.9989943
2	0x3f800000	1.0
3	0x3f7e0ed9	0.99241406
4	0x3f800000	1.0
5	0x3f7fef2f	0.9997434
6	0x3f800000	1.0
7	0x3f8015a0	1.00066
8	0x3f800000	1.0
9	0x3f8022e7	1.0010651
10	0x3f800000	1.0
11	0x3f8086b0	1.0041103
12	0x3f800000	1.0
13	0x3f80edec	1.0072608
14	0x3f800000	1.0
15	0x3f8095c7	1.0045708
16	0x3f800000	1.0
17	0x3f80009f	1.000019
18	0x3f800000	1.0
19	0x3f7ff247	0.9997906
20	0x3f800000	1.0
21	0x3f8140dd	1.009792
22	0x3f800000	1.0
23	0x3f810836	1.0080631
24	0x3f800000	1.0
25	0x3f80a0f9	1.0049125
26	0x3f800000	1.0
27	0x3f8152a9	1.0103351
28	0x3f800000	1.0
29	0x3f7fd91d	0.99940664
30	0x3f800000	1.0
31	0x3f7fee2b	0.9997279
32	0x3f800000	1.0
33	0x3f825c2a	1.0184376
34	0x3f800000	1.0
35	0x3f828edf	1.0199851
36	0x3f800000	1.0
37	0x3f8000c7	1.0000237
38	0x3f800000	1.0
39	0x3f7ffefb	0.99998444
40	0x3f800000	1.0
41	0x3f7fc930	0.9991636
42	0x3f800000	1.0
43	0x3f7fca78	0.9991832
44	0x3f800000	1.0
45	0x3f7fe9e0	0.9996624
46	0x3f800000	1.0
47	0x3f7fea3b	0.9996678
48	0x3f800000	1.0
49	0x3f7ff1af	0.99978155
50	0x3f800000	1.0
51	0x3f80015f	1.0000418
52	0x3f800000	1.0
53	0x3f8158aa	1.0105183
54	0x3f800000	1.0
55	0x3f7e91b4	0.99441075
56	0x3f800000	1.0
57	0x3f8002d6	1.0000865
58	0x3f800000	1.0
59	0x3f7ff9e1	0.9999066
60	0x3f800000	1.0
61	0x3f80eba5	1.0071913
62	0x3f800000	1.0
63	0x3f7ec9fa	0.9952694
64	0x3f800000	1.0
65	0x3f89ef2b	1.0776113
66	0x3f800000	1.0
67	0x3f88bd0c	1.0682693
68	0x3f800000	1.0
69	0x3f8019e7	1.0007905
70	0x3f800000	1.0
71	0x3f7fa064	0.9985411
72	0x3f800000	1.0
73	0x3f7f8a6e	0.998206
74	0x3f800000	1.0
75	0x3f7ce0f2	0.9878074
76	0x3f800000	1.0
77	0x3f80053b	1.0001596
78	0x3f800000	1.0
79	0x3f7ff715	0.9998639
80	0x3f800000	1.0
81	0x3f7f9b63	0.99846476
82	0x3f800000	1.0
83	0x3f801ed8	1.0009413
84	0x3f800000	1.0
85	0x3f79b9fe	0.97549427
86	0x3f800000	1.0
87	0x3f7a3837	0.9774203
88	0x3f800000	1.0
89	0x3f87f1e3	1.0620693
90	0x3f800000	1.0
91	0x3f8543db	1.0411333
92	0x3f800000	1.0
93	0x3f7fd3a4	0.9993231
94	0x3f800000	1.0
95	0x3f80167e	1.0006864
96	0x3f800000	1.0
97	0x3f80ac13	1.0052513
98	0x3f800000	1.0
99	0x3f7ff83a	0.9998814
100	0x3f800000	1.0
101	0x3f7fe6d4	0.9996159
102	0x3f800000	1.0
103	0x3f7fe202	0.99954236
104	0x3f800000	1.0
105	0x3f800e61	1.0004388
106	0x3f800000	1.0
107	0x3f80041b	1.0001253
108	0x3f800000	1.0
109	0x3f800fc7	1.0004815
110	0x3f800000	1.0
111	0x3f7ffc03	0.99993914
112	0x3f800000	1.0
113	0x3f7ffb9c	0.999933
114	0x3f800000	1.0
115	0x3f800d62	1.0004084
116	0x3f800000	1.0
117	0x3f806d79	1.0033408
118	0x3f800000	1.0
119	0x3f80170a	1.0007031
120	0x3f800000	1.0
121	0x3f8188ab	1.0119833
122	0x3f800000	1.0
123	0x3f80b900	1.0056458
124	0x3f800000	1.0
125	0x3f7ff961	0.99989897
126	0x3f800000	1.0
127	0x3f80064a	1.0001919
128	0x3f800000	1.0
129	0x3f862ae3	1.0481838
130	0x3f800000	1.0
131	0x3f869a8b	1.0515913
132	0x3f800000	1.0
133	0x3f7fe9e2	0.9996625
134	0x3f800000	1.0
135	0x3f7fec0c	0.99969554
136	0x3f800000	1.0
137	0x3f8031b1	1.0015165
138	0x3f800000	1.0
139	0x3f80204b	1.0009855
140	0x3f800000	1.0
141	0x3f77705e	0.96655834
142	0x3f800000	1.0
143	0x3f75a84a	0.95959914
144	0x3f800000	1.0
145	0x3f83be02	1.0292361
146	0x3f800000	1.0
147	0x3f81fa93	1.0154594
148	0x3f800000	1.0
149	0x3f7ff083	0.99976367
150	0x3f800000	1.0
151	0x3f7fe371	0.99956423
152	0x3f800000	1.0
153	0x3f800260	1.0000725
154	0x3f800000	1.0
155	0x3f7ffbfb	0.99993867
156	0x3f800000	1.0
157	0x3f80959b	1.0045656
158	0x3f800000	1.0
159	0x3f804c86	1.0023353
160	0x3f800000	1.0
161	0x3f7fc9d4	0.9991734
162	0x3f800000	1.0
163	0x3f803319	1.0015594
164	0x3f800000	1.0
165	0x3f8004fc	1.0001521
166	0x3f800000	1.0
167	0x3f7fe617	0.99960464
168	0x3f800000	1.0
169	0x3f800c0b	1.0003675
170	0x3f800000	1.0
171	0x3f8001df	1.0000571
172	0x3f800000	1.0
173	0x3f8ce163	1.1006283
174	0x3f800000	1.0
175	0x3f8d3888	1.1032877
176	0x3f800000	1.0
177	0x3f801768	1.0007143
178	0x3f800000	1.0
179	0x3f8017b5	1.0007235
180	0x3f800000	1.0
181	0x3f7fe95b	0.9996545
182	0x3f800000	1.0
183	0x3f80029c	1.0000796
184	0x3f800000	1.0
185	0x3f80b814	1.0056176
186	0x3f800000	1.0
187	0x3f7e0fae	0.99242675
188	0x3f800000	1.0
189	0x3f7fab31	0.9987059
190	0x3f800000	1.0
191	0x3f800ab5	1.0003268
192	0x3f800000	1.0
193	0x3f7ffcc2	0.9999505
194	0x3f800000	1.0
195	0x3f80003c	1.0000072
196	0x3f800000	1.0
197	0x3f857386	1.042588
198	0x3f800000	1.0
199	0x3f8347db	1.0256304
200	0x3f800000	1.0
201	0x3f7fe270	0.9995489
202	0x3f800000	1.0
203	0x3f7fe119	0.99952847
204	0x3f800000	1.0
205	0x3f7ff89d	0.9998873
206	0x3f800000	1.0
207	0x3f8003d4	1.0001168
208	0x3f800000	1.0
209	0x3f778b13	0.96696585
210	0x3f800000	1.0
211	0x3f770ca1	0.96503645
212	0x3f800000	1.0
213	0x3f7f6bce	0.9977387
214	0x3f800000	1.0
215	0x3f7eafc0	0.99486923
216	0x3f800000	1.0
217	0x3f80008a	1.0000165
218	0x3f800000	1.0
219	0x3f800dfd	1.0004269
220	0x3f800000	1.0
221	0x3f80063a	1.00019
222	0x3f800000	1.0
223	0x3f817d33	1.0116333
224	0x3f800000	1.0
225	0x3f7cdc66	0.987738
226	0x3f800000	1.0
227	0x3f7f348d	0.9968956
228	0x3f800000	1.0
229	0x3f7ffe7c	0.9999769
230	0x3f800000	1.0
231	0x3f7fe7c2	0.9996301
232	0x3f800000	1.0
233	0x3f8593d1	1.0435735
234	0x3f800000	1.0
235	0x3f87035e	1.0547903
236	0x3f800000	1.0
237	0x3f816ba1	1.0110971
238	0x3f800000	1.0
239	0x3f80f0f8	1.0073538
240	0x3f800000	1.0
241	0x3f79f552	0.97639954
242	0x3f800000	1.0
243	0x3f7c42b2	0.9853927
244	0x3f800000	1.0
245	0x3f8013ce	1.0006044
246	0x3f800000	1.0
247	0x3f7fd07d	0.999275
248	0x3f800000	1.0
249	0x3f7f4f82	0.99730694
250	0x3f800000	1.0
251	0x3f807daa	1.003835
252	0x3f800000	1.0
253	0x3f80beb3	1.0058197
254	0x3f800000	1.0
255	0x3f80c7af	1.0060939

bn1d1.bias f4 [512]
0	0x3c011f67	0.007881022
1	0x3b560f5b	0.0032662961
2	0xbbda3520	-0.006659165
3	0x3b728995	0.0037008275
4	0x3bd74416	0.006569396
5	0x3aba395b	0.0014207767
6	0x3bebaa44	0.007191928
7	0x3c94221f	0.018082676
8	0xbc186d20	-0.009303361
9	0x3bd56f1b	0.006513489
10	0xbabf511d	-0.0014596317
11	0x3c4dd8ae	0.0125638675
12	0x3bd9606f	0.0066338102
13	0xbcda91e5	-0.026680896
14	0x3c2eae7b	0.010661717
15	0xbc4c4714	-0.012468118
16	0xbb9096dc	-0.004412515
17	0xbbf4435a	-0.007454318
18	0x3bd13b38	0.0063852333
19	0x3bafe787	0.0053681764
20	0x3838b490	4.403718e-05
21	0xbd0739ef	-0.033014234
22	0xbb16d35b	-0.0023014161
23	0xbca27787	-0.019832386
24	0x3c99f20d	0.018792177
25	0xbc9531be	-0.018212195
26	0xbcfeb451	-0.031091841
27	0x3c6e3c3b	0.014540727
28	0x3b2b8ddd	0.0026177086
29	0x3c83d201	0.016091349
30	0xbb99a266	-0.004688549
31	0x3c1c201f	0.009529143
32	0xbc057727	-0.008146084
33	0x3cfa1a3b	0.030530086
34	0x3ba0d5ab	0.0049082837
35	0x3d1ba633	0.038000297
36	0x3a5ad1bd	0.00083472935
37	0xbbd7d5c1	-0.0065867607
38	0xbc3b1f1e	-0.011420993
39	0x3b9785f5	0.004624123
40	0xbad3bcf7	-0.0016154338
41	0xbc27b741	-0.010236562
42	0x3c9d1a8a	0.019177694
43	0xbc25012c	-0.01007108
44	0xbaf9b15f	-0.0019050053
45	0xbb536991	-0.0032258967
46	0x3b9f7071	0.004865699
47	0x3c247321	0.0100372145
48	0x3a2b11ba	0.0006525774
49	0xbbf76b0a	-0.007550602
50	0x3c8fa98a	0.017536897
51	0xbc0390f0	-0.008030161
52	0x3c54d66c	0.012990575
53	0x3c323813	0.010877627
54	0xbbb070cf	-0.0053845416
55	0x3b11b817	0.002223497
56	0x3ceb7a01	0.0287447
57	0x3b58495d	0.0033002712
58	0x3c1ecb82	0.009692075
59	0xbc070862	-0.008241745
60	0xbc1115b0	-0.008855268
61	0xbd27025f	-0.040773746
62	0x3a311e98	0.0006756573
63	0xbd8347b9	-0.064101644
64	0x3c7aedf8	0.015315525
65	0x3bfda530	0.007740639
66	0x3c91b4da	0.017786432
67	0xbb4d0d5f	-0.0031288487
68	0xbaa3063f	-0.0012437775
69	0x3c303b44	0.0107563175
70	0x3b7ba67f	0.00383988
71	0x3b261036	0.0025339252
72	0x3c85d7b3	0.016338205
73	0xbd0ee00e	-0.034881644
74	0xbc63335e	-0.013867227
75	0xbb4ba145	-0.0031071466
76	0x3b0ce97b	0.002150147
77	0xbb8790e7	-0.0041371468
78	0x397dbe72	0.00024198907
79	0xbb88d49d	-0.004175736
80	0xbad1fabd	-0.001602016
81	0xbcbafd9c	-0.022826008
82	0xbb517742	-0.0031961952
83	0x3c9351b5	0.017983297
84	0x3aa9b901	0.0012948812
85	0xbd6c9fad	-0.057769466
86	0x3b626622	0.003454574
87	0xbd0f5c97	-0.03500041
88	0xbba431bc	-0.0050108116
89	0xbb84d119	-0.0040532467
90	0x3b4f5ec5	0.003164218
91	0x38aa97c7	8.1345024e-05
92	0x3c3ff136	0.011715224
93	0xbc339abf	-0.010962187
94	0xbc4211b8	-0.011845045
95	0x3c9c4620	0.019076407
96	0xbb6ac25f	-0.003582142
97	0xbbec1237	-0.00720432
98	0xbc4c0fb9	-0.01245492
99	0x3bb7addc	0.0056054424
100	0x3bee3b5d	0.0072702602
101	0xbc8bddf3	-0.017073607
102	0xbc15a3da	-0.009133304
103	0xbb9c22db	-0.0047648973
104	0x3b4c2da8	0.0031155143
105	0xbae15c7f	-0.0017193704
106	0xb8829603	-6.226825e-05
107	0x3bb386a0	0.005478695
108	0xbc52e141	-0.0128710875
109	0xbbb3016a	-0.005462815
110	0x3c2456e0	0.010030478
111	0x3c0f7c1a	0.008757615
112	0xbc0d4df0	-0.008624539
113	0x3b5a1b2e	0.003328036
114	0xbc89760b	-0.01677992
115	0x3b6485e9	0.0034869856
116	0x3c3b3cdf	0.011428087
117	0xbd069325	-0.03285517
118	0x3cacfc6c	0.021116458
119	0xbca2d60a	-0.019877452
120	0xbc4d356c	-0.012524944
121	0xbce767e7	-0.028247787
122	0x3b067511	0.0020516554
123	0xbc73a878	-0.014871709
124	0x3cee8500	0.029116154
125	0x3b9e7849	0.0048361165
126	0x3caaf21a	0.020867396
127	0xbbeaa061	-0.007160232
128	0x3c3c5ba2	0.011496456
129	0xbc98ef93	-0.018668925
130	0x3bccc429	0.00624897
131	0xbc510e1f	-0.012759714
132	0xba15eabd	-0.00057188777
133	0xbc30fedf	-0.0108029535
134	0x3c816a7e	0.01579785
135	0xbbf64d77	-0.0075165587
136	0x3c6e2763	0.014535758
137	0xbb6d04d1	-0.00361662
138	0x3b8d7859	0.004317325
139	0xbbf187d5	-0.007370929
140	0x3c10cf58	0.008838497
141	0x3d51d290	0.0512262
142	0x3bec2694	0.0072067473
143	0x3d732f6d	0.0593714
144	0x3c6ac42c	0.014328998
145	0xbd9e632f	-0.077337615
146	0xbae9fe96	-0.0017852362
147	0xbda73cfe	-0.0816593
148	0xbbbb0544	-0.005707415
149	0xbc5c7c63	-0.0134573905
150	0xb959ea2c	-0.00020781968
151	0xbb5a2fcc	-0.003329265
152	0xbc4da3b6	-0.012551239
153	0x3c25f5b0	0.010129377
154	0xbc8f5945	-0.017498622
155	0xbc8d8dd7	-0.017279549
156	0xbb81ada7	-0.0039574686
157	0x3c089811	0.008337037
158	0x3cbec45c	0.02328699
159	0xbaecdd18	-0.0018071262
160	0x3c492a07	0.0122780865
161	0xbcbadb01	-0.022809507
162	0xbc35ae01	-0.011088849
163	0xbc6c0f2a	-0.014407912
164	0xba883517	-0.0010391799
165	0x3bc98df6	0.0061509563
166	0xbc500e25	-0.012698685
167	0x3c7e891f	0.015535622
168	0x3ad33d40	0.0016116276
169	0x3b702120	0.0036640838
170	0xbbf52ffa	-0.007482526
171	0xbc553f98	-0.01301565
172	0xbc7e2be8	-0.015513398
173	0xbd150521	-0.036381844
174	0xbc4b94f2	-0.012425648
175	0xbc7bd3c0	-0.015370309
176	0xbc3a65b3	-0.011376786
177	0xbb160c3c	-0.0022895476
178	0xbc92be2d	-0.017912949
179	0xbcb961a7	-0.022629572
180	0xbb118bd0	-0.002220858
181	0xbc2605c7	-0.010133213
182	0x3c2069ec	0.009790879
183	0x3b3a4d1c	0.0028427308
184	0xbafe7524	-0.0019413573
185	0xbd8008ad	-0.06251655
186	0xba1ed9af	-0.0006059659
187	0xbd256c68	-0.040386587
188	0x3b800ee6	0.003908026
189	0xbb264018	-0.0025367793
190	0x3b5d83ee	0.003380056
191	0xbc7068ff	-0.0146734705
192	0xbbdd5622	-0.0067546526
193	0x398831c7	0.00025977028
194	0x3b8c9146	0.004289779
195	0x3c0f1fc9	0.0087356055
196	0xbcfd8023	-0.03094489
197	0x3d8a10b5	0.06741468
198	0x3c669f42	0.014076056
199	0x3d28319f	0.041062947
200	0x3b102949	0.0021997264
201	0x3bb8f67d	0.005644618
202	0xbb1f80d2	-0.0024338257
203	0xbaf327ff	-0.0018551348
204	0x3c482792	0.012216466
205	0xbb04a045	-0.002023713
206	0xbc2e502b	-0.010639231
207	0xbb7a099e	-0.0038152705
208	0x3b23a9a4	0.002497294
209	0xbd3ab5c7	-0.045583513
210	0x3c9e103e	0.019294854
211	0xbd2d74c1	-0.042347673
212	0xba7c5bae	-0.00096266984
213	0xbbdc49bd	-0.0067226575
214	0x3c45acba	0.012065107
215	0xba81053c	-0.0009843479
216	0xbbfe50ea	-0.0077611106
217	0xbc61344b	-0.013745378
218	0x3a242e6c	0.0006263021
219	0xbb603e32	-0.0034216759
220	0x3c73d6ae	0.014882727
221	0xbcc1ced0	-0.023658186
222	0x3c955759	0.018230127
223	0xbcb8124e	-0.022469666
224	0xba535739	-0.00080620084
225	0xbd02c417	-0.031925287
226	0xbbc51b6f	-0.006015233
227	0xbc6fd936	-0.0146391895
228	0xbba82c45	-0.0051322305
229	0xbbf1a280	-0.007374108
230	0x3c8e33cb	0.017358681
231	0xbc4b628e	-0.012413634
232	0xba71f3b7	-0.0009229737
233	0x3d09ae9a	0.03361378
234	0x3b81346e	0.0039430177
235	0x3d179b48	0.037013322
236	0xba883ce5	-0.0010394125
237	0xbd8e4114	-0.069460064
238	0x39eed969	0.0004555688
239	0xbd3bdeaa	-0.045866646
240	0x3c56bdee	0.013106806
241	0xbde3ae33	-0.1111721
242	0x3bd6ea49	0.0065586907
243	0xbdd7e0d0	-0.105409265
244	0x3c968068	0.018371776
245	0x3c27bff2	0.010238634
246	0xbbcbff65	-0.0062255138
247	0xbb6dcc7c	-0.0036285212
248	0xb9b2a95a	-0.00034076982
249	0xbd83c846	-0.064346835
250	0xbc42306b	-0.011852364
251	0xbd8c3a9a	-0.06847115
252	0x3aeb2281	0.001793936
253	0x3c2beae8	0.010493018
254	0x3c14ba65	0.009077643
255	0xbb5b49cd	-0.0033460737

bn1d1.running_mean f4 [512]
0	0x00000000	0.0
1	0x3e4a8862	0.19778588
2	0x00000000	0.0
3	0x3e5a21b5	0.2130192
4	0x00000000	0.0
5	0x3d5220c2	0.05130077
6	0x00000000	0.0
7	0x3d652756	0.055945717
8	0x00000000	0.0
9	0x3e30fabe	0.1728315
10	0x00000000	0.0
11	0x3e3fa5e4	0.18715626
12	0x183235b8	2.3033082e-24
13	0x3d882ef0	0.066495776
14	0x00000004	6e-45
15	0x3d937324	0.07199696
16	0x00000004	6e-45
17	0x3cb05921	0.021526875
18	0x00000004	6e-45
19	0x3cc06f14	0.023490466
20	0x00000000	0.0
21	0x3f061454	0.5237477
22	0x00000000	0.0
23	0x3f0f9958	0.5609336
24	0x00000000	0.0
25	0x3e82b3f4	0.25527918
26	0x00000000	0.0
27	0x3e8e0979	0.27741602
28	0x1673eee8	1.9704769e-25
29	0x3bdf3270	0.0068114325
30	0x00000004	6e-45
31	0x3bf376ad	0.0074299187
32	0x00000004	6e-45
33	0x3efaeb68	0.49007726
34	0x00000004	6e-45
35	0x3f0576ae	0.52134216
36	0x00000004	6e-45
37	0x3cb99501	0.022654058
38	0x00000004	6e-45
39	0x3cca690a	0.02470829
40	0x00000000	0.0
41	0x3dd64612	0.104625836
42	0x00000000	0.0
43	0x3de8fc60	0.11376262
44	0x16fdf90e	4.103153e-25
45	0x3cce7b23	0.0252052
46	0x00000004	6e-45
47	0x3ce12850	0.027485043
48	0x00000004	6e-45
49	0x3c33cbc6	0.010973876
50	0x00000004	6e-45
51	0x3c442837	0.011972479
52	0x00000000	0.0
53	0x3e9226d6	0.28545254
54	0x00000000	0.0
55	0x3e9cce07	0.30625936
56	0x126d162c	7.4811343e-28
57	0x3c99e48d	0.01878574
58	0x00000004	6e-45
59	0x3ca7d70c	0.020488285
60	0x00000004	6e-45
61	0x3e99973f	0.29998204
62	0x00000004	6e-45
63	0x3ea543bc	0.3227824
64	0x00000004	6e-45
65	0x3eb2b99a	0.34907228
66	0x00000000	0.0
67	0x3ebf6081	0.37378314
68	0x00000004	6e-45
69	0x3d30aec4	0.04313542
70	0x00000004	6e-45
71	0x3d3fad91	0.046796385
72	0x00000004	6e-45
73	0x3e428d68	0.18999255
74	0x00000004	6e-45
75	0x3e52868f	0.20559143
76	0x00000004	6e-45
77	0x3cbed166	0.023293208
78	0x00000004	6e-45
79	0x3cd01235	0.025399307
80	0x00000000	0.0
81	0x3d15ae6c	0.036543295
82	0x00000000	0.0
83	0x3d23364e	0.03984671
84	0x00000000	0.0
85	0x3e92eaad	0.28694668
86	0x00000000	0.0
87	0x3e9e0c35	0.30868688
88	0x00000004	6e-45
89	0x3ee0e035	0.43921056
90	0x00000004	6e-45
91	0x3eef2315	0.46706453
92	0x00000000	0.0
93	0x3ce7f8dd	0.02831691
94	0x00000000	0.0
95	0x3cfd0a24	0.030888624
96	0x00000000	0.0
97	0x3e100451	0.14064147
98	0x00000000	0.0
99	0x3e1be5c9	0.15224375
100	0x00000004	6e-45
101	0x3ca159c6	0.019696128
102	0x00000004	6e-45
103	0x3cb01265	0.021493146
104	0x00000000	0.0
105	0x3da2dd1a	0.07952328
106	0x00000000	0.0
107	0x3db18968	0.08668786
108	0x00000000	0.0
109	0x3d6f210d	0.05838113
110	0x00000000	0.0
111	0x3d826d8e	0.06368552
112	0x00000004	6e-45
113	0x3cf4904a	0.029853959
114	0x00000004	6e-45
115	0x3d055a9b	0.03255711
116	0x13f99979	6.3007773e-27
117	0x3dd4f8d0	0.1039902
118	0x00000000	0.0
119	0x3de73913	0.11290183
120	0x00000004	6e-45
121	0x3e80d31b	0.2516106
122	0x00000004	6e-45
123	0x3e8a62cf	0.2702851
124	0x1285f63a	8.45418e-28
125	0x3c891ee1	0.016738357
126	0x00000004	6e-45
127	0x3c956fcb	0.018241784
128	0x14a439c1	1.6582548e-26
129	0x3e401f2c	0.18761891
130	0x00000004	6e-45
131	0x3e4ef102	0.20209125
132	0x00000000	0.0
133	0x3d0ac930	0.033883274
134	0x00000000	0.0
135	0x3d178dc2	0.037000425
136	0x00000000	0.0
137	0x3da088be	0.078385815
138	0x00000000	0.0
139	0x3daeb26c	0.08530125
140	0x00000000	0.0
141	0x3f1a2a58	0.6022086
142	0x00000000	0.0
143	0x3f2344a0	0.6377659
144	0x00000004	6e-45
145	0x3ed0ac7b	0.40756592
146	0x00000000	0.0
147	0x3ede316d	0.43397084
148	0x00000004	6e-45
149	0x3cd4495c	0.025913887
150	0x00000004	6e-45
151	0x3ce76b95	0.028249541
152	0x00000000	0.0
153	0x3d392a50	0.045206368
154	0x00000000	0.0
155	0x3d4a0137	0.049317565
156	0x00000004	6e-45
157	0x3e24f9a8	0.16110861
158	0x00000000	0.0
159	0x3e32b82c	0.17453068
160	0x00000004	6e-45
161	0x3dc8b99a	0.09801026
162	0x00000004	6e-45
163	0x3dda08c4	0.10646203
164	0x00000004	6e-45
165	0x3caec829	0.021335678
166	0x00000004	6e-45
167	0x3cbea5eb	0.023272475
168	0x00000000	0.0
169	0x3da5aa2e	0.080891
170	0x00000000	0.0
171	0x3db4a164	0.08819845
172	0x00000004	6e-45
173	0x3e0dcdea	0.13848081
174	0x00000004	6e-45
175	0x3e19b68b	0.15011041
176	0x00000004	6e-45
177	0x3d20524c	0.039140984
178	0x00000004	6e-45
179	0x3d2eb800	0.042655945
180	0x00000000	0.0
181	0x3d6d9fd3	0.05801375
182	0x00000000	0.0
183	0x3d81aced	0.06331811
184	0x1822b986	2.1031675e-24
185	0x3e228088	0.15869343
186	0x00000000	0.0
187	0x3e2fc900	0.17166519
188	0x00000000	0.0
189	0x3e102192	0.14075306
190	0x00000004	6e-45
191	0x3e1bd1bb	0.15216725
192	0x16834641	2.1208528e-25
193	0x3c64d3dc	0.013966527
194	0x00000004	6e-45
195	0x3c799624	0.01523355
196	0x00000004	6e-45
197	0x3eaad7a1	0.33367637
198	0x00000004	6e-45
199	0x3eb68c78	0.35654044
200	0x00000000	0.0
201	0x3d244cb0	0.040112197
202	0x00000000	0.0
203	0x3d334e8f	0.04377609
204	0x169abfed	2.5001164e-25
205	0x3c92281f	0.017841397
206	0x00000004	6e-45
207	0x3c9f4a47	0.019444598
208	0x00000000	0.0
209	0x3f0394bb	0.5139882
210	0x00000000	0.0
211	0x3f0c9a37	0.54922813
212	0x00000004	6e-45
213	0x3ded83bc	0.11597392
214	0x00000000	0.0
215	0x3e00a265	0.12561949
216	0x00000000	0.0
217	0x3d36d1d8	0.044633716
218	0x00000000	0.0
219	0x3d474dce	0.048658185
220	0x00000000	0.0
221	0x3de83b00	0.11339378
222	0x00000000	0.0
223	0x3dfb2656	0.122631714
224	0x00000000	0.0
225	0x3e8934aa	0.26797992
226	0x00000000	0.0
227	0x3e93f498	0.28897548
228	0x18321fcc	2.3022014e-24
229	0x3c817ec2	0.015807513
230	0x00000004	6e-45
231	0x3c8d3cd7	0.017240925
232	0x1826c4b2	2.1554303e-24
233	0x3e4a2c5b	0.19743483
234	0x00000004	6e-45
235	0x3e585e59	0.21129741
236	0x00000004	6e-45
237	0x3ea5f90f	0.3241658
238	0x00000004	6e-45
239	0x3eb0c26c	0.34523332
240	0x00000000	0.0
241	0x3ede5d9f	0.43430802
242	0x00000000	0.0
243	0x3eed9bfc	0.4640807
244	0x00000000	0.0
245	0x3d30c4a4	0.04315628
246	0x00000000	0.0
247	0x3d40d5eb	0.047079008
248	0x00000000	0.0
249	0x3e9b0a88	0.30281472
250	0x00000000	0.0
251	0x3ea63902	0.32465369
252	0x00000004	6e-45
253	0x3e2fa662	0.17153314
254	0x00000000	0.0
255	0x3e3e8276	0.18604454
